Final_Masterarbeit/Masterarbeit/CNN_window_size_66.pt (torch, 10191 bytes, 12 tensors)

weight f4 [8, 8, 3]
-0.2257758 -0.25080064 -0.4221216 0.08564016 -0.052533083 -0.27315176 -0.15311293 -0.02088382
0.1924043 -0.06745415 0.14250387 0.15844014 0.21742934 0.22405252 0.038725585 0.30989316
-0.7982883 0.42967793 -0.19859438 0.06305358 0.06399329 0.16005404 -0.03256854 0.3076358
0.47694564 0.35369763 -0.14427385 -0.049681317 -0.04094182 0.088310584 -0.07396698 0.1807337
0.06732208 0.017963933 0.18876949 -0.07765904 -0.15577981 -0.18957223 -0.14766274 -0.12685381
0.017251031 0.2471868 -0.41707456 -0.13738841 0.16984963 0.10630576 -0.14072163 -0.039364807
-0.35259748 -0.20727986 -0.2977024 0.42753914 0.42535955 0.7032133 -0.16334179 -0.10407885
0.01707157 -0.16079967 -0.053528797 0.19429316 0.62825876 0.4358986 0.18910609 0.12819147
0.07192727 -0.13297915 0.284362 -0.006050459 -0.16775247 0.45146874 0.27911553 1.0596881
-0.25494662 -0.058052067 0.026670108 -0.15082785 -0.015958322 -0.1318163 -0.04221728 -0.037713427
0.18559615 0.18767722 -0.20128909 0.20080355 0.1729072 0.24573986 -0.0084561985 0.63881296
0.8567953 0.14481798 -0.30028087 0.21966836 0.00625036 0.07610906 -0.008164302 0.3896847
0.7557983 0.48156294 -0.0278789 0.24878691 -0.32508337 -0.5853111 -0.098583125 -0.0072712796
0.13234873 0.053324677 0.06938549 0.08591892 -0.00096515234 -0.19971928 -0.1992365 -0.48546326
-0.18076496 -0.027597683 -0.24978632 0.029651232 0.070886634 -0.13278796 -0.13587771 -0.022123087
0.025683992 -0.07685921 -0.15871668 -0.13070366 -0.122592814 0.01704491 -0.09304441 -0.013369494
0.099603236 -0.07780734 0.082453825 -0.018520415 0.16720022 0.18118045 -0.14801094 -0.38235006
-0.20386052 -0.009716165 -0.22919968 0.11347311 0.12129641 0.16808106 0.10299071 -0.15092802
-0.25663152 -0.32353786 -0.096572734 -0.23136686 -0.018565828 -0.11074554 0.09528142 0.119298264
0.049658563 -0.17552568 -0.11999641 0.17919797 0.3063206 0.048250575 0.057989966 -0.28297848
-0.22486499 0.010315829 0.041801598 0.063937284 -0.23370934 0.07830346 0.13884144 0.32559884
-0.13538517 0.20287338 0.026190512 -0.23661809 -0.15664487 0.17375936 -0.1661821 -0.11599292
-0.09044287 -0.19012654 -0.0092903115 0.1852134 0.06028156 -0.072316274 0.07205562 -0.04172044
0.15324865 -0.06392378 -0.18354917 -0.1971447 -0.31755283 0.112875454 -0.13856438 -0.19249143
00000000: c531 67be f168 80be 5320 d8be 1c64 af3d
00000010: ee2c 57bd 8cda 8bbe a3c9 1cbe 8b14 abbc
00000020: a205 453e 6725 8abd 89ec 113e 223e 223e
00000030: cca5 5e3e 066e 653e b89e 1e3d 51aa 9e3e
00000040: 9f5c 4cbf bffe db3e 535c 4bbe 3c22 813d
00000050: ea0e 833d 35e5 233e 9766 05bd 7182 9d3e
00000060: 3832 f43e db17 b53e 86bc 13be a37e 4bbd
00000070: 9cb2 27bd 2edc b43d 007c 97bd 4112 393e
00000080: 29e0 893d 1929 933c ca4c 413e b40b 9fbd
00000090: be84 1fbe 391f 42be e734 17be f7e5 01be
000000a0: 0952 8d3c 891e 7d3e cc8a d5be 8caf 0cbe
000000b0: 10ed 2d3e d6b6 d93d 5519 10be fe3c 21bd
000000c0: a887 b4be 2c41 54be 736c 98be 69e6 da3e
000000d0: bac8 d93e c905 343f 1243 27be 4b27 d5bd
000000e0: add9 8b3c aba8 24be 0341 5bbd c9f4 463e
000000f0: 91d5 203f 1a2e df3e 07a5 413e a044 033e
00000100: 9b4e 933d b02b 08be e597 913e ee42 c6bb
00000110: 4ec7 2bbe e926 e73e 3be8 8e3e dca3 873f
00000120: 5d88 82be 01c8 6dbd 457b da3c 9e72 1abe
00000130: 07bb 82bc dafa 06be 07ec 2cbd 6579 1abd
00000140: eb0c 3e3e 752e 403e ba1e 4ebe 729f 4d3e
00000150: 960e 313e 3ba3 7b3e de8b 0abc 3f89 233f
00000160: f056 5b3f 2a4b 143e 6abe 99be bef0 603e
00000170: d2cf cc3b 11df 9b3d 91c3 05bc c184 c73e
00000180: ff7b 413f 6b8f f63e 4a62 e4bc ffc1 7e3e
00000190: 5471 a6be f3d6 15bf f3e5 c9bd ea43 eebb
000001a0: 6d86 073e fa6a 5a3d fb19 8e3d 42f6 af3d
000001b0: 4702 7dba 3683 4cbe a704 4cbe a48e f8be
000001c0: 731a 39be 8914 e2bc fcc7 7fbe 24e7 f23c
000001d0: 032d 913d 91f9 07be 8723 0bbe 7a3b b5bc
000001e0: 3c67 d23c 5d68 9dbd a086 22be 2ed7 05be
000001f0: f111 fbbd c4a1 8b3c 118e bebd b90b 5bbc
00000200: c8fc cb3d 7459 9fbd 8ddd a83d 20b8 97bc
00000210: 8936 2b3e 5e87 393e 2e90 17be 63c3 c3be
00000220: d0c0 50be 8d30 1fbc 52b3 6abe 9764 e83d
00000230: 416a f83d 711d 2c3e cbec d23d e08c 1abe
00000240: 3565 83be c1a6 a5be edc7 c5bd 6feb 6cbe
00000250: 5d17 98bc 8fce e2bd e822 c33d a652 f43d
00000260: c766 4b3d 01bd 33be aec0 f5bd ac7f 373e
00000270: 0ed6 9c3e 65a2 453d e386 6d3d 8ee2 90be
00000280: 0243 66be b903 293c 2738 2b3d 8df1 823d
00000290: 8051 6fbe 905d a03d 732c 0e3e e4b4 a63e
000002a0: 69a2 0abe 0abe 4f3e 7c8d d63c 034c 72be
000002b0: 8367 20be f9ed 313e a42b 2abe b28d edbd
000002c0: 1d3a b9bd 88b0 42be 6436 18bc 95a8 3d3e
000002d0: cce9 763d 8e1a 94bd e691 933d 0de3 2abd
000002e0: 37ed 1c3e 79ea 82bd 50f4 3bbe 4de0 49be
000002f0: 4996 a2be 3f2b e73d d2e3 0dbe 791c 45be

bias f4 [8]
-0.06666585 0.22171864 -0.36733708 -0.2995931 -0.16158417 -0.081309244 0.24069661 1.1383338
00000000: 1b88 88bd 360a 633e 9b13 bcbe 4464 99be
00000010: 5276 25be 7685 a6bd 2c79 763e ecb4 913f

weight f4 [8, 8, 3]
-0.14653553 -0.07936976 -0.16610202 0.36703974 0.114065245 -0.02402871 -0.25277343 -0.06316378
-0.2673494 0.25993982 0.038149524 -0.47365803 0.026960194 0.23398373 0.22238098 -0.05890332
0.22672789 -0.096536905 0.11415126 -0.10508148 -0.0066480986 0.030528128 0.31415623 0.04278475
-0.12549414 0.07249391 0.09621762 -0.088985175 -0.05423401 -0.15578313 -0.11470879 0.02189453
-0.14918068 -0.106340855 0.048825294 0.040378906 -0.030611888 0.07209726 -0.09656096 0.039522707
0.1582909 -0.16671562 -0.013463775 -0.1904465 0.02246672 -0.12790927 -0.15071835 0.17108029
0.12070897 -0.14653379 0.02374357 0.096398406 -0.01616568 -0.11360469 -0.11759056 0.0061025773
-0.26539144 -0.204595 0.027592475 0.10680935 -0.02313039 -0.022373047 0.020427814 0.08972184
0.03116434 -0.2462212 0.085607775 0.058889758 0.02492212 0.01883386 -0.18489662 -0.06390074
0.5142432 -0.1068917 -0.028803263 0.09518903 -0.094286315 -0.03365149 0.10254514 0.008503679
-0.3725552 -0.21810566 -0.5124184 0.12935027 0.063084245 -0.10946239 0.3753296 -0.20447823
0.32977974 -0.0282502 -0.012006644 0.25056338 -0.24526443 0.15347986 0.16260214 0.016291402
-0.55680686 -0.04614458 -0.04982353 -0.19540943 0.28397745 -0.11405084 -0.30705255 -0.23174001
-0.8542017 0.33086717 0.38541016 -0.009152144 0.08598614 -0.077442825 0.23030785 -0.11200906
-0.017378332 -0.08071111 -0.22156562 -0.2307418 -0.042158622 -0.17528725 0.017780546 0.011183565
0.16836956 0.060906846 0.03597605 0.030452114 -0.19654892 0.112279706 -0.32020727 0.0512566
-0.019387553 -0.30268928 -0.20822807 -0.111173786 -0.07508899 0.025391404 0.04561626 -0.17320503
-0.18221568 -0.103696465 -0.0717287 -0.00196134 -0.17757368 -0.10252617 -0.008977657 -0.13509552
-0.23541841 -0.15222688 -0.21105872 0.18644336 0.105060935 0.069525175 -0.20662902 -0.27744868
-0.068519235 -0.051127736 -0.2693243 0.04088886 0.41082668 0.05069231 0.2869013 0.009593646
-0.07815305 0.091427706 -0.2230988 0.14777811 -0.14475735 0.4450648 0.5504822 0.5991067
0.12248678 -0.07366324 0.13430758 -0.06549153 0.1190555 0.057585344 -0.12589774 -0.020458804
-0.13551863 -0.09281835 -0.042799875 -0.06287948 0.07511624 -0.15401658 -0.13726597 -0.14640926
0.12558956 0.015861958 -0.08435023 -0.18796293 -0.1427017 0.16521291 -0.1505256 0.10349643
00000000: 690d 16be 9d8c a2bd a616 2abe a2ec bb3e
00000010: 0a9b e93d dbd7 c4bc 856b 81be 035c 81bd
00000020: 05e2 88be d516 853e ad42 1c3d 4e83 f2be
00000030: a0db dc3c 6e99 6f3e d7b7 633e 9c44 71bd
00000040: 5b2b 683e 24b5 c5bd 23c8 e93d f634 d7bd
00000050: 4bd8 d9bb 2016 fa3c 16d9 a03e 103f 2f3d
00000060: 8981 00be b077 943d be0d c53d dc3d b6bd
00000070: 7b24 5ebd 9d85 1fbe 71ec eabd 285c b33c
00000080: d2c2 18be 3cc9 d9bd 08fd 473d 5a64 253d
00000090: c8c5 fabc baa7 933d c1c1 c5bd 90e2 213d
000000a0: 0217 223e 80b7 2abe 2a97 5cbc 6804 43be
000000b0: 200c b83c a6fa 02be e955 1abe ac2f 2f3e
000000c0: 4436 f73d f40c 16be e081 c23c 876c c53d
000000d0: e36d 84bc 93a9 e8bd 52d3 f0bd 21f8 c73b
000000e0: 63e1 87be 5a81 51be 9d09 e23c dcbe da3d
000000f0: f27b bdbc ae47 b7bc 3b58 a73c 16c0 b73d
00000100: 5c4c ff3c 6921 7cbe 2153 af3d 6336 713d
00000110: 7929 cc3c 7849 9a3c 8a55 3dbe 64de 82bd
00000120: 71a5 033f 09ea dabd d2f4 ebbc 77f2 c23d
00000130: 2f19 c1bd 25d6 09bd 3003 d23d 0453 0b3c
00000140: 8ebf bebe 1757 5fbe da2d 03bf 6674 043e
00000150: 5032 813d d12d e0bd 342b c03e be62 51be
00000160: e4d8 a83e f76c e7bc 84b7 44bc d849 803e
00000170: 9926 7bbe d329 1d3e 2d81 263e 8c75 853c
00000180: e58a 0ebf 1902 3dbd c213 4cbd 6919 48be
00000190: 7e65 913e 7d93 e9bd fe35 9dbe 414d 6dbe
000001a0: f6ac 5abf 6c67 a93e 7b54 c53e e0f2 15bc
000001b0: 8019 b03d 589a 9ebd d2d5 6b3e 0265 e5bd
000001c0: 015d 8ebc de4b a5bd 19e2 62be 9447 6cbe
000001d0: 85ae 2cbd 807e 33be 82a8 913c 453b 373c
000001e0: 1269 2c3e 7579 793d 9f5b 133d b676 f93c
000001f0: 1f44 49be e7f2 e53d 35f2 a3be 71f2 513d
00000200: a5d2 9ebc 17fa 9abe bd39 55be 15af e3bd
00000210: 42c8 99bd a201 d03c 1ed8 3a3d a95c 31be
00000220: bf96 3abe d05e d4bd 7fe6 92bd d389 00bb
00000230: e0d5 35be 3ef9 d1bd 0617 13bc 7b56 0abe
00000240: 8611 71be 5de1 1bbe c71f 58be 02eb 3e3e
00000250: 302a d73d 3763 8e3d 8f96 53be c10d 8ebe
00000260: d053 8cbd 516b 51bd e0e4 89be 147b 273d
00000270: e057 d23e bda2 4f3d bae4 923e ab2e 1d3c
00000280: b50e a0bd 733e bb3d 0374 64be 2553 173e
00000290: 453b 14be 89df e33e 67ec 0c3f 0f5f 193f
000002a0: 59da fa3d c1dc 96bd ed87 093e 6c20 86bd
000002b0: 5fd3 f33d 9cde 6b3d 56eb 00be 3999 a7bc
000002c0: 65c5 0abe 8c17 bebd ec4e 2fbd f5c6 80bd
000002d0: 8bd6 993d 86b6 1dbe 738f 0cbe 4fec 15be
000002e0: 8d9a 003e f0f0 813c d0bf acbd 5b79 40be
000002f0: 6520 12be 932d 293e 6223 1abe f0f5 d33d

bias f4 [8]
0.25226587 -0.22929743 -0.14055188 0.44118252 -0.05849721 -0.050881807 0.16275406 -0.20138234
00000000: fe28 813e f2cc 6abe d5ec 0fbe ade2 e13e
00000010: c59a 6fbd 7169 50bd 00a9 263e 2c37 4ebe

weight f4 [8, 8, 3]
0.06764798 -0.10999487 -0.17109478 0.074395455 0.10696585 0.07922269 -0.21232076 -0.14277688
0.11763184 -0.07462025 0.030977502 0.06479025 -0.030298492 0.017805541 -0.088172026 -0.15975462
0.07794859 0.07059738 -0.08360522 -0.17813362 -0.13165946 -0.19982527 0.08433904 -0.08199485
-0.033184297 -0.011856326 0.117739014 -0.017417708 -0.13362004 -0.12491872 0.14136375 -0.09597456
-0.035960134 -0.17470132 -0.116692744 -0.0828451 -0.2609443 -0.0926016 0.011967612 -0.08210052
0.07998618 0.07110848 -0.15217017 -0.16820766 -0.15907027 -0.32302803 -0.09556678 -0.10249268
0.1603918 -0.027279593 0.43658176 0.16973391 0.16581282 -0.18611632 0.101156436 0.21149494
0.01567901 -0.07481357 0.1331913 0.12921222 -0.21958674 -0.49280044 -0.28984252 -0.015069742
-0.026982022 0.028630588 -0.056626018 0.03680419 -0.23252004 0.08063983 -0.11404251 -0.15452881
-0.2587663 -0.024450745 0.09172132 -0.19350146 0.17617327 0.0047095423 0.097461484 0.18965742
0.16186742 -0.10286944 0.09943122 0.0029534537 0.032580584 -0.10202788 0.07962135 0.028002813
0.12479703 -0.13188492 -0.06650749 -0.11361903 -0.124501295 -0.12698227 -0.09747589 -0.18463689
0.06892058 -0.0041939197 -0.023293445 0.15534224 0.109092824 0.062171083 -0.15536144 0.21760371
-0.0941479 -0.12795234 0.50021243 0.35801014 -0.15428872 -0.7393704 0.048855893 -0.069263026
0.15576449 0.037697263 0.16061431 -0.015255146 -0.10190108 0.07226685 -0.118453175 -0.041670658
-0.07249801 0.12708971 -0.012449268 0.15441996 -0.15158607 0.19651096 -0.097168356 -0.035367634
-0.030821428 -0.29379568 0.23232193 -0.18604375 -0.14540169 -0.09223965 0.11435122 -0.15511383
-0.20667282 -0.23996928 0.44081673 0.18881112 0.38092998 0.12601052 0.14251146 0.0019500186
-0.016877435 -0.5675829 -0.5466438 -0.014592495 0.10601197 0.17673849 0.031062825 -0.20308596
0.014061597 -0.19777851 -0.64108586 -0.76751935 0.50921494 -0.2595335 -0.66380095 -0.25526088
-0.06983968 -0.18361561 -0.06512106 -0.16990161 -0.16508795 -0.10637274 -0.13159981 -0.24994703
-0.18303141 -0.19682045 -0.1279579 0.15843083 0.15904878 -0.054160427 -0.1500588 0.09584641
-0.042059712 0.017687215 -0.13777733 0.006922963 -0.093507715 -0.19543718 -0.03212882 -0.19057986
-0.08292476 -0.08751871 -0.07161786 -0.05191143 0.08055466 -0.07148218 -0.24850379 -0.016826924
00000000: 068b 8a3d fe44 e1bd 7833 2fbe a55c 983d
00000010: e910 db3d 813f a23d 9d6a 59be 1a34 12be
00000020: f6e8 f03d 80d2 98bd 88c4 fd3c c0b0 843d
00000030: 8b34 f8bc eddc 913c 8993 b4bd b796 23be
00000040: 83a3 9f3d 5c95 903d 3739 abbd a968 36be
00000050: bdd1 06be ff9e 4cbe f2b9 ac3d eaec a7bd
00000060: 42ec 07bd 0941 42bc 2721 f13d 95af 8ebc
00000070: b1d3 08be 63d5 ffbd a9c1 103e 4f8e c4bd
00000080: ef4a 13bd e7e4 32be 9bfc eebd b1aa a9bd
00000090: 7e9a 85be e8a5 bdbd ce13 443c 5124 a8bd
000000a0: cbcf a33d 53a1 913d 7fd2 1bbe a13e 2cbe
000000b0: 51e3 22be ee63 a5be 84b8 c3bd afe7 d1bd
000000c0: bf3d 243e 7479 dfbc a587 df3e bace 2d3e
000000d0: d6ca 293e 4795 3ebe 1b2b cf3d 2192 583e
000000e0: 4471 803c db37 99bd 4d63 083e 3550 043e
000000f0: 59db 60be 5750 fcbe 3d66 94be 14e7 76bc
00000100: 6709 ddbc b28a ea3c aff0 67bd febf 163d
00000110: bc19 6ebe 7f26 a53d 1f8f e9bd cd3c 1ebe
00000120: 047d 84be ee4c c8bc 63d8 bb3d 3f25 46be
00000130: c466 343e 8152 9a3b e399 c73d 8e35 423e
00000140: 93c0 253e 37ad d2bd 98a2 cb3d bb8e 413b
00000150: 3873 053d fef3 d0bd 8510 a33d 2866 e53c
00000160: 9695 ff3d d70c 07be 1435 88bd 18b1 e8bd
00000170: 89fa febd a407 02be 70a1 c7bd 7411 3dbe
00000180: 3c26 8d3d 266d 89bb e5d1 bebc 0912 1f3e
00000190: 0f6c df3d 1ba7 7e3d 1217 1fbe 82d3 5e3e
000001a0: 9dd0 c0bd f005 03be ec0d 003f 1b4d b73e
000001b0: ddfd 1dbe 6147 3dbf 1e1d 483d c6d9 8dbd
000001c0: ba80 1f3e 7268 1a3d 1478 243e b8f0 79bc
000001d0: 83b1 d0bd a400 943d 9497 f2bd daae 2abd
000001e0: d679 94bd ce23 023e 04f8 4bbc 4420 1e3e
000001f0: 6139 1bbe 2b3a 493e 3400 c7bd a7dd 10bd
00000200: 387d fcbc 636c 96be cde5 6d3e 4182 3ebe
00000210: 2ee4 14be 24e8 bcbd f930 ea3d 29d6 1ebe
00000220: 0aa2 53be 82ba 75be bbb2 e13e b457 413e
00000230: 4109 c33e e708 013e 86ee 113e c497 ff3a
00000240: 8c42 8abc 1d4d 11bf d9f0 0bbf 5c15 6fbc
00000250: ce1c d93d effa 343e 7777 fe3c c4f5 4fbe
00000260: 9d62 663c 7386 4abe 341e 24bf 267c 44bf
00000270: e95b 023f 93e1 84be dcee 29bf 8eb1 82be
00000280: 1b08 8fbd bb05 3cbe 315e 85bd b0fa 2dbe
00000290: d10c 29be f3d9 d9bd 1ac2 06be 1df2 7fbe
000002a0: 966c 3bbe 4d8b 49be 6507 03be b13b 223e
000002b0: afdd 223e 53d7 5dbd 04a9 19be 1f4b c43d
000002c0: ce46 2cbd c7e4 903c 8015 0dbe 06da e23b
000002d0: f980 bfbd af20 48be 8299 03bd 5e27 43be
000002e0: 75d4 a9bd 023d b3bd 62ac 92bd 14a1 54bd
000002f0: d7f9 a43d 4065 92bd c777 7ebe 9ed8 89bc

bias f4 [8]
-0.16043757 -0.004307762 -0.067745976 -0.21851589 0.37530968 -0.07684731 0.38344407 -0.053298302
00000000: bf49 24be 2028 8dbb 67be 8abd a1c2 5fbe
00000010: 9728 c03e 1f62 9dbd c852 c43e 524f 5abd

weight f4 [8, 8, 3]
0.08513018 -0.0024067578 0.16871196 -0.14596125 0.13295652 -0.16266772 -0.08230611 0.12867366
0.26573688 0.02156302 0.28495586 0.2158451 -0.22666132 -0.12895839 0.26276052 0.11323989
-0.15537965 0.11398823 -0.05562676 -0.094587624 0.08635719 0.17843248 0.17288929 -0.17559692
-0.04359567 -0.038793404 0.19441833 -0.06944774 -0.16710812 0.115811296 0.003448582 0.1466011
0.0045332336 0.041626405 0.04520833 0.040992107 -0.19838959 0.03886997 -0.18845478 -0.060257733
0.010738063 -0.12231573 -0.07998215 0.028472299 0.040638972 -0.19420682 -0.18790509 -0.19067805
0.01195431 0.19814207 -0.16645263 0.022914551 -0.113515034 -0.18890943 0.07810828 -0.013850263
0.0053288946 -0.030493788 0.06673988 0.14617427 -0.1961287 -0.34426373 -0.016398836 -0.039905027
-0.19798927 -0.18615517 0.035897464 -0.021165948 0.043146364 0.055840164 0.003046284 0.03524591
0.077333815 0.12292081 -0.115828246 -0.12495372 -0.18673716 -0.14945419 -0.21233423 -0.50844187
-0.28904286 -0.074397214 -0.06952876 -0.2570295 -0.10105834 -0.32809284 -0.14863285 -0.10829637
-0.055665653 -0.039525036 -0.24063678 -0.19683737 -0.45419174 0.17555226 0.12323742 0.033755746
-0.18984266 -0.08360476 -0.16090974 -0.0016286754 -0.23747484 -0.09644081 -0.16442348 0.0898277
-0.1311254 0.062073257 -0.015674895 -0.07844672 -0.20854759 -0.23994316 0.1126869 0.18157393
0.07572111 0.19690037 0.024467232 -0.042989384 -0.06574621 0.024540994 0.012807589 -0.080604054
-0.09391395 0.037847705 -0.007478674 -0.19295318 0.0632205 0.089173704 -0.057782717 -0.09231085
0.124086745 -0.08821032 -0.1427351 0.14284329 0.034234542 -0.08551419 -0.025765281 0.04720916
-0.091493055 -0.19712748 -0.17008786 -0.1002712 -0.12552072 -0.18356462 0.043174196 -0.045651145
-0.13260989 -0.052393455 -0.16572385 -0.042280663 -0.07341499 -0.22655882 -0.41485766 -0.23700768
-0.14657667 -0.22397234 -0.043212276 0.17927478 -0.06442186 -0.77842695 -0.03889598 0.07358602
-0.07770454 0.15194269 -0.19387282 -0.31979433 -0.5924346 -0.16438057 -0.11352628 0.05945082
-0.019637153 0.13721782 -0.14530307 0.38373205 0.2779352 0.28862423 0.21949479 0.2994443
0.034748286 -0.14308266 -0.13029203 0.11287187 -0.15785286 -0.036263693 0.15076287 -0.05456847
-0.13243777 0.093075804 -0.17301904 0.123395264 -0.16124126 -0.018132364 0.3111049 -0.021832302
00000000: bb58 ae3d b2ba 1dbb d4c2 2c3e de76 15be
00000010: c125 083e 5e92 26be 1b90 a8bd 07c3 033e
00000020: aa0e 883e eea4 b03c bce5 913e 7f06 5d3e
00000030: e819 68be ab0d 04be 8c88 863e 51ea e73d
00000040: d81b 1fbe a972 e93d e3d8 63bd 28b7 c1bd
00000050: 0adc b03d 01b7 363e e409 313e aecf 33be
00000060: 6091 32bd d5e5 1ebd 9915 473e 9e3a 8ebd
00000070: 641e 2bbe 792e ed3d 9b01 623b 991e 163e
00000080: 858b 943b 7380 2a3d 5f2c 393d 57e7 273d
00000090: a426 4bbe 1e36 1f3d 4afa 40be d0d0 76bd
000000a0: b3ee 2f3c ab80 fabd aecd a3bd bd3e e93c
000000b0: 0d75 263d 27de 46be 316a 40be 1b41 43be
000000c0: 03dc 433c c1e5 4a3e 8f72 2abe 4cb7 bb3c
000000d0: 927a e8bd 7971 41be 3cf7 9f3d 37ec 62bc
000000e0: 029e ae3b 1cce f9bc ebae 883d b5ae 153e
000000f0: f6d5 48be 5643 b0be da56 86bc 7473 23bd
00000100: b3bd 4abe 769f 3ebe 3809 133d 3664 adbc
00000110: 3eba 303d a8b8 643d 2aa4 473b 045e 103d
00000120: 3161 9e3d e8bd fb3d 5c37 edbd bce7 ffbd
00000130: 0738 3fbe 850a 19be 256e 59be 3f29 02bf
00000140: 6dfd 93be 915d 98bd 1865 8ebd 5f99 83be
00000150: adf7 cebd c9fb a7be 3633 18be 7dca ddbd
00000160: ab01 64bd 01e5 21bd 7d69 76be bc8f 49be
00000170: d28b e8be f9c3 333e e763 fc3d 7743 0a3d
00000180: 1d66 42be f938 abbd 86c5 24be 4779 d5ba
00000190: 9b2c 73be c282 c5bd a15e 28be 96f7 b73d
000001a0: bd45 06be 8740 7e3d a368 80bc ada8 a0bd
000001b0: 808d 55be a9b3 75be 64c8 e63d 84ee 393e
000001c0: ab13 9b3d 40a0 493e 816f c83c a315 30bd
000001d0: f3a5 86bd 320a c93c ecd6 513c bd13 a5bd
000001e0: f555 c0bd 3206 1b3d aa0f f5bb 8595 45be
000001f0: c079 813d b4a0 b63d 92ad 6cbd 790d bdbd
00000200: 3121 fe3d 9da7 b4bd 2629 12be 8345 123e
00000210: 8539 0c3d 1022 afbd b611 d3bc 645e 413d
00000220: b660 bbbd c9db 49be 832b 2ebe fd5a cdbd
00000230: 8188 00be 5df8 3bbe 6dd7 303d b2fc 3abd
00000240: e3ca 07be 859a 56bd 83b3 29be 7d2e 2dbd
00000250: 995a 96bd 09ff 67be 3968 d4be 24b2 72be
00000260: 3218 16be 0159 65be 5bff 30bd cf93 373e
00000270: 9cef 83bd fd46 47bf 6451 1fbd 44b4 963d
00000280: 8f23 9fbd dd96 1b3e 9986 46be 15bc a3be
00000290: cba9 17bf 6153 28be 7780 e8bd b482 733d
000002a0: 18de a0bc d482 0c3e 54ca 14be 8778 c43e
000002b0: 864d 8e3e 8ec6 933e 3ec3 603e c350 993e
000002c0: 3854 0e3d 4384 12be 466b 05be 5e29 e73d
000002d0: 2ea4 21be 3d89 14bd 9561 1a3e 3083 5fbd
000002e0: c49d 07be 879e be3d e72b 31be a8b6 fc3d
000002f0: 6e1c 25be 538a 94bc 2449 9f3e a8d9 b2bc

bias f4 [8]
-0.13095674 -0.09037795 -0.120546095 -0.002144103 -0.6364423 -0.060331363 0.53820336 -0.3204294
00000000: 8619 06be 1318 b9bd dfe0 f6bd 1484 0cbb
00000010: e2ed 22bf 051e 77bd b2c7 093f 530f a4be

weight f4 [8, 8, 3]
-0.30582547 -0.024451246 0.0429775 0.20389697 0.04442134 -0.00272293 0.01641712 0.08094327
-0.034025334 0.20851207 0.01085834 0.0070735468 -0.1751764 -0.12128022 0.0870779 0.1272247
0.10393548 0.14078386 0.24560101 0.40301162 0.35194185 -0.022800189 -0.030696366 0.09639
-0.2159455 0.10883032 0.1051901 -0.15668166 0.022320671 0.1155784 -0.036604017 0.09601126
0.12157993 0.1762677 -0.032914482 -0.12326921 -0.18200208 -0.17497262 -0.14990816 0.046022203
0.1713229 -0.082229406 -0.17725976 0.04212344 -0.009973814 0.13517123 0.16645223 0.11759075
0.053976443 0.09194582 -0.08483389 -0.062602945 -0.11183734 0.004455192 0.14165784 0.044518992
0.310647 -0.034390803 -0.17337573 0.049451634 0.10845086 0.01589588 0.1322644 -0.122293174
-0.105395965 -0.20331514 0.11497512 -0.19956867 0.06740738 0.15777338 0.3207431 0.3281139
0.11296005 -0.022257691 0.052979417 -0.16004014 -0.1564967 0.18210623 0.055914402 0.14390106
0.04649894 -0.10047997 0.08970631 0.02491148 -0.034940626 -0.0007897728 0.024552688 -0.051519044
0.15706679 -0.062389 0.20990328 0.21877192 0.1709463 0.07555111 0.113024734 -0.10663906
-0.055206083 -0.19329102 -0.01284945 -0.24048302 0.022791455 0.103994414 -0.20073573 0.11807008
-0.17721511 -0.105779596 0.14114854 0.17811821 -0.058099397 -0.07216209 0.1605247 0.02829857
-0.10457137 -0.057218388 -0.07255106 0.08943334 0.033270855 -0.027127918 -0.08514446 -0.012549593
-0.08493341 0.11219198 -0.0053113946 -0.06864167 -0.15603185 0.080424234 0.16771586 0.042339496
0.044495285 -0.14965536 0.04652817 -0.1649171 -0.06026061 -0.0065769753 -0.19318525 -0.13328966
-0.002738633 -0.019387683 -0.23697376 -0.09038771 -0.12616068 -0.20126101 0.047816094 -0.044381935
-0.07773581 0.2480427 0.17538114 -0.14665583 -0.10392863 0.115809955 0.24820861 0.06796706
-0.06510893 0.15682423 0.43524748 0.33959094 -0.071963914 0.0021761553 0.052736003 -0.009488054
-0.19823427 -0.12956166 0.3185211 0.36232573 0.19019613 0.32727548 0.3080374 0.09436946
-0.0904306 0.18952624 -0.095779054 0.06862495 -0.11491707 0.14276573 -0.20464525 0.109182395
0.14353052 -0.1056775 0.05333171 -0.08830144 0.00913109 0.12152393 0.15847361 0.0729376
-0.09625183 0.11196409 -0.020312492 -0.13251205 0.17059152 -0.1125085 -0.12491223 0.11044354
00000000: 2895 9cbe fb4d c8bc 2d09 303d 5eca 503e
00000010: 27f3 353d 2f73 32bb 327d 863c 96c5 a53d
00000020: 265e 0bbd 3084 553e 2ee7 313c 36c9 e73b
00000030: 7161 33be c461 f8bd e655 b23d 3147 023e
00000040: 20dc d43d a529 103e d57e 7b3e 8a57 ce3e
00000050: b931 b43e 76c7 babc f276 fbbc 1f68 c53d
00000060: d120 5dbe 6ee2 de3d e86d d73d 2871 20be
00000070: d7d9 b63c 5eb4 ec3d 18ee 15bd 8da1 c43d
00000080: e6fe f83d 857f 343e 56d1 06bd 9174 fcbd
00000090: c15e 3abe 062c 33be 8681 19be c781 3c3d
000000a0: 456f 2f3e e467 a8bd 9583 35be a189 2c3d
000000b0: 3569 23bc 546a 0a3e 7472 2a3e 6bd3 f03d
000000c0: 6716 5d3d 174e bc3d 64bd adbd f935 80bd
000000d0: fa0a e5bd dcfc 913b c10e 113e 8c59 363d
000000e0: 200d 9f3e 5fdd 0cbd 6889 31be cc8d 4a3d
000000f0: 7c1b de3d 1438 823c 5270 073e d874 fabd
00000100: d7d9 d7bd d831 50be 1378 eb3d bb5b 4cbe
00000110: e10c 8a3d 588f 213e 7138 a43e 8cfe a73e
00000120: 9957 e73d c355 b6bc f200 593d 90e1 23be
00000130: ac40 20be 0e7a 3a3e 8006 653d cd5a 133e
00000140: ac75 3e3d 71c8 cdbd f1b7 b73d 2913 cc3c
00000150: e71d 0fbd c108 4fba b822 c93c a205 53bd
00000160: 1ed6 203e 9c8b 7fbd e3f0 563e bf05 603e
00000170: 8c0c 2f3e 8aba 9a3d 8379 e73d 9465 dabd
00000180: c61f 62bd 15ee 45be 8086 52bc 2e41 76be
00000190: 25b5 ba3c 06fb d43d ab8d 4dbe bace f13d
000001a0: e177 35be f9a2 d8bd 3e89 103e 9f64 363e
000001b0: a2f9 6dbd b8c9 93bd 9660 243e 67d2 e73c
000001c0: 8429 d6bd d45d 6abd a695 94bd d428 b73d
000001d0: 0547 083d 5e3b debc 3860 aebd cf9c 4dbc
000001e0: 91f1 adbd e9c4 e53d 350b aebb 0194 8cbd
000001f0: d0c6 1fbe 76b5 a43d b5bd 2b3e 2e6c 2d3d
00000200: b040 363d 413f 19be 5394 3e3d 07e0 28be
00000210: d4d3 76bd ab83 d7bb 5bd2 45be 167d 08be
00000220: a37a 33bb ebd2 9ebc 40a9 72be 311d b9bd
00000230: 4430 01be 5e17 4ebe cfda 433d d5c9 35bd
00000240: f433 9fbd e8fe 7d3e 1d97 333e f22c 16be
00000250: 89d8 d4bd c52d ed3d 662a 7e3e 5032 8b3d
00000260: d557 85bd 8896 203e c2d8 de3e ddde ad3e
00000270: d161 93bd d49d 0e3b b501 583d c873 1bbc
00000280: edfd 4abe d0ab 04be 3315 a33e c282 b93e
00000290: c6c2 423e a790 a73e 14b7 9d3e c744 c13d
000002a0: ae33 b9bd 2b13 423e cf27 c4bd 3d8b 8c3d
000002b0: a459 ebbd 2e31 123e 868e 51be 059b df3d
000002c0: aaf9 123e 726d d8bd 5a72 5a3d 63d7 b4bd
000002d0: 919a 153c 8ae1 f83d e846 223e 4f60 953d
000002e0: ae1f c5bd 6e4d e53d 6266 a6bc 3db1 07be
000002f0: 8baf 2e3e db6a e6bd fcd1 ffbd 3930 e23d

bias f4 [8]
-0.42602235 -0.056281663 -0.12271173 -0.48640522 -0.09792664 -0.041105743 -0.6842872 -0.086485066
00000000: 9a1f dabe 9a87 66bd 4a50 fbbd 1b0a f9be
00000010: c38d c8bd 7f5e 28bd 722d 2fbf 151f b1bd

weight f4 [8, 24, 1]
-0.17394127 0.5690877 -0.001626445 0.46696585 -0.3571154 -0.014693996 0.46137074 0.053521488
-0.05584795 -0.07124239 0.048524868 -0.0699066 0.12939319 -0.06499881 -0.46381798 -0.23661895
-0.23383357 -0.115173325 -0.35364 0.06893107 -0.02110241 0.10218331 0.1180626 -0.114421904
0.06580959 -0.040710095 -0.21223764 0.08617399 0.025745127 -0.4724857 0.4959974 0.5028651
-0.3432736 -0.08836001 -0.21951212 -0.08664588 0.41696575 0.16104592 -0.81651056 0.049177248
0.52387923 -0.12674055 -0.056516614 0.35706702 0.030176876 0.15457232 0.6795622 0.10986689
0.18590504 0.020309787 0.015318637 0.04549954 -0.001956001 0.0015515039 0.0029808334 -0.11667134
-0.04081547 -0.0007499351 -0.014023636 -0.014223872 -0.015267869 -0.14940533 0.003975387 -0.11775287
-0.033302575 0.15106283 0.012991352 0.013089533 0.021005217 -0.074789315 0.014046946 0.058944207
0.13998897 0.01899897 0.0003727861 -0.04330252 0.0013884121 0.002525834 0.0034426746 -0.011225448
0.02677188 -0.13219191 -0.041114807 0.03347442 0.01856834 0.15449336 0.0063014384 -0.017734168
-0.050442547 -0.06572842 0.06511197 0.10324159 -0.10777169 0.14918177 -0.020566022 -0.17866696
0.106027395 -0.03656096 -0.03625924 -0.020876909 -0.012038809 -0.018060291 -0.08951193 0.12750305
-0.021533333 -0.1454958 0.062277693 0.051711634 -0.0018548585 -0.123265035 -0.053864434 -0.01774384
0.044686202 -0.059445158 0.03948073 -0.050822616 -0.07666797 0.06321042 0.057239853 0.08859405
0.017799035 -0.23387162 -0.28377026 0.0061901216 -0.74498427 -0.23594446 0.1243958 0.0049001025
-0.095954314 0.13610366 -0.019558767 0.70842975 0.31012568 -0.114442244 0.6240818 0.13010287
-0.21323305 -0.0123773115 0.095190376 -0.043568112 0.18066533 -0.10295107 -0.23934491 -0.012948683
0.12293512 0.0042129895 0.09056362 0.01363834 0.16219692 -0.022057122 0.024560925 0.1246329
-0.010157001 0.07992765 -0.017583104 -0.036820136 -0.24590339 -0.08744541 0.3404515 -0.02988786
-0.115957975 0.01162518 -0.03467486 0.18106458 -0.24705708 -0.2298082 -0.13358429 0.14052866
-0.05603224 -0.14086883 0.0034646208 -0.043711353 0.29751825 -0.09177236 0.06954276 0.069800936
-0.015371175 0.06666537 0.0833181 0.1801397 0.094731785 -0.025219765 0.31909344 0.118342094
-0.08694702 0.16300353 0.031567503 0.043079175 0.069860116 0.02470256 -0.08739079 -0.024368051
00000000: a91d 32be bbaf 113f 702e d5ba 2616 ef3e
00000010: d4d7 b6be 16bf 70bc c938 ec3e 5939 5b3d
00000020: d2c0 64bd 88e7 91bd 03c2 463d 312b 8fbd
00000030: a67f 043e 191e 85bd 8d79 edbe 3d4c 72be
00000040: 1172 6fbe fedf ebbd 4d10 b5be bc2b 8d3d
00000050: f6de acbc 7c45 d13d ceca f13d 0856 eabd
00000060: 2ec7 863d a1bf 26bd d354 59be fd7b b03d
00000070: 72e7 d23c a5e9 f1be 5ff3 fd3e c4bb 003f
00000080: 8fc1 afbe 18f6 b4bd c9c7 60be 6573 b1bd
00000090: 897c d53e 39e9 243e d606 51bf 156e 493d
000000a0: f31c 063f 46c8 01be f77d 67bd 7dd1 b63e
000000b0: 7f35 f73c 3548 1e3e caf7 2d3f e401 e13d
000000c0: e45d 3e3e b660 a63c 05fb 7a3c ba5d 3a3d
000000d0: 4030 00bb d55b cb3a 165a 433b 62f1 eebd
000000e0: 1f2e 27bd 4b97 44ba 64c3 65bc 3e0b 69bc
000000f0: 1626 7abc b6fd 18be f743 823b 6b28 f1bd
00000100: 4868 08bd 37b0 1a3e aed9 543c 7b75 563c
00000110: 2213 ac3c 242b 99bd 2925 663c 7b6f 713d
00000120: 4559 0f3e baa3 9b3c 8172 c339 fc5d 31bd
00000130: 61fb b53a 7688 253b 7f9e 613b f1ea 37bc
00000140: b450 db3c 515d 07be 0068 28bd 791c 093d
00000150: a21c 983c 8233 1e3e 4c7c ce3b 3f47 91bc
00000160: d89c 4ebd 9f9c 86bd 6d59 853d 5470 d33d
00000170: 67b7 dcbd 1bc3 183e 137a a8bc 79f4 36be
00000180: e424 d93d f2c0 15bd 9284 14bd 0d06 abbc
00000190: 6d3e 45bc 2df3 93bc 0852 b7bd 2990 023e
000001a0: ac66 b0bc dafc 14be e516 7f3d 94cf 533d
000001b0: b91e f3ba 6172 fcbd f4a0 5cbd 885b 91bc
000001c0: e108 373d c47c 73bd 8cb6 213d 602b 50bd
000001d0: 1904 9dbd 7774 813d 5674 6a3d cc70 b53d
000001e0: 48cf 913c 0b7c 6fbe 564a 91be 81d6 ca3b
000001f0: 4ab7 3ebf 6d9b 71be 3ac3 fe3d 0a91 a03b
00000200: b283 c4bd c25e 0b3e b539 a0bc a75b 353f
00000210: cbc8 9e3e b260 eabd d3c3 1f3f b039 053e
00000220: c459 5abe 35ca 4abc 2cf3 c23d 7a74 32bd
00000230: 5500 393e 03d8 d2bd d516 75be b726 54bc
00000240: 68c5 fb3d 1e0d 8a3b 6b79 b93d 5873 5f3c
00000250: f316 263e 23b1 b4bc fe33 c93c 893f ff3d
00000260: 8d69 26bc 1cb1 a33d 710a 90bc b6d0 16bd
00000270: 19ce 7bbe 9416 b3bd a94f ae3e 63d7 f4bc
00000280: 607b edbd 8a77 3e3c 3a07 0ebd fe68 393e
00000290: 88fc 7cbe d752 6bbe 52ca 08be bfe6 0f3e
000002a0: 1082 65bd eb3f 10be b10e 633b ad0a 33bd
000002b0: 5054 983e 26f3 bbbd 6f6c 8e3d cbf3 8e3d
000002c0: 61d7 7bbc da87 883d aea2 aa3d 8b76 383e
000002d0: bd02 c23d ae99 cebc 3760 a33e 575d f23d
000002e0: 4711 b2bd 66ea 263e ed4c 013d ca73 303d
000002f0: d212 8f3d 065d ca3c f1f9 b2bd 829f c7bc

bias f4 [8]
0.107223995 1.724247 -0.0002806392 -0.0020062986 0.051897135 2.0906265 2.060826 0.03479255
00000000: 4198 db3d 20b4 dc3f c122 93b9 1b7c 03bb
00000010: 1792 543d d3cc 0540 93e4 0340 a282 0e3d
