Final_Masterarbeit/Masterarbeit/CNN_window_size_33_StandardScaler.pt (torch, 10191 bytes, 12 tensors)

weight f4 [8, 8, 3]
0	0xbecf36b4	-0.40471423
1	0xbdf9bf55	-0.12194697
2	0xbeacb9f1	-0.33735612
3	0x3dc7a01c	0.09747335
4	0x3e810449	0.25198582
5	0x3e9fc36a	0.31203777
6	0x3cd3b9e3	0.025845474
7	0x3d9418f7	0.07231324
8	0xbdc518c4	-0.09623864
9	0xbdb7e83a	-0.089798406
10	0xbcc4380a	-0.023952503
11	0xbe0ef23c	-0.13959593
12	0x3e403438	0.1876992
13	0xbd964c3e	-0.07338761
14	0x3de636f5	0.11240951
15	0xbeb9a18b	-0.3625606
16	0xbeeabf96	-0.45849293
17	0x3da03461	0.078224905
18	0xbe00e99d	-0.12589116
19	0xbd8060ee	-0.06268488
20	0xbeb41b34	-0.35177004
21	0x3db334e3	0.08750322
22	0x3eb7eb3f	0.35921666
23	0x3f0192ec	0.5061481
24	0xbebd867f	-0.37016675
25	0xbeb35cc8	-0.35031724
26	0xbe9ebeb1	-0.3100486
27	0x3d86abba	0.06575723
28	0x3e9d1079	0.3067663
29	0x3e09bad4	0.13450176
30	0xbe022389	-0.12708868
31	0xbe0b7b68	-0.13621294
32	0xbe655a45	-0.22397716
33	0x3d91c88c	0.071183294
34	0xbe9c95c2	-0.30583006
35	0xbd46e6b5	-0.048559863
36	0xbe047445	-0.12934978
37	0xbe54c596	-0.20778498
38	0xbd00130e	-0.031268172
39	0x3e2bd282	0.16779521
40	0x3cfffbd7	0.031248016
41	0x3e981785	0.29705444
42	0x3e1dc7ea	0.15408292
43	0x3e435335	0.1907471
44	0xbeb61fd9	-0.35571173
45	0x3eebd951	0.46064237
46	0x3f10dd39	0.5658756
47	0x3f7a0276	0.97660005
48	0xbe39e0b5	-0.18152125
49	0xbe3c73a9	-0.18403496
50	0xbebcc0fb	-0.36865982
51	0xbdacdc44	-0.0844045
52	0xbd86ab12	-0.06575598
53	0x3defd5ce	0.11710702
54	0xbe1a6ddd	-0.15080972
55	0xbd60d2a0	-0.054888368
56	0xbd7b1eb6	-0.061308585
57	0x3e0aea90	0.13566041
58	0x3d6d07ff	0.057868954
59	0xbe86013b	-0.26172814
60	0x3ded3dc3	0.11584046
61	0xbde6393d	-0.11241386
62	0x3d6472fb	0.055773716
63	0xbc9539cb	-0.018216034
64	0x3dcb34a0	0.09922147
65	0xbdcf02f6	-0.10107987
66	0x3d8dda98	0.06926459
67	0xbd611f15	-0.054961283
68	0x3e0b66fb	0.13613503
69	0x3e7c0d7c	0.24614519
70	0x3f0ce418	0.55035543
71	0x3f5ebbd7	0.8700537
72	0xbd76448d	-0.06012397
73	0xbe10a721	-0.14126255
74	0x3efcb4de	0.4935674
75	0xbe137752	-0.14400986
76	0xbf0920a7	-0.5356545
77	0xbf3dd7d5	-0.7415746
78	0x3ea0657e	0.31327432
79	0xbcaa4d11	-0.020788701
80	0x3e86dc73	0.26340064
81	0x3da53462	0.08066632
82	0x3d9af1be	0.0756564
83	0x3d1283ad	0.035770107
84	0xbd92091e	-0.07130645
85	0xbe7c1aa5	-0.24619539
86	0x3d55b96c	0.052178785
87	0x3f13786b	0.5760562
88	0x3f34bbf1	0.70599276
89	0xbd9fc51f	-0.0780127
90	0xbf3282d2	-0.69730866
91	0xbc89c3a0	-0.016816914
92	0x3e0722c0	0.1319685
93	0x3d476917	0.048684206
94	0xbe806a7c	-0.2508124
95	0xbf05a349	-0.5220228
96	0x3e8d61a9	0.2761357
97	0x3e8d6250	0.2761407
98	0x3f005549	0.50130135
99	0x3d5db8c6	0.05413129
100	0x3de78e02	0.11306383
101	0xbe4032bd	-0.18769355
102	0xbad6da47	-0.0016391956
103	0x3daf2c78	0.085534036
104	0x3aca3584	0.0015427326
105	0x3e7fdff1	0.2498777
106	0x3c5e933e	0.01358491
107	0x3e042b50	0.12907147
108	0xbe81899d	-0.25300303
109	0xbe2b3b90	-0.1672194
110	0xbdaa53fc	-0.083168
111	0xbeb4d9b8	-0.35322356
112	0xbef27d26	-0.47361106
113	0xbf461d03	-0.7738802
114	0x3dc72e39	0.09725613
115	0x3e5c4869	0.21511997
116	0xbd01251e	-0.03152954
117	0x3e819723	0.2531062
118	0xbdb5fd4c	-0.08886203
119	0xbe460720	-0.19338655
120	0xbe2b33a7	-0.16718923
121	0xbe2ddc36	-0.16978535
122	0xbe9ca28f	-0.30592772
123	0xbe959b1f	-0.2921991
124	0xbdbad1c9	-0.091220446
125	0xbda54514	-0.08069816
126	0x3d6d0fa4	0.057876244
127	0x3dba22d7	0.090886764
128	0x3d8e948c	0.06961927
129	0xbb1b3027	-0.0023679824
130	0x3e1a583d	0.15072723
131	0x3ddf15f5	0.1089286
132	0x3d4ce88e	0.05002647
133	0xbdf17364	-0.11789587
134	0x3d47daee	0.048792772
135	0xbbead35f	-0.0071663107
136	0x3ea34a56	0.3189265
137	0x3dde7ff0	0.10864246
138	0x3d3f905f	0.046768542
139	0xbde59f3d	-0.11212013
140	0xbe1a6f85	-0.15081604
141	0x3cc976ad	0.024592722
142	0xbd45acd9	-0.048260543
143	0x3cd43607	0.025904668
144	0x3d0e5a36	0.034754
145	0x3d837e99	0.06420631
146	0xbdf9a653	-0.12189927
147	0x3d72cf6b	0.05927984
148	0xbe181d17	-0.14854847
149	0xbe504806	-0.20339975
150	0xbbba912b	-0.005693575
151	0x3dc7df0e	0.09759341
152	0x3e3a0a88	0.1816808
153	0x3cdd824a	0.027039666
154	0x3d5a22fb	0.053256016
155	0x3e95df73	0.2927204
156	0xbea1f04a	-0.31628639
157	0x3d21f956	0.039544426
158	0x3be4457e	0.006966292
159	0xbd0ca19d	-0.034333814
160	0xbd3130db	-0.043259483
161	0x3ce6e6a0	0.028186142
162	0xbddadebc	-0.106870145
163	0x3ed2110c	0.4102863
164	0x3dcd744a	0.10031946
165	0x3bb91ab2	0.0056489343
166	0x3c23d458	0.009999357
167	0xbefeec20	-0.49789524
168	0xbdbb7178	-0.09152502
169	0x3cf88e80	0.030341387
170	0xbe6bc746	-0.23025236
171	0x3c991d03	0.018690592
172	0x3e909a89	0.282429
173	0xbeb107b6	-0.34576195
174	0xbd486372	-0.048922963
175	0x3d588821	0.052864198
176	0x3e65bf18	0.22436178
177	0x3e26a787	0.16274844
178	0xbe45ae58	-0.19304788
179	0x3d9e2e10	0.077236295
180	0xbd055ac0	-0.03255725
181	0xbdbffd07	-0.09374433
182	0x3dc9d48e	0.09854995
183	0xbe0ba511	-0.13637187
184	0x3e72e688	0.23720753
185	0xbc8d5c46	-0.017255913
186	0xbe6916e7	-0.22762643
187	0xbd894783	-0.06703093
188	0xbe2cd683	-0.16878705
189	0xbe768e1a	-0.24077645
190	0xbe2b7697	-0.16744457
191	0x3edb3592	0.42814308

bias f4 [8]
0	0x3e01917a	0.12653151
1	0xbcffe285	-0.031235943
2	0xbd69524d	-0.056963254
3	0xbcd2a45b	-0.025713136
4	0xbe3fdd61	-0.18736793
5	0xbbe94ecc	-0.007119989
6	0xbd51dd84	-0.051236644
7	0x3e5cf1f6	0.21576676

weight f4 [8, 8, 3]
0	0xbe16c89e	-0.14724967
1	0x3e28a581	0.16469385
2	0xbd1d1e7a	-0.038359143
3	0xbe19b4d3	-0.15010385
4	0xbca7451a	-0.020418692
5	0x3cedd235	0.029030899
6	0xbe351225	-0.17682703
7	0xbde047eb	-0.10951217
8	0x3e221663	0.15828852
9	0xba9542be	-0.0011387689
10	0xbd676b42	-0.056498773
11	0xbe15b92b	-0.14621417
12	0xbe17de20	-0.14830828
13	0xbdb70b6d	-0.08937726
14	0xbd56f2d8	-0.052477688
15	0x3bb022db	0.005375249
16	0xbd4216b1	-0.04738492
17	0xbba8bbad	-0.005149326
18	0xbc1dc107	-0.009628541
19	0xbd6b58ec	-0.05745785
20	0x3d06133a	0.03273318
21	0x3dddadd3	0.1082417
22	0x3d9dd81f	0.077072375
23	0xbd705f28	-0.058684498
24	0x3d946917	0.07246607
25	0xbe663f6b	-0.2248513
26	0xbe438444	-0.19093424
27	0x3c308585	0.010774021
28	0xbea5b67d	-0.3236579
29	0xbec0a253	-0.37623844
30	0xbd6adc36	-0.057338916
31	0xbde29d3b	-0.110651456
32	0xbd8af524	-0.06785038
33	0xbcceae12	-0.025229488
34	0xbe35f7d5	-0.17770322
35	0xbedd9635	-0.4327866
36	0xbdb287c3	-0.08717301
37	0xbd95d869	-0.073166676
38	0xbf090ec2	-0.53538144
39	0xbe39d1c6	-0.18146428
40	0xbe382e54	-0.17986423
41	0xbe56a3d1	-0.20960928
42	0xbe1d02d9	-0.15333118
43	0xbe342c51	-0.1759503
44	0xbe60cce8	-0.21953166
45	0xbc929b26	-0.017896246
46	0x3e341bc5	0.17588718
47	0xbe92c985	-0.28669372
48	0xbd222b82	-0.039592274
49	0xbe85f528	-0.26163602
50	0xbb88c611	-0.004174002
51	0x3baeddb3	0.005336487
52	0xbe31c55c	-0.17360443
53	0x3ea8ba3f	0.32954594
54	0xbeaf67b4	-0.34258807
55	0xbea86852	-0.3289209
56	0x3bb48683	0.005509199
57	0x3d233897	0.03984889
58	0x3d4551c8	0.048173696
59	0xbe40b75c	-0.18819946
60	0x3d1a3fd1	0.037658516
61	0x3d2b0c60	0.04175985
62	0xbe895ae6	-0.26827163
63	0xbe1cba4e	-0.15305445
64	0x3c9b0c4b	0.01892676
65	0xbd7b1012	-0.061294623
66	0xbdaa1d49	-0.08306367
67	0xbe44538e	-0.19172499
68	0xbed23497	-0.41055748
69	0xbe8f6cbf	-0.28012654
70	0x3ec48e2f	0.38389727
71	0x3e76ce40	0.24102116
72	0xbe5de26f	-0.21668409
73	0xbd8b8a58	-0.06813496
74	0xbe4634c0	-0.1935606
75	0x3d106d84	0.035260692
76	0xbe531a16	-0.2061542
77	0x3e1edbba	0.15513507
78	0xbe4723c8	-0.19447243
79	0xbe8bde05	-0.27317825
80	0x3db0b0c3	0.086274646
81	0x3cc23c5d	0.023710424
82	0xbd9652fe	-0.07340048
83	0xbe463f4d	-0.19360085
84	0xbdbda664	-0.09260252
85	0x3cd4044e	0.025880959
86	0xbe87e2e0	-0.2654028
87	0xbe0842f6	-0.13306794
88	0xbe043fbf	-0.12914942
89	0x3d4963bc	0.04916738
90	0x3d998614	0.074962765
91	0x3e38cbaa	0.18046442
92	0xbe6762bd	-0.2259626
93	0xbe48a22d	-0.19593115
94	0xbca127ab	-0.019672235
95	0xbdaf86c5	-0.08570627
96	0x3e97a842	0.29620558
97	0xbd7e97be	-0.06215643
98	0x3e23d8f1	0.16000725
99	0x3da0febb	0.07861086
100	0x3d38a4bb	0.045078974
101	0x3f067578	0.52522993
102	0x3d32f326	0.043688916
103	0x3da3eb13	0.08003821
104	0x3f0b3869	0.5438295
105	0xbe580b13	-0.21097974
106	0x3dd5e2c8	0.10443646
107	0xbe906d68	-0.2820847
108	0xbdd6d462	-0.104897276
109	0xbd8b6dc6	-0.06808047
110	0xbe3e7dc7	-0.18602668
111	0xbcbb8d99	-0.022894667
112	0x3e6ffde0	0.2343669
113	0x3c850180	0.016236067
114	0x3e5531e6	0.20819816
115	0xbe039d67	-0.12853013
116	0xbeb12841	-0.34601024
117	0xbe4590cd	-0.19293518
118	0x3d850660	0.064953566
119	0x3e09bd6f	0.1345117
120	0xbd37b6b3	-0.04485197
121	0xbf063c48	-0.5243573
122	0xbecb166b	-0.3966554
123	0x3e6f5bf2	0.23374918
124	0xbd28522c	-0.04109399
125	0xbe9dd4f8	-0.30826545
126	0x3dac27e5	0.08406047
127	0x3e2658ee	0.16244861
128	0xbe7e33fd	-0.2482452
129	0xbdb257e7	-0.08708172
130	0x3f10e41c	0.5659807
131	0x3f5bef68	0.8591218
132	0xbeaf5418	-0.34243846
133	0x3c99f944	0.018795617
134	0xbcf35d2c	-0.029707514
135	0x3da20cc0	0.07912588
136	0x3d9b1f27	0.07574301
137	0xbe18730d	-0.14887638
138	0xbd7fc606	-0.06244471
139	0xbdee01b6	-0.1162142
140	0x3e62000d	0.22070332
141	0x3e2f769a	0.17135087
142	0xbd7fb5d5	-0.062429268
143	0xbe8c15a9	-0.27360275
144	0xbf085229	-0.53250366
145	0x3dd27c23	0.102775835
146	0xbe346f43	-0.17620568
147	0xbe5c43dd	-0.21510263
148	0xbe0b98b0	-0.13632464
149	0x3e77f44d	0.24214287
150	0xbe32b6b1	-0.17452504
151	0xbd38d835	-0.045128066
152	0x3ec32d38	0.38120437
153	0xbcb39527	-0.021921707
154	0x3efca830	0.49347067
155	0x3cfeaa8b	0.03108718
156	0xbd04839c	-0.032352075
157	0xbe2de9ee	-0.16983768
158	0xbe1e2b46	-0.15446195
159	0x3e668221	0.22510578
160	0x3dc9b888	0.0984965
161	0xbbbe1c99	-0.005801749
162	0xbdb8bddd	-0.090205885
163	0x3d199380	0.037494183
164	0xbe079dcd	-0.1324379
165	0x3d017e06	0.031614326
166	0xbc185a2e	-0.009298844
167	0xbd849d12	-0.06475271
168	0x3d7c1c66	0.06155052
169	0x3dd3eb6e	0.10347639
170	0xbd4ebbe7	-0.050472166
171	0xbe37ed0d	-0.17961521
172	0x3dbf1514	0.09330192
173	0xbe3fbc81	-0.18724252
174	0x3e13098d	0.14359112
175	0xbda962a2	-0.08270766
176	0x3e378174	0.17920476
177	0x3e34c9f9	0.17655171
178	0xbdff27a7	-0.12458735
179	0xbe0d9643	-0.13826852
180	0x3e4023db	0.18763678
181	0x3bc221a0	0.0059244186
182	0xbe0bb285	-0.13642319
183	0xbafe5fad	-0.0019407176
184	0xbe13fd2f	-0.1445205
185	0x3bdb7350	0.006697096
186	0x3d728404	0.05920793
187	0x3d8c532c	0.06851801
188	0xbe2dec0c	-0.16984576
189	0xbd7fe98b	-0.062478583
190	0x3df811aa	0.12112744
191	0xbd0d4ddb	-0.034498077

bias f4 [8]
0	0xbe896a55	-0.26838937
1	0x3f133680	0.57505035
2	0x3e8fb0a5	0.28064457
3	0xbc7dcb56	-0.015490374
4	0xbe0f44e3	-0.13991122
5	0xbe3277c6	-0.17428502
6	0xbd5bab31	-0.053630058
7	0xbdda4559	-0.10657758

weight f4 [8, 8, 3]
0	0xbe321c33	-0.1739357
1	0x3bac89c9	0.0052654487
2	0x3cf725d0	0.030169398
3	0xbeb35e63	-0.3503295
4	0xbf1a5580	-0.6028671
5	0xbed45148	-0.41468263
6	0xbe613066	-0.21991119
7	0xbee323b8	-0.4436319
8	0xbf09aa90	-0.5377588
9	0xbed60028	-0.41796994
10	0x3e148ed2	0.14507607
11	0xbe237d6c	-0.15965813
12	0xbe1a8cef	-0.15092824
13	0xbe55aae3	-0.2086597
14	0xbeb2d466	-0.34927672
15	0xbecf0836	-0.40435952
16	0xbf6108f8	-0.8790431
17	0xbd04179a	-0.03224907
18	0x3dacb81a	0.08433552
19	0x3ea061ca	0.31324607
20	0xbe165836	-0.14682087
21	0xbe2e2f5d	-0.17010255
22	0x3e96b557	0.29435226
23	0x3c3ea678	0.011636369
24	0xbdf27994	-0.118395954
25	0xbda55b68	-0.08074075
26	0x3db687e9	0.089126416
27	0xbd26414d	-0.04058962
28	0x3cb217a1	0.021739783
29	0xbde7daeb	-0.11321052
30	0xbe1c843b	-0.15284817
31	0x3e56f120	0.2099042
32	0x3e3f5631	0.18685223
33	0xbe0ce744	-0.13760096
34	0xbe1e1c21	-0.15440418
35	0x3d165a7f	0.036707398
36	0x3e746069	0.23864903
37	0x3e75f7bb	0.24020283
38	0x3de4e500	0.11176491
39	0xbceff6a2	-0.029292408
40	0x3d6a4dda	0.05720315
41	0xbe687097	-0.226992
42	0xbd97823c	-0.07397887
43	0xbdaf4e97	-0.08559912
44	0x3e1c4f9a	0.1526474
45	0xbe3601b3	-0.17774086
46	0xbc9079a7	-0.017636133
47	0xbe1f8ff8	-0.15582263
48	0xbd13ad38	-0.036053866
49	0xbddafc89	-0.106926985
50	0xbdb2edb2	-0.08736743
51	0x3e18a26a	0.14905706
52	0xbeefc2f6	-0.4682843
53	0xbf01ca16	-0.50698984
54	0xbe88b4db	-0.26700482
55	0xbf0d7dc7	-0.55270046
56	0xbf03a1f9	-0.51419026
57	0xbe294009	-0.16528334
58	0xbdce83c6	-0.100837275
59	0x3d9045c7	0.07044559
60	0xbeb585b9	-0.35453585
61	0xbeb21199	-0.3477905
62	0xbe386157	-0.18005882
63	0xbdf1db79	-0.11809439
64	0xbce474a1	-0.027887644
65	0x3c158cbb	0.009127791
66	0xbebe7f0f	-0.37206313
67	0xbf536b19	-0.82585293
68	0xbe673bf2	-0.22581461
69	0x3c858d7f	0.016302822
70	0x3d826214	0.06366363
71	0x3e0ece7c	0.13945955
72	0xbd257663	-0.040396105
73	0xbe0a95ea	-0.1353375
74	0xbd89776e	-0.067122325
75	0xbea39282	-0.31947714
76	0x3d574092	0.052551813
77	0x3d69a0a4	0.057037964
78	0xbe86385f	-0.26214883
79	0xbe6508bd	-0.22366615
80	0x3f1c5447	0.610661
81	0xbd5916c8	-0.05300024
82	0xbe2cb4ba	-0.16865817
83	0x3eef6a0d	0.46760598
84	0xbe940bce	-0.28915256
85	0xbe126de6	-0.14299735
86	0x3e86ed24	0.263528
87	0xbdac0263	-0.08398893
88	0xbdd1206c	-0.10211262
89	0xbebc0aec	-0.36727083
90	0xbdcc08d5	-0.09962622
91	0xbe22b003	-0.15887456
92	0x3ed06994	0.4070555
93	0xbc090332	-0.008362578
94	0x3dc9f269	0.09860689
95	0xbd5197f6	-0.051170312
96	0xbdccaba2	-0.09993674
97	0x3e11c197	0.14234005
98	0x3dd9d8a8	0.10637027
99	0xbdf136a4	-0.11778
100	0xbc08235d	-0.0083092125
101	0x3e9aee69	0.30260018
102	0xbdeacfb5	-0.11465398
103	0x3e646fcc	0.22308272
104	0xbbab20bf	-0.0052224095
105	0xbdfabc57	-0.12242954
106	0xbca07d28	-0.01959093
107	0xbd88d75e	-0.06681703
108	0xbe94b6e6	-0.2904579
109	0xbedfd3c6	-0.43716258
110	0xbec09bfd	-0.3761901
111	0xbdbd5758	-0.09245175
112	0xbdda4b67	-0.10658913
113	0xbe3e62a2	-0.18592313
114	0xbe91ca56	-0.28474683
115	0xbf34545d	-0.7044123
116	0xbe7d6181	-0.24744226
117	0xbe1347c7	-0.1438285
118	0xbdab2fb4	-0.08358708
119	0xbe3eb92b	-0.18625323
120	0xbca74ace	-0.020421412
121	0x3beab5ad	0.0071627707
122	0xbd8accf3	-0.06777372
123	0x3da2e7ee	0.07954393
124	0xbe0849a8	-0.13309348
125	0xbd30deed	-0.04318135
126	0x3db1ae49	0.086758204
127	0xbdac99df	-0.08427786
128	0x3d93edba	0.07223077
129	0xbed38860	-0.41314983
130	0xbdb685a7	-0.08912211
131	0xbea4a6ef	-0.3215861
132	0x3dfcb1da	0.1233861
133	0xbdb62851	-0.088944085
134	0xbdd48f10	-0.103788495
135	0x3cb3ce51	0.021948965
136	0xbde63da5	-0.112422265
137	0xbc9f4f80	-0.019447088
138	0xbd89d0e9	-0.067292996
139	0xbe9f5d82	-0.31126028
140	0xbe549530	-0.20760036
141	0xbc468e26	-0.012118852
142	0xbd60cc1c	-0.054882154
143	0x3db44964	0.08803061
144	0x3bc6a46f	0.0060620825
145	0x3e4a0909	0.19730009
146	0x3e1342aa	0.14380899
147	0xbdd830be	-0.10556172
148	0x3e9bcd5e	0.3043012
149	0x3ea6fdcd	0.3261551
150	0x3bb69281	0.005571664
151	0x3e1761b6	0.14783368
152	0x3c695b88	0.014243014
153	0xbe4897b7	-0.19589125
154	0xbecd3313	-0.4007803
155	0xbe93070c	-0.28716314
156	0xbde60633	-0.11231651
157	0xbe923a2d	-0.2856001
158	0xbe313097	-0.17303692
159	0xbefd3617	-0.4945533
160	0xbe78455d	-0.2424521
161	0xbf134dc0	-0.5754051
162	0xbe9cff9d	-0.30663767
163	0xbe6b7c37	-0.22996603
164	0xbe9db60a	-0.30802947
165	0xbc8713e5	-0.016488979
166	0x3da414d7	0.080117874
167	0xbcff35c8	-0.031153575
168	0x3dd759d7	0.105151825
169	0xbd6eb51a	-0.05827818
170	0x3e059efe	0.13048932
171	0xbed2aace	-0.4114594
172	0xbeca7838	-0.39544845
173	0xbd644994	-0.055734232
174	0x3e3b417e	0.18286702
175	0x3d2139dd	0.039361823
176	0x3cdb2b2c	0.026753984
177	0x3f10793d	0.56434995
178	0xbcb4c7e1	-0.022067966
179	0xbe29d75f	-0.16586064
180	0x3e16eaab	0.14737956
181	0xbdbbd17d	-0.09170816
182	0xbf0cecb5	-0.55048686
183	0xbed66dc1	-0.4188061
184	0xbdaa0b0d	-0.08302889
185	0xbf025827	-0.5091576
186	0xbb840c28	-0.0040297695
187	0xbe0a6536	-0.13515171
188	0xbd9f1766	-0.07768135
189	0xbe298147	-0.16553222
190	0xbe2cbea6	-0.16869602
191	0x3de27698	0.11057776

bias f4 [8]
0	0x3f197a0d	0.5995186
1	0x3da69e9e	0.081357226
2	0x3f35dac7	0.7103695
3	0x3da2ca37	0.07948726
4	0x3eefa108	0.46802545
5	0xbe8175ae	-0.25285095
6	0xbd77b6f1	-0.0604772
7	0x3e8adcf2	0.27121693

weight f4 [8, 8, 3]
0	0xbd0732ce	-0.033007436
1	0xbd988669	-0.07447512
2	0x3dbee1e9	0.09320433
3	0x3cec7e74	0.028868891
4	0x3d024701	0.031805996
5	0x3ea5a9d4	0.3235613
6	0x3bd623d4	0.0065350328
7	0x3e2ddad0	0.16978002
8	0xbe17193e	-0.14755723
9	0xbe81fef3	-0.25389823
10	0x3e413f53	0.18871813
11	0x3edb5591	0.4283872
12	0xbdf3d60c	-0.119060606
13	0xbe891b5e	-0.26778692
14	0xbea06014	-0.31323302
15	0x3d51547c	0.05110596
16	0xbe79c1fd	-0.24390407
17	0x3d8e434e	0.06946431
18	0x3dca6f51	0.09884513
19	0xbd82d4d7	-0.06388252
20	0x3e0b8680	0.13625526
21	0x3e11e7a1	0.14248516
22	0x3da412e9	0.08011419
23	0x3e5c2862	0.2149978
24	0xbb9ad15d	-0.004724665
25	0x3d85f9ea	0.06541808
26	0xbe19e608	-0.15029156
27	0x3da5ea13	0.08101287
28	0x3d8300b8	0.063966215
29	0x3d85468a	0.06507595
30	0x3d9ee15f	0.0775783
31	0x3da4f070	0.08053672
32	0xbe04e3a8	-0.12977469
33	0xbe23587a	-0.1595172
34	0xbe7279f8	-0.2367934
35	0x3f5c521a	0.8606278
36	0x3e4c041f	0.19923447
37	0x3d2f184a	0.042747773
38	0xbd99fa39	-0.07518429
39	0x3cc4026a	0.023926932
40	0xbe41959e	-0.1890473
41	0xbdebbe9f	-0.115109675
42	0xbe4d3751	-0.20040633
43	0xbd1901cf	-0.03735524
44	0xbe246879	-0.16055478
45	0xbe229a23	-0.15879111
46	0x3e04f9bf	0.12985896
47	0x3bb05cc4	0.0053821523
48	0xbe129d92	-0.14317921
49	0x3c99fc83	0.018797165
50	0xbe918f40	-0.28429604
51	0x3d4ac2a7	0.04950204
52	0x3eb3e877	0.35138294
53	0x3e7fa62f	0.24965738
54	0xbcc9e443	-0.024644976
55	0xbcd27266	-0.025689315
56	0xbe1b4457	-0.15162788
57	0xbe16507f	-0.14679144
58	0x3bf21724	0.0073880125
59	0xbdfa99f2	-0.12236394
60	0x3d146f3e	0.0362389
61	0xbe8fd9ac	-0.28095758
62	0xbe28d485	-0.1648732
63	0xbd59a029	-0.053131256
64	0x3e61d357	0.22053276
65	0x3de11f97	0.109923534
66	0xbe0152ed	-0.1262929
67	0xbe1cb3ec	-0.1530301
68	0x3dca04b3	0.098641776
69	0xbdc9e118	-0.09857386
70	0xbc801b26	-0.015637945
71	0xbde6923e	-0.11258362
72	0xbf0233d1	-0.50860316
73	0xbf53779e	-0.82604396
74	0xbe69b1c3	-0.22821717
75	0xbe91f8f7	-0.28510258
76	0xbe7ace80	-0.24492836
77	0xbea25946	-0.31708735
78	0x3be47d7d	0.006972967
79	0xbb00d6ed	-0.0019659356
80	0x3eac9e4f	0.3371453
81	0xbe3630e5	-0.1779209
82	0xbf29c201	-0.6631165
83	0xbf3f4d55	-0.74727374
84	0xbe56d882	-0.20981029
85	0xbf1f8d3d	-0.6232489
86	0xbd53eaf5	-0.051737744
87	0xbe50f87e	-0.20407292
88	0xbd92e4f7	-0.07172578
89	0xbe774302	-0.24146655
90	0xbdf88bb2	-0.1213602
91	0xbe6fa1db	-0.23401587
92	0xbe935860	-0.28778362
93	0xbe97acc3	-0.29623994
94	0xbf1bc921	-0.60853773
95	0xbef839f0	-0.48481703
96	0xbde1926d	-0.110142566
97	0xbe6f4370	-0.23365569
98	0xbdf463aa	-0.11933072
99	0x3d209fda	0.039214946
100	0xbe8487e3	-0.25884923
101	0xbe920623	-0.28520307
102	0xbb8eb9ad	-0.0043556304
103	0xbe0ff1ae	-0.14057037
104	0xbe6e19cc	-0.23252028
105	0x3d62a26e	0.055330686
106	0x3e05bbb9	0.13059892
107	0x3eb451a2	0.3521853
108	0xbd9446e0	-0.07240081
109	0xbce0a2f9	-0.027421461
110	0x3dae6504	0.08515361
111	0x3e1712bc	0.1475324
112	0x3df95f72	0.12176408
113	0x3e103f73	0.14086704
114	0xbea1e407	-0.31619284
115	0xbd99bb35	-0.0750641
116	0xbe829709	-0.25505856
117	0x3d454ec9	0.04817084
118	0xbd6976ab	-0.056997936
119	0xbc09b644	-0.008405272
120	0xbe8247f8	-0.25445533
121	0xbd86668c	-0.06562528
122	0xbee4462c	-0.44584787
123	0xbe7ddcad	-0.24791212
124	0x3c95a018	0.018264815
125	0xbd569797	-0.05239066
126	0xbe9ecb1a	-0.3101433
127	0xbe88484e	-0.26617664
128	0xbed77383	-0.42080316
129	0xbe35c522	-0.17750981
130	0xbe064d34	-0.13115388
131	0xbd365c30	-0.04452151
132	0xbe277e20	-0.16356707
133	0x3e7d5f4f	0.24743389
134	0x3c35301f	0.011058836
135	0x3d9558a6	0.07292299
136	0x3d9d2f11	0.07674993
137	0xbe94d1d5	-0.2906634
138	0xbe9de9ef	-0.3084254
139	0x3d2fced9	0.042921875
140	0xbd0e1c25	-0.03469481
141	0x3e36443e	0.1779947
142	0x3bd9f278	0.006651219
143	0x3eb5f284	0.35536587
144	0xbd83b487	-0.06430917
145	0xbe0b51c6	-0.13605413
146	0xbe27538c	-0.16340464
147	0xbe178ba2	-0.1479936
148	0x3d5416d2	0.051779576
149	0xbe33d2be	-0.1756086
150	0xbd174c4c	-0.036937997
151	0x3c913273	0.017724251
152	0xbd82f8a0	-0.06395078
153	0xbe9372da	-0.28798562
154	0xbe52d71f	-0.20589875
155	0x3ed70be6	0.42001265
156	0xbe5a1a95	-0.21299203
157	0xbeb6956c	-0.35660875
158	0xbead9982	-0.3390618
159	0x3aaae4f6	0.0013038206
160	0xbc631c73	-0.013861763
161	0x3d0765cd	0.03305607
162	0x3cb40762	0.021976177
163	0x3ce71d91	0.02821234
164	0x3e509dd1	0.20372702
165	0xbd42f41a	-0.047596075
166	0x3e70193d	0.23447128
167	0x3e8471a4	0.2586795
168	0x3e0502fe	0.12989423
169	0x3eed444d	0.46341172
170	0x3e816036	0.25268716
171	0xbe2cef97	-0.16888271
172	0xbe14c826	-0.14529476
173	0x3d9c4562	0.07630421
174	0x3b60cb01	0.0034300687
175	0x3e490094	0.19629127
176	0x3d653f5a	0.05596862
177	0xbd564cca	-0.052319326
178	0x3d4087db	0.047004562
179	0xbec5b8d9	-0.3861759
180	0xbcc37821	-0.023860993
181	0x3df5c33c	0.120001286
182	0x3e324620	0.17409563
183	0x3db4cb59	0.08827848
184	0xbc9bf48d	-0.01903751
185	0x3d43a3c1	0.04776359
186	0x3cf5f830	0.030025572
187	0xbdd3f551	-0.10349525
188	0x3a88be91	0.001043277
189	0xbe5d570f	-0.21615241
190	0x3cf55866	0.029949378
191	0xbe038a34	-0.12845689

bias f4 [8]
0	0xbd13a95e	-0.036050193
1	0xbe3135b9	-0.1730565
2	0x3d454921	0.048165444
3	0x3f4324ab	0.76227826
4	0xbed5bbeb	-0.41744933
5	0xbe5083e7	-0.20362817
6	0x3cb17591	0.021662505
7	0xbe43928e	-0.19098875

weight f4 [8, 8, 3]
0	0x3e2a1708	0.16610348
1	0xbde111e9	-0.10989744
2	0x3cb56406	0.022142421
3	0xbdbecada	-0.093160346
4	0x3dbfd099	0.09365959
5	0xbe26288d	-0.16226406
6	0xbe54e7a4	-0.20791489
7	0xbc357b7b	-0.011076803
8	0xbe48d413	-0.1961215
9	0x3e349ae1	0.17637207
10	0x3cac9ef1	0.021071883
11	0x3e32b49b	0.17451708
12	0xbe1fdcac	-0.15611523
13	0x3da3a9b8	0.07991356
14	0xbd2673de	-0.040637843
15	0x3e1851ef	0.14875005
16	0x3d2b08a9	0.041756306
17	0xbe0bd583	-0.13655667
18	0xbd0f2eff	-0.03495693
19	0xbd5bafc8	-0.053634435
20	0x3cbed0d5	0.023292938
21	0xbc9894d4	-0.018625654
22	0x3dda1afa	0.106496766
23	0xbd90337c	-0.0704107
24	0xbf1d89b2	-0.6153823
25	0xbed1eb82	-0.4099999
26	0x3e89ba5d	0.26899996
27	0xbe62f6d4	-0.2216447
28	0x3ddcc896	0.10780446
29	0x3e86a5d1	0.26298383
30	0xbe598bf5	-0.21244796
31	0xbcb2b7f1	-0.021816226
32	0xbe1cd713	-0.1531642
33	0xbe76cddd	-0.24101968
34	0xbe657309	-0.22407164
35	0xbf25fd4c	-0.64839625
36	0xbf2518f4	-0.644912
37	0xbee15ce5	-0.44016185
38	0xbdc9abdb	-0.09847232
39	0xbe06bba7	-0.13157521
40	0x3ba11ea5	0.004916983
41	0xbbdd3be9	-0.0067515266
42	0xbe94d1cb	-0.2906631
43	0xbeec882e	-0.46197647
44	0x3e2d4a77	0.16922937
45	0xbd6b5b4f	-0.057460126
46	0xbf025147	-0.5090527
47	0xbf0a1774	-0.53942037
48	0xbd6126f3	-0.054968785
49	0xbd6a5f26	-0.057219647
50	0xbe2aef3a	-0.1669282
51	0x3b618489	0.0034411272
52	0xbe20159b	-0.15633242
53	0xbe33b6ab	-0.17550151
54	0x3d8dcef5	0.069242395
55	0x3e170439	0.14747705
56	0xbdc63e5b	-0.09679862
57	0xbd7cfe5b	-0.06176601
58	0x3dc83180	0.097750664
59	0x3e8618d2	0.2619081
60	0xbda3768c	-0.079815954
61	0x3bf452ad	0.007456145
62	0xbdf18cf1	-0.117944606
63	0x3ece0fbf	0.40246388
64	0x3ed47933	0.41498718
65	0x3d69dae5	0.05709352
66	0xbc90a0ca	-0.017654795
67	0x3e2ab8ab	0.16672008
68	0x3e521282	0.20514873
69	0xbda33404	-0.079689056
70	0x3de94b3d	0.11391304
71	0x3d6ab5f0	0.057302415
72	0x3d8afcfd	0.06786535
73	0xbd8ca4b7	-0.06867354
74	0xbd251ca8	-0.04031053
75	0xbd2cb0a2	-0.042160638
76	0x3e09a581	0.13442041
77	0x3e5b303b	0.21405117
78	0xbe275412	-0.16340664
79	0x3d57270a	0.052527465
80	0x3c206a8a	0.009791026
81	0xbe32ff7a	-0.17480269
82	0x3d581cc1	0.052761797
83	0x3e63430e	0.22193548
84	0x3dbcf168	0.09225732
85	0x3db7303f	0.08944749
86	0x3d633392	0.055469103
87	0x3ce768ad	0.028248155
88	0x3e0c51ad	0.13703032
89	0x3c52ee8a	0.012874255
90	0xbdc8e7a1	-0.09809805
91	0x3db2f3bd	0.08737896
92	0x3dca28c5	0.098710574
93	0x3e155447	0.1458293
94	0xbd0351d7	-0.03206047
95	0xbe33591a	-0.17514458
96	0xbd803f8c	-0.062621206
97	0x3e348fa7	0.17632924
98	0x39f38836	0.00046450057
99	0xbd979391	-0.07401193
100	0x3e134903	0.1438332
101	0xbe37455a	-0.1789755
102	0xbd18c259	-0.03729472
103	0xbe37b8f6	-0.17941651
104	0x3dd03ef3	0.101682566
105	0xbd4ccdef	-0.05000108
106	0xbe24032c	-0.16016835
107	0xbe081590	-0.13289475
108	0x3e08b68c	0.13350886
109	0x3de8b393	0.11362376
110	0xbd59d9d7	-0.053186264
111	0xbe255b75	-0.1614817
112	0xbdab60ba	-0.083680585
113	0x3e25eb27	0.16202985
114	0xbdbc9a2b	-0.09209093
115	0x3e028f3e	0.12749955
116	0x3d52936d	0.051410127
117	0xbe221e79	-0.15831937
118	0xbd1c6246	-0.03817966
119	0xbe499a30	-0.19687724
120	0x3c2fc871	0.010728941
121	0x3c7efba4	0.0155629255
122	0x3e1810d2	0.14850166
123	0xbd249daa	-0.040189423
124	0xbe32415b	-0.17407744
125	0xbd4e62f1	-0.050387327
126	0x3e25eecc	0.16204375
127	0xbd3fc1e4	-0.046815768
128	0x3d3dd235	0.046343047
129	0x3d23c034	0.03997822
130	0xbe61ab6b	-0.22038047
131	0xbbf163c1	-0.007366628
132	0xbd7fc944	-0.0624478
133	0xbd15142b	-0.036396187
134	0xbde3468c	-0.1109744
135	0x3e3af60e	0.18257925
136	0xbc1c87c7	-0.009553856
137	0x3e4a66a1	0.19765712
138	0x3eaa4345	0.33254448
139	0x3ea5e4f4	0.3240124
140	0x3ec31d4c	0.3810829
141	0xbd12716e	-0.035752706
142	0x3b84054c	0.0040289517
143	0xbdfe3989	-0.12413318
144	0x3da81fdf	0.08209204
145	0xbea71bc2	-0.32638365
146	0x3da1f95c	0.0790889
147	0xbdacc39c	-0.08435747
148	0xbe34aa29	-0.17643036
149	0x3deee0d6	0.11663978
150	0xbdbf7152	-0.09347786
151	0xbe98855a	-0.2978924
152	0x3dbefcb8	0.09325546
153	0xbae6fee9	-0.0017623577
154	0xbe3ab92d	-0.18234701
155	0xbdb286a2	-0.087170854
156	0xbe57328e	-0.21015379
157	0x3d0e1045	0.034683485
158	0x3d041a14	0.032251433
159	0x3d622f75	0.05522104
160	0x39a9343c	0.0003227311
161	0x3bce78f4	0.00630104
162	0x3cee5bd3	0.02909652
163	0x3e66023d	0.22461791
164	0xbd7910f9	-0.060807202
165	0xbe49c58f	-0.19704269
166	0xbe161ad8	-0.14658678
167	0xbd66dc51	-0.056362454
168	0xbc3ba1bf	-0.0114521375
169	0x3dbc92e6	0.09207706
170	0xbe1242ec	-0.14283341
171	0xbd57ee9c	-0.05271779
172	0xbdd88045	-0.105713405
173	0xbea901d8	-0.3300922
174	0x3d4f9d5e	0.050687186
175	0x3dbcd3b7	0.09220069
176	0xbe328164	-0.17432171
177	0xbd5dfd16	-0.05419644
178	0x3e44b565	0.19209822
179	0x3e273f3b	0.16332714
180	0xbebbb577	-0.36661884
181	0xbf050a19	-0.5196853
182	0xbe2db87f	-0.16964911
183	0xbec95e7f	-0.39329907
184	0xbee53183	-0.44764337
185	0xbf09bc37	-0.5380282
186	0x3d777203	0.060411464
187	0xbe84bb15	-0.25923982
188	0xbe6f5e72	-0.23375872
189	0xbe47e19e	-0.1951966
190	0xbe93caae	-0.2886557
191	0x3c86f0e5	0.01647229

bias f4 [8]
0	0xbec2ad1d	-0.380227
1	0x3ede8710	0.4346242
2	0xbf02416d	-0.5088108
3	0xbe307af2	-0.172344
4	0xbe5158f9	-0.20444097
5	0xbec51edf	-0.38500115
6	0x3dd9825b	0.106205665
7	0xbd4dbdac	-0.050229713

weight f4 [8, 24, 1]
0	0xbe7d9862	-0.2476516
1	0xbdb9e972	-0.09077729
2	0xbeeba9a7	-0.46027872
3	0xbe585122	-0.211247
4	0x3f4c976a	0.7991854
5	0x3d984557	0.074351005
6	0x3eb566d0	0.35430002
7	0xbeae5131	-0.3404632
8	0xbdebcbf5	-0.11513511
9	0xbd4cfeac	-0.05004756
10	0xbe832740	-0.25615883
11	0xbf26cad7	-0.6515326
12	0xbca28ff8	-0.01984404
13	0x3ea46b45	0.3211309
14	0xbdfcf8b8	-0.12352127
15	0xbe988634	-0.2978989
16	0x3dc92553	0.09821572
17	0xbe403950	-0.18771863
18	0xbcec6a37	-0.028859241
19	0x3ebbb55c	0.36661804
20	0x3db53c12	0.08849348
21	0x3e49786a	0.1967484
22	0xbe0cc7a3	-0.1374803
23	0x3de4c248	0.11169869
24	0xbe971b39	-0.29512957
25	0x3d231ea6	0.03982415
26	0xbeea0477	-0.4570653
27	0xbcaf7e1b	-0.021422436
28	0xbe5273d0	-0.20551991
29	0xbdebc788	-0.11512667
30	0xbe6df8f3	-0.23239498
31	0x3e2a3bf9	0.1662444
32	0x3e3eaf54	0.1862157
33	0xbe305ff2	-0.172241
34	0x3e6c569b	0.23079912
35	0xbf662d41	-0.899128
36	0x3c51761b	0.012784506
37	0x3ea28307	0.3174059
38	0xbc1cb847	-0.0095654195
39	0x3df6bbf7	0.1204757
40	0x3e7712ee	0.24128315
41	0x3ee8e85e	0.45489782
42	0xbbea5605	-0.0071513676
43	0xbd832173	-0.06402864
44	0xbe32fc2e	-0.17479011
45	0xbe323eda	-0.17406788
46	0x3e42e03e	0.19030854
47	0xbe90e15e	-0.28296942
48	0x3e07c69e	0.1325936
49	0x3d0d7484	0.034534946
50	0x3e36dc68	0.17857516
51	0x3d7ebc34	0.062191203
52	0xbdb556f5	-0.08854476
53	0x3d091406	0.03346636
54	0x3d9719c4	0.07377961
55	0x3d89665d	0.06708977
56	0x3cda1aec	0.026624165
57	0x3d37d439	0.044880126
58	0xbd73031f	-0.05932915
59	0x3e24e73e	0.16103837
60	0x3c731db2	0.014838623
61	0xbe182787	-0.14858828
62	0xbd4f270a	-0.05057434
63	0x3c30dc60	0.010794729
64	0x3d2bd111	0.041947428
65	0xbd4fc6a8	-0.050726563
66	0xbd14229b	-0.036165815
67	0xbd73cb4a	-0.059520043
68	0xba01e445	-0.0004954974
69	0xbbc2999a	-0.005938721
70	0x3dc76350	0.09735739
71	0xbde64adf	-0.11244749
72	0x3ded3212	0.11581816
73	0x3bbf653d	0.005840926
74	0x3e1d411d	0.1535687
75	0x3d9840c6	0.074342296
76	0xbdc100c8	-0.09423977
77	0xbd21a562	-0.039464362
78	0x3c27a01a	0.010231042
79	0x3d423196	0.04741057
80	0x3c3fed68	0.011714317
81	0x3b3fab71	0.0029246474
82	0xbc17e199	-0.009270095
83	0x3e00a226	0.12561855
84	0x3c6117a8	0.01373855
85	0xbdeb33b5	-0.11484472
86	0x3c540d2c	0.012942594
87	0x3d3d81ee	0.04626649
88	0x3ca7850c	0.020449184
89	0xbb8ddad7	-0.0043290663
90	0xbda8b8e7	-0.08238392
91	0x3e1bbba1	0.15208293
92	0xbd4d174d	-0.05007105
93	0x3cc2cef4	0.023780324
94	0xbdce4515	-0.1007177
95	0xbd97b485	-0.07407478
96	0x3dffcead	0.12490592
97	0x3d466a25	0.04844107
98	0x3e0f448e	0.13990995
99	0x3d0b1e0f	0.033964213
100	0xbd9b955c	-0.075968474
101	0x3d05d2b9	0.032671664
102	0xbe045ca0	-0.12925959
103	0x3de68c7b	0.11257263
104	0xbddeb52f	-0.10874402
105	0x3d84da56	0.06486957
106	0xbce8a921	-0.02840096
107	0x3de993a3	0.114051126
108	0xbd030fc4	-0.031997457
109	0xbe07d174	-0.13263494
110	0xbc452bb7	-0.012034348
111	0xbd2f7b03	-0.042841922
112	0x3de405c1	0.1113391
113	0xbdb09602	-0.08622362
114	0xbc4e412e	-0.012588782
115	0xbe0fea91	-0.14054324
116	0xbdd92bb7	-0.10604041
117	0x3da9425f	0.082646124
118	0xbe6c6338	-0.23084724
119	0xbe2f8a29	-0.17142548
120	0xbeff8b02	-0.49910742
121	0x3d30bf66	0.04315128
122	0xbf00ce3f	-0.50314707
123	0x3e1e0d09	0.1543466
124	0xbe9c7110	-0.3055501
125	0xbe5172b4	-0.20453912
126	0xbd22f427	-0.039783623
127	0x3e2e6d89	0.17033972
128	0x3d5ee120	0.054413915
129	0x3e9c487b	0.30524048
130	0xbe148400	-0.14503479
131	0x3f4364db	0.7632577
132	0xbe359edd	-0.17736383
133	0x3e0dba6b	0.13840644
134	0x3da0e9f7	0.07857125
135	0xbd8ffa46	-0.07030158
136	0xbea8789f	-0.32904527
137	0x3ecd6e42	0.40123183
138	0xbe4841f9	-0.19556417
139	0x3e0a90d4	0.1353181
140	0xbd5805c5	-0.052739877
141	0xbd69738f	-0.05699497
142	0x3cde8676	0.027163725
143	0x3de6f93f	0.11278009
144	0x3ee3fc94	0.4452864
145	0xbe2fb367	-0.1715828
146	0x3f2389ca	0.63882124
147	0xbe0e6bd7	-0.13908325
148	0xbc5935ed	-0.013257486
149	0x3d8d2055	0.068909325
150	0x3d41dab8	0.047327727
151	0xbe6f919a	-0.23395386
152	0xbd290365	-0.041263003
153	0xbe5ad93b	-0.2137193
154	0x3edcc874	0.43121684
155	0x3e4276fd	0.18990703
156	0x3e23fe51	0.16014983
157	0xbe76c4bf	-0.2409849
158	0x3db371be	0.08761929
159	0x3de2715d	0.110567786
160	0x3e03a12b	0.1285445
161	0xbee91ade	-0.4552831
162	0x3e91f4ec	0.28507173
163	0xbdcddcc1	-0.10051871
164	0xbd506b99	-0.050883863
165	0xbba80f5a	-0.005128783
166	0x3ec0d0d2	0.37659317
167	0x3e54e2fd	0.20789714
168	0x3e76e061	0.24109031
169	0xbcc6d391	-0.024270805
170	0x3ea15b4f	0.31514975
171	0x3d8edf56	0.06976192
172	0xbd4ea4c7	-0.050450113
173	0x3b11fa2c	0.0022274358
174	0xbcf45953	-0.02982775
175	0x3d240d55	0.040051777
176	0x3be9a788	0.007130567
177	0x3d77d4aa	0.060505547
178	0x3bdf68c7	0.0068179104
179	0x3e72d7cf	0.23715137
180	0x3dc340f2	0.09533872
181	0xbe5990e2	-0.21246675
182	0xbdc185de	-0.09449361
183	0x3e06abf3	0.13151531
184	0x3dc977b1	0.098372824
185	0xbd465a35	-0.048425872
186	0x3d5a4777	0.05329081
187	0xbe1ab5fd	-0.15108486
188	0xbddc2cbf	-0.10750722
189	0x3d18465e	0.037176482
190	0xbcb2ebb8	-0.021840915
191	0x3e0324b2	0.12806967

bias f4 [8]
0	0xbe6b9e6f	-0.23009656
1	0x3f56129a	0.83622134
2	0xbf43372e	-0.7625607
3	0xbf3fbb4e	-0.7489518
4	0xbf382b1a	-0.7194077
5	0x3f71df23	0.94481105
6	0x3fa7b372	1.3101637
7	0xbf240cdc	-0.6408212
