Final_Masterarbeit/Masterarbeit/CNN_window_size_66_StandardScaler.pt (torch, 10191 bytes, 12 tensors)

weight f4 [8, 8, 3]
00000000: f9f1 dfbe db4a d6be 3818 95be 625a f9bb
00000010: c753 fb3e fe34 4f3f bb53 a7bd 6927 ecbe
00000020: 1125 6bbe afe1 c5be 10de e3be 9c9a 00bf
00000030: 7892 843f 2883 d43e 9c13 0a3e 8121 8dbe
00000040: 744b 4e3d fd51 44be fa9a 9bba fe12 0c3e
00000050: 4108 2dbe 9f11 933e 664b c13e 2324 223e
00000060: bdf4 be3e b4a9 ac3e b757 943d 18f3 2ebe
00000070: 901b 083e cab9 2e3e 6395 663c 1dd1 b03d
00000080: f44c 573d e754 3dbc 813f 4a3d 5f49 163d
00000090: c6ab aebe 2e40 88be e5cb c33d be4a ddbe
000000a0: 90a7 15bf 165f 2abf 56a2 55be 12f3 96bc
000000b0: 7b61 c03d c9a2 db3c ba95 bdbc baa6 22be
000000c0: fa25 2a3e 35d0 863e 91a8 3e3d 179c de3d
000000d0: 000b 103d 71a8 013f 3bd8 393e b02b eabc
000000e0: 108b 80be 10f0 f1bb 6a89 68bd a237 893d
000000f0: 0121 373e bb42 ae3d 5bd7 f33c f21f 863c
00000100: aae5 c0bd 30e6 47be d873 3abe 08a4 f8bd
00000110: da6f 273d eba8 ecbd 37c6 5dbd 49fc 02be
00000120: 2295 e53d 15ef 113d 88de fa3d 5bec 683e
00000130: 605a 6ebd 089e 4c3e 1a81 d73d 211a e93d
00000140: 0d10 033e 04f0 853e ce7c 303d 13ab 32bd
00000150: c2d8 dcbc 6c53 c53d 16a4 d03d 9a8d 0ebe
00000160: 9a54 0a3e f3da 833d f2d5 d1be b3fd 3dbe
00000170: 043c 2cbe a2b8 f5bd 3915 c63d b1c9 433e
00000180: b14f 1a3d 1d2e a9bd d85d 353e 7e59 c53b
00000190: 30cb 1a3e 4130 0c3e 8c2f bb3d 4dd7 9b3c
000001a0: 6603 2c3e fa40 eabc a8d2 52be bf80 5e3c
000001b0: 1b7e 373e e0ed dfbc 28fc 813e cdd8 38be
000001c0: da16 cd3c 36de 12be 6ba7 a33d 078b 1d3c
000001d0: 7024 5abd 6ba4 513e 90c4 933d e4f7 f63d
000001e0: 131c 2dbe 1959 403e 8d59 d6bd c48e 1b3d
000001f0: f8ac 30bc 0a2f 773c 2a64 9b3d 5580 56bd
00000200: 7dbf 92bc bbe5 c8bd c1d6 233e ffd4 2d3e
00000210: 5c9d f6bd 9362 fabb 3318 853d d7d5 66be
00000220: 9138 973d 0f49 773d a493 943d 41ff d5bd
00000230: 54b3 31be 338a 933e ded0 c0bd 7106 4bbc
00000240: 8800 93bc cbdf aebd d34b d3bc d272 46bd
00000250: ca97 c0bd d09f 68be 8e2c 05be 08f9 3c3e
00000260: 4ce7 fbbd 3db8 cbbe f8cc 933d ccee 7b3d
00000270: b6d5 873e 6d0f 863e 01ba d73e 43de 603d
00000280: e0c8 66bf 07fe 3c3e 7e9f 33be 68b2 ce3e
00000290: 7081 dd3d f94f 8d3e 7429 3a3e b8c5 e9bd
000002a0: 5adc 9b3d 6972 f3bd e7fa bb3d 0f4c 1b3e
000002b0: e3fd e93d da23 1e3e 3ae7 403e 7265 883e
000002c0: 0618 5e3d ddb9 133d 08a0 adbd f32e 08bd
000002d0: b5c3 90bc 1512 0ebe d25a e0bd 5ae6 c73b
000002e0: b273 aebd 12c4 953d 5f79 71be cc4b 83be
000002f0: 42cd edbd 5c96 a93d e74a 12be 0f90 c93b
-0.43739298 -0.41853985 -0.2912004 -0.0076096514 0.49087355 0.80940235 -0.08170267 -0.46123818
-0.22963358 -0.38648745 -0.44505358 -0.50235915 1.0357199 0.41506314 0.13484043 -0.27564624
0.050364926 -0.19171901 -0.0011871748 0.1367912 -0.1689768 0.2872438 0.37752837 0.15834098
0.37296095 0.33723223 0.07243293 -0.1708492 0.13291764 0.1706306 0.0140737025 0.08633635
0.052563623 -0.011555887 0.04937697 0.036691066 -0.34115428 -0.26611465 0.09560374 -0.43221086
-0.58458805 -0.6655134 -0.20862707 -0.018426452 0.09393593 0.02681102 -0.023142684 -0.15883914
0.1661605 0.26330724 0.046547476 0.108696155 0.03516674 0.50647646 0.18148892 -0.028585285
-0.25106096 -0.007383354 -0.056771673 0.06700064 0.17883684 0.085088216 0.029765775 0.016372655
-0.09418805 -0.19521403 -0.18208253 -0.121406615 0.040878154 -0.11555656 -0.05414411 -0.12791552
0.112100855 0.035628397 0.12249476 0.22746412 -0.058191657 0.19982159 0.10522671 0.11381937
0.12799092 0.2615968 0.043087773 -0.04362018 -0.026958827 0.09635052 0.10187547 -0.13921204
0.13508835 0.064382456 -0.4098354 -0.1855381 -0.16819769 -0.119981065 0.09672017 0.19119908
0.037673656 -0.082607485 0.1771158 0.006022631 0.15116572 0.13690282 0.09139928 0.019023562
0.16798171 -0.028595436 -0.20588171 0.0135805 0.17919199 -0.027335107 0.25387692 -0.18051453
0.02503531 -0.14342579 0.07990917 0.009615666 -0.053257406 0.20472877 0.07215226 0.12059
-0.1690524 0.18783988 -0.10466299 0.03797795 -0.010783426 0.015086899 0.07587464 -0.05236848
-0.017913574 -0.098094426 0.15999891 0.16975783 -0.12041733 -0.0076411455 0.06498756 -0.22542511
0.07383836 0.06037241 0.07254723 -0.104490764 -0.17353565 0.28816375 -0.09414838 -0.0123916725
-0.01794459 -0.08538779 -0.025792992 -0.048449345 -0.094039515 -0.22717214 -0.13005278 0.18454373
-0.12299976 -0.39789 0.07216829 0.06150703 0.26530236 0.26183644 0.42134097 0.054899465
-0.9015026 0.18456279 -0.1754131 0.40370488 0.10815704 0.27600077 0.18179876 -0.11414665
0.07610388 -0.118870564 0.09178715 0.15165733 0.11425378 0.15443364 0.18838206 0.26639897
0.05422213 0.036065925 -0.08477789 -0.0332479 -0.017671445 -0.13874085 -0.109548226 0.006100458
-0.08518161 0.07312788 -0.23581456 -0.25643766 -0.116114154 0.08280632 -0.14286385 0.0061512063

bias f4 [8]
00000000: 20a7 08be 904b e9bd 7625 94b9 ef37 aa3d
00000010: 5d36 073e 7d41 023e f937 113f b885 36be
-0.13345003 -0.113913655 -0.0002825667 0.0831145 0.13204332 0.12720294 0.5672603 -0.17824447

weight f4 [8, 8, 3]
00000000: 9e04 c5bd 9fb5 2e3e 3884 0ebe 40bf 673c
00000010: 188e 173e f2c8 fabd 7f78 8ebd 5c7d 61be
00000020: c760 743d 7ac9 f0bd b327 073d 283f 4f3d
00000030: 8efb 22be 0bf2 1dbe 31c2 403e d1a7 7ebd
00000040: be8b 4abe 5d25 96bd f054 883b 6196 50be
00000050: 7f58 33bd b36c 90be 0293 a5bd 78d7 203d
00000060: 8ac9 18be cf2d 143e 2ae0 04be 3575 1e3e
00000070: 652d ad3e 61d5 953e 2297 b03d c6e5 ca3d
00000080: f8d4 13be 9c17 d63c 1122 28be b8c7 4fbc
00000090: 26e7 9b3d bd30 8c3e b319 10be d25a b33d
000000a0: f3a0 4f3e 9a70 443e 1ee3 d9be 4a08 a53e
000000b0: 267b 47be 3de4 4bbc cfbb 44be 5cc3 61bd
000000c0: 87c3 2fbe e768 9bbd e92b abbe ef5f 37be
000000d0: 8353 d6be bdd4 9fbd aca0 8abe b3da 33be
000000e0: 759c 32bc 02ba 393d 2780 773e 6798 ba3b
000000f0: 0de2 2bbe f576 df3d 52d6 3a3e 55cb 023e
00000100: 5cd9 2f3e 1d35 c2bc c627 a03d 2687 9dbe
00000110: d459 bb3d 5ec4 3e3e 740a ba3d 26ee bc3d
00000120: c467 c33d 78ed 663e 8a61 903e ccfb a0bd
00000130: 7c30 fcbd ebb8 60be 7260 2a3e 052b 7c3e
00000140: 5ad5 8abd ccef 4f3d 337e 85bd 6b7b 25be
00000150: 6601 b3bd 3722 26be b40b fb3d 2dad 7bbd
00000160: 3da4 87bd 3ec1 423e ae6d c4bd d69e b0be
00000170: e4a6 07bf 79b5 c33d 8f43 9dbd 23d3 03be
00000180: ccb9 173e 87e6 0b3d 5a7c d43d cf6f dabd
00000190: fc05 283e bb70 4abe 6e87 273d 2f93 503d
000001a0: ca22 f43c 5a22 b9bc 74bd 13be dad1 2abe
000001b0: a702 a53d fd0c 5a3e 90f0 e2bd 8629 babd
000001c0: 7e3c 4f3e 3844 863c 2adb a03d 189d 8dbe
000001d0: 5329 3e3e 4ae0 ffbd 3692 e0bd b31f 82bd
000001e0: 0096 83be b951 b0be 5172 f2bc 91d8 d4bc
000001f0: 977b 75be 4b60 d1bd ad3a 22be ca4f 15bd
00000200: 16c0 a0be 357a d33c 34fa a13d 8c15 2cbe
00000210: 9c3d 38be 0330 843d d756 083d a1e1 9a3d
00000220: 1c1c 313e 5c78 a2bc c6e8 9abe 2251 2dbe
00000230: 3c50 443d 47e7 33bd e6b0 073e 6845 7bbb
00000240: 7801 d63d 6ca9 fabc 815e 48bd d7e0 d63d
00000250: b792 d13c c0c1 14be b549 9bbb 907c c63d
00000260: c06f b13c f8e8 7cbe cd38 fe3c 0677 47be
00000270: 0ba9 093d 0e1c 283e 55ff ddbd 793b dc3c
00000280: 5630 50be 6ab7 4a3e a893 b1be 4776 e0be
00000290: 5b15 8bbe a325 16be 986f 2b3d f282 943d
000002a0: 239e cabe acdc 03bf 3397 cfbe ce52 93be
000002b0: dacf 8dbe ebd5 f8bd de62 d1bc 09d5 9dbe
000002c0: 7a03 30be bf76 973e 3f17 c83d 7eaf b83c
000002d0: ba91 7f3d 8d13 103e ef06 55be d51c e5bd
000002e0: e095 13bd 987a 863d ca82 44bf 4f7f abbe
000002f0: b923 503e 40ba dc3d 8da0 9f3e b85b be3d
-0.09620021 0.1706147 -0.13917625 0.014144719 0.14800298 -0.122453585 -0.069565766 -0.22020477
0.059662607 -0.117571786 0.032996845 0.05059734 -0.15916273 -0.15424363 0.18824078 -0.06217176
-0.1977987 -0.07331345 0.004160516 -0.20369865 -0.04378557 -0.2820793 -0.0808468 0.039267987
-0.14920631 0.144706 -0.12976137 0.15474398 0.33823696 0.29264358 0.08622576 0.09907107
-0.1443671 0.026134305 -0.16419245 -0.012681894 0.076124474 0.27380934 -0.14072303 0.08757557
0.20276241 0.19183579 -0.4255609 0.32232887 -0.19480571 -0.012444553 -0.19212268 -0.05511795
-0.17164432 -0.07588368 -0.33431938 -0.1790769 -0.4186059 -0.078042485 -0.27075708 -0.17563896
-0.01090156 0.045343406 0.2416998 0.0056944373 -0.1678545 0.10911361 0.18245819 0.12772878
0.1717276 -0.023706967 0.07820086 -0.30767173 0.09147993 0.18629596 0.09084025 0.09225111
0.09541276 0.22551525 0.28199416 -0.078605264 -0.12313935 -0.2194554 0.16638353 0.24625786
-0.06778975 0.050765797 -0.06518211 -0.16160361 -0.08740501 -0.1622399 0.122580916 -0.06144445
-0.06623123 0.19019029 -0.09591232 -0.34496182 -0.5298903 0.095560975 -0.076789014 -0.12873511
0.1481697 0.034155395 0.10375281 -0.10665857 0.16408533 -0.19769566 0.04090064 0.050921615
0.029801745 -0.022599388 -0.1442774 -0.16681615 0.080571465 0.21294017 -0.1108104 -0.09089951
0.2023792 0.016389951 0.07854302 -0.27658916 0.18570451 -0.124939516 -0.109653875 -0.063537024
-0.25700378 -0.3443735 -0.029595526 -0.025982173 -0.23972927 -0.102234446 -0.15842696 -0.036453046
-0.3139655 0.025815109 0.079090506 -0.16805094 -0.17992252 0.0645447 0.033285942 0.075625665
0.17295879 -0.019832782 -0.30255717 -0.16925481 0.04792808 -0.043921735 0.13251075 -0.003834093
0.10449499 -0.030598365 -0.04891825 0.104921035 0.025582654 -0.14527035 -0.004739011 0.09691727
0.021659732 -0.24698246 0.031032944 -0.19478998 0.033608478 0.16416952 -0.10839716 0.026883828
-0.20330939 0.1979653 -0.34682965 -0.43840238 -0.2716473 -0.14662795 0.04185447 0.07251538
-0.39573774 -0.51508594 -0.40545043 -0.28774112 -0.2769764 -0.121501766 -0.025559839 -0.30826595
-0.17188826 0.29582784 0.09770059 0.022544619 0.062394835 0.14069958 -0.20803426 -0.1118714
-0.036031604 0.06566352 -0.7676207 -0.33495566 0.20326127 0.10777712 0.31177178 0.09294838

bias f4 [8]
00000000: 0709 16be f86c f63d 698b 1a3e 1e3f e7bb
00000010: 8b43 19be 7d0e 9b3e b172 03bf e18a 313f
-0.14651881 0.12032503 0.15092243 -0.0070570847 -0.14967172 0.3028449 -0.5134688 0.6935254

weight f4 [8, 8, 3]
00000000: 209c 6fbb 851b b83e 759d 7a3d 02c4 8fbd
00000010: 46ff 0d3c d90f 00bd cab1 2bbf 352b 053d
00000020: d2e9 f1bd 0eeb dcbd ef9d 4ebd 6b27 ce3a
00000030: 17ac 50be 309d 5e3d ca3e 723a cab5 723d
00000040: 428e d7be 29d7 2cbe 2e3a b8be c370 82be
00000050: 519d adbe 9f90 2abf 13ce 1abf 38fe 81be
00000060: ca6e c03d a78f 873e 933b 18bd de65 34be
00000070: 8027 d9be 54ec 72be bfc4 b4be d28e 32bf
00000080: 4f8f fdbe 39bb d1be 985b 21bf 3153 6ebe
00000090: dbf2 903d a439 bb3d 82d3 2b3e ddbb 5fbc
000000a0: b652 bb3c 7bb6 79be 9660 0c3e f55b 023d
000000b0: 9a21 a73e 922c 28be e048 9abe af27 623d
000000c0: 9ee5 79bc ec7a f9bc 0524 1ebd 1894 ea3d
000000d0: 1979 0cbe 0617 52be c75f 96bc b95a 3dbe
000000e0: 56ac 6cbd 2034 1dbd 22f4 6d3c 77ee 903d
000000f0: 1e98 493e a307 fbbb d864 95bc f3a8 143e
00000100: d5e0 d03d 6a63 56bc ca49 6cbc 3d86 073e
00000110: 4d29 27be ed95 3fbe a11a 973d aa52 51be
00000120: 48da 49be d6ee 2abe 01c4 c13c 90b1 8f3e
00000130: 6c3e 093e 91d5 463e 8e73 abbe 40a7 563e
00000140: 93eb 2d3d 00ba 1ebf 7333 d2be 9be0 1bbf
00000150: b510 173e 71c3 d23d 1139 cf3d dac0 62be
00000160: 29bb bebe b3bc 633d a397 c93c 6268 a83d
00000170: 4c67 d2bd a4d7 f9be afca 27bf a793 f6be
00000180: 1f0d 34be c02c f03c 8022 183e ef7f 8abe
00000190: 12c4 8c3d 141a d6bc 2aea a03e 3cb6 25be
000001a0: 7e56 c43d 8ea5 673e e9ca 04be fcf7 d5be
000001b0: af1f 5abd 45a2 acbd cabc 3fbe db4f 2b3d
000001c0: 5da5 723e 265a fa3d 2814 0f38 c152 23be
000001d0: b73f ca3a 7856 eb3d 25f4 df3e c347 2f3e
000001e0: 985a 7f3b 9396 05be 248b b93b d898 1b3d
000001f0: 33f5 063d 4d54 c83d 89c1 063e 025a 57bc
00000200: 81ba 6abe 5178 1fbe 3463 f33d 484c 5abe
00000210: b6b8 363e 8450 d03d 12c3 21bb 5125 df3d
00000220: 391a d4bd 7a60 70be 05a3 aebd dbba c4bd
00000230: f04b e2bd d663 9b3e 721e ea3c 7d82 8fbd
00000240: e39a 32bd 78b2 5d3d 6076 3ebe 9bfc ac3d
00000250: 346f 5abe b31b 43bd 0592 81bc a979 97bd
00000260: ff32 90be 5797 14be 3e2f 12bc d3d0 863e
00000270: cdbc af3d 7b9a 4abe 6695 69be e354 b2bb
00000280: 7f4e 1bbe 9c71 933c d0dc 17be 7e1c 61bd
00000290: dafa 77bd b9b6 2b3e 6b3e 21be 38b5 83be
000002a0: 7d50 f83d e85b eabd ebaa 2b3d 4879 fe3d
000002b0: 2bee bc3c 6f1d 05be e27c 35be bede a63a
000002c0: dcd7 5abd 195c 34be af05 213e 98bb 39be
000002d0: 9f1b 5fbd ac47 063e c349 953d c322 233e
000002e0: 8e21 97bd 35be a6bd 240a a7bd a402 a4bd
000002f0: b693 fbbd 692d 4dbe 4486 b53c d335 00be
-0.0036561564 0.35958496 0.06118532 -0.070198074 0.008666819 -0.031265114 -0.6706816 0.03251191
-0.11812176 -0.107870206 -0.050443586 0.00157283 -0.20378147 0.054349124 0.00092409237 0.0592554
-0.42100722 -0.16878952 -0.35981888 -0.25476655 -0.33909085 -0.66626924 -0.60470694 -0.25389266
0.09396131 0.26476786 -0.03716619 -0.17616984 -0.4241295 -0.23722965 -0.35306355 -0.69749177
-0.49523398 -0.40963152 -0.63030386 -0.23273923 0.07077571 0.091418535 0.16779903 -0.01365563
0.022866588 -0.24386017 0.1370872 0.03182598 0.32642823 -0.16423252 -0.30133724 0.055213626
-0.015252499 -0.030454122 -0.03860857 0.11454028 -0.1371807 -0.20516595 -0.018356217 -0.18491639
-0.05778154 -0.03837979 0.014523538 0.070767336 0.19686934 -0.0076608225 -0.018236563 0.14517574
0.10199133 -0.013085226 -0.01442189 0.13234802 -0.16324349 -0.18709536 0.07378126 -0.2044169
-0.19712174 -0.16692671 0.023653032 0.28065157 0.13402718 0.19417407 -0.334866 0.20962238
0.04246099 -0.62002563 -0.41054878 -0.60889596 0.14752467 0.10291184 0.101183064 -0.2214388
-0.37252167 0.05559988 0.024608439 0.082230344 -0.102736086 -0.48797333 -0.65543646 -0.48159525
-0.1758313 0.029318213 0.1485691 -0.2705073 0.06873335 -0.026135482 0.31428653 -0.16182798
0.095868096 0.22621748 -0.12968029 -0.4179076 -0.053252872 -0.08429388 -0.18724361 0.041824203
0.23695894 0.12224226 3.411263e-05 -0.15949537 0.0015430365 0.11491102 0.43740955 0.17117219
0.003896391 -0.13045721 0.005662339 0.03798756 0.032948684 0.09781704 0.13159765 -0.013144018
-0.22922708 -0.15573241 0.11884156 -0.21318161 0.17843899 0.10171607 -0.0024682921 0.108957894
-0.10356564 -0.23474303 -0.08527187 -0.09605952 -0.1104964 0.30349606 0.02857897 -0.070073105
-0.043604743 0.05412528 -0.18599844 0.08446618 -0.21331483 -0.047633838 -0.015816698 -0.07396252
-0.28163907 -0.14510857 -0.008922396 0.26331195 0.08580933 -0.19785492 -0.22810897 -0.005442248
-0.15166663 0.01799851 -0.14830327 -0.054958813 -0.060541965 0.16768922 -0.15746467 -0.25724196
0.12124727 -0.11443311 0.041911047 0.12425476 0.023062786 -0.1299951 -0.1772342 0.0012731177
-0.053428516 -0.17613257 0.15724824 -0.18137968 -0.0544697 0.13113278 0.072894596 0.1593123
-0.07379447 -0.08141748 -0.08156231 -0.08008316 -0.12284033 -0.20036854 0.02215875 -0.12520532

bias f4 [8]
00000000: 8a35 78bc 3885 29bb bd6e aebe 1bbb 273f
00000010: f448 a23c a1e3 25bd 69c7 52bd 9cbb fabd
-0.015149483 -0.0025866758 -0.34068862 0.65519875 0.019810177 -0.040500287 -0.051459704 -0.12242815

weight f4 [8, 8, 3]
00000000: ade6 a3be a332 863d 71e9 9bbd 715a 01bf
00000010: 1117 39bf de9e afbe 3ea5 93bd 835c 2fbe
00000020: c2ca 2bbe 8376 40be ac2d f1bd 83b9 ddbd
00000030: 27f9 db3d f902 7cbc 0de4 9f3d d652 013e
00000040: ab05 e33b 5835 363d ed9d 02be b451 1cbe
00000050: 801a 733d aa80 193d 21a9 763d 6fa1 bb3c
00000060: 57ad 94be eb3d 24be ad41 60be e4d0 043f
00000070: 5055 283f bd7a 363f b928 1bbe 6dfb 91be
00000080: c31c b1be 6452 97bd f623 6d3e 2bbd 353e
00000090: 499d e03d 9124 1f3e aea5 f33d f170 b13d
000000a0: f08b 003e 2a86 173e 3c3c 1cbd 2a43 9e3e
000000b0: d20b 0bbb 5186 073d 4c70 a7bd 2af8 52be
000000c0: c4c9 083e dabd 09be 4419 03bc 98dc 0d3d
000000d0: 3d21 813c 42eb d5bd 14ca dc3d c575 d03c
000000e0: c32d b73b 7c2b 0b3b bf3c f139 ccf4 46be
000000f0: 9b0d b83d ec44 20be a257 30be fe32 373e
00000100: d37d a93d 44f6 32be 25cb 1e3e 181b 6d3e
00000110: 16f4 e13d 3506 24be 0ce6 24be 6f57 333e
00000120: f45e 44be 0126 aa3c 4689 40be c4e2 ab3c
00000130: 6b7f 23be 1dec a5bd 7ae1 273d 77bd 19bc
00000140: 3d7a 813c 53d3 c73d 4538 6a3b acac 42be
00000150: de27 3a3e 07ac 52be c921 c43d 46af 94bd
00000160: c403 37be 9975 833c 0e0c dfbd c919 103e
00000170: efb7 c2bd 9cd7 7d3d 41cc 17be 14eb b93d
00000180: 41ba 5ebc aad2 3b3f adaf f93c a70b 87bf
00000190: 0ae2 60bf 2d44 44bf 5c6d 193e 5fa6 50be
000001a0: 1e7f 18bd 9587 28be 128e 483e 2eb1 3cbe
000001b0: 8794 84bd 572d b9be f887 b6bd 0d16 aa3d
000001c0: 7f01 053e c794 623d d5ab 50be 1ae5 a6bc
000001d0: 6cc9 b83c 4cfd 013e ff24 453d f0f7 bc3d
000001e0: 0369 053c b545 103e 4911 8fbd b855 53be
000001f0: 1d99 09bf ba46 0bbf 906f 44be be5e c2bd
00000200: 9caf 15bd 2859 eabd c1c8 52be c35a 073e
00000210: 171a bebd e45b 40be 6a6e 183d c89c 14be
00000220: 9a2a 3abd 7064 253c 8a51 3ebd e04d 1abe
00000230: 7c1d 093d a216 b03d 9f95 24be 898c 46be
00000240: e393 e4bb 5d32 a1bd 5d8b 673d c414 34be
00000250: 384f f6bd 91ad 123b aceb 1abe 425d 28be
00000260: 2bbf 1f3e efd5 093e 0b86 8ebd 041f e8bd
00000270: fdf6 49be aaeb b13d 30c0 31be a7f1 a2bd
00000280: 433b aa3d 4d30 7fbd dc4b 953d 7a1e 233e
00000290: 9e80 873d 4c4f db3d 784b febd 1854 36bc
000002a0: 1cc0 6fbe f582 113e 66f6 cc3d 230f 2fbe
000002b0: a8bd ea3d 67dd f2bd 3355 c8bd f0d0 05be
000002c0: 5310 f63d f917 253e ac51 1fbe 1e80 12be
000002d0: 3c53 b23c 1e37 47be c3c0 193e a9d0 6fbd
000002e0: bb3a 9e3d 067f 0a3e ac71 d43d 3b2a 503d
000002f0: 8918 5cbd 578a 523d 71fa 7abd b406 73bd
-0.3201193 0.06552627 -0.07612885 -0.5052863 -0.7230082 -0.34300894 -0.07209252 -0.17125134
-0.16776565 -0.18795209 -0.11776289 -0.10826399 0.107408814 -0.015381568 0.07807169 0.12629256
0.006928166 0.044484466 -0.12755556 -0.15265542 0.059351444 0.03747622 0.060219888 0.022904126
-0.29038498 -0.16039245 -0.21900053 0.5188124 0.65755177 0.71281034 -0.15152253 -0.28512135
-0.34592256 -0.07388762 0.2315825 0.17747943 0.109675 0.15541293 0.11896835 0.0866412
0.12553382 0.14797273 -0.03814338 0.30910617 -0.0021216762 0.03308708 -0.08175716 -0.2060248
0.13358217 -0.13451329 -0.008001629 0.034634203 0.01576292 -0.104452625 0.10780731 0.025446782
0.005590172 0.0021235636 0.0004601236 -0.1942932 0.0898697 -0.15651292 -0.1722093 0.17890546
0.08275952 -0.17476755 0.15507181 0.23154867 0.11032884 -0.16017993 -0.16103381 0.17513822
-0.19176847 0.020770075 -0.18802366 0.020982154 -0.15966575 -0.08101676 0.040986516 -0.009383551
0.015805358 0.09757104 0.0035739106 -0.19011182 0.1817927 -0.20573436 0.095767565 -0.07259993
-0.1787253 0.016047286 -0.10890971 0.14072336 -0.09507739 0.0619732 -0.1482401 0.09078041
-0.013594211 0.7336832 0.030479277 -1.0550431 -0.8784491 -0.7666653 0.14983124 -0.20375966
-0.037230603 -0.1645797 0.19585446 -0.18426964 -0.06473642 -0.36167404 -0.08912653 0.08304987
0.12988852 0.055317666 -0.20378049 -0.020372916 0.022556983 0.12694281 0.048130985 0.09226978
0.0081427125 0.14089091 -0.06985719 -0.20638168 -0.5374926 -0.54404795 -0.19183183 -0.09490727
-0.036544427 -0.114427865 -0.20584394 0.13218217 -0.0928232 -0.18785053 0.037214674 -0.14512932
-0.045450784 0.010094747 -0.04646448 -0.1506877 0.033475384 0.08598067 -0.16072701 -0.19389547
-0.0069756373 -0.07870934 0.05652939 -0.17586046 -0.120268285 0.0022381286 -0.15128964 -0.16441825
0.15600269 0.13460515 -0.069591604 -0.11334041 -0.19723125 0.086875275 -0.1735847 -0.07956248
0.083120845 -0.062301923 0.0728986 0.15929595 0.06616329 0.10708484 -0.12416738 -0.011128448
-0.23413128 0.14210112 0.10007934 -0.17095618 0.11461955 -0.118586354 -0.097818755 -0.13067985
0.12014832 0.16122426 -0.15558499 -0.14306685 0.021768205 -0.1945462 0.15014939 -0.058548603
0.07726046 0.13525018 0.10373244 0.050821524 -0.053734336 0.051401462 -0.061273996 -0.059332564

bias f4 [8]
00000000: 5802 dfbe ff5b 8bbf 3dd9 d0be 013f 61be
00000010: b345 cebd 826d 83bb c0cc 59be 205b afbe
-0.43556476 -1.088745 -0.4079074 -0.2199669 -0.10071888 -0.004010857 -0.21269512 -0.3424921

weight f4 [8, 8, 3]
00000000: 4c8f 203e bcfa ee3d d467 833d 8dad 1f3d
00000010: d322 8ebe d3d6 7d3d 9e38 babd 1882 3e3e
00000020: 0a97 4a3e a645 4dbd 9368 cfbd 4d12 493e
00000030: 808a 04be dd4d 233c 1bbe 21be 04a5 35be
00000040: c5b7 03be 3844 18be 6ddd 3b3e e439 dbbd
00000050: 3b35 3c3c 22ea 123e 19c3 8fbd 9d27 433b
00000060: 0838 eebd d09b 363e ab0e 283c 8fe1 ba3d
00000070: 95f4 26bd 3d05 12bd 0af0 1dbd 701d ffbd
00000080: a74f 14be f02e b0bc 83cf 51bc 8ac0 bebc
00000090: cccd 9cbd 16e6 7e3d 959b 5cbe ce8b cb3b
000000a0: 2bdf 0abe d880 0e3e 9b8a 50be 2f56 463e
000000b0: b7fc 113e ab40 12be 2d09 3bbe a316 e1bd
000000c0: 0591 1bbe 613d a9be 781a 8b3d a620 a8be
000000d0: b773 b8be dfc6 77be 2bc4 103e d4b4 e83c
000000e0: 672c 563e 3b73 fdbd 725c 3a3e 4c98 2c3e
000000f0: 5ba6 b5be bec8 1cbf 85a2 e0be 6c2c d33d
00000100: 31dd 19bd fb9c 213d cdaf 2c3e ce68 1a3e
00000110: 954f 383e 4bff 403d 235f 4ebc 285e 8fbd
00000120: f5b2 b4bd ac92 19bd f2bf e3bd 5ba2 29be
00000130: b673 1cbe 689a cb3d 50b5 4ebe 226a 833c
00000140: 5d0e a1bd abf8 103e dacb 06be 7a9d cfbd
00000150: e050 9abe a118 d2be 6ef5 f1be 7315 013e
00000160: f125 bf3d a0e0 07be 9907 6bbd 3312 ec3c
00000170: fb06 173e f194 863d aedc 55bd 3510 18bc
00000180: 4fc3 cdbc bf2a 443e 9ddc 7cbb b6e4 03bd
00000190: 0e4f 13be 5252 823c 6ca1 c0bd 9a3c e43d
000001a0: a965 1d3c 207d 42bd f3ae 053e 0e36 26bd
000001b0: 1c36 69be c384 473c c681 1dbd b073 d73d
000001c0: 492a c43d dbf8 bcbd 8aa0 6d3d 85f5 32be
000001d0: f0c9 293e e7d0 28be 6829 42be 96c6 8dbc
000001e0: 5716 1f3e 4ce4 2dbd 43d9 43bd 7d2d d03d
000001f0: 48e2 0d3e 7bda 813d f6a4 343d 9da1 003d
00000200: a5ed 3d3e 7237 ff3d 613a 85bd 4ce3 b13c
00000210: df8a 143e 14ec 1bbe e70f 33be 60b1 483d
00000220: b5c9 40be 426e 723d 4cef 0fbe 1971 483d
00000230: b839 f9bb b740 3bbd 0351 3cbe 55c5 223e
00000240: 0e53 4ebd 4c0e f3bd a619 64bd 84a6 a83e
00000250: cae0 003f ca81 b03e 68ad 5e3c 3cae 2e3e
00000260: 8961 4abd ef6e d03d 7f77 173e 81fb 113e
00000270: ac95 5f3e 2911 2b3e 4466 9a3e 2918 6a3e
00000280: 3792 a63d 6843 1e3e 2441 363a 7146 cc3d
00000290: 2634 bd3c 91ff 2fbe 5f02 40bd 118c 983a
000002a0: fdab 65be 5756 f5bb 61c7 80bc 0797 41be
000002b0: 920f 4cbe 8dda 82bd c0cf ebbd 1b1c 00be
000002c0: 34e4 4fbd 6655 043e 50e1 80bc 990a afbd
000002d0: 46fa 4f3e 4ca7 c73d 1a09 393e 3020 3abe
000002e0: 947b 9cbd aaeb bd3c 3fdf 4b3e 022d 20be
000002f0: dbca b8bc ebdb 9fba 25e1 acbd 4830 0dbe
0.15679663 0.116689175 0.06416288 0.03898387 -0.27760944 0.06197245 -0.0909283 0.18604314
0.1978418 -0.05011525 -0.10127368 0.19635887 -0.12943459 0.0099672945 -0.15795176 -0.1773873
-0.12863071 -0.14869773 0.18346186 -0.10704401 0.0114873005 0.14347127 -0.07019634 0.002977825
-0.11631781 0.17832875 0.010257403 0.09125053 -0.040760595 -0.035649527 -0.038558997 -0.12456787
-0.1448351 -0.021506757 -0.012805822 -0.02328517 -0.0765644 0.062231146 -0.21543725 0.0062117344
-0.13561694 0.13916337 -0.20365374 0.19368814 0.1425656 -0.14282481 -0.18265219 -0.10990646
-0.1519204 -0.3305464 0.06792158 -0.3283741 -0.36025783 -0.24196957 0.14137332 0.028406538
0.20915376 -0.12375494 0.18199328 0.16854972 -0.35478482 -0.6124381 -0.43873993 0.10311207
-0.03756446 0.03945635 0.16863938 0.15079042 0.17999108 0.047118466 -0.012595925 -0.07000381
-0.08823196 -0.037493393 -0.11120595 -0.1656584 -0.15278515 0.0994156 -0.20186353 0.016041819
-0.07864068 0.1415736 -0.131637 -0.10137458 -0.30139828 -0.41034415 -0.4725756 0.12605838
0.093334086 -0.13269281 -0.057380293 0.028817272 0.14748757 0.06571377 -0.05221241 -0.009281208
-0.025117544 0.19156931 -0.0038583644 -0.032200538 -0.14385626 0.015908394 -0.09405789 0.11144371
0.009606757 -0.04748261 0.13055019 -0.040578894 -0.22774547 0.012177649 -0.03845384 0.105201125
0.09578378 -0.09227153 0.05801443 -0.17476471 0.1658094 -0.1648594 -0.18961108 -0.017306607
0.15535866 -0.04245405 -0.04781462 0.10164926 0.1385585 0.063405 0.04410263 0.031404126
0.18547685 0.12461747 -0.065052755 0.021714829 0.145061 -0.15226775 -0.17486535 0.048997283
-0.18826945 0.05918718 -0.14056128 0.048935983 -0.0076057576 -0.045716014 -0.18390279 0.15895589
-0.050372176 -0.11867961 -0.055688523 0.3293954 0.50343 0.3447402 0.013591148 0.17058653
-0.049409423 0.10177409 0.14791678 0.14256097 0.21834439 0.16705765 0.30156147 0.22860779
0.08133357 0.15455401 0.0006952456 0.09974373 0.023096155 -0.17187335 -0.04687726 0.0011638423
-0.2242889 -0.007487099 -0.015720071 -0.18905269 -0.19927815 -0.063893415 -0.115142345 -0.12510721
-0.05075474 0.12923202 -0.015732437 -0.08546943 0.20310315 0.09748706 0.18069878 -0.18176341
-0.07640758 0.023183662 0.1990938 -0.15642169 -0.022557667 -0.0012196278 -0.084413804 -0.13787949

bias f4 [8]
00000000: 4cda dc3d 51d9 a2bd a53e 9cbd 3753 e2bd
00000010: e836 d3bd a37f aabe ac1c 43bf 123b edbe
0.10783824 -0.07951606 -0.07629136 -0.11051028 -0.10313207 -0.33300504 -0.76215625 -0.4633413

weight f4 [8, 24, 1]
00000000: 0afb 323d 53a4 403f b8e2 60be a8cf fabe
00000010: e87b 24bf 1cff 53be 0514 0ebf 83df 4dbd
00000020: 7b16 74be c3a2 4bbe e6c5 ae3e 15e2 e2bc
00000030: b099 0c3e 919b 07bf 1114 463e c0b7 2c3e
00000040: 335d 0cbe cb86 06be e3f1 953e 3baa 8c3e
00000050: 5e17 ba3c 81a7 47be b6a1 f63e 8793 ad3e
00000060: 1d18 25bf 80e6 f63e c030 d13e 22a8 4cbe
00000070: 2f9b afbe 9dde bbbd fd5b 393e 6c91 30be
00000080: 9827 343e dbb2 51bf 56d0 35be 5528 363c
00000090: 943b cb3d 06d0 d43c 8814 ed3c 76fc 83bb
000000a0: 742e c43d 5a5c d13d 660d 103f d7bf d13e
000000b0: 22e6 d53d 96e1 6a3e 4c22 bb3e 18e3 cf3e
000000c0: 4a04 e83d 9ce8 87bd 6c60 8bbc 34bd 373e
000000d0: 561f ec3c 289f cc3c aecd 653d 425d e1bd
000000e0: 6eaf 413d 186a dc3d f9bc aebc bb54 16be
000000f0: 0b12 dd3d 8296 a33d 2328 82bd 6654 71bd
00000100: a8a8 1fbe 246f 3dbc 8b63 4bbd 779b d5bd
00000110: f758 07bc 79a2 c93d a419 e7bd 45a2 d2bd
00000120: 7d36 083e 06a3 37bd f4cd a7bc 9c5f 2b3e
00000130: 70c1 273d 3955 c4bd ca79 793c f9db e33d
00000140: d4ef d539 106f ab3d d8ce 3b3d ae48 eb3d
00000150: b7d7 e33d 6de5 de3d c428 b13c f952 d43d
00000160: f0f0 bfbd 3730 53be 9a1f 77bd 8159 45bd
00000170: 21ee 173e cff9 233d 6b22 e9bd 9d47 49be
00000180: f3e8 403d 0a04 08be de4e dbbc d71f 3f3e
00000190: 331e 3f3d 3afa 2dbd b229 343d e3df 923d
000001a0: 7499 fd3c 61cb d23d 85a6 25be 8838 e43d
000001b0: 9e10 f63d 4ce2 8e3d 3fb5 c83d 1ea9 233b
000001c0: 33e5 db3b 200d 9fbd 4449 96bc 32a5 c8bd
000001d0: 75b3 0cbd 05a0 973d 772e cbbd f3aa 36be
000001e0: ab35 f3be 5543 ddbe 0ae0 b13d cbc6 5dbf
000001f0: e7c5 4a3f 6c5c 4a3e c5bf 503d f3a4 023c
00000200: 0873 18bf 8548 ddbd 632b 1f3d c6b6 ce3d
00000210: f3c2 74bf c559 53be 9bdb d83d e4e3 41be
00000220: 0ead 02be a583 9c3d 6d48 abbe f1bf b3be
00000230: 3a9d 08be cef6 61be 823b 4b3e 0ed0 193e
00000240: bd58 253f fc9f 86be 4cfd f3bd c30f 363f
00000250: 8c3f 3abd 68cf 393e 0ead b23d d644 b63d
00000260: 75bf 203f 0299 143f f6a6 2abc 4618 ccbd
00000270: 3be1 863e 34b2 c13e 31c6 c83d c849 373e
00000280: c2bc 383e 47c4 673e 01f6 9abe f1b0 a13e
00000290: 5d26 e83b f738 9fbd 43de ebbe 7d68 62be
000002a0: 25ba 003e 056e 6abe 57a9 a8bd 757f 9e3e
000002b0: 63a9 d43d a374 ee3d aed2 8e3d 6797 b13d
000002c0: 63a3 b73d 19f6 4f3e 5f73 6dbd d2b3 bc3d
000002d0: ab2c 003e 3db8 023e 8cd8 16bd 9ec4 01be
000002e0: 7d4f 1dbe d953 c6bc 4a35 28be eabc 89be
000002f0: cdf6 7bbc e4c2 a6bc 0b68 6abe dc9f a7be
0.04369644 0.7525074 -0.21961486 -0.48986554 -0.64251566 -0.20702785 -0.554993 -0.050261986
-0.238367 -0.19886307 0.3413536 -0.027695695 0.13730502 -0.5297175 0.19343592 0.1686697
-0.13707428 -0.13137357 0.29286107 0.27473626 0.02271622 -0.19497491 0.4817025 0.33901617
-0.6448992 0.48222733 0.40857506 -0.19986013 -0.34298083 -0.091733195 0.18101497 -0.17242974
0.17593229 -0.81913537 -0.17755255 0.011118014 0.09923473 0.0259781 0.028940454 -0.0040278984
0.09579173 0.10222693 0.56270444 0.40966675 0.10444285 0.22937617 0.36549604 0.40602946
0.11328943 -0.066361636 -0.017013751 0.17943269 0.028823536 0.024978235 0.056104355 -0.11004116
0.047286443 0.10762423 -0.021330344 -0.1468076 0.10794457 0.079876915 -0.06355312 -0.05891838
-0.15591681 -0.0115621425 -0.04965548 -0.10430043 -0.008260957 0.09845442 -0.112841874 -0.10284857
0.13302036 -0.044833206 -0.020483948 0.16735691 0.04095596 -0.095865674 0.015226791 0.11125941
0.00040805212 0.08370793 0.04585156 0.11488472 0.11125129 0.10883603 0.021625884 0.10367388
-0.09372127 -0.20623861 -0.060332872 -0.04818106 0.14836933 0.040033158 -0.11383518 -0.19656225
0.047097158 -0.13282791 -0.026771005 0.1866449 0.04665966 -0.042474963 0.043985076 0.07171609
0.030956961 0.10292698 -0.16176803 0.11143595 0.12014888 0.069767565 0.09800195 0.0024972628
0.0067106723 -0.07766175 -0.018345483 -0.097971335 -0.03435083 0.07403568 -0.09920972 -0.1783865
-0.47501883 -0.43215433 0.0868531 -0.8663146 0.79208225 0.19761819 0.050964136 0.007973897
-0.59550524 -0.10804848 0.038859736 0.10093455 -0.9560997 -0.20639713 0.105887614 -0.1893459
-0.12761328 0.07642297 -0.33453694 -0.35107377 -0.13341227 -0.22066805 0.19846919 0.15020773
0.6458853 -0.26293933 -0.11913547 0.711178 -0.04547076 0.18145525 0.08724414 0.08899848
0.6279214 0.5804597 -0.010415783 -0.09965567 0.26343712 0.3783127 0.09803427 0.17899239
0.18040755 0.22633468 -0.3026581 0.31580308 0.0070846514 -0.07774537 -0.4606801 -0.22110172
0.12571009 -0.22893532 -0.08235424 0.30956617 0.103838705 0.116433404 0.06973778 0.08671456
0.089667104 0.20308723 -0.057971355 0.092139855 0.1251704 0.12765594 -0.03682761 -0.1267266
-0.15362354 -0.024209904 -0.16426578 -0.26901942 -0.015378666 -0.020356603 -0.22891252 -0.3273915

bias f4 [8]
00000000: 30e8 bbbe 8df5 5d3f d128 36bf 1827 36bf
00000010: fe5f 38bf 6c7b 713f 9e09 ab3f 4629 19bf
-0.36700583 0.86702806 -0.7115603 -0.711534 -0.7202147 0.9432895 1.336231 -0.59828603
