Final_Masterarbeit/Masterarbeit/CNN_30_StandardScaler.pt (torch, 10191 bytes, 12 tensors)

weight f4 [8, 8, 3]
00000000: fc1c 51bc bee6 b8bc 22cc c63b 0940 aa3e
00000010: a3c4 563e 6df5 6c3e c6e3 223e 63ca fcbc
00000020: f883 9dbe 7313 04ba 3472 d3bd 27ae a4be
00000030: f963 a43e 38ac b33e 2bc5 173f 3f86 0cbe
00000040: e851 15be 0b76 353e c133 6dbd 1ec2 c2be
00000050: 6e60 c5be a57a 983d f0ea 24be 200a b8bd
00000060: fe1a c9bd 50f1 b4be 8196 26bf e190 05bc
00000070: 8333 233e 2870 fe3e 55ce 99bd 8141 19bc
00000080: 1dd7 ddbe a90b 8fbd 4962 f5bd 9c27 c3be
00000090: 1fe6 0cbd 778a d33a de2f 34bf bb90 08be
000000a0: 7c25 77be 2321 89bd 0df3 ba3d 3947 6f3e
000000b0: 05e4 663e 8540 273f 76a2 d93e 560e 973f
000000c0: a5d3 eebb 2cdb 36be 256c 773d cc4e db3e
000000d0: 5565 83bd 9d69 84bf a922 013d 4732 913e
000000e0: becc 5d3e b647 3dbd 2f7e 8c3e 8b29 bb3e
000000f0: e6d6 303d 2717 f8bd 0f28 383e 267b dbbe
00000100: 8b0a 37be 983f 473f 6544 ef3a 9e5c 723e
00000110: 77a4 133f b70d 513e a8eb 39be 2786 f4be
00000120: dd5d 5d3e b29f 8e3d 0dbd ad3c 059e 5dbe
00000130: e706 2cbe b13c 59bd 8b58 a73d 9aa1 b0bd
00000140: 859b c8bd 6225 d23d a37c 04bb 7868 363e
00000150: bdd1 7cbd 12e9 6a3d b1a0 143e 5bc1 593d
00000160: 2771 42be 5856 703d 294f 05be c0c8 edbd
00000170: aaa1 da3d 7724 9ebd c7f7 45bb 32d5 1f3e
00000180: 1317 52be 7b05 c2bd 6030 383d 1c4f cebd
00000190: e03b 28be 1f5f 923e 46c0 603d 23f3 113d
000001a0: 13af 75be eb71 27bd f19c 30be 19c8 5f3d
000001b0: a65e c63e bd41 083f fcd6 023f 9e6c fa3a
000001c0: 0b1c e53e 40bb 02bf 9257 5abe baf3 cf3c
000001d0: 4d97 8c3c af4f 49be e104 a9be 954f 92be
000001e0: 7590 3abd c4d6 14be 913b 96bc 488f 36be
000001f0: cd71 2f3e abf3 f8bd 8c12 433c e1e6 50be
00000200: 91d6 503e b109 45be 65ea 023e 6b26 383e
00000210: 8c84 efbd e609 473e 28f2 403e c5ed 59bd
00000220: 2c84 2fbe 995d 063e b1bf cb3e ed20 08be
00000230: 9f4f 95be 24fa adbe b928 e03d aa29 013f
00000240: 909c 9fbd 8288 453c 633b 05be fd1d c93d
00000250: 11b0 e03c 83d4 c9be 5590 b43d 0446 8ebd
00000260: 8f8e cbbd 7e2a 003d d928 d3bc c390 1ebe
00000270: 85f1 bb3d 8773 de3e 62b6 d83e c0d7 0a3f
00000280: 7f9e 263d 56ee 0cbe 17cd 98be 68b3 babd
00000290: daef e63d 8b43 ef3b a6f5 46be c045 92bd
000002a0: c7f4 23be 3d88 afbd fa2b ea3e c163 1f3d
000002b0: 5c08 d5bd e932 67bd 63a0 07be 2d01 5e3e
000002c0: fb12 17bd 6d44 193e c066 d6bb 111d 5e3e
000002d0: 360f 983c 303f 04be 5ba5 6ebd f0a5 b43e
000002e0: 2173 80be 54b2 99bf 7ed3 5bbe 8490 973e
000002f0: e74a ff3e d346 15bd 6ee7 013d bfcd fdbd
-0.012763258 -0.022570964 0.006066815 0.3325198 0.20973448 0.23140498 0.15907201 -0.030858224
-0.30764747 -0.00050382986 -0.10324517 -0.32164118 0.32107523 0.3509233 0.5928523 -0.13723086
-0.14582026 0.17720811 -0.057910684 -0.38038725 -0.38550133 0.074452676 -0.16105247 -0.08986306
-0.098196015 -0.35340357 -0.650734 -0.008152218 0.15937619 0.49694943 -0.07510058 -0.009353996
-0.4332818 -0.06984646 -0.11981637 -0.38116157 -0.034399148 0.0016139288 -0.7038554 -0.1333646
-0.24135393 -0.066957735 0.091283895 0.23367013 0.2254792 0.65332824 0.4250676 1.180125
-0.0072884136 -0.17857045 0.06040587 0.42833555 -0.06415812 -1.0344731 0.031527195 0.2835867
0.21660134 -0.046210967 0.2744002 0.36555132 0.043173693 -0.12113791 0.17984031 -0.42867392
-0.17875116 0.7783141 0.0018254636 0.23668143 0.5767283 0.20415388 -0.18156302 -0.477586
0.21617837 0.06964053 0.02120831 -0.21642311 -0.16799508 -0.053036395 0.08171185 -0.08624573
-0.09795288 0.102610365 -0.002021589 0.17813289 -0.06172346 0.05735118 0.14514424 0.053162914
-0.18988477 0.058676094 -0.13018478 -0.11610556 0.10675366 -0.07721799 -0.0030207501 0.15608671
-0.20516615 -0.094737016 0.04496801 -0.10073683 -0.1642909 0.28588197 0.054870866 0.035632264
-0.23992567 -0.040880125 -0.17247368 0.054634187 0.38744086 0.5322531 0.5110929 0.0019105857
0.44747958 -0.5106697 -0.21322468 0.025384773 0.01716199 -0.19659303 -0.33011535 -0.2857634
-0.04554792 -0.14535052 -0.01833895 -0.17828095 0.17133255 -0.12155851 0.011906277 -0.20400573
0.2039435 -0.19241978 0.12784727 0.17983405 -0.11695203 0.1943737 0.18842375 -0.05320527
-0.17140263 0.13121642 0.39794686 -0.1329381 -0.2916231 -0.33979905 0.10945267 0.504542
-0.07793534 0.012056472 -0.13010935 0.09820173 0.027427705 -0.39419946 0.08816592 -0.06946948
-0.099393 0.031290524 -0.025776314 -0.1548491 0.091769256 0.43447515 0.42326647 0.5423546
0.040678497 -0.13762793 -0.2984397 -0.0911625 0.11276217 0.007301753 -0.19429645 -0.0714221
-0.16011344 -0.08570907 0.45736676 0.038913492 -0.10401985 -0.056445036 -0.13244776 0.21680136
-0.036883336 0.14967509 -0.0065430105 0.21690775 0.01856194 -0.12914729 -0.058263164 0.3528285
-0.25087836 -1.2007546 -0.21467397 0.29602444 0.49861833 -0.036444496 0.03171485 -0.123927586

bias f4 [8]
00000000: 7c62 27be d6eb e7bd 6dd0 d8be 2762 283e
00000010: f5f4 0e3e 7478 6e3d 572a a2bd 310d aa3e
-0.16346163 -0.11324279 -0.42346516 0.16443692 0.13960631 0.05822034 -0.07918232 0.3321319

weight f4 [8, 8, 3]
00000000: 9330 81be 5360 02be b20f 88be b176 29be
00000010: b091 e8bc e630 fabe aca1 6b3e 73e5 ea3d
00000020: f639 c9be a280 323e 2a03 a33d 03ac 753c
00000030: ff94 593e 9d3a 01be fef7 533e cc6f 7c3e
00000040: b279 243e bbc9 7abe 1407 673d 9595 863c
00000050: 7e15 cd3e 87ca d33e e960 a23d 6235 b23e
00000060: 920d c7bc d305 903e 66c4 5b3d 3b5a cf3e
00000070: 781b 0cbc 637a 93bd 74f7 21be 1720 7abe
00000080: e9bf debd a21b a0bd 5b32 aa3d d898 853c
00000090: ff4b 37be 73c6 11be 0508 39bd 9ef3 32be
000000a0: 04bc 3cbd 9345 ac3c 7ff9 bf3d 06a2 be3d
000000b0: 8909 4cbe 25de 05be f647 2dbe cee4 71be
000000c0: 3b29 053d b48b 75be 2774 32be 768c 213e
000000d0: 518e 4f3c a384 4abe 1d0e cdbd 5b35 9dbd
000000e0: a015 debd fb28 433e fcba 1d3d 58cb 3bbd
000000f0: 36ef 6b3d 0418 48be 5d6b 813d 600d 073d
00000100: 6811 c13e 3289 79be d478 a7be 8cf5 303d
00000110: 2b97 6b3e 7679 b93d 7dd4 223e 73d2 293f
00000120: b641 a0be 63be b7bd 24d1 0a3e 555b e93a
00000130: d55b a2be 7e7b 56be abb5 02be b6da 1dbe
00000140: c92f 29be 637b 363e 8127 4abe 4820 ff3d
00000150: c8ac e23d 7917 6abd c317 683c 0ff6 debd
00000160: 9e8b 11be ffed 7f3c 4fe3 9cbe fd67 75be
00000170: 5c46 433e 44de a5bd 6e54 56bd 7646 7fbe
00000180: 96e5 eabd 8e31 8bbd f05e ffbd 06e5 27bc
00000190: b5dc d3bc 35f6 fdbe 21e7 b63e 70e6 2abb
000001a0: 46f2 573f 4a7c 3a3d c031 0ebe d7a2 4dbe
000001b0: 02f1 a5be 464b ce3d c8fe 9a3d f497 973d
000001c0: 3bb8 f5bc e624 0abe 2c63 c1bd 93a8 78be
000001d0: 0908 863c b46b c4be 3676 a9bd a606 efbc
000001e0: 00f1 073e 3589 253e f94c cb3e c825 17be
000001f0: 7744 013d fea9 aabe 30c6 3dbe b761 a4be
00000200: 47af d9bd a525 903d d515 99bc 033c 32be
00000210: 3be3 ca3e 7fee 42be 28a8 213e 3ac2 493e
00000220: 1bf5 ad3e 9da5 193d 79be a9be 12d5 9fbd
00000230: 3828 113e 4f22 bd3e 13d4 20be 4d1c 17bf
00000240: 43ed a23d 8df4 fa3d 187c a8bc 976b 5bbe
00000250: 460f fdbd 9351 493f 86c2 4b3e b1ce cb3d
00000260: e3a4 8cbe e5fa 623d 2b35 313d 1ab2 e9bd
00000270: d223 89bd 91b2 36be da1d afbe 0502 c63d
00000280: a984 573d 702a 833e f13d 43be fb3d 35be
00000290: 1d8c 7e3d 61b2 dd3d 2091 493d 17b8 26be
000002a0: ecdd ad3e ef12 853e 4142 3f3d d4c2 0a3f
000002b0: a846 29bd 62cb 12bf 92f6 4fbe 1da2 e2bd
000002c0: ced0 71be b80e 39be ecc2 9ebc a62b 113e
000002d0: dbb3 43be 35ba 92be 7046 dbbe ce91 d23d
000002e0: 9a1f 363e 93c7 833d fc64 58be d915 503d
000002f0: 0d7d 68be 2e74 36be 7f53 98bb 4fa4 e8bd
-0.25232372 -0.12732057 -0.26574475 -0.16549183 -0.028389782 -0.48865432 0.23010892 0.11469545
-0.39302033 0.17431882 0.07959588 0.014994624 0.21248244 -0.12620015 0.2070007 0.24652022
0.16062048 -0.24491017 0.056403235 0.016428748 0.4005546 0.41365454 0.079286404 0.34806353
-0.024298463 0.28129444 0.053654097 0.40498528 -0.008551471 -0.07201078 -0.15817052 -0.24426304
-0.10876448 -0.078177705 0.08310386 0.016308233 -0.17900084 -0.14235859 -0.045173664 -0.17475745
-0.046077743 0.02102927 0.093737595 0.09308247 -0.19925512 -0.13073023 -0.16921982 -0.23622438
0.032510024 -0.23979074 -0.17427121 0.15776238 0.012668208 -0.1977716 -0.100124575 -0.076761924
-0.108439684 0.19058602 0.0385084 -0.04584822 0.057601176 -0.19540411 0.06319306 0.03297174
0.37708592 -0.24368742 -0.32709372 0.04320292 0.23006885 0.0905637 0.1590137 0.66336745
-0.31300133 -0.0897186 0.13556343 0.0017803708 -0.31710687 -0.20945546 -0.12764613 -0.15415463
-0.16522135 0.17820506 -0.19741632 0.12457329 0.11068112 -0.05715129 0.0141658215 -0.10886776
-0.14213416 0.0156207075 -0.30642173 -0.2396545 0.19069809 -0.080990344 -0.052326612 -0.24929222
-0.11469571 -0.06796561 -0.1246928 -0.010247475 -0.025862077 -0.49601904 0.35723212 -0.0026077293
0.84354055 0.045528688 -0.13886166 -0.2008165 -0.32410437 0.10072951 0.07568127 0.0740203
-0.029995074 -0.13490638 -0.09442744 -0.24283056 0.016361253 -0.3836342 -0.082745 -0.029177975
0.13275528 0.16165622 0.39707163 -0.14760506 0.031559434 -0.3333282 -0.18532634 -0.321058
-0.106291346 0.0703843 -0.018687168 -0.17405705 0.39626488 -0.19036292 0.15786803 0.19702998
0.33976063 0.037511457 -0.33153132 -0.07804312 0.14175498 0.36940238 -0.157059 -0.5902756
0.0795541 0.122536756 -0.020566985 -0.21427761 -0.12356429 0.786401 0.19898424 0.09951533
-0.2746955 0.055415053 0.043263596 -0.11410923 -0.06696285 -0.17841555 -0.34202462 0.09668354
0.05261675 0.25618315 -0.19066598 -0.17699425 0.06214534 0.10825039 0.049210668 -0.16281162
0.33958375 0.25991008 0.046694044 0.54203534 -0.04132715 -0.5734159 -0.20308903 -0.11066077
-0.23614809 -0.18072021 -0.019380055 0.14176807 -0.19111578 -0.2865769 -0.42827177 0.10281716
0.17785493 0.0643455 -0.21132272 0.050802086 -0.22703953 -0.17817757 -0.0046486254 -0.113594644

bias f4 [8]
00000000: 1c03 93bd 180b b1bd c46e afbd 1847 a93e
00000010: 1035 e5bc e675 443e f189 90bd 097b 60bc
-0.071783274 -0.08644694 -0.08566049 0.33062053 -0.027979404 0.191856 -0.0705756 -0.013701209

weight f4 [8, 8, 3]
00000000: e746 60be 3387 46bd ad0d 113e 2dc1 c6bd
00000010: 8c2a 1cbe ffce 43be a736 0ebe c383 6dbe
00000020: 3c70 3d3e 172c eb3d 42a7 9ebd 255b fb3b
00000030: 2ab3 b93d c6e2 973d 43a8 19bd 17fc 7abe
00000040: f35d b2bc bdf5 83be 59b3 15be cb3a 86be
00000050: 2588 96be d2fe e5bc d4cd 81be b538 adbe
00000060: afd2 89be 075f a1be 58ee 8cbe 45fd 2bbd
00000070: 00ac c2bb ea37 863e f0f6 e6bc 44e7 17bd
00000080: 7a5e d9be f381 a6be c221 bdbe 0b12 a7be
00000090: 3c94 80bd 64d4 41be 475a 19bf bb45 7abe
000000a0: 1d7d 21be e623 ebbe a14b b9bc 2439 043d
000000b0: b58a 293d ca6b 063e 9ecf 173e 7e20 733e
000000c0: bcc8 25bf 6a72 21bf 3b72 11bf 75f0 55be
000000d0: aac9 47be 72fd 28be 81e6 41be cef4 96bd
000000e0: e612 14bf 5244 bfbd 34e5 2ebe d94b e8bd
000000f0: 5fb9 0bbf e0ad 1dbf 211f 89bf 89ad 403e
00000100: de95 993e e60d a83e a38b 9abc 0eb1 d3be
00000110: c253 f8be 6afc b9be b6ef 433b ae0e 1bbe
00000120: 42ad 0f3e dcd2 213c dd7e 52bd 3210 cdbd
00000130: dbc8 983d a629 b13c 1229 05be 9f96 b73b
00000140: 9124 42bd 0d46 cebd 486a 0c3e fe2b 053e
00000150: 4120 22bd ba22 16bd 8336 43be 8ba2 5bbc
00000160: 359b 94bd 515d b93d 8254 b1bc cf15 073d
00000170: 776e 8cbd c733 0cbe 2108 863c e00b 0c3e
00000180: aa7e 20be 5585 bcbe fea0 19be 0da3 9bbe
00000190: 07d9 82bd 2fc8 a5bc 0cb8 8cbd 549c d8bd
000001a0: fb36 19be 2b24 aa3e 77d0 ac3e 7cba cd3e
000001b0: 076a 04be ba86 a3be ac1f 02bd dac2 ca3c
000001c0: c88d 803e a9cf 583d 72ab f9bd 4c49 a1be
000001d0: 396c 3cbe 0a66 92be a008 55be 58d8 bcbe
000001e0: fef2 803d c423 173c 073a e63c 993a ebbd
000001f0: 738a bbbd 9d26 febd 9f45 8dbd 10d8 463d
00000200: 8c43 e83e 2ee3 27be f03d 91bd e4e8 80be
00000210: 64d4 57bc 21c3 21be 663d abbe 3784 bbbd
00000220: c6c6 1f3f 8567 913d c65a 9dbd 1ee6 223c
00000230: 1f10 723e f91b aa3e cc1e 973e 1cbe 9ebd
00000240: 0804 5ebe 6390 46bc 7bf9 05be 2ac8 183e
00000250: 6ae9 323e 10ca 853d d3bb f13d f277 ba3d
00000260: 5710 7cbe f96f 7f3e a74a 123b b9d8 33bd
00000270: 093a 98be 81e0 89be 8145 b73e aac7 19be
00000280: ef8e f33d 9ed0 58bc 12ea 023b 3c8a 47bd
00000290: 5802 0dbe 0a54 803e 034d 8a3e e82b e9bc
000002a0: d71b 94bc 144d 5e3d 2e16 a6be 37a8 84bd
000002b0: 45c0 70bc bc3e a5be f039 2f3d 70ec 38be
000002c0: 7749 e5bd f0cd af3c 6204 40be f5c7 9f3d
000002d0: 1b51 b03e 9d88 343e d447 02bf 0303 a8bd
000002e0: 5c57 0dbe 2190 16be 0eb8 a3bd a0b5 b0bd
000002f0: 6896 3f3f 2931 69be f5df 2ebe 3fc3 783d
-0.21902047 -0.04846878 0.14165373 -0.09704814 -0.15250605 -0.19121931 -0.13888036 -0.23194794
0.18499845 0.11483019 -0.07746746 0.0076707774 0.09067376 0.074163005 -0.037513983 -0.24510227
-0.021773314 -0.2577342 -0.14619197 -0.2621673 -0.29400745 -0.02807561 -0.25352347 -0.33832327
-0.2691855 -0.31517813 -0.27525592 -0.041989584 -0.005940914 0.26214534 -0.02819392 -0.037085786
-0.42454892 -0.32521018 -0.36939818 -0.32630953 -0.062782735 -0.18928677 -0.5990338 -0.24440663
-0.15770383 -0.45925826 -0.02261907 0.032281056 0.041392047 0.13127056 0.14825293 0.23742864
-0.6475942 -0.63065207 -0.56814927 -0.20892508 -0.19510522 -0.16502932 -0.18935587 -0.073709115
-0.57841337 -0.09339203 -0.17079622 -0.11342592 -0.5457973 -0.6159344 -1.0712625 0.18816198
0.29997152 0.32823104 -0.018865412 -0.4134602 -0.48501402 -0.3632539 0.0029897518 -0.15142319
0.14030936 0.009876933 -0.051390518 -0.10012855 0.07460185 0.021626305 -0.13003948 0.005602672
-0.047398154 -0.10071955 0.13712418 0.13005063 -0.03958154 -0.03665421 -0.19063763 -0.0134054525
-0.07256166 0.09051002 -0.021646742 0.032979783 -0.06857007 -0.13691626 0.016361298 0.13676405
-0.15673319 -0.36820474 -0.1500282 -0.30397835 -0.06389051 -0.020237057 -0.06871042 -0.10576692
-0.1496238 0.3323072 0.33752796 0.4018134 -0.12931071 -0.31938726 -0.031768486 0.024751116
0.2510817 0.052932415 -0.12190904 -0.31501234 -0.18400659 -0.28593475 -0.20804071 -0.36883807
0.06296347 0.009224836 0.028103841 -0.11485786 -0.091572665 -0.12409709 -0.06898045 0.048545897
0.45364034 -0.16395256 -0.07091892 -0.2517768 -0.013173196 -0.15797092 -0.3344528 -0.09156077
0.6241268 0.07099823 -0.07683329 0.0099425595 0.23638962 0.33224466 0.29515684 -0.07751104
-0.21681225 -0.012119385 -0.1308345 0.14920107 0.17471853 0.06532681 0.11803403 0.09104909
-0.24615608 0.24945058 0.0022322328 -0.043907855 -0.29731777 -0.26929095 0.35795215 -0.15017572
0.11892497 -0.013233332 0.0019975943 -0.048715815 -0.13770425 0.25064117 0.2701188 -0.028463319
-0.018079681 0.054272726 -0.32438797 -0.06477397 -0.014694278 -0.32274425 0.042779863 -0.18058944
-0.11195653 0.021460503 -0.18751672 0.07801811 0.3443688 0.17630239 -0.5089085 -0.082036994
-0.13802856 -0.14703418 -0.0799409 -0.08628392 0.74838877 -0.2277266 -0.1707762 0.060733076

bias f4 [8]
00000000: be82 8d3d c0a0 043f ac12 4e3f d5d3 6cbe
00000010: 8232 ad3e b873 d53d e169 c8bd d66d f7be
0.06909703 0.51807785 0.8049724 -0.23127683 0.33827597 0.10422462 -0.0978582 -0.48325986

weight f4 [8, 8, 3]
00000000: 546b 11be 8985 babd 3d67 623e f8cc 0dbd
00000010: 47a8 85be fba4 01bf ddc6 c93d b1c1 cfbe
00000020: 6617 fdbe 2f5e 1e3e f9ff 873b aaf8 bf3d
00000030: 9451 e03d 9356 61be f070 773e 9f24 02be
00000040: 78f8 6ebf a3d7 dcbe 4e08 253d 4ea6 4c3e
00000050: eaa4 37bd 0b8b 893c 2e7a a93c 8f62 67be
00000060: 3625 503e 3fa6 53be 8d85 17bd 7f13 d8bd
00000070: a2fb 77be 4901 343e 4fad 9dbd 3530 1dbd
00000080: 1ceb fbbc 7e51 d13d f503 09bc 531d 2dbd
00000090: b859 2cbe 45bc 7dbd b52c 7a3c ab74 74be
000000a0: 716f 1d3d b11e 79bd aee9 a53c ec5f 07be
000000b0: 8f93 8dbd 6712 53be 7ef0 58bd 6892 09be
000000c0: 684f bf3c 0953 4bbc 7125 14bd 9cbc 9d3e
000000d0: 85c3 803e aed7 913e 9622 2e3e 18b3 a03e
000000e0: a982 813e f00b 243e 49b5 4fbd ca0b b63c
000000f0: 156d 29be 6895 b9bc 9fae 97bd 8e10 123d
00000100: 44a0 473d cca4 103c 3ded dabd 679c 5fbe
00000110: e5e0 0ebd d3fe e5be 6cec 2cbd f170 bfbe
00000120: 68c3 47be 9cd3 b7bd eb63 e43c 84b1 083e
00000130: b4f5 873d eab8 29be 57f5 733d 9b8a d53d
00000140: 8a6a 973d db45 50be 22a1 0d3e dd50 343e
00000150: e7fd 32be c6fd 1ebe f6a5 81bd f291 6ebe
00000160: 5a32 cbbd 5f0b fabd e858 2cbe 0213 1abe
00000170: 8621 293d 2d28 d5bd 42b7 35be 09b1 2bbe
00000180: 74bf 9cbc 5300 86bd b0bd 11be 1835 81bd
00000190: e993 6dbc 672f 57be 8a6d 72be d6eb 95be
000001a0: 3abd 78bd 9bca 653d 131d 3f3e 9796 7f3d
000001b0: 6409 a33c 5390 ec3d e01b 363e 953a babd
000001c0: 0d15 a3be e089 19be 40d2 c13d c5d7 a73d
000001d0: db0e 173e 9b19 3c3d c0e1 823c 52e0 e8bc
000001e0: ef73 78be c88b 94be 8443 663e a626 08be
000001f0: 0613 5bbe c954 2abf ab8f 68be cacc 22be
00000200: 1c3c 0abf 6b15 b3bd c0c5 1b3e 4634 9ebd
00000210: 20c0 97bd 803e 77be 37c8 ab3e 4954 943c
00000220: 44d9 34bf 9e66 19bf 6be9 34bd 65db fb3c
00000230: 7552 e23e 94d2 9f3d 4c68 c73d 0929 46be
00000240: 807b 103d c1dc 42be 47ce babd c2e4 dabd
00000250: dabb b2be 85ff 50bf 78d4 8bbd 7889 0abf
00000260: 9a12 34bf 124d 11be c914 413e 202c 4dbe
00000270: 3518 763d 64ba 1dbb 7935 503e af56 703c
00000280: 6181 86be eec2 633d 3ba3 ec3c d06e 03be
00000290: 8622 0b3e 9427 42bd 7540 d23c ab9d f5be
000002a0: 60bf a93d 8439 193d 0135 153d 2698 f23d
000002b0: 9b43 f23c 055f 39bd 3516 ac3c f0c1 07bc
000002c0: 3347 643e b2a2 72bc a03d 973d 345f 443e
000002d0: c7c5 6b3d ad91 8cbd c3d4 45be b932 b23c
000002e0: 87c8 a2bd 8aff c33b b0e0 febd aa0c 683e
000002f0: c2ad 863e fcef 3abe 50a6 213e 9188 42be
-0.14201099 -0.09107501 0.22109695 -0.0346193 -0.26104948 -0.50642365 0.09852383 -0.40577462
-0.49431914 0.15465616 0.0041503874 0.09373601 0.1095306 -0.22005682 0.24164176 -0.12709282
-0.93347883 -0.43133268 0.040291123 0.19985315 -0.04483501 0.016789934 0.020688143 -0.22596191
0.20326695 -0.20668887 -0.0369926 -0.105505936 -0.24217084 0.17578615 -0.076990716 -0.038376052
-0.030751757 0.102206215 -0.00836276 -0.042264294 -0.168311 -0.061947126 0.015269448 -0.2387263
0.038436357 -0.060820285 0.020253029 -0.13220185 -0.0691291 -0.20612489 -0.052963726 -0.13434756
0.023353294 -0.012409934 -0.03616852 0.3080796 0.2514917 0.28484863 0.17005381 0.31386638
0.25294998 0.16020179 -0.050709996 0.022222418 -0.16545518 -0.02265425 -0.07406353 0.03566032
0.048736826 0.008828353 -0.10689781 -0.21837007 -0.034882445 -0.44920978 -0.042217657 -0.37390855
-0.19508135 -0.08975908 0.027879676 0.13348967 0.06638661 -0.16574445 0.059560146 0.104268275
0.073933676 -0.20339148 0.13830999 0.17608972 -0.17479669 -0.15526494 -0.06330483 -0.23297861
-0.09921713 -0.122092 -0.1683079 -0.15046313 0.041291736 -0.104080535 -0.17745689 -0.16766752
-0.01913426 -0.065430306 -0.14232516 -0.06308955 -0.014500597 -0.21014176 -0.23674598 -0.2928149
-0.060727336 0.056101423 0.18663435 0.062399473 0.019901939 0.11550965 0.17784071 -0.09093205
-0.31851998 -0.14994001 0.0946393 0.08195452 0.1475176 0.045922857 0.015976787 -0.028427277
-0.24262975 -0.29012895 0.22486693 -0.13295993 -0.21393976 -0.6653562 -0.22711055 -0.15898433
-0.5399797 -0.087443195 0.15212154 -0.07724814 -0.07409692 -0.24144936 0.3355119 0.018106597
-0.7064402 -0.59922206 -0.044167917 0.030744264 0.44203535 0.078038365 0.0973669 -0.19351591
0.03527403 -0.19029523 -0.091213755 -0.10688163 -0.34908944 -0.8163989 -0.068276346 -0.5411601
-0.70340884 -0.14189556 0.18855585 -0.20036364 0.06008168 -0.0024067396 0.20332898 0.0146691045
-0.26270583 0.05560582 0.028886428 -0.1283524 0.13587388 -0.047401026 0.025665501 -0.47971854
0.08288455 0.037408367 0.0364275 0.11845426 0.029573252 -0.045256633 0.021006683 -0.008285984
0.22292785 -0.014809297 0.07384801 0.19176942 0.057561662 -0.06863723 -0.19319443 0.021752702
-0.07948404 0.0059813904 -0.124451995 0.22661081 0.26304442 -0.1825561 0.157861 -0.18997408

bias f4 [8]
00000000: dafe f63e 0d2c b13b 7ab3 54bf 6184 06bd
00000010: d587 403e 4f5f 213f 1904 4d3f 51b1 52be
0.4824131 0.0054068626 -0.8308636 -0.03284109 0.18801816 0.63036054 0.8008438 -0.20575453

weight f4 [8, 8, 3]
00000000: b880 a8bc f098 673e 8f94 193e 4da7 123c
00000010: ea25 9ebc 8cb9 29be 1e6b bdbd cd3b 76bd
00000020: 7111 973d 1fa3 59bd fc60 41be 55a7 093d
00000030: 2ec1 253d 1db8 033e 1251 ff3c 7c44 fdbd
00000040: 2530 953d 3959 2b3e cfa5 5e3d db27 8d3e
00000050: 404a 093e 5f00 c1bd 0de6 32be a38a 3b3d
00000060: dab7 81bd c99d b5bd 2d54 923d 1635 52be
00000070: 69ad f73d 3929 76bd 74cf 38bd 76f8 0e3d
00000080: 02b7 36be 889a ebbd 5fbb 233e b6d9 073e
00000090: f6e3 e2bd ef03 dfbd e1f6 5d3a 50f8 cabd
000000a0: 1961 29be 72f9 183c 79ae 18be e0a9 f0bd
000000b0: 8975 3a3d a70a 80bb b6b8 9dbd 614b 0b3e
000000c0: 060b 3e3d a874 063e ba7d 0f3e 77e5 5bbd
000000d0: 1084 29be 3a12 46be 6abb c53c 10b9 0b3e
000000e0: 501f 82bd ec2f 9c3d e9e0 2fbc 5676 933d
000000f0: ddb8 d9bd 2d29 a7bd da9a 4fbb c942 fabd
00000100: 137b 96bd de88 f6bd 359d 7f3e b148 a0bb
00000110: ba25 e3be 1097 233e 1a6c fbbd cda6 4bbc
00000120: 7548 c4bc 3d19 5d3e 08dd c33e d22f d2bc
00000130: 9955 643d 3a37 fbbc 9343 2cbe 6128 043e
00000140: 90d3 55be a1d8 3bbe ffe3 a73d a2f2 40be
00000150: 4d18 e63d b99f 8e3d 1f1b b7bd 4b9b b6bd
00000160: 04dc f43d 5e45 9c3e 4b0a b03d 440c 6fbe
00000170: 431c bb3c a88c 05bd f29b c53b 4e56 9f3d
00000180: 9697 943d 41c2 813e 9ac5 d1bd b82e 11be
00000190: 9963 51be b9cd 853b da3d c3bd 4fd0 283d
000001a0: e4cf 153e 6d64 4dbe 2ac8 c3bd d7b7 69bd
000001b0: 452a bc3d dfd1 2f3e 44aa 183e f136 9bbd
000001c0: 6fc1 cd3d 1e70 c8bd 68c3 9b3e 7bb2 4a3e
000001d0: 2dc0 293e 524e 20be 60f1 73bd 1b75 003e
000001e0: 1347 be3d 9317 1f3d c58d c63c 00c0 853d
000001f0: 143b 823d dccd 86bc 67fe 7bbe 1054 e9bc
00000200: 9d52 873d 909d babd 7690 16be 18fe 06be
00000210: 01b3 12be 1872 023e 7faa af3d 9d61 2fbd
00000220: e2fc 993c efb3 69be f38e 8bbe adbc 4d3d
00000230: b852 593e 3e72 73bd d54e 4bbd c3c4 1c3d
00000240: 0644 253d 4e41 bd3d 5ea5 9cbd 1f06 d43d
00000250: 02a6 4e3e 4607 bbba 64bc 1fbe c0cd 143e
00000260: c1e1 8b3d e88f bbbd e8d8 ae3b 8f2f d7bd
00000270: dccf ee3d 53ac d13d 4d75 c4bd 4cdc 95bd
00000280: fd66 acbd 72d8 c0bc ac6b 493e 5b0a 8a3e
00000290: 8f10 a9bd f7a9 f0bd 9ac2 003e 0933 493d
000002a0: 1775 853e 0126 883b a370 2f3e 1a46 0abe
000002b0: 6ffb 9c3d bea3 92bd 40b2 8a3d d8df 7bbd
000002c0: 7bbe e43d f14a 40be 4be8 f43d 9c20 303e
000002d0: 693f 48be 5dce 16bd 1fdd 61bd 1863 033c
000002e0: 1ce1 263d 6650 f53a 5449 2f3e 97f9 a4bd
000002f0: 0c81 76be 7e18 3e3e 7b61 103c 2b7c debd
-0.02056919 0.22616935 0.14998077 0.00895102 -0.019305188 -0.16574687 -0.092489466 -0.060115624
0.073763736 -0.05313408 -0.18884653 0.033606846 0.040467434 0.12863202 0.031166587 -0.12366578
0.072845735 0.16733254 0.054357346 0.2756947 0.1340723 -0.09423899 -0.1747057 0.04578651
-0.06333895 -0.08867986 0.071449615 -0.20528063 0.12093622 -0.060097907 -0.045119718 0.03490492
-0.1784325 -0.11504084 0.15989445 0.13266644 -0.11078636 -0.10889422 0.0008467269 -0.09910643
-0.16540946 0.009336816 -0.14910306 -0.11751151 0.045522247 -0.00390752 -0.077012464 0.13602974
0.04639723 0.13130438 0.14012805 -0.05368563 -0.16554284 -0.1934289 0.024137218 0.13644814
-0.06353629 0.07626328 -0.010734775 0.07200305 -0.10630963 -0.081621505 -0.0031677992 -0.122197695
-0.07347693 -0.12037824 0.24962313 -0.004891478 -0.4436472 0.15975595 -0.12276478 -0.012429905
-0.023960331 0.21591659 0.3825457 -0.025657568 0.055745695 -0.030665983 -0.16822653 0.12906028
-0.20881486 -0.18344356 0.08197784 -0.18842557 0.11235104 0.069640584 -0.0894072 -0.089163385
0.11956027 0.30521673 0.08595713 -0.23344523 0.022840625 -0.032604843 0.006030553 0.07780133
0.07255475 0.25343516 -0.10242768 -0.14177978 -0.2044815 0.004083362 -0.095332816 0.041214284
0.14630085 -0.2005784 -0.09559663 -0.05706009 0.0918775 0.17169903 0.14908701 -0.075788386
0.1004666 -0.0978701 0.3042252 0.19794647 0.16577215 -0.15654877 -0.059556365 0.12544672
0.092909 0.03884084 0.024237523 0.06530762 0.063589245 -0.016455583 -0.24608766 -0.028482467
0.06607554 -0.09112084 -0.14703545 -0.13182867 -0.14326097 0.12738836 0.085774414 -0.0428177
0.018797342 -0.22822545 -0.272575 0.050228763 0.21222961 -0.05943512 -0.049635727 0.038273584
0.040348075 0.092409715 -0.07648729 0.1035273 0.20180514 -0.0014269135 -0.15599209 0.14531612
0.068301685 -0.09158307 0.005335916 -0.10507118 0.1166074 0.10237946 -0.09592686 -0.07317409
-0.08418081 -0.02354071 0.1966998 0.26961026 -0.082551114 -0.11751168 0.12574235 0.049120937
0.26065895 0.004154921 0.17132811 -0.13503304 0.07665145 -0.071601376 0.0677228 -0.06149277
0.11169144 -0.18778588 0.11958369 0.1719994 -0.19555439 -0.036817897 -0.055142518 0.008019231
0.040742025 0.0018715977 0.17117816 -0.08055418 -0.24072665 0.1856403 0.008812304 -0.10863527

bias f4 [8]
00000000: 9611 cabe 82e5 8abd 57c1 013e 519e febc
00000010: c182 b9be 5ca4 3abb b75c 8ebe 88e3 e2bd
-0.39466542 -0.067820564 0.1267141 -0.03108135 -0.3623257 -0.0028479313 -0.2780511 -0.110785544

weight f4 [8, 24, 1]
00000000: 978a 51be a37f dbbe 65b0 383e 45c3 103e
00000010: 103c 883f 3b0f f2bd c54f a9bc fe64 1ebe
00000020: e121 02bd 3aa8 30be 72da ecbd 0e90 573e
00000030: 1fb6 2c3d 4a28 9f3d dc6e b6be 94fe 623d
00000040: ae97 543c d4e9 74bc 24e5 27be 793d ba3c
00000050: ccb1 1bbd 7af9 d1bc 6973 bb3d f679 d1bd
00000060: c762 83be fcdd 0e3f f522 eb3e a950 1abe
00000070: 87d3 f8be 5ee7 3abe 7620 313e ab9a 6d3e
00000080: 0965 de3c 0543 863d 6574 b8be 34bd 343c
00000090: 20d0 623e 4dc8 12be fb66 9cbf d1ec 5cbe
000000a0: 7184 ca3e c152 84bd c266 4b3e 9ba0 333c
000000b0: 123e e53e 5347 1abe 6031 653e d5ec 4e3e
000000c0: 4ae2 e23c 4213 523d a1f9 8ebc e46e 10bd
000000d0: d85a babd 01fa 78bc 645b 96bb 0f25 8ebd
000000e0: 2174 153e e163 1cbe 60f2 b53d 9ca2 27be
000000f0: 8499 43be 1d22 813d 2912 503e d0da 7f3d
00000100: 02f6 86bd 1a39 36be 0bc7 303d aa4f ed3d
00000110: 1cd8 8abd d175 203e a67d 84bc 4964 243e
00000120: 9633 8b3c d5ed 623d 5e5a 22bc ce69 0cbe
00000130: 3933 cdbd d65f 31bc 5077 ad3c 55f5 93bd
00000140: 4a96 8d3e 80b7 b5bd cac4 ee3d a945 3ebc
00000150: 5766 b5bd 1a9a 00bc 5936 5c3e e634 89bd
00000160: 2ec2 03bc e056 a23d 588d 9b3a 18f6 353d
00000170: d929 4abe fe24 0dbd 44e4 04bd b280 28be
00000180: ebc3 f1bc 1301 b4bc a154 4d3c add9 8b3d
00000190: 5430 8bbe dce7 73bd 5156 39bd 9cf1 bdbd
000001a0: e423 4b3e 6881 fbbd 3fb6 4bbd b617 253e
000001b0: 0a7b 33be ede2 dfbc 7089 043e 486c 193e
000001c0: 495c ebbd 4ca7 293d 755e f63c cf43 0d3e
000001d0: 2d86 babd affd ef3c 5ffa e8bc 67f6 b73d
000001e0: a539 c33e cfe7 113a 40f3 0d3e c036 503e
000001f0: fec8 afbe 68e1 6a3e 10d4 dcbd 26ea a0bd
00000200: 6b86 83bf b503 8b3e 4790 7fbc 8aaf edbd
00000210: 392e 9bbe 7ace 4dbf 2fb5 033f 3205 493e
00000220: 4eac 98be 6052 373e ea27 8cbe 21ed 02bf
00000230: c9e4 63bd fcac 053e cc6c 0fbd 8712 15bb
00000240: 91d8 6c3d c9a7 ce3d 1124 27bf 8eac ce3c
00000250: 1b95 053f d121 183e 9b6d a5bd e6bb 25be
00000260: 5bf4 6f3e f714 0c3e c866 673e 3068 b23d
00000270: 9813 9b3e fbd0 423f 3879 8c3e 7b5d 43be
00000280: 9e91 2e3e 9f99 2dbe 47d2 dfbd ddf2 1c3d
00000290: 327a 483e 1a5f 3b3d ddf5 b3bd 6fab 22be
000002a0: 840c 643b 9fd3 b8be 249d 27be 1715 3e3e
000002b0: ce2c 8cbe 21f2 7fbb bbfd 263d dc93 cd3e
000002c0: 8a0e a03d 017f e93c b76c 753e 2363 4c3d
000002d0: 9b7c 00be 9304 503e 9a0a 2b3e 6000 543e
000002e0: fa12 c1bd 7d3f 453e 5538 3a3e a78d 183e
000002f0: 6de3 e8bc 6925 213c 0669 29bd 2a34 3dbd
-0.20463024 -0.42870817 0.18036039 0.1413699 1.064333 -0.11819311 -0.02066792 -0.15468213
-0.03177059 -0.17251673 -0.11565103 0.21051046 0.04216587 0.077713564 -0.35631454 0.055418566
0.012975616 -0.014948327 -0.16396004 0.02273439 -0.038011357 -0.025631655 0.09152872 -0.1022834
-0.256613 0.5580747 0.45925108 -0.15069832 -0.48598883 -0.18252322 0.17297539 0.23203532
0.027147787 0.06555752 -0.36026302 0.011031438 0.22149706 -0.14334221 -1.2218927 -0.21574713
0.3955417 -0.064610966 0.19863418 0.010963584 0.44773918 -0.1506627 0.22382116 0.20207532
0.027695794 0.051287897 -0.017453017 -0.035262004 -0.09099358 -0.015196324 -0.0045885313 -0.06940662
0.14595081 -0.15272476 0.0888412 -0.16370624 -0.1910153 0.06305335 0.20319428 0.062464535
-0.06589891 -0.1779522 0.043158572 0.1158746 -0.06779501 0.15669943 -0.016173195 0.16053881
0.016992372 0.055402596 -0.0099092405 -0.13712236 -0.100195356 -0.010826072 0.021175057 -0.07224528
0.27653724 -0.088728905 0.11658628 -0.011613288 -0.088574104 -0.007849241 0.21505107 -0.06699543
-0.0080419015 0.07926726 0.0011867685 0.044424146 -0.19742526 -0.034459107 -0.032444254 -0.16455343
-0.029512366 -0.021973168 0.012532384 0.06828628 -0.2718531 -0.05954729 -0.045248333 -0.09274599
0.1983791 -0.12280542 -0.04973435 0.16122326 -0.17527404 -0.027329886 0.12943053 0.14982712
-0.11492211 0.041419312 0.030074337 0.13795398 -0.09107623 0.02929577 -0.028439699 0.089825444
0.38129917 0.0005565853 0.13862324 0.20333385 -0.34333032 0.22937548 -0.10782635 -0.0785716
-1.0275396 0.27151266 -0.015598363 -0.11605747 -0.30308703 -0.80393183 0.5144834 0.19630888
-0.29818958 0.17902517 -0.27374202 -0.5114308 -0.05563811 0.1305427 -0.035015866 -0.002274664
0.05782372 0.10090596 -0.6528941 0.025228765 0.5218064 0.1485665 -0.08077546 -0.16184959
0.23433058 0.13679872 0.22597802 0.087112784 0.30288386 0.7610013 0.27436233 -0.19078629
0.17047736 -0.16953133 -0.10928779 0.03831755 0.19577864 0.045744993 -0.08787129 -0.15885709
0.00347975 -0.36098954 -0.16368538 0.18562733 -0.27377933 -0.0039054232 0.04076932 0.4015187
0.07815273 0.028502943 0.23967253 0.04989923 -0.12547533 0.20314245 0.16703263 0.20703268
-0.094274476 0.192625 0.18185551 0.14897786 -0.028428758 0.009835579 -0.041359924 -0.046192326

bias f4 [8]
00000000: 2949 a5be 8258 603f 7894 4dbf 4e0d 4dbf
00000010: 0dd2 34bf 445b 8a3f cfb4 943f 4e90 debe
-0.3228238 0.8763505 -0.8030467 -0.80098426 -0.7063301 1.0809102 1.1617678 -0.4346947
