Final_Masterarbeit/Masterarbeit/CNN_window_size_10_MinMaxScaler.pt (torch, 10191 bytes, 12 tensors)

weight f4 [8, 8, 3]
0	0xbd1fbb5f	-0.03899705
1	0xbcd4af4d	-0.025962496
2	0x3dc5427f	0.09631824
3	0xbecf121e	-0.4044351
4	0xbe74a230	-0.23889995
5	0xbe41de14	-0.18932372
6	0xbd5ed821	-0.054405335
7	0x3e1cffd8	0.15331972
8	0xbe02ee9d	-0.12786336
9	0xbdf0a7e5	-0.11750773
10	0xbd7c05c6	-0.061528943
11	0x3d8db414	0.06919113
12	0x3dde1d76	0.10845463
13	0xbcad2489	-0.021135585
14	0xbc97726e	-0.018487182
15	0xbe7a7f58	-0.2446264
16	0xbe510e57	-0.20415626
17	0x3e94ee65	0.2908813
18	0x3ee868eb	0.45392546
19	0x3ed402e6	0.4140846
20	0xbe5106da	-0.2041277
21	0x3d67a59b	0.056554418
22	0x3d70fce3	0.05883492
23	0x3e1a99f5	0.15097792
24	0x3d58f616	0.05296906
25	0xbdb3265b	-0.0874755
26	0x3b259c4a	0.0025270157
27	0x3e2d251e	0.1690869
28	0xbdd2a2e2	-0.10284974
29	0xbda19fa6	-0.07891779
30	0xbd477742	-0.048697717
31	0x3df7b77c	0.12095544
32	0x3e01edce	0.12688372
33	0xbe236b82	-0.1595898
34	0xbdb9f078	-0.09079069
35	0xbda7d81c	-0.081955165
36	0x3c24dcb3	0.010062384
37	0x3e4ccae2	0.19999269
38	0xbc67966c	-0.014134984
39	0x3d9a0d61	0.07522083
40	0x3cb8f3ae	0.022577133
41	0xbd2c3c5f	-0.04204976
42	0x3e11c2a9	0.14234413
43	0xbe4263ba	-0.18983355
44	0xbddbe0d7	-0.10736244
45	0xbd301daf	-0.04299706
46	0xbe2cba9a	-0.16868058
47	0xbdd5f4d6	-0.104470894
48	0xbd74f714	-0.059805945
49	0x3e131006	0.14361581
50	0xbe85cdf6	-0.26133698
51	0x3c8efd2d	0.017454708
52	0x3e9f193e	0.31073946
53	0xbe8f48e6	-0.27985305
54	0xbe2af0e0	-0.16693449
55	0xbdc617ee	-0.09672533
56	0x3d83535a	0.064123824
57	0xbe26836c	-0.16261071
58	0xbdd1eff5	-0.10250846
59	0xbdf3b1eb	-0.118991695
60	0x3e155538	0.1458329
61	0xbc83c5dd	-0.01608556
62	0x3e0122b8	0.126109
63	0x3e9f61ee	0.31129402
64	0x3e4b8435	0.19874652
65	0xbe5cf2d4	-0.21577007
66	0xbe1252a9	-0.14289345
67	0x3cbb65ec	0.022875749
68	0xbeffd25a	-0.49965173
69	0x3dbab12c	0.09115824
70	0x3d0ef8a4	0.03490509
71	0x3d2b59b8	0.04183361
72	0x3c86e363	0.016465848
73	0xbdf252cd	-0.11832199
74	0x3ef67c9d	0.48141947
75	0xbbb0da1d	-0.005397095
76	0xbed6248e	-0.41824764
77	0xbe9144c8	-0.28372788
78	0x3debce08	0.11513907
79	0x3d6fe64f	0.05856925
80	0x3c343f4d	0.01100142
81	0xbe34298e	-0.17593977
82	0x3e17b29b	0.14814226
83	0xbc968e28	-0.018378332
84	0x3d592fa0	0.053023934
85	0xbd6bf703	-0.057608616
86	0xbc083e6d	-0.008315665
87	0x3f2f1d94	0.6840451
88	0xbdc1c839	-0.094620176
89	0xbf514261	-0.8174191
90	0x3d1f73c5	0.038928766
91	0x3e3dbcda	0.18529072
92	0x3e152752	0.14565781
93	0xbdcbf947	-0.09959655
94	0xbdf5101f	-0.119659655
95	0xbeae23a2	-0.3401156
96	0x3e21f0d3	0.15814523
97	0xbe61fdb4	-0.22069436
98	0x3d11c274	0.035585836
99	0x3d18fc09	0.037349734
100	0xbe9b330d	-0.30312386
101	0xbed4d65e	-0.415698
102	0x3df87572	0.12131776
103	0x3c60e8d5	0.0137273865
104	0x3dddfb4f	0.10838949
105	0xbe42006a	-0.1894547
106	0x3df56e50	0.11983931
107	0x3e39a2dc	0.18128532
108	0xbd758e13	-0.059949946
109	0xbd845987	-0.064623885
110	0x3d71599d	0.058923353
111	0x3f42b677	0.7605967
112	0x3e406a94	0.18790656
113	0xbef49940	-0.4777317
114	0xbe56fb8d	-0.20994397
115	0x3d1bd2a0	0.038042665
116	0x3e31a427	0.17347775
117	0xbd2b23e0	-0.04178226
118	0xbdf6da85	-0.12053398
119	0xbe9df87a	-0.30853635
120	0xbd5e4f43	-0.05427481
121	0x3de0e177	0.10980504
122	0xbe5254bd	-0.20540138
123	0xbe0f8ef5	-0.14019378
124	0x3e92823e	0.28614992
125	0x3e783f36	0.24242863
126	0x3d942129	0.07232887
127	0xbe444a1f	-0.191689
128	0x3e45d70f	0.1932032
129	0xbdca16d3	-0.098676346
130	0xbe4ac0fd	-0.19800182
131	0xba4d1ab8	-0.0007824111
132	0x3d87a2ca	0.066228464
133	0x3e5de61c	0.21669811
134	0x3e29c182	0.16577724
135	0xbe79827a	-0.24366179
136	0x3ec9fb18	0.39449382
137	0x3d21784f	0.039421376
138	0x3e6dd0f3	0.23224239
139	0x3dbee55f	0.09321093
140	0xbe6eb788	-0.23312199
141	0xbda1d119	-0.0790121
142	0x3ee19bec	0.4406427
143	0x3f4567a4	0.7711127
144	0xbde8919b	-0.11355897
145	0xbe2d1274	-0.1690157
146	0xbe2116f6	-0.15731415
147	0x3d9bf86f	0.07615744
148	0xbd5dc798	-0.054145426
149	0xbe25c754	-0.16189319
150	0x3dcaa313	0.09894385
151	0xbe31e496	-0.17372355
152	0x3d090a1d	0.03345691
153	0x3c693a55	0.014235099
154	0xbe2267b1	-0.15859868
155	0x3e4e7455	0.20161565
156	0xbd78b4d1	-0.060719315
157	0xbdc5d06d	-0.09658895
158	0x3d2253f6	0.039630853
159	0xbdda06e3	-0.10645845
160	0xbc8ca0bf	-0.017166493
161	0x3e5fa269	0.21839298
162	0xbe55fa42	-0.20896247
163	0x3d6d0afc	0.057871804
164	0x3e2d6248	0.16932023
165	0x3e19ee99	0.15032424
166	0x3d54b46d	0.05192988
167	0x3baf8647	0.0053565833
168	0xbe32282b	-0.17398135
169	0xbebf094d	-0.37311783
170	0xbe6ca40c	-0.23109454
171	0x3c7a209a	0.015266562
172	0x3e60dc83	0.21959119
173	0xbd1876b4	-0.03722258
174	0x3e34395e	0.17600009
175	0xbe0ecd3c	-0.13945478
176	0x3da84684	0.08216575
177	0x3d012ae7	0.031535055
178	0xbce6e16b	-0.02818366
179	0x3e0ee3d9	0.13954104
180	0xbe798814	-0.24368316
181	0xbe980373	-0.29690132
182	0xbf14244b	-0.5786788
183	0xbe1c23cc	-0.1524803
184	0x3d9c0d3b	0.07619711
185	0x3e812b8b	0.25228533
186	0x3dd4b9b2	0.10386981
187	0x3c76358e	0.015027417
188	0xbc9f063e	-0.019412156
189	0x3dfb1ccf	0.12261354
190	0x3edfc80d	0.43707314
191	0x3edaaecf	0.42711493

bias f4 [8]
0	0x3e52146b	0.20515601
1	0xbe2d1b02	-0.16904834
2	0x3d6dfb44	0.058100954
3	0x3e0ee975	0.13956244
4	0x3e834d43	0.25644884
5	0xbeac234c	-0.3362068
6	0xbdfabde9	-0.12243254
7	0x3e5c0b6f	0.21488737

weight f4 [8, 8, 3]
0	0x3ef68a42	0.48152357
1	0x3e0cf67e	0.13765904
2	0x3eb89960	0.36054516
3	0xbdcc7988	-0.09984118
4	0xbe22b985	-0.15891083
5	0xbdd85010	-0.10562146
6	0xbdc7d145	-0.09756712
7	0x3e519587	0.20467196
8	0x3eea2a3f	0.45735356
9	0x3e25d167	0.16193162
10	0x3e291270	0.1651094
11	0xbe384dcd	-0.17998429
12	0x3e3d8ae9	0.18510021
13	0x3e18e971	0.14932801
14	0xbe85fe7a	-0.26170713
15	0x3bab9d2e	0.005237243
16	0x3d6c5f09	0.05770782
17	0x3e7c2df3	0.24626903
18	0xbe02b21c	-0.12763256
19	0x3daa2558	0.08307904
20	0x3e114f7f	0.14190482
21	0x3e370eac	0.1787669
22	0x3e697c1d	0.22801252
23	0x3e4c979c	0.1997971
24	0x3f229d87	0.6352162
25	0x3ea2cb59	0.31795767
26	0xbd72209c	-0.05911313
27	0xbddc7a79	-0.10765547
28	0x3cfc4a29	0.030797081
29	0x3e232a94	0.15934211
30	0x3d476dc3	0.04868866
31	0x3d1606a7	0.036627438
32	0xbc97559b	-0.018473437
33	0x3d33fcdb	0.043942314
34	0x3d075b4d	0.033046056
35	0xbe6c2f31	-0.23064877
36	0xbe483d64	-0.19554669
37	0xbd896322	-0.06708361
38	0x3dad68ae	0.08467232
39	0x3d11ef53	0.035628628
40	0x3dd3d106	0.103426024
41	0x3eaba868	0.3352692
42	0xbd8600ed	-0.06543145
43	0x3e13abd0	0.1442101
44	0x3e38a5e7	0.18032037
45	0xbdd673ee	-0.104713306
46	0xbe30cf99	-0.17266692
47	0xbe50cdd0	-0.20391011
48	0xbe96a3d4	-0.29421866
49	0x3e998de8	0.29991078
50	0xbd2a0dac	-0.041516945
51	0xbcc0185f	-0.023449121
52	0xbe36eeb3	-0.17864494
53	0xbe0f80bc	-0.14013952
54	0x3d9aeccb	0.07564696
55	0xbe88838e	-0.26662868
56	0xbeccc69d	-0.3999528
57	0x3e134b57	0.14384209
58	0x3e8ab306	0.2708971
59	0x3ed118f0	0.40839338
60	0x3e1c584d	0.15268059
61	0x3e6fdd73	0.2342432
62	0x3d88cc78	0.06679624
63	0xbdac5b01	-0.08415795
64	0xbe7bad0c	-0.24577731
65	0xbf29e8ab	-0.6637065
66	0x3d5c52f7	0.05379006
67	0x3d5227b8	0.05130741
68	0x3ce2c983	0.027683979
69	0x3d55e78e	0.05222278
70	0xbd972924	-0.07380894
71	0xbe4c2b5c	-0.19938415
72	0x3c85c5f9	0.016329752
73	0x3e09604b	0.13415639
74	0x3c0efc4f	0.008727147
75	0xbc857717	-0.016292138
76	0x3df33182	0.11874677
77	0x3e43aca3	0.19108824
78	0x3e158336	0.14600834
79	0x3e1f10c2	0.15533736
80	0xbe17d352	-0.14826706
81	0xbe240a7d	-0.16019626
82	0xbdb9d2fc	-0.09073445
83	0x3d6185e7	0.05505934
84	0xbcda02ab	-0.0266126
85	0x3e4de81a	0.20108071
86	0xbe114e3b	-0.14189999
87	0x3ddf3067	0.10897904
88	0xbbe3e8d5	-0.006955246
89	0x3e26e30a	0.16297546
90	0x3c3f6590	0.011681929
91	0x3c7587bd	0.014985976
92	0x3da326f2	0.079664126
93	0x3e22adb7	0.1588658
94	0x3d98cbd3	0.074607514
95	0xbd261d53	-0.04055531
96	0xbe39effb	-0.18157952
97	0x3d7da0ce	0.061920933
98	0x3decdf98	0.115660846
99	0xbe08ef02	-0.13372424
100	0x3d4cf069	0.05003396
101	0xbdf022a6	-0.11725359
102	0x3d812cc9	0.0630737
103	0x3da5d942	0.08098079
104	0x3e46ee48	0.19426835
105	0x3e9f34e2	0.31095034
106	0xbe75b5e6	-0.2399517
107	0x3e3f270a	0.18667236
108	0x3ee767f7	0.45196506
109	0x3e288b94	0.16459495
110	0x3da83518	0.08213252
111	0xbeb8110f	-0.35950515
112	0xbd91b5ec	-0.07114777
113	0xbe445607	-0.19173442
114	0x3daa69cb	0.0832096
115	0x3dca241f	0.09870171
116	0xbd7372ae	-0.05943554
117	0xbe58f252	-0.21186188
118	0x3d54c019	0.05194101
119	0xbebc3cc1	-0.36765102
120	0x3dfc49c4	0.12318757
121	0xbe32f261	-0.17475273
122	0x3b3f5183	0.0029192872
123	0x3e4d2869	0.20034947
124	0xbe33a777	-0.17544352
125	0xbe2649a1	-0.16239025
126	0xbe292d07	-0.16521083
127	0xbd8db3f0	-0.06919086
128	0xbcf6ee74	-0.030143
129	0x3e6cdec4	0.23131853
130	0xbd0c7729	-0.034293327
131	0x3d7334f9	0.05937669
132	0x3f28d754	0.65953565
133	0x3e397491	0.18110873
134	0x3e9560ea	0.29175502
135	0x3d1246bb	0.035711985
136	0xbddcc9a5	-0.10780648
137	0xbdfec455	-0.12439791
138	0xbe8918f1	-0.2677684
139	0xbdecd2ec	-0.11563668
140	0xbe38df7f	-0.18054007
141	0xbd589d8a	-0.052884616
142	0x3e141592	0.14461353
143	0x3d733812	0.059379645
144	0xbe8219eb	-0.254104
145	0x3c03a6a5	0.008035337
146	0xbe0dd5ee	-0.13851139
147	0x3bd86932	0.006604337
148	0xbbaf9754	-0.005358616
149	0xbcf55874	-0.029949404
150	0x3d827cd3	0.063714646
151	0x3ebe617c	0.3718375
152	0x3dd26bb7	0.10274451
153	0x3d2ad0f6	0.041703187
154	0xbe7739f2	-0.24143198
155	0xbed38d27	-0.41318628
156	0xbe708b49	-0.23490633
157	0x3bbabdf2	0.005698913
158	0xbe23e793	-0.16006307
159	0x3d841d3f	0.06450891
160	0x3e8774c3	0.2645627
161	0x3dfa481d	0.12220786
162	0xbdbb96fb	-0.091596566
163	0xbdb3c11a	-0.087770656
164	0x3d88aeeb	0.06673988
165	0x3b012dfd	0.001971125
166	0xbe61c0fb	-0.22046272
167	0xbefbe6c6	-0.49199504
168	0x3d2705ca	0.040777005
169	0x3e8e36e0	0.2777624
170	0xbdf6da2b	-0.12053331
171	0xbe3b3872	-0.18283251
172	0xbc2143f0	-0.009842858
173	0x3df1048c	0.117684454
174	0xbe3491fa	-0.1763381
175	0xbd70b7c8	-0.058769017
176	0xbda8262b	-0.08210405
177	0x3d0676e9	0.032828245
178	0xbe118e15	-0.14214356
179	0xbe396a76	-0.18107018
180	0x3e36c2a7	0.17847691
181	0x3df8bf09	0.12145812
182	0x3c8bd5c9	0.017069714
183	0xbd6265e4	-0.05527295
184	0xbcdd1b3a	-0.026990522
185	0xbe6254c5	-0.2210265
186	0xbce0c446	-0.02743734
187	0xbe347e8c	-0.17626399
188	0x3e0449ad	0.1291873
189	0xbda15fec	-0.07879624
190	0x3dea815f	0.11450457
191	0xbc465dc5	-0.012107317

bias f4 [8]
0	0xbe984e53	-0.29747257
1	0x3deed0f0	0.116609454
2	0x3eb7e022	0.35913187
3	0xbe7b8342	-0.2456179
4	0x3e389f5f	0.18029545
5	0xbeb7612b	-0.3581632
6	0x3e901eea	0.28148586
7	0xbe132c7c	-0.14372438

weight f4 [8, 8, 3]
0	0xbdfa9c09	-0.122367926
1	0x3d6e08bd	0.058113802
2	0xbe96f0d3	-0.2948061
3	0x3e86fc6a	0.26364452
4	0x3e58dbee	0.21177647
5	0x3e0ea4b2	0.13930014
6	0x3b37b9a2	0.002803423
7	0xbca28cd9	-0.019842552
8	0x3e0a3852	0.13498047
9	0x3e0f49b5	0.13992961
10	0xbcf6f8fd	-0.030148024
11	0xbe2f2bf9	-0.17106618
12	0xbd7649af	-0.060128864
13	0x3e08f2c9	0.13373865
14	0x3e543e3f	0.2072687
15	0xbdd40859	-0.10353155
16	0xbd845a47	-0.064625315
17	0xbd09f0ec	-0.033677027
18	0xbe08b2be	-0.13349435
19	0xbe025102	-0.12726215
20	0xbe46a28e	-0.19397947
21	0xbe3f3e66	-0.18676147
22	0x3e05e439	0.13075341
23	0xbdbcabd4	-0.09212461
24	0x3d77b418	0.060474485
25	0xbdc68754	-0.096937805
26	0x3b06f340	0.0020591766
27	0x3e315ff8	0.17321765
28	0xbd364dac	-0.044507667
29	0xbe2164fb	-0.15761177
30	0xbe377cf8	-0.17918766
31	0xbd221e58	-0.03957972
32	0xbe1c8a86	-0.15287217
33	0xbcc305f8	-0.023806557
34	0xbdb1886f	-0.08668601
35	0x3cf153f8	0.029458985
36	0xbe4efd02	-0.20213702
37	0x3db56b70	0.08858383
38	0xbd2c20f8	-0.04202363
39	0xbd555754	-0.052085236
40	0x3ddcfaa0	0.107899904
41	0xbd112330	-0.035433948
42	0x3da15378	0.078772485
43	0x3d21d884	0.039513126
44	0x3aff7880	0.0019490868
45	0x3d432430	0.047641933
46	0xbe2226da	-0.15835133
47	0x3bd666c0	0.0065430105
48	0x3e3315a2	0.17488721
49	0x3ec0d82f	0.37664935
50	0xbedad10a	-0.4273761
51	0xbc9da05f	-0.01924151
52	0x3e83d2e8	0.25746846
53	0xbecf0d9d	-0.40440074
54	0x3e30b658	0.17257059
55	0x3ee0c3e5	0.43899456
56	0x3f13be5a	0.5771233
57	0x3d0a74c4	0.033802763
58	0xbd6b99dd	-0.057519782
59	0x3de268fa	0.11055179
60	0x3e203eba	0.15648928
61	0x3cc3b7f1	0.023891421
62	0xbe3c5577	-0.18391977
63	0xbde69b81	-0.11260129
64	0xbeb63f01	-0.35594943
65	0xbe4f07b5	-0.20217784
66	0xbe23a438	-0.15980613
67	0xbf029537	-0.51008934
68	0xbeaa1915	-0.3322226
69	0x3d8f9f0d	0.070127584
70	0x3e438ff9	0.1909789
71	0x3e23c669	0.15993656
72	0x3e38a2f3	0.1803091
73	0x3e80ca1c	0.25154197
74	0xbde447f9	-0.1114654
75	0x3d9bfa91	0.07616151
76	0xbdaa746a	-0.083229855
77	0xbd091bac	-0.033473656
78	0xbda2318f	-0.07919609
79	0xbe20e18c	-0.1571104
80	0x3e87f8cd	0.26557007
81	0x3c92c712	0.01791719
82	0xbe35509c	-0.17706531
83	0x3d8acc2b	0.06777223
84	0xbdef283e	-0.116775975
85	0xbddba7b9	-0.1072535
86	0xbd86f097	-0.065888576
87	0xbecf0fa9	-0.40441635
88	0x3c0b9823	0.008520159
89	0x3e249830	0.1607368
90	0xba861e67	-0.0010232449
91	0xbe451937	-0.192479
92	0xbe2162ba	-0.15760317
93	0xbdd77546	-0.10520415
94	0xbe54a93c	-0.20767683
95	0x3d034512	0.032048292
96	0xbd0ab984	-0.033868328
97	0x3db7489b	0.08949395
98	0xbdff0f99	-0.12454147
99	0x3e11ae03	0.14226536
100	0xbe3bf17c	-0.18353838
101	0x3e55a31d	0.20863004
102	0xbe25ad29	-0.16179337
103	0x3d2d286e	0.042274885
104	0x3d2a3ac4	0.04155995
105	0xbb9d0708	-0.004792098
106	0xbdc75672	-0.09733285
107	0xbe4e652f	-0.20155786
108	0xbd8b6b6f	-0.06807601
109	0xbddc2280	-0.10748768
110	0xbd989586	-0.07450394
111	0xbcce7db0	-0.025206417
112	0xbdeae23d	-0.11468933
113	0xbde44b88	-0.11147219
114	0x3e515e18	0.2044605
115	0x3e2d4db6	0.16924176
116	0xbc14727d	-0.009060499
117	0x3dab30b2	0.08358897
118	0xbe4f895e	-0.20267245
119	0x3c80c7f1	0.01572034
120	0xbe1d1b3b	-0.15342419
121	0xbe9c7c89	-0.30563763
122	0xbdf2b201	-0.11850358
123	0x3dd8e6d8	0.10590905
124	0x3e275ac2	0.16343215
125	0x3e16b68e	0.14718077
126	0xbdec7041	-0.11544848
127	0xbe045e32	-0.12926558
128	0x3dde0dd2	0.1084248
129	0x3d5010b6	0.050797187
130	0xbe2d4ed3	-0.169246
131	0xbcfc3107	-0.030785097
132	0x3e705232	0.23468855
133	0x3d1eaefc	0.038741097
134	0xbe19a94e	-0.15005991
135	0x3df53d92	0.11974634
136	0xba7b6606	-0.0009590093
137	0x3e3f9df1	0.18712594
138	0xbd53f7ae	-0.051749878
139	0x3e9e698b	0.30939898
140	0x3e74e31a	0.23914757
141	0x3e091f58	0.13390863
142	0xbd66ad94	-0.05631788
143	0x3d8c3af3	0.06847181
144	0xbd7a3a95	-0.061091024
145	0x3f02c55e	0.5108241
146	0x3efb0c9b	0.49033055
147	0x3ee37ac3	0.44429597
148	0x3e6c9d7a	0.23106948
149	0xbcd4b27b	-0.025964012
150	0xbe05efcb	-0.13079755
151	0x3e8c58cd	0.274115
152	0xbdc7be72	-0.097531214
153	0xbd8fb5ce	-0.07017098
154	0x3e26109e	0.16217276
155	0x3e5a5e6a	0.21325079
156	0xbf1ebf8a	-0.62011015
157	0xbe33624e	-0.17517969
158	0xbe0162b2	-0.12635306
159	0xbf03329b	-0.5124909
160	0xbe0f72ae	-0.1400859
161	0xbe3acaaf	-0.1824138
162	0xbe3afc41	-0.1826029
163	0xbe6c0a55	-0.23050816
164	0xbc7ee20c	-0.015556823
165	0x3dac0105	0.08398632
166	0xbe2131ef	-0.15741704
167	0xbcb3c45b	-0.021944216
168	0xbe54da4a	-0.20786396
169	0x3d95e5c5	0.07319216
170	0xbc504d81	-0.012713791
171	0xbd94eab7	-0.07271331
172	0x3d1fa5d3	0.0389765
173	0xbe83b6dd	-0.2572545
174	0xbe38c0d0	-0.18042302
175	0xbdfa7029	-0.12228424
176	0x3df3e4ef	0.119089
177	0xbdd1a0c1	-0.102357395
178	0x3cf33229	0.029687004
179	0xbe56e115	-0.209843
180	0x3d0e153b	0.034688216
181	0xbe3985b3	-0.18117408
182	0xbe6ae538	-0.22939003
183	0xbe2b71e2	-0.16742662
184	0xbd321cb5	-0.04348441
185	0x3ced6849	0.028980391
186	0xbe0160be	-0.1263456
187	0xbe35a3f5	-0.17738326
188	0xbe92090e	-0.28522533
189	0xbc515f93	-0.012779134
190	0xbdeee050	-0.11663878
191	0x3e529449	0.20564379

bias f4 [8]
0	0x3d8f4eb2	0.06997432
1	0xbe3bff86	-0.18359193
2	0x3e151b51	0.14561202
3	0x3dfc514c	0.12320194
4	0xbda69a90	-0.08134949
5	0xbc355a3e	-0.011068879
6	0x3d6c652d	0.057713676
7	0x3eb99489	0.36246136

weight f4 [8, 8, 3]
0	0x3e3aa274	0.18226033
1	0xbbd34dde	-0.0064484915
2	0xbdbbadc6	-0.09164004
3	0x3d3141ec	0.04327576
4	0x3cb19768	0.021678641
5	0x3ddb4578	0.107066095
6	0xbe811670	-0.2521243
7	0xbca0de0b	-0.019637128
8	0xbcd7ba45	-0.026333937
9	0x3e8bee4b	0.2733024
10	0xbe284001	-0.16430666
11	0xbd37d8fe	-0.044884674
12	0xbe130c6c	-0.14360207
13	0x3e2736a7	0.16329442
14	0x3d7d1cf4	0.06179519
15	0xbc7dcf3d	-0.015491304
16	0xbe1f3a5e	-0.15549609
17	0xbe090dbc	-0.13384145
18	0x3eb71379	0.35757044
19	0x3d8dfdbc	0.069331616
20	0x3e88e603	0.26737985
21	0xbe27913b	-0.16363995
22	0xbc576a2a	-0.01314787
23	0x3d7ce02b	0.06173722
24	0x3e0c276f	0.13686918
25	0xbd45b529	-0.04826847
26	0xbde1cab4	-0.11024991
27	0x3df75e64	0.120785505
28	0x3dab4584	0.083628684
29	0x3da155ec	0.078777164
30	0x3e245032	0.16046217
31	0xbe1b06db	-0.15139334
32	0xbd4d02ec	-0.050051615
33	0x3e1e6b77	0.15470682
34	0x3e1f883b	0.15579312
35	0x3df67f12	0.120359555
36	0xba98b900	-0.0011651814
37	0xbdecb64d	-0.115582086
38	0x3cbfce10	0.023413688
39	0xbd5b36df	-0.053519126
40	0x3e211a58	0.15732706
41	0x3e0e7102	0.13910297
42	0xbe0dca79	-0.13846768
43	0x3d39ce13	0.045362543
44	0xbc115847	-0.008871145
45	0xbe4ed9fc	-0.20200342
46	0xbded6cac	-0.11592993
47	0xbda9036e	-0.08252607
48	0x3c63a555	0.013894399
49	0xbe1c2d1e	-0.15251586
50	0xbe8430a4	-0.2581836
51	0xbe22b453	-0.158891
52	0xbdf6bc2a	-0.12047608
53	0xbcc7a158	-0.024368927
54	0x3d985f64	0.07440069
55	0xbf27bceb	-0.6552264
56	0xbf1db462	-0.6160337
57	0x3da64963	0.08119466
58	0x3daf2dc3	0.0855365
59	0xbe2638cf	-0.16232608
60	0xbe0972ed	-0.13422747
61	0x3d835cb2	0.064141646
62	0x3e0d7203	0.13813023
63	0xbde7e462	-0.113228574
64	0xbe0bd60c	-0.13655871
65	0xbda52e4f	-0.08065473
66	0x3ebae5a3	0.36503324
67	0x3c37ad0b	0.01121069
68	0x3e42306b	0.18963782
69	0xbdd9e52f	-0.106394164
70	0x3e08fca5	0.13377626
71	0xbe2960b3	-0.16540794
72	0x3e329c76	0.17442498
73	0x3e273c08	0.16331494
74	0x3cdc984b	0.026928088
75	0x3e43d2ce	0.19123384
76	0x3e122b16	0.14274248
77	0xbdaf0e3c	-0.08547637
78	0xbea3b0e5	-0.31970897
79	0x3dd4e96a	0.10396083
80	0x3c0ba5e4	0.008523438
81	0x3e40180e	0.18759176
82	0xbd972b98	-0.07381362
83	0xbe14993b	-0.14511578
84	0xbe484548	-0.19557679
85	0xbdfc8bd4	-0.123313576
86	0xbe485fa4	-0.19567734
87	0xbd862072	-0.06549157
88	0x3e0829cb	0.13297193
89	0xbcccfc73	-0.02502272
90	0x3ee5daae	0.44893402
91	0xbdb71ccd	-0.0894104
92	0x3c4fa05f	0.012672513
93	0xbe97e30f	-0.2966542
94	0x3de895de	0.1135671
95	0x3dd65c0d	0.10466776
96	0x3e0c318d	0.13690777
97	0x3d9b5a12	0.07585539
98	0xbe40bb3d	-0.18821426
99	0xbd578964	-0.05262126
100	0xbdf88840	-0.121353626
101	0xbccb0278	-0.02478145
102	0xbf05bd2a	-0.52241766
103	0xbf122909	-0.57093865
104	0xbf1543c4	-0.5830653
105	0xbe06590d	-0.13119908
106	0xbe1ab938	-0.15109718
107	0xbd738a21	-0.059457902
108	0xbcd58495	-0.026064197
109	0x3d0205c6	0.031743787
110	0xbddc103e	-0.107452855
111	0x3e94d85a	0.29071313
112	0x3e83b7b8	0.25726104
113	0x3e496ef3	0.1967123
114	0xbeb782bc	-0.3584193
115	0xbea5e6f6	-0.32402772
116	0xbe8f4ad0	-0.27986765
117	0x3e29e57d	0.16591449
118	0xbdd624cd	-0.10456238
119	0xbe93afaa	-0.2884496
120	0x3cf19b6c	0.029493056
121	0xbe5089a3	-0.20365004
122	0xbc5a3496	-0.0133182015
123	0x3d7bcf18	0.061476797
124	0x3dd72eec	0.105069965
125	0x3d0c4d80	0.034253597
126	0xbe07c391	-0.13258196
127	0xbb9bc7be	-0.0047540357
128	0xbd802353	-0.062567376
129	0xbe57f313	-0.21088819
130	0xbcffdcf9	-0.031233298
131	0x3c8c72bf	0.017144559
132	0x3e2c51cf	0.16828083
133	0x3dffcd82	0.124903694
134	0x3e2d2756	0.16909537
135	0x3e242461	0.16029502
136	0x3e297cb5	0.16551478
137	0x3d827c5d	0.06371377
138	0xbdda374a	-0.10655077
139	0x3e1ae142	0.15124992
140	0x3e609e05	0.2193528
141	0x3e0f213f	0.13977526
142	0xbe5da3dc	-0.21644539
143	0xbdfb16ef	-0.122602336
144	0xbe0d3e8b	-0.1379339
145	0x3c3732e5	0.011181568
146	0x3e974fa2	0.29552943
147	0x3d241958	0.040063232
148	0xbe1c89ea	-0.15286985
149	0x3d215ba4	0.039394036
150	0x3b2337b3	0.0024905025
151	0xbe79e87f	-0.24405096
152	0x3f13edfc	0.5778501
153	0xbcde56a0	-0.027140915
154	0x3e116620	0.14199114
155	0x3e0a4bc4	0.13505465
156	0xbccefc77	-0.025266869
157	0xbe3fa8cf	-0.18716739
158	0x3de8dc34	0.113701254
159	0xbcfb2102	-0.030655388
160	0x3e536037	0.20642172
161	0x3d937f2d	0.07201991
162	0xbf2843fc	-0.65728736
163	0xbd864dc7	-0.065578036
164	0xbe47d051	-0.1951306
165	0x3e3cae2a	0.18425813
166	0xbdbc70d8	-0.09201211
167	0xbd49d527	-0.049275544
168	0xbe095e3c	-0.13414854
169	0x3e21297a	0.15738478
170	0x3c10d396	0.0088395085
171	0x3e4594ae	0.19294998
172	0xbcd1e190	-0.025620252
173	0xbdf3dde1	-0.119075544
174	0xbe486745	-0.19570644
175	0xbde97d2e	-0.11400829
176	0xbe256128	-0.16150343
177	0x3d8662b5	0.065617956
178	0xbe11740a	-0.14204422
179	0x3e224da1	0.15849926
180	0xbde66296	-0.112492725
181	0xbe223beb	-0.1584317
182	0x3c41c400	0.011826515
183	0x3e3a0f50	0.18169904
184	0xbe1f1990	-0.15537095
185	0x3cfa7400	0.030572891
186	0xbcc3bce0	-0.023893774
187	0x3ceae6c9	0.0286745
188	0x3d50a73a	0.05094073
189	0xbdac6d4b	-0.084192835
190	0x3d33249f	0.043736096
191	0x3d19e922	0.03757585

bias f4 [8]
0	0x3e75e4ef	0.24013112
1	0xbe389809	-0.18026747
2	0x3f224244	0.63382363
3	0x3e8ec5df	0.2788534
4	0x3eb4e265	0.35328975
5	0xbd58ad84	-0.052899852
6	0x3d21eb1a	0.03953085
7	0xbe1542fa	-0.14576331

weight f4 [8, 8, 3]
0	0xbd6f8b18	-0.05848226
1	0xbdd4801d	-0.10375998
2	0x3e176aa9	0.14786781
3	0xbd54efd7	-0.05198654
4	0xbd8ed56e	-0.06974302
5	0xbcdd88e3	-0.027042812
6	0xbd9eb91e	-0.07750152
7	0x3df0b945	0.11754087
8	0x3dd0f150	0.10202277
9	0xbcaba040	-0.020950437
10	0xbddef74b	-0.10887011
11	0xbc4556d5	-0.012044628
12	0xbd7f83e7	-0.06238165
13	0xbcf2d680	-0.029643297
14	0x3cfc27e7	0.030780746
15	0x3da8bfa5	0.08239678
16	0x3c4fba95	0.012678762
17	0x3e38f6df	0.18062924
18	0xbce09148	-0.027413025
19	0xbe0eeefb	-0.13958351
20	0xbe1e605e	-0.15466449
21	0x3d8c7f94	0.06860271
22	0xbdf9791d	-0.12181304
23	0xbdaea32f	-0.085272186
24	0x3e2a76f5	0.16646941
25	0x3e24fa3a	0.16111079
26	0x3e5cbad4	0.21555644
27	0xbdc97cde	-0.0983827
28	0x3d89c75c	0.06727478
29	0x3e1fb135	0.15594943
30	0x3e7e6734	0.24844056
31	0xbd1af028	-0.037826687
32	0xbd862307	-0.0654965
33	0x3ddd5470	0.10807121
34	0xbe16acda	-0.14714375
35	0x3e2abb63	0.16673045
36	0x3e3ddd56	0.18541464
37	0xbe1f8b1b	-0.15580408
38	0x3d5bc679	0.053656075
39	0x3dd4175a	0.103560165
40	0x3d321be8	0.043483645
41	0x3cc93904	0.02456332
42	0xbd899000	-0.06716919
43	0x3e22e0c0	0.15906048
44	0xbde503ad	-0.11182342
45	0xbdfb5670	-0.12272346
46	0x3da98177	0.082766466
47	0x3d711b90	0.058864176
48	0xbe5d4825	-0.21609552
49	0xbd27dfbb	-0.04098485
50	0xbde4ca97	-0.111714534
51	0x3c3b3541	0.011426271
52	0xbdf13af6	-0.11778824
53	0x3dba17b9	0.09086556
54	0x3db7c147	0.089724116
55	0x3e2a3c52	0.16624573
56	0x3e70a06d	0.23498698
57	0x3dda4713	0.106580876
58	0xbe3091e9	-0.1724316
59	0xbe1c8753	-0.15285997
60	0xbd4452ae	-0.047930412
61	0x3e6ec07d	0.23315616
62	0x3e97da39	0.29658678
63	0xbdd7f8e5	-0.1054552
64	0xbe4b31e2	-0.19843248
65	0xbd52c012	-0.051452704
66	0xbe537b84	-0.20652586
67	0xbd9310fd	-0.07180975
68	0xbca3b657	-0.019984407
69	0xbe1fb9cd	-0.15598221
70	0x3dd53525	0.10410527
71	0xbe21f558	-0.15816247
72	0x3e7256ae	0.23665878
73	0xbd514e1b	-0.051099878
74	0x3e579886	0.21054277
75	0x3e457fdb	0.19287054
76	0x3e2bc8f5	0.16775878
77	0x3c5ef5ef	0.01360844
78	0xbe99f910	-0.30072832
79	0x3e5915d7	0.21199737
80	0x3ec4218e	0.3830685
81	0x3eabee80	0.335804
82	0xbe3e11cf	-0.18561481
83	0xbc8715bf	-0.016489862
84	0xb9a35fc9	-0.00031161148
85	0xbd8ad274	-0.06778422
86	0xbd019583	-0.031636726
87	0x3e2ebcf6	0.1706427
88	0x3e25b671	0.16182877
89	0xbe22d375	-0.15900977
90	0xbe5c5924	-0.2151838
91	0xbe08b8fb	-0.13351814
92	0xbe315943	-0.17319207
93	0xbe34fe34	-0.17675096
94	0xbdb5f71d	-0.08885024
95	0xbe45b6bd	-0.1930799
96	0xbdb09705	-0.08622555
97	0xbe7b4b71	-0.24540497
98	0xbdf98949	-0.12184388
99	0xbe1a717a	-0.1508235
100	0x3d15820d	0.03650098
101	0xbd1daf14	-0.038497046
102	0x3db31b52	0.08745445
103	0x3be54d93	0.006997773
104	0x3dc12027	0.09429961
105	0xbe4c4e12	-0.19951656
106	0xbd85abac	-0.065268844
107	0xbd156742	-0.036475427
108	0x3de5f56b	0.112284504
109	0x3ea3d2c8	0.3199675
110	0x3e692ac6	0.22770223
111	0x3d619dd7	0.05508217
112	0xbd9b9d7a	-0.07598396
113	0xbe4baf12	-0.19891003
114	0xbe096b8e	-0.13419935
115	0x3d6ef5f9	0.058340047
116	0xbba2cbec	-0.004968157
117	0xbe1e9f2f	-0.15490411
118	0x3bcd96c9	0.0062740785
119	0xbdc8f253	-0.09811845
120	0x3dda97f2	0.106735125
121	0x3d70c6ee	0.058783464
122	0x3df31762	0.11869694
123	0x3e3564cb	0.1771423
124	0xbd410c02	-0.047130592
125	0xbd2f6449	-0.04282025
126	0xbecdd9bc	-0.4020518
127	0xbe979d9f	-0.29612443
128	0xbe853fcf	-0.26025245
129	0x3ef1b2e3	0.47206792
130	0x3cfad692	0.030619893
131	0xbe790bd4	-0.24320918
132	0xbe88993a	-0.26679403
133	0xbe348f17	-0.1763271
134	0x3ce7bd8b	0.028288623
135	0xbe0ca81e	-0.13736007
136	0xbdab35d5	-0.08359877
137	0xbe2dc49d	-0.16969533
138	0xbeec245b	-0.46121487
139	0xbd2f1b90	-0.042750895
140	0xbea8bb79	-0.3295553
141	0x3d675190	0.05647427
142	0x3e31593a	0.17319193
143	0xbbe98e60	-0.007127568
144	0xbe4eab0d	-0.20182438
145	0xbc3a4ff9	-0.011371606
146	0x3e0a67fb	0.13516228
147	0xb992cd76	-0.0002800037
148	0x3d427cfe	0.047482483
149	0xbd8cb158	-0.06869763
150	0x3d9d095a	0.07667799
151	0x3e1120e1	0.14172699
152	0x3dcf4e26	0.101223275
153	0xbdc85ac2	-0.09782936
154	0x3dfc49dc	0.12318775
155	0x3e469fc3	0.19396882
156	0xbe61f2f6	-0.22065338
157	0xbd4c4738	-0.049872607
158	0x3e740699	0.23830642
159	0xbd8fca8e	-0.07021056
160	0xbab8268a	-0.0014049571
161	0xbb278894	-0.0025563585
162	0x3e396257	0.1810392
163	0xbdc8b0cb	-0.097993456
164	0x3dce30de	0.100679144
165	0x3e2e1a34	0.17002183
166	0xbce41394	-0.027841367
167	0x3da7c61e	0.08192085
168	0xbeab567a	-0.33464414
169	0xbe19a66c	-0.15004891
170	0xbdc567df	-0.096389525
171	0x3dd574d7	0.10422676
172	0x3e33b27d	0.17548557
173	0x3e01cf4d	0.12676735
174	0x3e9562a2	0.29176813
175	0x3d9007b0	0.07032716
176	0x3e287883	0.16452222
177	0xbdf9aac6	-0.121907756
178	0x3d6bbfb4	0.05755587
179	0x3d9fbba5	0.07799462
180	0xbde65964	-0.11247519
181	0xbe820005	-0.2539064
182	0xbe08330a	-0.1330072
183	0x3cca2b36	0.024678808
184	0x3dc8c668	0.09803468
185	0x3d87d83e	0.06633042
186	0x3e7a9e0f	0.24474357
187	0x3e4b26ec	0.19839066
188	0x3d25f41d	0.040516008
189	0x3d09d035	0.033645827
190	0x3e0c0dee	0.13677189
191	0x3d9a4a73	0.07533731

bias f4 [8]
0	0xbd11c548	-0.035588533
1	0xbe892e36	-0.2679307
2	0x3d9fe0df	0.07806563
3	0x3e116ba5	0.1420122
4	0x3e16cbdd	0.14726205
5	0x3e814c97	0.25253746
6	0xbe858f67	-0.2608597
7	0x3dab44ee	0.08362757

weight f4 [8, 24, 1]
0	0xbd532922	-0.0515529
1	0xbdfb26fd	-0.12263296
2	0x39a4f16f	0.000314604
3	0xbd295dff	-0.041349407
4	0xbd15cfb8	-0.03657505
5	0x3eb9eabd	0.36311904
6	0x3d033f2e	0.032042675
7	0x3d862981	0.06550885
8	0xbd8981c5	-0.06714205
9	0xbc80ccad	-0.015722597
10	0xbd218b99	-0.03943977
11	0x3d488bff	0.048961636
12	0x3f8c4bc0	1.0960617
13	0xbe471cdf	-0.19444607
14	0xbc4e0faf	-0.012576981
15	0xbe202935	-0.15640719
16	0xbdbf6887	-0.09346109
17	0x3d2d014b	0.04223756
18	0x3e9c39fc	0.3051299
19	0xbd3b92c0	-0.04579425
20	0x3e2b3f1c	0.16723293
21	0xbdbb14e2	-0.091348425
22	0x3e861a2a	0.26191837
23	0xbe4c8857	-0.19973885
24	0xbd8b5099	-0.06802482
25	0x3e2d33fa	0.16914359
26	0xbd9d6238	-0.07684749
27	0x3e071045	0.131898
28	0x3de73aa9	0.112904854
29	0xbd4e9ef6	-0.050444566
30	0xbd77cc2e	-0.060497455
31	0x3d4a0c25	0.04932799
32	0x3cfac97c	0.030613653
33	0x3b8ef89c	0.0043631326
34	0x3f52543e	0.82159793
35	0xbddf3a95	-0.108998455
36	0xbd01e0fb	-0.0317087
37	0xbdabd61e	-0.08390449
38	0xbe4183e9	-0.18897976
39	0x3e38ff7f	0.18066214
40	0xbe0b8474	-0.13624746
41	0xbe93ae33	-0.2884384
42	0x3e7e9bae	0.24864075
43	0x3ebfd030	0.37463522
44	0x3def6af5	0.11690322
45	0xbe87c7c3	-0.26519594
46	0xbdf1f2d7	-0.11813896
47	0x3d9d7802	0.07688905
48	0xbd14a8d3	-0.036293816
49	0xbe029ce8	-0.12755167
50	0xbbe1c34c	-0.0068897363
51	0x3d086a56	0.033304535
52	0xbdd57b9e	-0.10423969
53	0x3d254016	0.04034432
54	0xbc8accb4	-0.016943313
55	0xbd765e24	-0.060148373
56	0x3db25661	0.08707882
57	0x3d505779	0.05086467
58	0x3a25fa86	0.00063315814
59	0xbd3be112	-0.04586894
60	0xbd6ab34c	-0.057299897
61	0xbe1798f4	-0.1480444
62	0x3af27be0	0.0018500052
63	0x3d30715e	0.043076865
64	0xbc1b69bd	-0.009485659
65	0xbd8000f5	-0.062501825
66	0xbd804bc8	-0.06264454
67	0x3c763f4d	0.0150297405
68	0x3e18987e	0.14901921
69	0x3cb62ce3	0.0222382
70	0xbdb58b00	-0.08864403
71	0x3d42e0f0	0.0475778
72	0x3d21e834	0.039528087
73	0xbdc69496	-0.09696309
74	0x3b77af1e	0.0037793587
75	0xbcab0514	-0.020876445
76	0xbe36eed5	-0.17864545
77	0x3c92588b	0.017864486
78	0x3cf6e95f	0.030140577
79	0x3d5b9f70	0.05361885
80	0xbcd4ec8d	-0.025991702
81	0x3c5a6bac	0.013331335
82	0x3d468f02	0.048476227
83	0x3d133525	0.035939354
84	0x3dea3906	0.114366576
85	0x3c853af9	0.016263472
86	0xbce97b7c	-0.028501265
87	0xbae5d6b3	-0.0017535299
88	0xbd5bf0da	-0.05369649
89	0xbd954a6c	-0.072895855
90	0xbdddba5c	-0.10826561
91	0xbb111ddf	-0.0022143049
92	0x3d106927	0.03525653
93	0x3dbed981	0.09318829
94	0x3daec825	0.08534268
95	0x3e664477	0.22487055
96	0xbd9be55c	-0.07612106
97	0xbdcfd61c	-0.1014826
98	0xbbf709fe	-0.007539033
99	0x3db48533	0.08814468
100	0x3e19af89	0.15008368
101	0xbb695d37	-0.003560854
102	0xbcbd35a4	-0.023096867
103	0x3d270ead	0.04078548
104	0x3c236209	0.009972104
105	0xbe24170c	-0.16024417
106	0x3cd3d227	0.025857044
107	0xbc38041e	-0.01123145
108	0xbbfa7129	-0.0076428843
109	0x3de70112	0.11279501
110	0xbd0a7088	-0.033798724
111	0x3e27fde9	0.16405453
112	0x3dca8f69	0.098906346
113	0xbdc17c9f	-0.09447598
114	0xbdfbda94	-0.1229755
115	0xbc42b9be	-0.011885105
116	0x3d1db27e	0.0385003
117	0x3daa491e	0.08314727
118	0xbdd13481	-0.102150925
119	0x3dfc66a5	0.123242654
120	0x3d8ef7b2	0.06980838
121	0x3bf96f80	0.007612169
122	0xbedb4016	-0.4282233
123	0xbe176610	-0.14785028
124	0x3e12c12d	0.14331503
125	0xbe54cf19	-0.20782126
126	0xbd80ed96	-0.06295316
127	0xbd580636	-0.0527403
128	0x3c7f3444	0.015576426
129	0x3d82b135	0.06381456
130	0xbe4d6a7e	-0.20060155
131	0x3db456af	0.08805596
132	0x3e5813ea	0.21101347
133	0x3b5d5958	0.0033775177
134	0xbe20eebc	-0.1571607
135	0x3cf7e61d	0.030261094
136	0xbe34fb08	-0.17673886
137	0xbe211028	-0.1572882
138	0xbd74a6c9	-0.05972937
139	0x3f01dc61	0.50726897
140	0xbe8e814d	-0.27833024
141	0x3f62e643	0.886326
142	0x3e220a7e	0.15824315
143	0xbecbfc23	-0.39840803
144	0xbe86ad43	-0.26304063
145	0x3db40788	0.08790499
146	0x3e80d499	0.251622
147	0x3e01424b	0.12622945
148	0x3d620527	0.055180695
149	0xbc968bc6	-0.018377196
150	0x3dd64120	0.1046164
151	0x3edf5b8b	0.4362453
152	0xbc138d81	-0.009005905
153	0x3dec89f3	0.11549749
154	0xbd828e86	-0.063748404
155	0x3d42cacc	0.047556683
156	0x3e02756f	0.1274011
157	0x3e1ace2b	0.1511771
158	0x3dcc7a52	0.09984268
159	0xbcf019a6	-0.029309105
160	0xbe0cae1e	-0.13738295
161	0xbd8ec9af	-0.06972062
162	0xbdb6df89	-0.08929355
163	0xbde565f8	-0.112010896
164	0x3ea17250	0.31532526
165	0xbd17930f	-0.03700548
166	0x3dc13ddc	0.09435627
167	0xbe11ca35	-0.14237292
168	0xbe0e4973	-0.13895206
169	0x3e3cdd28	0.1844374
170	0x3dc40274	0.095707804
171	0xbdd7b6c3	-0.10532906
172	0x3df1ba77	0.118031435
173	0xbe1172fa	-0.14204016
174	0x3dcb9f25	0.09942464
175	0xbe91eb23	-0.28499708
176	0x3bbbd8fd	0.005732654
177	0xbc7ca839	-0.015420967
178	0x3e206282	0.15662578
179	0x3e4f7df8	0.20262897
180	0x3d36e563	0.044652354
181	0x3e96411b	0.29346547
182	0x3e36bf1e	0.17846343
183	0xbdc701b1	-0.097171195
184	0x3e6b0bc2	0.22953704
185	0x3e0cca4c	0.13749045
186	0xbe5325ee	-0.20619938
187	0x3e0cf67c	0.13765901
188	0xbcdb4092	-0.026764188
189	0xbe1bdc33	-0.15220718
190	0x3e4ce713	0.20010023
191	0xbd989741	-0.074507244

bias f4 [8]
0	0x3d0c8138	0.03430292
1	0x3e851f4c	0.2600044
2	0xbb9cfc0f	-0.00479079
3	0xbd90fdb4	-0.0707964
4	0xbc65463f	-0.013993799
5	0x3f604620	0.87607
6	0x3f30ade5	0.6901534
7	0xbd83ef69	-0.06442148
