Final_Masterarbeit/Masterarbeit/CNN_window_size_20.pt (torch, 10191 bytes, 12 tensors)

weight f4 [8, 8, 3]
000000 19 70 26 bf f5 65 cc be 3d 5d 4b bf b5 0b 9c be
       -0.650148 -0.39921537 -0.79439145 -0.30477682
000010 5f 76 43 be ac a9 a6 3d d2 dd 35 be a8 15 0c 3e
       -0.19088124 0.08137831 -0.17760399 0.13680136
000020 a4 28 ce bd 13 d4 80 3d 15 15 d5 bd 05 eb c5 3d
       -0.10066345 0.0629045 -0.10404412 0.09663967
000030 38 06 29 3f 93 bd e3 3e 06 72 ca bb 07 fe 3d be
       0.66025114 0.4448057 -0.0061781434 -0.18553935
000040 88 10 60 be 12 8f 19 3e cc 9b 18 3d c2 bd 85 3d
       -0.21881306 0.14995983 0.037257954 0.06530334
000050 9c 9c 7a 3e 9f 09 a7 3f 7f 1e 94 3f 4b 2b 05 40
       0.24473804 1.3049811 1.1571807 2.0807674
000060 1e a4 6a 3e e8 6b 91 3d a2 10 53 3e 4d 4a 4e be
       0.22914168 0.071006596 0.20611814 -0.20145531
000070 2b 79 c1 be b2 29 09 bf 46 c0 49 3d 8e d1 0d 3c
       -0.37787756 -0.53579247 0.049255632 0.008655919
000080 24 95 52 be b6 73 f4 3d 0e 04 30 3e 94 fe 0c be
       -0.20564705 0.119361326 0.17189047 -0.13768989
000090 7a be 42 3e 2c 93 e7 3c 3d 52 c2 3c e4 44 19 3e
       0.19017974 0.02826842 0.023720855 0.14967686
0000a0 3a 06 1f 3e 5b 31 45 3e 44 b7 2e 3d b2 bf e9 3e
       0.15529719 0.19257109 0.042655244 0.45654064
0000b0 ab c1 51 bd c7 bb a1 bd 9e 30 f6 bd 9d a8 20 be
       -0.051210087 -0.07897144 -0.12020992 -0.15689321
0000c0 3e 51 53 ba f3 10 49 3b 2e 49 38 be af 82 da 3e
       -0.0008061117 0.0030680269 -0.17996666 0.4267783
0000d0 2b df f1 3e d3 87 9d bd 3d 8e bb 3b 5f 39 05 be
       0.47240576 -0.07691922 0.0057237432 -0.13010167
0000e0 03 9b ea 3d e8 08 00 be 8f 07 50 3e b0 ab 4a 3e
       0.114553474 -0.12503397 0.20315383 0.19792056
0000f0 ba 87 2a be 6f cb 44 be 11 0e 88 bb 45 91 e8 bd
       -0.16653338 -0.19218229 -0.0041520675 -0.11355833
000100 f7 d6 49 3f 83 f5 e3 be 5d 79 eb bd 43 11 0a be
       0.78843635 -0.44523248 -0.114977576 -0.13483147
000110 03 4c ad bf de ac 10 3e 04 5b 80 bd ae 1d 9d 3d
       -1.3538822 0.14128444 -0.0626736 0.076716766
000120 f7 43 10 3e 07 ad 16 be dc 2c 34 3d c0 29 57 3c
       0.14088427 -0.14714442 0.043988094 0.013132513
000130 ec a8 a4 3c b8 6d b8 bc e0 1f b7 3c 00 1f 16 3a
       0.02010008 -0.022513255 0.022354066 0.0005726665
000140 52 98 19 3e e0 73 51 3d 60 8a 0a 3d 38 76 78 3d
       0.14999512 0.051135898 0.03382337 0.060659617
000150 8a 36 0d 3d 64 ea 2b be 24 33 0b be 0f 2a 48 be
       0.03447584 -0.16788632 -0.13593727 -0.19547294
000160 49 5a 90 bd da d8 87 3d d9 cb 4e bc 94 e2 d3 bd
       -0.070484705 0.06633158 -0.012621843 -0.10345951
000170 f5 e3 96 bd 85 92 4e 3e 19 e4 13 be 92 57 a3 bd
       -0.07367698 0.2017308 -0.14442481 -0.07975687
000180 31 14 ea bd 99 ea ab bd 28 26 05 3e e8 50 01 be
       -0.114296325 -0.08394355 0.13002837 -0.1262852
000190 6d 53 7d bd 36 ff 12 3c 1f 7c 3b be bd 75 2f be
       -0.06184714 0.00897198 -0.18309067 -0.17134757
0001a0 f3 50 6c 3d 39 6d 11 be 0e c7 1b be 50 13 0c 3e
       0.057694387 -0.14201821 -0.15212652 0.13679242
0001b0 88 b8 bd bd e9 20 2c 3e 5b f5 c7 3c 4e 51 35 be
       -0.09263712 0.16809429 0.024408987 -0.17706797
0001c0 9f 1a 89 bd dc b4 d3 3d 21 46 00 be 9a f0 2d 3e
       -0.06694531 0.103372306 -0.12526752 0.16986313
0001d0 1a f5 30 be c5 5d 23 3e 36 49 f7 3d c9 51 1a b7
       -0.17280999 0.15953739 0.12074511 -9.198157e-06
0001e0 cb 11 1d be 82 00 3c 3e 69 14 3f be 80 a3 8f bc
       -0.15338819 0.18359569 -0.1866013 -0.017534018
0001f0 fe 8f 9c bd 80 32 2e bc e4 3e 86 3d 45 f9 48 be
       -0.07644652 -0.010632157 0.06554964 -0.19626339
000200 06 ab cb bd a2 2e 18 3e 1c 8b ac 3d 20 6e fe bb
       -0.099447295 0.14861539 0.084249705 -0.0077645928
000210 34 b5 bf bd 39 31 b1 3c 95 d8 f5 3d dd 96 44 be
       -0.09360734 0.021629917 0.120042 -0.19198175
000220 4d cc 13 be 6b ce f9 bd e5 db 3a be fa 4b a6 bc
       -0.14433403 -0.12197574 -0.18247946 -0.0202999
000230 8b 15 b6 3d 99 06 4a 3e 25 e0 3d be 72 62 0b 3e
       0.08890828 0.1972908 -0.18542536 0.13611773
000240 6e 2d 86 3d 9c 1f 7e bc f1 05 b5 3e 89 ea ee 3e
       0.06551634 -0.015510466 0.35356095 0.4666331
000250 54 c2 2d 3f 47 08 6f bf 54 6c a9 bd 52 74 55 3e
       0.67874646 -0.93372005 -0.08272615 0.20845154
000260 5f 36 98 bb 47 fb fe 3d 12 48 38 3e a3 b0 26 3e
       -0.0046451534 0.12450271 0.17996243 0.16278319
000270 36 19 84 be a9 4c 94 be b6 c1 53 bd f7 c5 9d 3e
       -0.25800484 -0.28964737 -0.05169841 0.30815098
000280 1b 66 47 bf cd fc 8b bf b1 50 11 3e fa 3b a9 3e
       -0.77890176 -1.0936524 0.14190938 0.3305357
000290 18 aa 40 bd 3b 5e 86 bd 1e 8e 5c 3e 35 15 e1 3c
       -0.047037214 -0.06560942 0.21538588 0.027475933
0002a0 73 c3 e7 3e d8 e0 87 3e fa 4c 3d 3e 67 f5 76 3d
       0.45266303 0.2653873 0.18486395 0.060292628
0002b0 2d ce 0e 3f c5 fe a4 3e ef ce 66 3c 66 cd 50 3e
       0.5578335 0.32225624 0.014087423 0.20390853
0002c0 11 7f a1 bb 98 6c 28 be 9c 9f c2 bc 58 04 65 3a
       -0.0049284776 -0.16447675 -0.023757748 0.0008736304
0002d0 e0 b6 b1 3e 22 0b 12 3e 95 99 6c 3f 03 be 77 be
       0.34709835 0.1426206 0.9242185 -0.24193577
0002e0 47 4a 55 3e 90 83 d1 be a3 17 41 be 39 4c 84 3d
       0.20829116 -0.40920687 -0.18856673 0.06459851
0002f0 92 c3 66 bf 79 58 9b bd b1 81 5b 3d 82 ac 4d be
       -0.90142167 -0.07585234 0.05359048 -0.20085338

bias f4 [8]
000000 e3 ec 9d bd f6 d2 19 be 96 17 86 3d f6 fe 12 be
       -0.07711198 -0.15021881 0.065474674 -0.14355072
000010 f1 ae d1 bd 08 35 1e be aa 73 a7 3f 3e 09 04 be
       -0.102384456 -0.15449917 1.3082173 -0.1289415

weight f4 [8, 8, 3]
000000 71 48 2a bf 00 73 32 bf 81 ec 57 3f 9e a5 79 3b
       -0.66516787 -0.69706726 0.8434525 0.00380931
000010 26 ab 72 3d 44 c8 37 3d df 4b b3 bc 85 de bf bd
       0.05924525 0.044868723 -0.021886764 -0.09368614
000020 e1 4b ad 3d 56 fa 07 3e 20 c9 c6 3d 06 2a e8 bd
       0.084617384 0.1327909 0.0970633 -0.1133614
000030 f1 11 1b 3e fb 5c 2a be 6d 87 25 3e f7 b0 e2 3d
       0.15143563 -0.16637032 0.16164942 0.110689096
000040 f8 e0 92 bd 33 b7 ac bd 13 82 c7 bd 96 af 0a be
       -0.07171816 -0.0843338 -0.097416066 -0.13543543
000050 94 f8 3a 3e 85 84 2d be 26 f1 ce be 2a d7 13 3d
       0.18258888 -0.16945083 -0.40418357 0.03609387
000060 76 36 90 be d9 1b bc 3d 77 a0 42 be 9f 94 47 be
       -0.2816655 0.09184999 -0.19006525 -0.19490288
000070 60 b8 99 be 50 49 cf bc e3 56 de 3c c4 c7 fc 3e
       -0.3002348 -0.025303513 0.02714104 0.4937116
000080 e6 a7 dd 3d 68 d1 29 3d 7d 68 9c 3c 87 36 08 bd
       0.1082304 0.04145947 0.019092793 -0.033255126
000090 ab 6b 34 be 03 2f 07 3e 12 85 8d bd dd 58 e1 bb
       -0.17619197 0.13201527 -0.06910147 -0.0068770484
0000a0 21 0a ed 3c 08 5c 1e be 93 ff 3a 3f 8f 8f d4 be
       0.028935494 -0.15464795 0.73046225 -0.41515777
0000b0 8a 1d 43 bd c0 5e 69 3d 18 ba 65 bd 3f ed 3d be
       -0.047635593 0.056975126 -0.056085676 -0.18547533
0000c0 3b 42 16 3f 1f a1 ce bc 58 c3 b6 be 5a 06 10 be
       0.5869481 -0.025223313 -0.3569591 -0.14064923
0000d0 18 ba 42 bd f6 14 97 be 34 ce 21 be 97 39 71 be
       -0.047540754 -0.2950818 -0.15801316 -0.23557125
0000e0 44 e7 45 3e 0a 59 fd 3d ec 55 42 3e 6a aa c5 bd
       0.19326502 0.123704985 0.18978089 -0.096516445
0000f0 67 6e 3e be 95 67 49 be 89 ca 69 bd 9c 2d 8b bd
       -0.18596803 -0.1966842 -0.05707792 -0.06795809
000100 fc 83 73 3d e8 b0 0e be ee 76 9e be a4 e5 9e be
       0.059452042 -0.13934672 -0.3095011 -0.31034577
000110 63 71 53 3e c4 90 eb bd 1a b1 ab be eb 1a 82 be
       0.20648722 -0.11502221 -0.33533555 -0.25411162
000120 37 13 e5 bd 7a 79 f7 bd 36 db f6 be 8c 9d f3 3d
       -0.111853056 -0.12083717 -0.4821412 0.11895284
000130 64 f4 d5 3e c8 b2 c8 3e f4 ac 4d 3e 69 f8 64 be
       0.41788018 0.391989 0.20085508 -0.22360386
000140 4b 29 ba 3e 33 89 09 3d 9e 47 14 3e c9 f6 90 bc
       0.3635963 0.03357811 0.14480445 -0.017695801
000150 2b c5 09 be b5 52 b7 bd 55 6d d1 bd 74 df 0f 3e
       -0.1345412 -0.08951322 -0.102259316 0.14050084
000160 31 31 ba 3d 5c 67 25 3e ac 59 d1 3e d2 a2 60 3e
       0.09091414 0.1615271 0.40888727 0.21937111
000170 e1 04 b2 be 85 11 40 3e 85 59 08 bf ce 31 06 bf
       -0.34769347 0.18756683 -0.53261596 -0.52419746
000180 c5 f2 ac bd 28 13 8c bd fb 81 bc be 0b c9 23 be
       -0.08444742 -0.06839591 -0.36817917 -0.1599466
000190 00 21 33 bc 1b 65 bc bb f1 13 a0 bd 22 8a 66 be
       -0.010933161 -0.0057493574 -0.078163035 -0.22513631
0001a0 9d 4e 5d be 35 2b 15 be 53 03 43 3e 81 bb ba 3c
       -0.2161202 -0.14567263 0.19044237 0.022794487
0001b0 c4 90 43 3e 47 75 db bc 86 28 d7 3d 40 38 31 be
       0.19098192 -0.02678932 0.10505776 -0.17306614
0001c0 dd 41 c0 3d 55 f2 68 3d ea ed d7 bd 7b ab 87 be
       0.093875624 0.05687173 -0.105434254 -0.26498017
0001d0 e9 75 38 be 6a 84 3f 3d b4 03 58 be 9f 5c 04 bf
       -0.18013729 0.04675714 -0.21095163 -0.5170383
0001e0 a7 ae 88 bd de 66 10 3f f9 7a 83 bd 22 e2 5f be
       -0.06673937 0.5640696 -0.064199395 -0.21863607
0001f0 ff 95 2f 3e b9 90 71 3e a9 20 e9 bd 53 88 c1 3b
       0.17147063 0.23590364 -0.113831826 0.0059061437
000200 1b 6e c2 3c dc d8 9f 3d 65 8e 36 be c4 d5 3a 3e
       0.023734143 0.078050345 -0.17827757 0.18245608
000210 26 e2 a3 bd 2c bf 8c 3d bc d4 fb 3d c7 b6 2e be
       -0.08002119 0.06872401 0.12296435 -0.17061912
000220 2c 3e dc bd c1 6f da bd f1 9c 5b 3e 8f 45 a0 bd
       -0.10754046 -0.106658466 0.21446587 -0.07825767
000230 c5 6c 84 be 1c 51 a3 be 03 1f 23 3d be 97 01 be
       -0.25864235 -0.3189782 0.039824497 -0.12655541
000240 b7 05 c4 be d1 53 6f bd 38 d8 e1 3e 8f ec 2f 3e
       -0.3828561 -0.058429543 0.44110274 0.17180084
000250 a6 f2 10 3e 6d d5 a7 3e 2f 7a 8d be bb 2a 7d bd
       0.14155063 0.32780018 -0.2763228 -0.06180833
000260 5f f8 a5 bc 43 b0 63 bd 7b 8c b2 bd 51 dc 3d be
       -0.020260034 -0.05558802 -0.08718201 -0.18541075
000270 55 56 17 3e 05 ef 96 bd 6e ea 37 3d 0c 40 ca 3c
       0.14779027 -0.07369808 0.044901304 0.024688743
000280 b6 56 09 be a0 a2 f9 3d 4c 76 71 3e d6 94 d9 bc
       -0.13411984 0.121892214 0.23580283 -0.026560228
000290 f3 7f d4 3d 08 e8 42 bc 54 f9 6d bd 9d fe 17 be
       0.10375967 -0.011896141 -0.058099106 -0.14843221
0002a0 eb 71 f6 bb 58 18 73 be 2d a4 bd be b6 44 15 3e
       -0.0075209043 -0.23739755 -0.3703932 0.14576992
0002b0 50 7e 7e bd b3 3a 43 3d f3 b8 33 bc dc 5e f2 be
       -0.06213218 0.0476634 -0.010969388 -0.47337997
0002c0 15 29 8d bf 85 c7 50 ba b2 7b 87 3d 1e 8d 04 be
       -1.1028162 -0.0007964301 0.0661539 -0.12944457
0002d0 56 dc 28 bb 3f 9c 97 3d 53 2f 1d be a7 e8 67 bd
       -0.0025766096 0.074028485 -0.15350084 -0.05661836
0002e0 e2 a9 b6 bb f0 e2 9c 3c 11 8d d4 bd 17 49 f2 3d
       -0.005574451 0.019151181 -0.10378469 0.11830347
0002f0 e7 4d 82 3f b8 62 00 bd cd 8d ae 3d 93 a0 b7 be
       1.0180024 -0.031344146 0.0852314 -0.35864696

bias f4 [8]
000000 95 c8 89 be c3 f2 7a bc f0 6d 69 3e c1 c1 99 bc
       -0.26910844 -0.015316668 0.22795844 -0.018769147
000010 9b e7 0a 3f bd 4d c0 be ce 20 ca be 13 af c6 3d
       0.5425965 -0.3755931 -0.39478153 0.097013615

weight f4 [8, 8, 3]
000000 41 eb 71 3e 98 f6 99 bb 40 82 54 3f 4c 91 0a be
       0.23624898 -0.0046985857 0.83011246 -0.13531989
000010 4b 48 2a bd 45 ae 33 3d 9c f5 45 be 03 d1 94 be
       -0.04157285 0.04386737 -0.19331974 -0.29065713
000020 e1 00 7f be 46 e3 dc bd d8 47 8e 3d 0a a3 20 bf
       -0.24902679 -0.107855365 0.06947297 -0.6274878
000030 c3 68 b6 bd a5 3e 30 3e b5 b1 9e bd d1 70 b0 bd
       -0.089067005 0.17211397 -0.07748739 -0.08615268
000040 8a b7 63 bd f7 f7 cf 3c 31 c7 52 3e 3a 1a ea 3d
       -0.05559496 0.025386794 0.20583798 0.114307836
000050 f1 46 fe 3e 12 22 5e 3d 10 aa 2c 3d a1 fe 85 be
       0.496635 0.05423171 0.04215437 -0.2617083
000060 20 ee 4a be 70 bf 60 3c 53 37 18 3d af a4 06 be
       -0.198174 0.013717517 0.037162136 -0.1314876
000070 ed 31 79 bd ea f5 0b 3e 76 0a d9 bb 12 30 14 3d
       -0.06083863 0.13668028 -0.0066235615 0.036178656
000080 ff 6d 24 3e 65 d5 82 bc ce e1 b1 3d 9a 47 0f be
       0.16057585 -0.015970895 0.08685647 -0.13992158
000090 9c 42 41 3e ba fa 1a 3e 6c 96 c6 3d 94 a9 8e be
       0.18873066 0.15134707 0.096966594 -0.27863753
0000a0 80 ac ed bd a4 67 79 be 4c aa a2 3d 96 4e 89 bd
       -0.116051674 -0.24355942 0.07942638 -0.06704442
0000b0 5d 77 12 bd b9 69 08 be e3 65 21 be 06 cb bf 3d
       -0.035758365 -0.1332158 -0.15761523 0.093648955
0000c0 b8 34 98 be da 22 68 be 5c 8e 14 be 11 d0 b2 be
       -0.2972772 -0.22669545 -0.14507431 -0.34924367
0000d0 b6 42 92 be 24 6b bc be f8 e2 a3 be a0 e7 73 be
       -0.2856652 -0.36800492 -0.320091 -0.23818827
0000e0 7f 5a 97 be ae f3 a9 be fe 8a bb be e5 08 55 be
       -0.2956123 -0.33193725 -0.3662948 -0.20804174
0000f0 b9 dc 15 be 14 88 7f be 9f cb 34 bf c2 3d 0b be
       -0.1463498 -0.24954253 -0.706232 -0.13597777
000100 57 dd f7 bd 88 c3 c8 be 03 72 08 be c4 87 b9 ba
       -0.12102764 -0.39211679 -0.13324742 -0.0014154841
000110 a7 8b 2e 3a a7 2d 18 be 0a 7e 37 be 01 84 e4 be
       0.0006658383 -0.14861165 -0.17919174 -0.4463196
000120 6e 0c 9a be 8a 6a b7 be 68 92 32 3d 0f 57 81 be
       -0.30087608 -0.3582347 0.043596655 -0.25261733
000130 b3 90 ea bd 46 de ac be 8b 72 8a be a3 e0 63 be
       -0.114533804 -0.3376333 -0.27040514 -0.22253661
000140 7f 98 80 be e2 cb c3 be 93 83 12 bf de 4d d5 be
       -0.25116345 -0.38241488 -0.57232016 -0.4166097
000150 1a 4f b8 3d 6e f2 b9 be 78 42 12 bf 9e 2d 3c be
       0.089994624 -0.36317772 -0.57132673 -0.18376777
000160 8a 2d a8 be 06 0d ac be ce 97 4d be 9e c5 8e bd
       -0.32847244 -0.33603686 -0.2007744 -0.06971286
000170 62 9c 9e be 81 3e 5c be 40 27 92 be de b9 0d bf
       -0.30978686 -0.21508218 -0.2854557 -0.55361736
000180 b9 b6 f4 3c c5 d3 23 3e c2 c4 f9 3e c1 18 c2 bd
       0.029872285 0.15998752 0.48782927 -0.09477378
000190 f3 fa 07 3d f8 2f be 3d 73 1f 31 3e d6 50 26 bb
       0.03319831 0.09286493 0.17297153 -0.0025377772
0001a0 16 31 a0 bd 0b 10 fa be 1a 74 fe be 5d 87 3a bf
       -0.078218624 -0.48840365 -0.49697953 -0.728628
0001b0 3e 80 d5 bd 55 22 02 3e 5b 89 09 3e 26 d8 96 3d
       -0.10424851 0.12708409 0.13431303 0.07365446
0001c0 6d 0e 94 3e 29 2b 11 be 19 58 6b 3d 4c e1 86 3d
       0.28917256 -0.1417662 0.057457063 0.06585941
0001d0 70 7c 43 bd fb c2 a4 bd fc d6 77 bd 8c df 08 bf
       -0.047726095 -0.08045002 -0.06050776 -0.53466105
0001e0 1e b8 54 bc d9 69 6d 3b 19 12 a1 be 66 ba 2c 3e
       -0.01298335 0.003622642 -0.3145912 0.1686798
0001f0 6c 1f c4 3e f1 3d 7c 3e e7 38 da be 74 f2 c4 be
       0.38305223 0.24633004 -0.42621538 -0.38466227
000200 48 2d 8d be 5c b0 fb bd 9d c4 ed bd 72 83 5c 3d
       -0.2757361 -0.12289497 -0.11609767 0.053836294
000210 2f 1c 33 be 74 e9 a2 be 30 9d 19 be 1d 5c 10 bd
       -0.1749122 -0.31818736 -0.15001369 -0.035244096
000220 c9 37 32 be 90 8d a7 be 08 0a 6b be 69 e5 a0 be
       -0.17404093 -0.3272519 -0.22953045 -0.31425026
000230 04 15 ad be 5b bc dc bc aa 7e 4f 3a e5 4d c9 bc
       -0.33805096 -0.026945284 0.0007915298 -0.024573276
000240 3e 59 37 be 2d 38 74 be 02 11 9d bd 1b 7d d8 bb
       -0.17905137 -0.23849554 -0.076692596 -0.0066067106
000250 b7 d7 04 be fe ff 86 3b 46 f0 ba ba fd e0 10 bd
       -0.12972914 0.004119872 -0.0014262281 -0.035370816
000260 d4 e7 4a 3d 49 44 d4 be fd 0d 33 be 3b ec 9e be
       0.049537495 -0.41458347 -0.17485805 -0.31039605
000270 22 e5 a4 3d 06 19 a6 bc a3 1e b4 3d 27 c5 54 be
       0.08051516 -0.020275604 0.08794906 -0.20778333
000280 04 df 41 bc 74 b0 04 3e 23 3a 33 be f0 10 8e be
       -0.011832956 0.12957937 -0.17502646 -0.27747297
000290 52 37 b7 bd 94 9d 6b be 57 ab 0b bf 98 1b 0d 3f
       -0.089460984 -0.2300933 -0.5455832 0.5512023
0002a0 94 1f 9b 3d 4f 85 86 3d cb 7c a1 be e3 86 8b 3e
       0.075743824 0.06568395 -0.31540522 0.27251348
0002b0 9e b0 4c be 44 ab 42 be 4f 9f 52 be d4 3b 95 be
       -0.19989249 -0.19010645 -0.20568584 -0.29147208
0002c0 d1 91 16 be 3a 74 7a be 98 8e 21 3f b1 43 0a bf
       -0.14704062 -0.244584 0.63108206 -0.5400954
0002d0 d0 fc 11 be a2 1f 78 3d 4b 34 89 be 2b 3c c8 bd
       -0.14256597 0.060577042 -0.2679771 -0.09777101
0002e0 af 33 84 be 9d 66 6d be a7 a8 20 3e 7b 25 23 be
       -0.2582068 -0.23183675 0.15689336 -0.15932266
0002f0 a4 ad fa bd 96 9e 21 3e 67 c3 36 3e 1a 9e ca 3e
       -0.122401506 0.15783152 0.17847978 0.39573747

bias f4 [8]
000000 f0 4e 79 be 0e 66 34 be 36 e2 28 3f 39 f3 29 3f
       -0.24346519 -0.17617056 0.6597017 0.66386753
000010 21 80 0f 3f d8 3d 9c 3e 79 12 c8 3d b2 9e 21 bd
       0.56054884 0.30515933 0.097691484 -0.039457984

weight f4 [8, 8, 3]
000000 e9 f6 4b be 60 e5 1a 3e c3 ba 37 3e d0 09 49 3e
       -0.19918407 0.15126562 0.17942338 0.1963265
000010 fa 90 da 3d 6f 68 bb bd 82 e8 e3 3d 19 a8 58 3d
       0.10672183 -0.091507785 0.11128332 0.052894685
000020 a9 d2 0c 3e 1e aa 3e 3d 8f d7 4e bd 57 43 db bd
       0.13752235 0.046548955 -0.05049854 -0.107062034
000030 2e 99 00 be 57 6e 55 bd 08 45 5e be 63 47 f8 3d
       -0.12558433 -0.05210718 -0.21706021 0.12122991
000040 3f d6 12 be 68 36 92 3c 64 1a af bd bd 98 0e 3e
       -0.14339541 0.017848209 -0.085499555 0.13925453
000050 f2 8f 83 3e bf 33 30 be 4e 37 4b be 4c 08 82 3c
       0.2569576 -0.1720724 -0.19845316 0.015873097
000060 c8 80 41 bd b6 70 bd be b4 03 66 be 08 fc 09 3e
       -0.047241956 -0.37000054 -0.2246235 0.13475049
000070 47 d2 8d 3d 74 4a 07 bc ea 46 1d be 4c f6 dd bb
       0.06924873 -0.008257497 -0.15359083 -0.0067737456
000080 98 be e1 3d f7 40 ba be 35 92 ea bd 9e 38 98 be
       0.11022681 -0.3637769 -0.11453668 -0.29730695
000090 59 1a af bd ae 5a 82 be 5a 10 21 bf 23 48 34 3e
       -0.08549947 -0.25459808 -0.62915576 0.17605643
0000a0 e2 44 8b be f3 3d 0f 3e f6 c6 ef 3d 4b 2c 3f bd
       -0.2720099 0.13988476 0.11707871 -0.0466731
0000b0 6a 24 65 3e ec 46 8e bd 25 80 f2 be f4 e4 d0 be
       0.22377172 -0.06947121 -0.47363392 -0.40799677
0000c0 42 0c ad 3c 67 24 93 be b3 33 79 3f 42 78 19 3d
       0.021124009 -0.2873871 0.9734451 0.037468202
0000d0 4a 43 a0 ba fd 94 d8 bd 30 43 cc bc 94 2d cc 3d
       -0.0012227085 -0.10575292 -0.024934381 0.09969631
0000e0 21 82 94 be e5 1b 9b 3d d7 3c 32 3e e7 b7 ca 3d
       -0.2900553 0.0757368 0.17406021 0.09898358
0000f0 f9 d8 ae be 08 2e a1 be 59 36 b3 3d 9d 89 a2 3d
       -0.34149912 -0.31480432 0.087506 0.07936404
000100 eb 78 a9 3e 09 a6 26 3d 4d 28 47 3c af 63 38 be
       0.33100066 0.040685687 0.012155605 -0.18006776
000110 c8 76 70 3e 64 04 11 3d 7a 87 0a be 2b 78 7a bd
       0.23482811 0.035404578 -0.13528243 -0.061149757
000120 4e 83 f6 bd 59 bb 96 bd 5b 0c f2 bd 8a af 3b be
       -0.12036763 -0.073599525 -0.11818763 -0.18328682
000130 4d 90 c2 bc 4c 54 11 bd 6d cd 16 be 1c ca d9 3d
       -0.023750449 -0.035480782 -0.14726801 0.106342524
000140 ab 4d 9b bc 8a b5 93 bc 2a 09 94 be 67 9e 86 be
       -0.018957933 -0.0180309 -0.28913242 -0.26292726
000150 32 6a 6f be 6a 3e ab be ae c0 bf be fe bd a6 bc
       -0.23380354 -0.33446056 -0.3745169 -0.020354267
000160 82 94 53 bc a8 b9 fb 3d 1c a6 46 3e 6d 85 21 3e
       -0.012913825 0.122912705 0.19399303 0.15773554
000170 39 da 42 be 98 f0 a3 bd 13 98 c6 bd 34 6d f2 be
       -0.19028558 -0.08004874 -0.096969746 -0.4734894
000180 d1 0b 78 3d 0d 9e d7 3d 85 18 25 bd e7 31 e6 bd
       0.060558144 0.10528193 -0.040306587 -0.11239987
000190 f3 2d 57 3e ee c2 32 3d ae 26 0e 3e 94 3b 67 bd
       0.21013622 0.04364293 0.13881943 -0.056453303
0001a0 8c 6e 53 be 70 31 0a 3e d5 70 83 bc c2 77 be b9
       -0.20647639 0.13495421 -0.016045013 -0.0003632885
0001b0 d2 07 49 be 50 ff 0c bf 26 83 0a bf 83 fc 03 bd
       -0.1963189 -0.55077076 -0.54106367 -0.032223236
0001c0 ab 88 24 3e 62 6e f1 bc 7f 55 74 3d b2 fe 6a be
       0.1606776 -0.02947158 0.059651848 -0.22948721
0001d0 c8 27 56 3f fe 38 78 3c 08 89 6d bf 0f 6f 2e 3f
       0.8365445 0.015150307 -0.9278722 0.6813821
0001e0 a3 7e 31 3c c2 18 78 be 6e 6d 6a be cb 65 95 bd
       0.010833415 -0.24228194 -0.22893307 -0.07294806
0001f0 27 10 14 3e 95 32 74 bd fa 80 85 3d 4b df 96 be
       0.14459287 -0.05961855 0.06518741 -0.29467234
000200 b0 89 6a be a3 18 40 be 30 dd 54 be 89 16 5c be
       -0.22904086 -0.18759398 -0.20787501 -0.21492971
000210 d6 e3 cf be bb 4c 3d bf 89 4c 34 bf f5 83 b7 bd
       -0.40603513 -0.73945206 -0.70429283 -0.08960716
000220 13 08 a2 be d4 ca 4d be b1 9f 10 3e aa 87 4e 3e
       -0.31646785 -0.20096904 0.14123417 0.20168939
000230 90 55 65 be 35 13 5e 3d e5 a7 23 bf f6 2c 0f bf
       -0.22395921 0.054217536 -0.6392806 -0.5592798
000240 1b e8 41 3e 9e 5c c6 bd 59 b8 05 be 6d bc 68 bd
       0.18936197 -0.09685634 -0.13058604 -0.05682032
000250 eb c9 17 3e 4c 67 17 3e d2 42 9c bd 28 63 d6 bd
       0.1482312 0.14785498 -0.076299325 -0.10468131
000260 b1 4b bd 3d 90 52 c3 bd 38 d8 9c 3d 77 3e c9 bd
       0.092429526 -0.09537232 0.07658428 -0.09826367
000270 7a 88 81 bc 9a 51 96 be 28 01 c7 be 0f 2a 2d 3e
       -0.015812147 -0.29359132 -0.3886807 0.16910575
000280 be 5c 29 3e c3 cb 82 3e 70 8b 06 3c 41 28 74 3e
       0.16539285 0.25546083 0.008211955 0.2384348
000290 e4 4c 14 3d 7e c2 bf 3c 70 fd 5c 3e 9e e3 a3 3d
       0.03620614 0.02340817 0.21581054 0.08002399
0002a0 ec b2 29 3d 00 dc 10 3e 7c ca d8 bd a0 18 de bc
       0.0414304 0.14146423 -0.10585496 -0.027111351
0002b0 62 6a d3 3d 7f cf f8 bb bf 25 3d 3c 7e 1c 0b 3e
       0.10323025 -0.007593095 0.011544644 0.13585088
0002c0 8e 98 4d 3e 26 a0 5c bc 13 4c 85 bd 1a dc ab 3d
       0.20077726 -0.013465917 -0.06508651 0.083915904
0002d0 10 72 e2 be a0 e1 e4 be f3 fa 08 be 43 8e aa bd
       -0.44227648 -0.44703388 -0.1337698 -0.083279155
0002e0 3a f5 a9 3d dc 87 30 bd f3 92 73 3d 1f 33 7d 3d
       0.082987264 -0.043098316 0.059466314 0.06181633
0002f0 5e 9a cf bb f8 a3 5d bd 25 10 8e 3e 29 bf ce 3e
       -0.0063355407 -0.05411145 0.27746692 0.4038022

bias f4 [8]
000000 92 5d 01 bd 2a 58 e9 3e 73 99 5a be 77 c9 a9 3e
       -0.031583376 0.45575076 -0.21347599 0.33161518
000010 f8 a6 ec 3e ab 41 48 3f 17 eb a5 be 33 2e a6 3a
       0.46221137 0.782252 -0.32405922 0.0012678563

weight f4 [8, 8, 3]
000000 57 f5 36 be 38 52 0c 3e 41 cf 3d 3e c5 4d 95 be
       -0.17867027 0.13703239 0.18536092 -0.29160896
000010 dd 5d 68 3d 55 33 a0 bc 3f e9 ab bd bb 88 c0 3d
       0.05673014 -0.019555727 -0.083940975 0.09401079
000020 4e c9 41 be 4a 30 f8 bd fa f0 43 be 8f 3a 7f be
       -0.18924448 -0.121185854 -0.19134894 -0.24924682
000030 1c 8d 36 be cd f7 ae be e8 c7 be be 1b 6c 2b be
       -0.17827266 -0.34173432 -0.3726189 -0.16740458
000040 81 f4 ad be ac 67 94 bd 04 1f f6 bd 35 22 81 be
       -0.33975604 -0.07246336 -0.120176345 -0.2522141
000050 dc 4d 50 be 66 64 8d be 88 e3 c4 bd f3 95 27 be
       -0.20342201 -0.2761566 -0.09613711 -0.16365795
000060 07 ad 2a 3e f2 f7 a0 3c df c6 49 be dd 4e 27 be
       0.16667567 0.01964948 -0.1970477 -0.16338678
000070 6d f8 f4 3c 0d d0 35 3d 47 62 67 bd 78 19 3e 3d
       0.029903615 0.044387866 -0.05649021 0.046411008
000080 0b db 8a be b6 86 0d be 74 c2 42 be a1 34 fd 3d
       -0.27120242 -0.1382092 -0.1901949 0.12363554
000090 ef d3 2b bd 89 cd cc bd bd 2e c4 bd 3c cf 83 3d
       -0.041950163 -0.1000014 -0.09579227 0.06436011
0000a0 6a 68 1d bc 46 60 ae 3e 1c a8 92 bd 2e de ef bd
       -0.009607414 0.34057826 -0.071609706 -0.11712299
0000b0 43 ab d3 bd b3 14 52 bd 8b aa 91 be a9 b4 d8 bd
       -0.103354 -0.05128927 -0.28450426 -0.10581333
0000c0 30 e5 33 3e 2e 00 7e be ef 20 70 3e 4d 04 14 3d
       0.17567897 -0.24804756 0.23450063 0.036136914
0000d0 dd 6f 9c bb ce 36 a3 be e3 44 e9 be 06 c4 62 be
       -0.0047740773 -0.3187775 -0.4556037 -0.2214509
0000e0 79 b3 4f 3f 2c 7d 34 be 82 cf d0 be 57 31 92 be
       0.8113323 -0.17625874 -0.40783316 -0.28553268
0000f0 93 2e 43 be 42 10 5d be fe b6 00 bf ba 9e f7 3c
       -0.19060735 -0.21588233 -0.50279224 0.030227054
000100 68 e5 6f bd a7 7a bd be 88 b8 a0 3d 9e 31 a0 be
       -0.05856839 -0.3700764 0.078476965 -0.31287855
000110 55 f3 8e be 1f 6f 7e be ba 17 a8 be a5 85 81 be
       -0.27920023 -0.24847077 -0.32830602 -0.25297275
000120 da 7e 75 3d 96 ad 05 be e7 56 37 3e 1a d5 50 3e
       0.05993543 -0.13054499 0.17904244 0.20393792
000130 48 54 16 3d b9 74 2e be c6 60 1e bd 74 84 bd bd
       0.03670147 -0.17036714 -0.03866651 -0.09253779
000140 2e 49 86 bd f8 96 f6 3c a2 80 0a be 00 e5 54 ba
       -0.06556927 0.030101284 -0.13525632 -0.0008121282
000150 40 97 bb 3b a4 8d 63 bd 29 b5 b2 bd 4a cc 19 bd
       0.0057248175 -0.055555 -0.0872596 -0.03754834
000160 10 d3 bf 3d 8b bf fb bd 86 9b 70 3d 04 78 7c bb
       0.09366429 -0.12292393 0.05874207 -0.0038523683
000170 8a cc 80 3d 16 a3 16 be d8 2c e2 3c 9e cb 9b bd
       0.06289013 -0.1471065 0.027609274 -0.07607196
000180 10 fc 2e 3e 6b 20 3b 3e e5 35 c4 bd 47 64 a7 3c
       0.17088342 0.18274085 -0.09580592 0.020433558
000190 68 f7 4d 3d 2c aa 9f 3d 15 60 c5 3d c0 d1 4b 3d
       0.050284773 0.077961296 0.09637467 0.04976058
0001a0 71 e1 18 be ff 9b 50 be d0 80 45 be 71 0c 14 3e
       -0.14929749 -0.20372008 -0.1928742 0.14457871
0001b0 fa 4a 11 bd 57 dc d4 bc c9 a3 df bd b3 6e 8a 3d
       -0.035471894 -0.025983972 -0.109199114 0.067593955
0001c0 1c 64 3a be 8f 5e d8 3d db a4 68 3d 2b 2b be 3d
       -0.18202251 0.105649106 0.056797843 0.092855774
0001d0 fa 5e a2 3e 24 e1 5d 3e 2a 79 c7 3e 4c e7 17 3e
       0.31713086 0.21667916 0.38959628 0.14834327
0001e0 03 38 20 be 62 5d 18 3e 19 93 61 3d 67 2c da 3d
       -0.15646367 0.14879373 0.055071924 0.10653
0001f0 fb 13 8e be d3 50 ae be 62 c0 74 be 1d 15 72 be
       -0.2774962 -0.3404604 -0.23901513 -0.23640867
000200 7a b8 e2 bd 57 73 86 be f6 bc c7 bd a9 d5 00 be
       -0.11070342 -0.26259872 -0.09752838 -0.12581505
000210 a0 7f aa be eb 84 c2 be d5 b2 17 bf d2 59 15 be
       -0.33300495 -0.37992033 -0.5925725 -0.14585045
000220 0d 39 8d be ca 93 d3 be 3d 50 3c bc 7e 60 71 be
       -0.2758259 -0.41323692 -0.01149374 -0.23571965
000230 32 b0 13 be 7a 27 34 be b6 4e bf be e6 3c 84 be
       -0.14422682 -0.17593184 -0.3736474 -0.25827712
000240 e5 42 2c 3e 24 90 3b 3e 3e c7 69 3d 06 bf 70 bd
       0.16822393 0.18316704 0.057074778 -0.058775924
000250 4f f6 96 bd 00 bf d1 bc df cb 00 be 61 d0 e0 3b
       -0.073711984 -0.025603771 -0.1257777 0.006860778
000260 0f ca bc bd 69 58 57 bc 97 ce 34 be bf c3 4e be
       -0.09218227 -0.013143637 -0.17656933 -0.20191859
000270 7a 89 60 be b1 35 2e 3e c3 04 c2 3e 41 64 4d be
       -0.21927443 0.17012669 0.37894258 -0.20057775
000280 e4 aa 44 bd 3f cd 11 3d b3 bd 13 be c1 58 e1 bd
       -0.048014536 0.03559613 -0.14427833 -0.110032566
000290 c0 5c 6b bd 50 70 60 3c 0d 81 02 be c6 04 87 be
       -0.0574615 0.013698652 -0.12744541 -0.2637083
0002a0 43 66 43 3e 7c ed f9 3d 43 58 56 be b9 4c 30 be
       0.19081978 0.122035 -0.20932107 -0.17216767
0002b0 0e fa f4 3d de fc 04 3e 21 8b e4 bd 0f a9 95 3b
       0.11961757 0.12987086 -0.11159349 0.0045672725
0002c0 ed 94 49 3e 32 0c bf bd 0d ca b1 3d d8 13 7b 3d
       0.19685717 -0.09328498 0.08681116 0.06129822
0002d0 e6 84 a5 bd 6d e8 58 be 3c ab 1c bd 62 ef 49 be
       -0.08081989 -0.21182413 -0.03824924 -0.19720224
0002e0 e9 8a b7 bd 90 03 a0 3c 46 df e2 bd ec da 98 3c
       -0.08962042 0.019532949 -0.11077742 0.018659078
0002f0 cb a2 4e 3c 15 02 df bd 4a cd 61 bd 5d 5c 03 3e
       0.012612055 -0.10889069 -0.05512742 0.12828203

bias f4 [8]
000000 bd 61 65 bc 87 a0 08 3e 30 4e 05 3f b4 5c 39 be
       -0.014000353 0.13342486 0.5207243 -0.1810177
000010 0e db c0 be 7b 96 1b 3f fb 7b 46 bd f9 f6 94 bd
       -0.37667125 0.6077649 -0.04845808 -0.07273669

weight f4 [8, 24, 1]
000000 5b e6 d0 3c de 07 4a 3e 9c fd ad 3f a2 5a 4e 3f
       0.025500467 0.19729564 1.359302 0.80607045
000010 7e 05 c7 be e2 f2 9f 3c de 92 1c 3d 51 90 92 be
       -0.38871378 0.019524995 0.038226 -0.2862573
000020 84 74 1d bc 45 29 9c bb 9c c1 8d bd 57 bf 8b be
       -0.009610299 -0.004765662 -0.06921694 -0.27294418
000030 2d 88 8b be 6f ba 6b be 8f 94 6b b9 0e 0d 75 3d
       -0.2725233 -0.23020338 -0.00022466689 0.059826903
000040 66 fb 08 3f 77 c3 bb 3d e0 92 2d bd d3 7d a2 3c
       0.53508604 0.09168141 -0.0423764 0.019835388
000050 39 c4 fc 3d 6c d1 ae 3d b3 95 b8 be de 07 10 be
       0.12342114 0.08536038 -0.3605171 -0.14065501
000060 73 ab 29 3e 18 28 fd bd 7a 4c 08 bf a8 6f a3 3e
       0.16569309 -0.12361163 -0.53241694 0.31921124
000070 80 4b b4 3e 29 b6 13 bf c5 9b 91 bd 51 e3 16 bf
       0.35213852 -0.5769983 -0.07109789 -0.5894061
000080 30 16 cd 3c 49 8e 0a be 3b f5 82 3e d9 fa 69 be
       0.025034994 -0.1353084 0.2557772 -0.22849597
000090 eb 66 e1 be b9 d1 00 bf 84 e1 8b 3e ff 27 97 3d
       -0.44023833 -0.5032001 0.27320492 0.073806755
0000a0 b4 04 84 bd e3 b7 93 3e 4a ed 3e 3f cb 47 db bd
       -0.064462095 0.28851232 0.74580824 -0.10707053
0000b0 7b 04 95 3e 59 4e 3a 3f 91 34 c9 be 71 c7 14 3e
       0.2910498 0.727758 -0.39297917 0.14529206
0000c0 0c 2c 4d bb 27 79 f4 3d 4f ac 90 bc 7b 0f eb 3c
       -0.0031306772 0.119371705 -0.017660288 0.028693905
0000d0 59 ef 20 3c 3b 3a a1 3b ad f5 7c bc d2 ad 35 bc
       0.00982269 0.0049202717 -0.015439433 -0.011088805
0000e0 e5 80 87 bc 39 18 8e bd 6b 62 24 3b f8 7d 20 3d
       -0.016540954 -0.06938214 0.0025083076 0.039182633
0000f0 87 b3 b6 bb d9 4d b5 3c 9e a5 88 3a 10 0a 5f 3c
       -0.0055756005 0.022131847 0.0010425334 0.013613239
000100 e1 42 5a 3c 0d c9 f2 b8 e8 7e d9 3b 39 f4 34 3e
       0.013321609 -0.00011576908 0.006637443 0.17671289
000110 8f 72 84 3c 00 be f1 bc 2a 96 e2 3c 45 94 12 bd
       0.016167907 -0.029509544 0.027659494 -0.035785932
000120 a8 c7 e8 b8 fb 4c 6a 3d b8 71 5a bc 59 66 da 3c
       -0.00011099811 0.05720232 -0.013332777 0.026660131
000130 be 5c 45 3c 04 c0 f4 3a 88 29 89 3c 42 c8 7c bc
       0.012046037 0.0018672948 0.016743436 -0.015428605
000140 40 bd 06 be 22 b8 48 bd c8 78 48 3c 9b 71 7d 3d
       -0.1315813 -0.049003728 0.012235828 0.06187592
000150 cc cd b0 bb 75 47 3c bc 0c 19 75 bd 0d 58 1c 3b
       -0.0053956266 -0.011491646 -0.05983834 0.0023856193
000160 e4 6f 91 3d 81 10 b1 ba f2 b4 f0 3b 12 b3 0f 3d
       0.071014196 -0.0013508947 0.007345789 0.035082884
000170 a2 4d 55 3d 17 36 5d bd e9 d6 c6 bd a7 18 9c bd
       0.05207599 -0.054006662 -0.097089596 -0.076218896
000180 08 60 7e bb 5a e2 fa 3c 66 40 3a be 6b e2 10 bd
       -0.0038814563 0.030625511 -0.18188629 -0.03537218
000190 fd 57 d4 bd a6 69 ce bb 7d ea 85 3d e7 7b ad bd
       -0.10368345 -0.0062992154 0.06538866 -0.08470898
0001a0 66 81 be 3d 1c 59 3e 3d 93 d8 f5 bc d8 fd 45 bd
       0.093020245 0.0464717 -0.030010497 -0.048337787
0001b0 ec 48 98 bd 66 d8 09 be 1d 04 d7 bd 9c ea 8a bc
       -0.07435784 -0.13461456 -0.104988314 -0.016957574
0001c0 15 b5 48 bd 47 b7 c0 3c 38 aa 05 bc ab 45 3b be
       -0.04900082 0.023524893 -0.008158259 -0.18288295
0001d0 92 c8 c1 3d 0a a6 75 bc a0 ba dd bc 1d f6 aa bd
       0.09462084 -0.0149932 -0.027066529 -0.08347724
0001e0 7a 20 d1 3d fa 4b cc bd 9d 50 9a be 2e 68 4b 3e
       0.102112725 -0.09975429 -0.30139628 0.1986396
0001f0 51 f9 af 3d 82 e1 b4 bc 69 6d 6f be b4 5f 86 3d
       0.08592475 -0.022080187 -0.2338158 0.06561223
000200 b7 7a 67 bd 15 f6 14 bf 8e c3 2e 3d c0 95 3f be
       -0.056513514 -0.5818799 0.042666964 -0.18709469
000210 e9 36 b1 3d 1b 01 6a bf ef 8e f3 3d 54 27 16 3f
       0.086530514 -0.91407937 0.11892497 0.5865376
000220 d8 8d 05 be 3d f3 05 bf 6a 11 8d 3e 01 20 d9 3d
       -0.1304239 -0.5232428 0.27552348 0.106018074
000230 62 b8 cb be ad 34 c3 3e 43 12 d8 bc 58 57 53 be
       -0.3978911 0.38126126 -0.026375895 -0.20638788
000240 93 d7 55 3c 4c 87 e4 3b f4 b4 c3 3e 30 56 51 3d
       0.013051885 0.0069741365 0.38223994 0.051107585
000250 76 7f f0 3c c6 41 99 bf cf 47 95 bd 44 19 1d 3d
       0.029357653 -1.1973197 -0.07289087 0.038354173
000260 2a 81 88 bc 46 b2 fd bd bc d7 0c 3d 09 c6 78 bc
       -0.016663153 -0.123875186 0.034385428 -0.015183934
000270 77 a5 79 3d 51 39 07 3e 91 80 c2 3e 3f 02 eb 3c
       0.060948815 0.13205458 0.37988713 0.028687594
000280 74 ec 91 3e 2d dd 7b 3d a7 f3 92 3c 83 3a 1f 3e
       0.28500712 0.061490227 0.017938448 0.15549664
000290 b3 e6 08 be 5f a3 99 3d 2c 62 9d bc 5d 70 3a be
       -0.13369255 0.07501864 -0.019211851 -0.18206926
0002a0 2e 24 ab 3e d3 eb 53 be ed db 94 3d 2b 01 39 bd
       0.3342604 -0.20695429 0.0726851 -0.04516713
0002b0 07 46 4a bc 1b 52 81 bd 85 7d 52 bd f2 b4 36 3e
       -0.012345797 -0.063144885 -0.051389236 0.17842463
0002c0 05 1b 03 be e9 09 17 3d 30 0b aa 3e 95 79 36 bd
       -0.12803276 0.036874685 0.3321166 -0.044549543
0002d0 9b 05 13 3e cb 7d 8f 3e e9 d3 4d be 2d eb a2 3d
       0.14357607 0.2802566 -0.20100369 0.079550125
0002e0 a3 80 49 bd 9e be 5f 3c a7 d7 0f 3f f2 c1 22 be
       -0.049194943 0.0136562865 0.56188434 -0.15894297
0002f0 01 98 85 be ee 21 dc be b7 cb 1c be dd 88 88 3a
       -0.26092532 -0.42994636 -0.15312086 0.0010416765

bias f4 [8]
000000 c1 17 a1 3e 28 23 9d 3f 8d c1 1e 3b 6d f3 89 3c
       0.31463435 1.2276354 0.0024224252 0.016839707
000010 8f eb f8 3d 43 c1 e0 3f 86 e4 05 40 61 db 82 3d
       0.12154304 1.7558979 2.092073 0.063894995
