Final_Masterarbeit/Masterarbeit/CNN_30.pt (torch, 10191 bytes, 12 tensors)

weight f4 [8, 8, 3]
0	0xbe08cc0d	-0.13359089
1	0xbef24c9d	-0.47324076
2	0xbefa61e6	-0.48902816
3	0xbf0bb311	-0.5457011
4	0xbf05fb2a	-0.5233637
5	0x3db3c2b9	0.08777375
6	0xbdc0064b	-0.093762
7	0x3da7d4f2	0.08194913
8	0xbe0a9383	-0.13532834
9	0xbd3ca110	-0.04605204
10	0xbd561809	-0.052269015
11	0x3e24d168	0.16095507
12	0x3e9f6934	0.3113495
13	0xbe4e6a21	-0.20157672
14	0xbe4fc55c	-0.2029013
15	0xbadb67cf	-0.0016739311
16	0x3d6f073b	0.058356505
17	0x3effa9e1	0.49934295
18	0xbd52106d	-0.051285196
19	0xbdf6e427	-0.12055235
20	0x3e8fd3c0	0.2809124
21	0x3f77831f	0.9668445
22	0x3f4d2125	0.801287
23	0x3f77ca0e	0.96792686
24	0x3db8526c	0.09000096
25	0xbe2205d1	-0.15822531
26	0x3ea8cf64	0.32970726
27	0xbdd7e419	-0.10541553
28	0xbe94c312	-0.29055077
29	0xbf805c1e	-1.0028112
30	0xbcb6ba1c	-0.02230554
31	0x3d2a786e	0.041618757
32	0xbdb5242d	-0.088447906
33	0x3e045c3e	0.12925813
34	0xbdaa86df	-0.08326506
35	0x3d7f6aee	0.062357835
36	0xbe378089	-0.17920126
37	0xbe05d199	-0.13068236
38	0xbc50cae0	-0.012743682
39	0x3ecfa4ce	0.40555423
40	0xbee2ca55	-0.44294992
41	0xbdc9673e	-0.09834145
42	0x3d0a3de4	0.03375043
43	0x3ed89d25	0.42307392
44	0x3f55bec2	0.834942
45	0xbde2639a	-0.11054154
46	0xbeecefcd	-0.46276703
47	0xbf7b34bd	-0.9812735
48	0xbe46fbe1	-0.19432022
49	0xbe25503a	-0.16143885
50	0xbe4d407f	-0.20044135
51	0x3caa2758	0.020770714
52	0xbe0d4af5	-0.13798125
53	0xbdc89177	-0.0979337
54	0xbdf75086	-0.120759055
55	0xbdf5399b	-0.11973878
56	0x3cff311a	0.031151343
57	0xbb9994d9	-0.0046869335
58	0xbd0ee432	-0.034885593
59	0x3c777bf7	0.015105239
60	0xbd42e4ea	-0.04758159
61	0xbdf69f6e	-0.120421275
62	0xbd5533fa	-0.05205152
63	0x3d2a1e27	0.04153266
64	0xbdb4b309	-0.08823211
65	0x3c4f6845	0.012659137
66	0xbb8d4e6e	-0.004312328
67	0xbe44c98e	-0.19217512
68	0x3cfd3057	0.03090684
69	0x3e10db4a	0.14146152
70	0x3cfabf23	0.03060872
71	0x3ded48ca	0.11586149
72	0x3e5f1da5	0.21788652
73	0xbe60230b	-0.21888368
74	0x3e1413af	0.14460634
75	0xbde456c2	-0.1114936
76	0xbee3e340	-0.44509315
77	0xbf71f467	-0.94513553
78	0xbdc33d5a	-0.09533186
79	0xbd3c22fd	-0.045931805
80	0x3de49cb7	0.111627035
81	0xbe1e958e	-0.15486738
82	0xbdb8d95d	-0.09025834
83	0x3e4abfa0	0.19799662
84	0xbd782ee4	-0.060591593
85	0xbe238e2c	-0.15972203
86	0x3d02833a	0.03186343
87	0xbd34682f	-0.04404467
88	0x3e8482fe	0.2588119
89	0x3f39db28	0.7260003
90	0xbcb359f6	-0.021893483
91	0x3e0e819a	0.13916627
92	0xbf034214	-0.512727
93	0xbe79c2e4	-0.24390751
94	0xbef70c0d	-0.48251382
95	0xbf371baf	-0.71526617
96	0xbe88dd66	-0.26731414
97	0xbe43cc8d	-0.19120999
98	0xbe85bac3	-0.2611905
99	0xbe04e52f	-0.12978052
100	0xbdefa1a0	-0.117007494
101	0x3deb900d	0.11502085
102	0xbd603cd5	-0.054745514
103	0xbe494d0b	-0.19658296
104	0xbcc2224a	-0.02369799
105	0x3dc6bf7c	0.097044915
106	0xbcde2268	-0.027116016
107	0x3e27346e	0.16328594
108	0x3d94b369	0.07260782
109	0xbcc41aa0	-0.023938477
110	0xbe5b5994	-0.2142089
111	0x3dc6d894	0.09709278
112	0x3db710d9	0.0893876
113	0xbf09bbad	-0.53801996
114	0xbe4b01b5	-0.1982487
115	0x3ca75eec	0.020431004
116	0x3f36b93b	0.7137639
117	0x3eef61a1	0.46754172
118	0x3e06bfdf	0.1315913
119	0x3e2b5700	0.16732407
120	0x3e115f51	0.14196517
121	0xbc95b2e3	-0.018273776
122	0xbd7bd812	-0.061485358
123	0x3e4e9e91	0.20177676
124	0x3ea806bd	0.3281764
125	0x3d1836cd	0.037161637
126	0x3e0211c1	0.12702085
127	0xbe416e16	-0.1888965
128	0x3e2923cc	0.16517562
129	0x3dfe17b1	0.124068625
130	0xbbe3af58	-0.006948393
131	0x3de8d82f	0.11369359
132	0xbd8a73d7	-0.06760376
133	0xbe309ef8	-0.17248142
134	0xbe14c6d7	-0.14528976
135	0x3d39db15	0.04537495
136	0x3d238260	0.039919257
137	0xbc811833	-0.01575861
138	0xbefefec8	-0.49803758
139	0xbf0a126e	-0.5393437
140	0xbe3fe825	-0.187409
141	0xbd85700b	-0.06515511
142	0xbe16d6ed	-0.14730425
143	0xbbd935f2	-0.0066287452
144	0x3e127b57	0.14304863
145	0x3d5fe4e9	0.054661665
146	0xbd82504a	-0.0636297
147	0xbdb368de	-0.08760236
148	0xbea19b6f	-0.315639
149	0xbe5ac857	-0.21365486
150	0x3bbf8677	0.005844887
151	0xbe3d0cd9	-0.18461932
152	0x3e305ce5	0.17222936
153	0x3dfe5ed1	0.124204285
154	0xbdc93b12	-0.0982572
155	0xbca0171a	-0.019542266
156	0x3df46508	0.11933333
157	0xbd2788cb	-0.04090194
158	0x3df10d7d	0.11770151
159	0x3d917f2b	0.071043335
160	0x3e31f870	0.17379928
161	0x3e8a3fff	0.2700195
162	0xbe76cb80	-0.24101067
163	0xbe42bb18	-0.19016683
164	0xbe5e2ec4	-0.21697527
165	0x3e2ed16c	0.17072076
166	0x3d899f3a	0.06719823
167	0x3afac152	0.00191311
168	0x3c5d59af	0.013510152
169	0x3e2a72f7	0.16645418
170	0xbde321b7	-0.11090415
171	0xbb8918c3	-0.00418386
172	0x3db031c5	0.08603243
173	0xbe01cc4e	-0.12675592
174	0x3cc74556	0.024325054
175	0x3dac50ec	0.08413872
176	0xbd96c013	-0.07360854
177	0xbe0929ef	-0.13394903
178	0xbd24315d	-0.04008614
179	0xbda50db4	-0.08059254
180	0xbd0dcbcb	-0.03461818
181	0xbd3b56c9	-0.04573706
182	0xbd8c541b	-0.06851979
183	0x3d29ccd2	0.041455097
184	0xbd3e9c1c	-0.046535596
185	0x3cc82d54	0.024435677
186	0xbe519b76	-0.2046946
187	0xbde1ac3f	-0.110191815
188	0xbdda1eeb	-0.106504284
189	0xbd2491e7	-0.040178206
190	0xbe39dffc	-0.1815185
191	0x3e2dfff7	0.16992174

bias f4 [8]
0	0xbe51e4c3	-0.20497422
1	0x3eb3ca59	0.35115317
2	0xbaa72528	-0.0012752162
3	0x3f54c225	0.8310874
4	0xbc660efe	-0.01404166
5	0x3ee7c080	0.45264053
6	0xbe1f3972	-0.15549257
7	0xbdabfbe8	-0.08397657

weight f4 [8, 8, 3]
0	0x3e6ac956	0.22928366
1	0x3e3a5149	0.1819507
2	0xbd9c1bb6	-0.07622473
3	0x3e415872	0.18881395
4	0xbe0a291b	-0.13492243
5	0xbe604c3f	-0.21904086
6	0xbdc3a084	-0.095521
7	0xbe132183	-0.14368252
8	0x3dc57473	0.096413516
9	0x3d265672	0.040609784
10	0xbe26a35a	-0.16273251
11	0xbe98ffd7	-0.2988269
12	0x3e8c2c99	0.27377775
13	0x3e413e1b	0.18871348
14	0xbd4efdb4	-0.05053492
15	0xbda71607	-0.08158498
16	0xbe32438b	-0.17408578
17	0x3d21c5a8	0.03949514
18	0x3dca7cf1	0.09887112
19	0xbe0eb0fc	-0.13934702
20	0x3da39630	0.0798763
21	0xbd3cf7c4	-0.046134725
22	0xbd2cfada	-0.04223142
23	0xbe06e73b	-0.13174145
24	0xbe644927	-0.2229353
25	0x3da271e9	0.07931883
26	0xbf08235e	-0.53178966
27	0x3d9f44ac	0.0777677
28	0x3e65325f	0.22382496
29	0x3f5803aa	0.8438059
30	0xbcf474d1	-0.029840859
31	0x3de1e563	0.1103008
32	0x3de60cd9	0.11232919
33	0xbe17afa0	-0.1481309
34	0x3e4fc6c0	0.20290661
35	0x3ef0241a	0.46902543
36	0x3d75cbeb	0.060008924
37	0x3da3e5a3	0.08002784
38	0xbda38fc0	-0.079864025
39	0xbc0a857b	-0.008454676
40	0xbde39993	-0.11113276
41	0xbdc49139	-0.095980115
42	0x3e380e0b	0.17974107
43	0xbdc173c7	-0.09445911
44	0xbebd35c5	-0.36955085
45	0xbe21530e	-0.15754339
46	0xbdca5f9a	-0.09881516
47	0x3d3abc97	0.04559001
48	0xbdde982b	-0.108688675
49	0xbe47a343	-0.19495873
50	0xbd327bf7	-0.043575253
51	0x3d8b2865	0.06794814
52	0x3e6c254e	0.23061106
53	0xbdd1415e	-0.10217546
54	0xbe02df86	-0.1278058
55	0xbd6e1711	-0.058127467
56	0xbdb95da0	-0.09051061
57	0xbe24dcac	-0.16099805
58	0x3b9a89e6	0.004716146
59	0x3ea587b1	0.32330087
60	0x3dedc70e	0.11610232
61	0xbcbbed16	-0.0229402
62	0xbeafdeb3	-0.34349594
63	0x3e522e25	0.20525415
64	0xbe062eb4	-0.13103753
65	0xbd1d1c44	-0.038357034
66	0x3e39a810	0.18130517
67	0xbe111121	-0.1416669
68	0x3cbb37a9	0.02285369
69	0x3da37783	0.079817794
70	0x3ce4278f	0.027850894
71	0x3d2e99c0	0.042627096
72	0xbdc56c87	-0.096398406
73	0xbdc5e957	-0.09663647
74	0xbf30c518	-0.6905074
75	0x3e3613a0	0.17780924
76	0x3e962024	0.29321396
77	0x3e603fbc	0.21899313
78	0xbe0cdcdb	-0.13756125
79	0xbdd0fb7b	-0.10204216
80	0x3d30c8fd	0.043160427
81	0x3eb110fd	0.34583274
82	0xbe8db099	-0.27673796
83	0xbf80b865	-1.0056273
84	0x3dba28ec	0.090898365
85	0x3e04136e	0.12898037
86	0x3ed2f905	0.41205612
87	0xbe2e2455	-0.17006047
88	0xbe2d20cd	-0.16907044
89	0xbdfe1c42	-0.124077335
90	0x3cc06e4c	0.023490094
91	0xbe7b8d75	-0.2456568
92	0xbb6fef1b	-0.0036611024
93	0x3d0b330c	0.03398423
94	0x3e0e20a2	0.13879636
95	0xbcd15fe9	-0.025558429
96	0xbe5cd40c	-0.21565264
97	0xbd1f4c05	-0.038890857
98	0xbe0829fc	-0.13297266
99	0xbe4db3f1	-0.20088173
100	0xbc877f81	-0.01654029
101	0xbe3a1c1b	-0.18174784
102	0xbe11b1c8	-0.14227974
103	0x3e4a87f5	0.19778426
104	0x3e438b07	0.19096003
105	0x3d7db8bc	0.061943755
106	0xbcac6549	-0.02104439
107	0xbd3c1aff	-0.045924183
108	0xbe5de69b	-0.2167
109	0xbe4f332d	-0.20234366
110	0xbd839cf9	-0.064264245
111	0xbc84b35c	-0.016198806
112	0xbb09bc12	-0.002101664
113	0x3c333a67	0.010939217
114	0xbd953791	-0.07285989
115	0xbe0cabd3	-0.1373742
116	0xbe4c3582	-0.19942287
117	0xbe829eef	-0.25511882
118	0x3d61473e	0.054999582
119	0xbdafcf71	-0.08584488
120	0xbd4e5cfd	-0.05038165
121	0xbf146462	-0.5796567
122	0xbf3a6078	-0.7280345
123	0x3f0adc5e	0.54242504
124	0x3d3aaeec	0.045576975
125	0xbf1170af	-0.56812567
126	0xbd3ed2c4	-0.04658772
127	0x3e4daa97	0.20084606
128	0x3d278f45	0.040908117
129	0x3ec24016	0.3793952
130	0x3f0ca9fc	0.54946876
131	0xbcbaeeba	-0.022818912
132	0x3d99fd5e	0.07519029
133	0x3daf33ff	0.08554839
134	0xbeb81dc0	-0.35960197
135	0xbd8a1a6e	-0.06743322
136	0x3e8e8e5b	0.27842984
137	0xbe76c942	-0.24100211
138	0xbc47289c	-0.012155678
139	0x3d541ab2	0.05178327
140	0x3df3956d	0.11893735
141	0xbd90e09d	-0.070740916
142	0xb9566b18	-0.00020448526
143	0x3e0194af	0.12654375
144	0x3dffbecc	0.124875635
145	0xbe4f0002	-0.20214847
146	0x3db46918	0.088091075
147	0xbe2f7045	-0.17132671
148	0xbd7875d6	-0.060659252
149	0xbe0d08fb	-0.13772957
150	0x3e0b580e	0.13607809
151	0x3d0c6107	0.03427222
152	0x3e306d78	0.17229259
153	0x3ce367af	0.027759401
154	0x3cc32b83	0.023824459
155	0xbbcb75fd	-0.0062091337
156	0x3ba961f5	0.005169148
157	0xbde71d25	-0.11284856
158	0xbda0167e	-0.0781679
159	0xbd95e680	-0.07319355
160	0x3e02a144	0.1275683
161	0xbc9da0ff	-0.019241808
162	0x3e1f1964	0.1553703
163	0x3dc74914	0.097307354
164	0xbd153b27	-0.036433365
165	0x3dac7910	0.08421528
166	0xbd1e9c6d	-0.038723398
167	0xbe007ea9	-0.12548317
168	0xbe48d62c	-0.1961295
169	0xbc8b06f1	-0.016971083
170	0xbe5875ab	-0.21138637
171	0xbcf79cf5	-0.03022621
172	0xbe8d2f07	-0.27574942
173	0x3f089cc0	0.5336418
174	0xbdaee710	-0.085401654
175	0xbe11d9e0	-0.14243269
176	0xbe19e2dc	-0.15027946
177	0xbedc9ca8	-0.4308827
178	0xbe384151	-0.17993666
179	0x3ebe1df5	0.3713223
180	0xbe6ae2cf	-0.22938083
181	0xbe2fbe70	-0.1716249
182	0x3c9329c1	0.017964246
183	0xbcd5da80	-0.026105165
184	0x3ed2ca5e	0.4117002
185	0x3ec8a66f	0.3918948
186	0xbcfee378	-0.031114325
187	0x3dbba54c	0.09162387
188	0xbe7bb27d	-0.24579807
189	0x3e4b40d9	0.19848956
190	0x3b754248	0.003742354
191	0xbd43f8be	-0.04784464

bias f4 [8]
0	0xbcd455bb	-0.025919786
1	0xbe230382	-0.15919307
2	0xbdeffd51	-0.11718238
3	0xbe28cd45	-0.16484554
4	0xbcc0304e	-0.023460533
5	0xbd745c1e	-0.059658162
6	0xbcc00b3b	-0.023442855
7	0xbc2a89ab	-0.010408799

weight f4 [8, 8, 3]
0	0xbdfa5a73	-0.12224283
1	0x3c56b2d5	0.01310416
2	0xbe0aa128	-0.13538039
3	0xbe8632a9	-0.26210526
4	0xbda61010	-0.081085324
5	0xbe1434b6	-0.14473233
6	0x3db19647	0.08671241
7	0x3dd84fca	0.105620936
8	0x3cafd3b7	0.021463258
9	0xbd8737c4	-0.06602433
10	0xbe0d98d5	-0.13827832
11	0xbe174022	-0.14770558
12	0xbbf8481b	-0.007576955
13	0x3eab5962	0.3346663
14	0xbdcc9a9c	-0.09990427
15	0x3d9c31a7	0.07626658
16	0x3e0720de	0.13196132
17	0x3d73dceb	0.059536856
18	0xbd937c5b	-0.07201453
19	0x3d96ed9f	0.073695414
20	0xbe1da8aa	-0.15396371
21	0x3ec11156	0.3770854
22	0x3efdf8be	0.49603838
23	0x3ef1f9d2	0.4726091
24	0xbe52ead1	-0.20597388
25	0xbe5bb1bf	-0.21454524
26	0xbe2ba9c3	-0.16763978
27	0x3e984ce0	0.2974615
28	0x3e2971d8	0.16547334
29	0xbf431515	-0.76204044
30	0xbda75010	-0.081695676
31	0xbe2b0f7e	-0.16705129
32	0xbe365bf3	-0.17808513
33	0xbd53e5d1	-0.051732842
34	0xbf1f1ae4	-0.62150407
35	0xbf367fa5	-0.7128852
36	0xbefe1e2d	-0.49632397
37	0xbf586759	-0.84532696
38	0xbefabe80	-0.48973465
39	0xbdbbdf33	-0.09173431
40	0xbeadf9a0	-0.3397951
41	0xbeaa95d9	-0.3331745
42	0x3e4ce97e	0.20010945
43	0x3e2ff642	0.17183784
44	0x3e9a24dd	0.3010625
45	0x3e297a11	0.16550471
46	0xbd15a93d	-0.03653835
47	0xbe8d89eb	-0.27644286
48	0xbf00233a	-0.5005375
49	0xbe91a098	-0.28442836
50	0xbeab8f52	-0.33507782
51	0xbefbdbc8	-0.49191117
52	0xbed5ab62	-0.41732317
53	0xbf0b6376	-0.5444864
54	0xbd991b36	-0.07475893
55	0x3e289f17	0.16466938
56	0x3dc6c32d	0.097051956
57	0xbe93eab4	-0.28890002
58	0xbd20a9b6	-0.03922435
59	0x3d9b5e88	0.0758639
60	0xbdfd0b1d	-0.12355635
61	0x3e9a09f3	0.30085716
62	0x3cf77a4a	0.03020968
63	0xbe813421	-0.25235084
64	0xbe36397d	-0.17795368
65	0xbdadcff4	-0.084869295
66	0xbd52f759	-0.05150542
67	0x3e137cc6	0.14403066
68	0xbd806962	-0.062701
69	0xbba7fc57	-0.005126517
70	0x3c8b39f2	0.016995404
71	0xbe4f6ded	-0.20256777
72	0x3d3a0d09	0.045422588
73	0xbda8645e	-0.082222685
74	0xbce6ffcc	-0.028198145
75	0x3d7f9e20	0.06240666
76	0xbdbd96a2	-0.092572466
77	0xbf85f2dc	-1.046474
78	0x3e372bfa	0.1788787
79	0xbda7ce75	-0.081936754
80	0x3d2fecb9	0.042950366
81	0xbf1cad25	-0.612017
82	0x3e390163	0.18066935
83	0xbd37bc9d	-0.04485761
84	0xbcc54f64	-0.024085708
85	0xbe2a3c53	-0.16624574
86	0xbe42e887	-0.19034015
87	0xbe7bc5cb	-0.24587171
88	0x3ed2699c	0.410962
89	0x3ea44b93	0.3208891
90	0x3b92f53b	0.0044848
91	0x3e0b52e1	0.13605835
92	0x3e3254d7	0.17415176
93	0xbda4491e	-0.080217585
94	0xbe5012c6	-0.20319661
95	0xbe31f984	-0.17380339
96	0x3e4e5509	0.20149626
97	0xbc867ab7	-0.016415937
98	0x3de6076c	0.11231884
99	0xbe5a4294	-0.2131446
100	0xbeae6caf	-0.34067294
101	0xbf6f118f	-0.9338617
102	0xbcaa7db9	-0.020811902
103	0xbe904c35	-0.2818314
104	0x3d1f7192	0.03892667
105	0x3e20df63	0.15710215
106	0x3e8eb81e	0.27874845
107	0xbee19f95	-0.44067064
108	0xbe3d91ee	-0.18512699
109	0x3da3f443	0.080055736
110	0x3db92338	0.090399206
111	0xbe40176d	-0.18758936
112	0xbf27cf5a	-0.6555077
113	0xbeaac0d3	-0.33350238
114	0xbc140c7c	-0.00903618
115	0x3dbf9a94	0.09355655
116	0xbe0d1417	-0.13777195
117	0xbdeb3026	-0.11483793
118	0xbe06e708	-0.13174069
119	0xbe1e1973	-0.15439396
120	0xbed8db67	-0.4235489
121	0xbdaa82a6	-0.083257005
122	0x3e3d56b4	0.18490106
123	0x3f21636f	0.6304235
124	0x3ed0c2ca	0.40773612
125	0xbf97d16b	-1.1860784
126	0xbe9e5ff7	-0.3093259
127	0xbd05f1d8	-0.032701343
128	0xbd164d3f	-0.03669476
129	0xbe743167	-0.2384697
130	0x3e53dddb	0.206901
131	0xbe07780b	-0.13229387
132	0x3e3fe5f1	0.1874006
133	0x3e02f5c2	0.12789062
134	0x3e4600d8	0.1933626
135	0xbe85b6f7	-0.26116154
136	0xbefe3c6f	-0.49655482
137	0xbf2b9ce3	-0.67036265
138	0xbe2a33f0	-0.16621375
139	0xbdb3b423	-0.08774593
140	0xbe2d6c61	-0.16935875
141	0xbe304a91	-0.17215945
142	0xbc990f39	-0.018684017
143	0x3c992517	0.018694444
144	0xbe8da2b0	-0.27663183
145	0xbeb11c61	-0.34591964
146	0xbe9ac9f0	-0.3023219
147	0xbf0f944a	-0.56085646
148	0xbecfdee5	-0.40599743
149	0xbf40f9aa	-0.7538096
150	0xbe29a99f	-0.16568612
151	0x3dcb0e5a	0.09914847
152	0xbdea52f8	-0.11441606
153	0xbdc823db	-0.09772464
154	0xbe505202	-0.20343783
155	0x3d035bfc	0.032070145
156	0xbe2af11d	-0.1669354
157	0x3d9fbc09	0.07799537
158	0xbd35104f	-0.044205006
159	0xbe36ab86	-0.17838868
160	0xbe68fdb8	-0.22753036
161	0xbddf591d	-0.10905669
162	0xbe3f1550	-0.18660474
163	0xbd9f0b59	-0.07765836
164	0xbd979f38	-0.074034154
165	0xbe144619	-0.14479865
166	0xbe374631	-0.1789787
167	0xbe8b0508	-0.27152276
168	0xbdf589c4	-0.11989167
169	0xbe5e8cf3	-0.21733455
170	0xbe0eeb09	-0.13956846
171	0xbd56e8e7	-0.052468207
172	0xbe0b7d71	-0.13622071
173	0x3f6a28fe	0.914688
174	0x3d9aca49	0.07558114
175	0x3d8fac80	0.07015324
176	0xbdbfb7c0	-0.093612194
177	0x3e2501ba	0.1611394
178	0xbe47164f	-0.19442104
179	0xbf8a009f	-1.078144
180	0xbe8011ae	-0.2501349
181	0xbedd71bb	-0.43250832
182	0xbe878360	-0.2646742
183	0xbe676263	-0.22596125
184	0xbe715567	-0.23567735
185	0x3d5bd922	0.05367387
186	0xbd674e7c	-0.056471333
187	0x3e233c03	0.15940861
188	0xbe203e2c	-0.15648717
189	0xbc300c44	-0.010745112
190	0xbea123c4	-0.314726
191	0x3ed58291	0.41701177

bias f4 [8]
0	0xbd1fad05	-0.038983364
1	0x3e8c3afd	0.27388754
2	0x3ec6db2c	0.3883909
3	0xbd5abd97	-0.053403463
4	0x3f8610f9	1.047393
5	0x3e207fbb	0.15673725
6	0x3f091324	0.5354483
7	0x3eeb324d	0.45936814

weight f4 [8, 8, 3]
0	0x3dc6bffa	0.097045854
1	0x3e11e137	0.14246069
2	0xbd816a35	-0.063190855
3	0x3d26de03	0.04073907
4	0x3d1c2ad7	0.038126793
5	0xbdb0cd24	-0.086328775
6	0xbe0145e4	-0.12624317
7	0x3e9d0949	0.30671147
8	0x3e341eb7	0.17589842
9	0xbe5c0ab8	-0.21488464
10	0x3d9da538	0.076975286
11	0x3e5946ef	0.21218465
12	0x3e1fa912	0.15591839
13	0x3d0a3e56	0.033750854
14	0x3e095600	0.13411713
15	0xbd298ac0	-0.041392088
16	0x3e9d2a71	0.30696443
17	0x3e13a2cc	0.14417571
18	0xbdec6949	-0.11543519
19	0x3eb2d292	0.34926277
20	0x3e912003	0.28344736
21	0x3e32ba96	0.1745399
22	0xbe647308	-0.22309506
23	0xbdb170a7	-0.08664065
24	0xbd255907	-0.040368106
25	0xbe72959b	-0.23689882
26	0x3e66d241	0.22541143
27	0x3dee81a4	0.11645821
28	0x3eb006a6	0.34380072
29	0xbed15119	-0.40882185
30	0x3f35b1d0	0.70974445
31	0x3ecac5a3	0.3960391
32	0xbe1e723a	-0.15473261
33	0x3e63358c	0.22188395
34	0x3e2dceb1	0.16973378
35	0x3e66a96d	0.22525568
36	0x3e738b19	0.2378353
37	0x3e0720f6	0.13196167
38	0xbec62c34	-0.387056
39	0x3d97ac09	0.0740586
40	0x3e75dd85	0.24010284
41	0x3ddd07c0	0.10792494
42	0x3f612161	0.8794156
43	0x3ed2c267	0.41163942
44	0xbd5c1d24	-0.05373873
45	0xbeb0e406	-0.34548968
46	0xbed6c77e	-0.41949075
47	0x3f421beb	0.7582385
48	0xbbf513cd	-0.007479167
49	0xbd199298	-0.03749332
50	0xbe39f6ee	-0.18160602
51	0xbe93b12d	-0.28846112
52	0xbe01ee2e	-0.12688515
53	0xbe965776	-0.29363602
54	0x3a4638c1	0.00075615576
55	0xbe0c0123	-0.13672309
56	0x3e808151	0.2509866
57	0xbed5d029	-0.41760376
58	0xbef17b89	-0.47164562
59	0xbef1ec4a	-0.47250587
60	0xbe8065bb	-0.25077614
61	0xbeb1c52e	-0.3472075
62	0xbe355b6b	-0.17710654
63	0x3d383f8a	0.04498247
64	0x3dadbbff	0.08483123
65	0xbe9c41d9	-0.30518988
66	0x3da051f5	0.07828132
67	0xbbbb04be	-0.0057073524
68	0x3d9dfcdc	0.07714245
69	0xbd196608	-0.03745082
70	0xbeb35065	-0.35022274
71	0xbf6f5df3	-0.9350273
72	0xbd948359	-0.07251615
73	0xbe02c3b2	-0.12769964
74	0x3d423d36	0.047421657
75	0xbc71a1a0	-0.014748007
76	0xbdf52336	-0.119696066
77	0x3ee8f58d	0.4549984
78	0x3da51fb1	0.08062685
79	0x3db7a567	0.08967095
80	0x3dd82b43	0.105551265
81	0x3c8d2147	0.017227782
82	0xbdb08bf4	-0.08620444
83	0xbe4ef6a1	-0.20211269
84	0xbe1c3d02	-0.15257648
85	0xbdfac6cb	-0.12244948
86	0x3e92fc4e	0.28708118
87	0xbe96b6b1	-0.29436257
88	0x3d199419	0.037494753
89	0x3f6cc67a	0.9249035
90	0x3c93c848	0.018039837
91	0x3dd30922	0.10304476
92	0xbd96dbec	-0.073661655
93	0x3ef5d5ce	0.48014683
94	0x3f03b90b	0.5145423
95	0x3e01dca8	0.1268183
96	0xbd43cf7a	-0.047805287
97	0xbd8cd987	-0.068774275
98	0x3e06169e	0.13094565
99	0x3cfe638d	0.031053329
100	0xbe2ff0a2	-0.17181638
101	0xbce81bac	-0.028333507
102	0xbdcb3ea9	-0.09924061
103	0xbe2ccb37	-0.16874395
104	0xbcc69f64	-0.024245925
105	0xbd6110e5	-0.054947753
106	0xbc7fcf86	-0.015613442
107	0xbcaa674c	-0.020801209
108	0x3e1ec76e	0.15505764
109	0xbd194cd8	-0.0374268
110	0xbe2fc61f	-0.17165421
111	0x3da6f5db	0.08152362
112	0x3cd18ef1	0.025580855
113	0xbe3179d2	-0.17331627
114	0xbe281496	-0.16414103
115	0x3c23cd9b	0.009997751
116	0x3d28788e	0.041130595
117	0xbdaa5083	-0.08316138
118	0xbd96fc8c	-0.07372388
119	0xbdedcce8	-0.116113484
120	0xbe64b730	-0.22335505
121	0xbe138977	-0.14407907
122	0xbe22befb	-0.15893166
123	0x3e9d35db	0.3070515
124	0x3ef19b8a	0.4718898
125	0x3ea4cc9b	0.32187352
126	0xbc9d05a2	-0.019167725
127	0x3dd1c0a0	0.102418184
128	0xbd6367c4	-0.05551888
129	0xbe71f7a6	-0.23629627
130	0xbeb7030e	-0.35744518
131	0xbea9e396	-0.33181447
132	0xbe13bc53	-0.14427309
133	0xbe9bb6fd	-0.30413046
134	0xbe4ac2f6	-0.19800934
135	0xbece24d5	-0.40262476
136	0xbde696bf	-0.11259221
137	0xbd14ada2	-0.0362984
138	0xbc89a29c	-0.016801171
139	0x3d1c20f7	0.038117375
140	0x3dd3b792	0.10337748
141	0x3b35d3b7	0.00277446
142	0xbf4b5b18	-0.79435873
143	0x3e2bd8c6	0.16781911
144	0xbd240765	-0.040046114
145	0x3e084edc	0.13311332
146	0xbb8ecab7	-0.0043576616
147	0x3e072875	0.13199027
148	0x3dd70f0c	0.10500917
149	0x3d2d7d96	0.042356096
150	0xbd607f69	-0.054809008
151	0xbc07a2ca	-0.008278558
152	0xbe3444c7	-0.17604361
153	0xbe12f0a7	-0.14349614
154	0x3d1790fd	0.037003506
155	0xbe1c1321	-0.15241672
156	0xbe4a7bd6	-0.19773802
157	0x3d86d0dd	0.06582806
158	0xbda5d08e	-0.08096419
159	0xbe159073	-0.14605884
160	0xbc72bf20	-0.014816076
161	0xbc35a4e4	-0.011086676
162	0xbda5fccf	-0.0810486
163	0x3d747514	0.059681967
164	0xbe049ac7	-0.12949668
165	0x3e4802bb	0.19532292
166	0xbe4670b4	-0.1937893
167	0xbd9d768a	-0.07688625
168	0x3dcaf478	0.0990991
169	0x3c9746c0	0.018466353
170	0x3e12672f	0.14297174
171	0xbee220bd	-0.44165602
172	0xbe58927a	-0.21149626
173	0xbe457141	-0.19281484
174	0x3cc8b950	0.024502426
175	0x3f3d32c3	0.7390558
176	0x3e724dc0	0.23662472
177	0x3b05816f	0.0020371338
178	0xbdc15e71	-0.094418414
179	0xbe17c956	-0.14822897
180	0xbe2d3c24	-0.16917473
181	0x3eadf8a8	0.33978772
182	0xbe1973c3	-0.14985566
183	0xbe6eee29	-0.23333038
184	0x3e9c4e98	0.30528712
185	0x3e2e6279	0.17029752
186	0xbd21d25d	-0.03950726
187	0x3f2e6a63	0.68131083
188	0x3e11c6d1	0.14235999
189	0xbdd677ad	-0.10472045
190	0xbe82c8c7	-0.25543806
191	0xbe013c35	-0.12620623

bias f4 [8]
0	0xbf3f11c3	-0.7463648
1	0xbebb88b4	-0.36627734
2	0x3f3e0976	0.74233186
3	0xbf12e2ca	-0.573773
4	0xbe45427a	-0.1926364
5	0x3e703f2a	0.23461595
6	0xbe62e620	-0.22158098
7	0xbf99739f	-1.198841

weight f4 [8, 8, 3]
0	0xbe7674e3	-0.24068026
1	0x3c1672b4	0.009182621
2	0x3da31cb3	0.07964458
3	0xbebec53f	-0.37259862
4	0xbe030cac	-0.12797803
5	0x3e2ca911	0.16861369
6	0xbec23d4a	-0.37937385
7	0xbe2253be	-0.15852258
8	0xbe727593	-0.23677664
9	0xbcc3e997	-0.023915095
10	0x3db5b5c2	0.08872558
11	0xbebc140b	-0.36734042
12	0x3e09072a	0.13381639
13	0x3be00b9b	0.006837321
14	0xbe1a19ac	-0.15048856
15	0xbe261cb4	-0.16221887
16	0xbf473958	-0.77821875
17	0xbf3bbeb6	-0.73337877
18	0xbe5bc472	-0.21461657
19	0x3dbafc12	0.0913011
20	0xbe81cfce	-0.25353855
21	0xbe437211	-0.19086482
22	0xbe762b4e	-0.24039957
23	0xbe1db307	-0.15400325
24	0xbe3c6839	-0.18399133
25	0xbe143cf1	-0.14476372
26	0xbe531229	-0.20612396
27	0xbd1baa64	-0.038004294
28	0xbc83faa8	-0.016110733
29	0x3d373bf2	0.044734903
30	0xbdd064f8	-0.10175508
31	0xbdda45d0	-0.10657847
32	0x3ccde308	0.025132671
33	0x3e382786	0.17983827
34	0xbce8bb01	-0.028409483
35	0xbe3f17fe	-0.18661496
36	0x3d66fb20	0.056391835
37	0x3d9059cb	0.07048377
38	0xbdf481ac	-0.119387954
39	0xbe21a1ba	-0.1578435
40	0x3b9c7e39	0.004775789
41	0x3c70549b	0.014668609
42	0x3e1efee7	0.15526925
43	0xbbc321ee	-0.0059549725
44	0xbe07ac83	-0.13249402
45	0xbdb2949c	-0.08719751
46	0xbadae29b	-0.0016699614
47	0x3e27a99e	0.16373298
48	0x3d0d078e	0.034431033
49	0x3ca2f13f	0.019890426
50	0xbdb9fe23	-0.09081676
51	0xbe55d887	-0.2088338
52	0x3e817572	0.25284916
53	0x3ee0c91e	0.4390344
54	0x3dcd3f60	0.100218534
55	0xbed1dc02	-0.40988165
56	0xbebec136	-0.37256783
57	0x3e13603d	0.1439218
58	0xbd446e2c	-0.04795663
59	0x3ac04895	0.0014670069
60	0x3dd5e31d	0.10443709
61	0x3d404fe1	0.04695118
62	0x3e19e98b	0.15030496
63	0xbe4ca81c	-0.19986004
64	0x3e41af31	0.18914486
65	0xbdbd7d96	-0.09252469
66	0xbe2ae343	-0.16688256
67	0xbc709790	-0.014684573
68	0x3c9affb5	0.018920759
69	0x3e52dd54	0.20592242
70	0xbc8b5dd7	-0.01701252
71	0xbe6179f0	-0.22019172
72	0x3d08a7e0	0.033363223
73	0x38ce8510	9.84763e-05
74	0xbe0b4b0e	-0.1360285
75	0x3dbff24c	0.09372386
76	0xbd60e72a	-0.054907955
77	0x3ea11468	0.3146088
78	0xbe6926b7	-0.22768675
79	0x3da6d1cc	0.08145484
80	0xbd9eb861	-0.07750011
81	0xbd1662e3	-0.0367154
82	0xbdecad6b	-0.11556514
83	0xbe2d72ea	-0.16938367
84	0xbe126c00	-0.14299011
85	0xbb718d9f	-0.0036858094
86	0x3c482a7c	0.01221716
87	0x3d7ddc6d	0.061977793
88	0x3d9495b0	0.07255113
89	0xbde50d74	-0.111842066
90	0x3e474857	0.19461189
91	0x3d7f3fb5	0.062316615
92	0x3ced2db0	0.02895245
93	0x3d7c71e5	0.061632056
94	0xbb18b764	-0.0023302669
95	0xbe200283	-0.15625958
96	0xbe438d8e	-0.19096968
97	0xbce97c00	-0.02850151
98	0xbd47cdeb	-0.048780363
99	0xbe735fc0	-0.23766994
100	0x3c973882	0.018459562
101	0x3f0ec2e5	0.55766135
102	0xbd9bff59	-0.07617063
103	0xbe0b479e	-0.13601539
104	0xbe3660f5	-0.17810424
105	0xbdc517d2	-0.09623684
106	0x3d806282	0.06268789
107	0x3d67a70f	0.056555804
108	0xbd31dd96	-0.04342421
109	0xbc8023ca	-0.015642066
110	0x3b9372a3	0.0044997497
111	0x3e478f53	0.19488268
112	0x3f0e133d	0.55498105
113	0x3e806407	0.25076315
114	0xbc1adb52	-0.009451704
115	0x3dedc06a	0.11608966
116	0xbd85ae51	-0.06527389
117	0xbe8b85aa	-0.27250415
118	0xbe6b263c	-0.22963804
119	0xbe409bb3	-0.18809395
120	0x3e9622a7	0.29323313
121	0x3da15432	0.07877387
122	0x3e573b35	0.2101868
123	0xbd57dfa9	-0.052703533
124	0xbc0f4e2c	-0.008746665
125	0x3e3a4c2d	0.18193121
126	0xbe0180b5	-0.12646754
127	0x3e38bc6f	0.18040632
128	0xbd540c7a	-0.05176971
129	0xbc5a1a49	-0.013311931
130	0xbdf40ac0	-0.11916113
131	0xbdaaff4a	-0.08349474
132	0x3d919788	0.071089804
133	0xbe4791b6	-0.19489178
134	0x3e49883a	0.19680873
135	0x3cc1e37d	0.023668045
136	0x3deb48b6	0.11488478
137	0x3db21a4e	0.086964235
138	0xbc764127	-0.015030182
139	0xbdee2ecf	-0.11630022
140	0xbd2b54c4	-0.041828886
141	0x3dba3289	0.0909167
142	0x3f25d22e	0.64773834
143	0x3e2b11ca	0.16706005
144	0xbd9b5641	-0.07584811
145	0x3e204c4a	0.15654102
146	0xbe072f12	-0.1320155
147	0x3ded8348	0.115973055
148	0x3df33de8	0.11877042
149	0xbdaaf3b4	-0.08347264
150	0xbd918de0	-0.07107139
151	0xbdb5e7a0	-0.088820696
152	0x3df93f0f	0.121702306
153	0xbcc9e17b	-0.02464365
154	0x3dbd7e38	0.0925259
155	0xbd3d1532	-0.04616279
156	0xbdeaadeb	-0.114589535
157	0xbddd3fcc	-0.10803184
158	0xbd6b9ab1	-0.057520572
159	0x3de98fa5	0.11404351
160	0x3d616463	0.055027377
161	0xbd5ac4dc	-0.053410396
162	0x3de2722f	0.11056935
163	0xbd5d8456	-0.054081284
164	0x3e1641a5	0.14673479
165	0x3e274e47	0.16338454
166	0x3cd443b0	0.025911182
167	0xbe42f870	-0.19040084
168	0xbe0730a4	-0.13202149
169	0x3d5155df	0.051107284
170	0x3e3f7fa0	0.18701029
171	0xbe419e08	-0.1890794
172	0x3e202689	0.156397
173	0xbc44d50b	-0.012013684
174	0xbca3e091	-0.020004543
175	0x3d3b2303	0.045687687
176	0xbbc2d42f	-0.0059457044
177	0x3e2e6a18	0.17032659
178	0xbddb7221	-0.10715128
179	0xbcbf7b06	-0.023374092
180	0xbe413333	-0.18867187
181	0xbb93420b	-0.004493957
182	0xbe12b1d0	-0.14325643
183	0xbd4e2eaa	-0.05033747
184	0x3cb89518	0.022532031
185	0xbe534426	-0.20631465
186	0xbcd758ec	-0.026287518
187	0xbc3df8d3	-0.011594969
188	0x3cabdc4f	0.020979075
189	0xbdd4f4b3	-0.10398235
190	0x3d67b0c7	0.056565072
191	0x3dfc3a37	0.12315791

bias f4 [8]
0	0x3ee20dba	0.44151098
1	0xbd394eca	-0.045241155
2	0xbc69d575	-0.0142720835
3	0xbe1f3ed7	-0.15551315
4	0xbee8a7b2	-0.4544044
5	0xbe7d24fe	-0.24721143
6	0xbe4813dc	-0.19538826
7	0xbd0dfd26	-0.03466525

weight f4 [8, 24, 1]
0	0x3d06332e	0.032763653
1	0xbdc3bbad	-0.09557281
2	0x3f6f51da	0.9348427
3	0xbdafb56a	-0.08579524
4	0xbe5d7cc2	-0.21629623
5	0x3d5e8baa	0.054332413
6	0x3f853985	1.0408179
7	0xbe409a4e	-0.18808863
8	0xbdf16041	-0.11785937
9	0xbedb5f7e	-0.42846292
10	0xbef76fef	-0.48327586
11	0xbe2dcce3	-0.1697269
12	0x3e17e78c	0.14834422
13	0x3e3e192c	0.1856429
14	0xbcefe9ff	-0.029286383
15	0xbeb19bf7	-0.34689304
16	0xbe7562b4	-0.23963434
17	0x3dc8f337	0.098120145
18	0xbf02afb6	-0.51049364
19	0xbe82e4ae	-0.25565094
20	0xbe6df97f	-0.23239706
21	0xbf2e0dde	-0.6798991
22	0xbe024deb	-0.12725036
23	0xbde49728	-0.11161643
24	0xbeb99787	-0.3624842
25	0x3f2b9f56	0.6704
26	0xbd36a60a	-0.04459194
27	0xbe3be9d0	-0.18350911
28	0x3f9b3f02	1.2128603
29	0x3e9bde6b	0.3044313
30	0x3e962788	0.29327035
31	0xbd28a4e5	-0.04117288
32	0xbe6f1167	-0.23346482
33	0xbe2db65f	-0.169641
34	0xbef301c1	-0.47462276
35	0x3f261d70	0.6488867
36	0x3ddda437	0.10822337
37	0xbe885b8e	-0.2663235
38	0x3d47a986	0.048745655
39	0xbe8721f9	-0.26393107
40	0xbe2e98af	-0.17050432
41	0xbe1ef6b0	-0.15523791
42	0xbeb703c0	-0.3574505
43	0xbe40d5af	-0.18831514
44	0xbea478ea	-0.321235
45	0x3e438272	0.1909273
46	0xbdd85a5e	-0.10564111
47	0xbddd29d2	-0.10798992
48	0xbb6f2b89	-0.0036494455
49	0x3c9d6e3f	0.019217608
50	0x3dbac76f	0.0912007
51	0x3ae2cab4	0.0017302842
52	0x3a9b5797	0.0011851665
53	0x3c797cee	0.015227539
54	0xbda04548	-0.07825714
55	0x3ae550f0	0.0017495435
56	0xbd3d824a	-0.04626683
57	0xbc00e20f	-0.007866397
58	0xbc59930c	-0.013279688
59	0xbc75d071	-0.01500331
60	0xbcad23f3	-0.021135306
61	0x3bfe6230	0.0077631697
62	0xbc01a77c	-0.007913467
63	0x3cadb6f9	0.021205412
64	0xbc475c8a	-0.012168059
65	0xbd883516	-0.0665075
66	0xbc29a9bd	-0.01035541
67	0x3e1cac0e	0.15300009
68	0xbba4384a	-0.005011593
69	0xbb874fa4	-0.004129367
70	0x3c22e84f	0.009943082
71	0xbd073043	-0.03300501
72	0xb9ef6014	-0.00045657216
73	0x3c621fa4	0.013801489
74	0xbc56f7e8	-0.013120629
75	0xbbbcca24	-0.0057614017
76	0xbadeedac	-0.0017008088
77	0xbc5bac7e	-0.013407825
78	0x3be203a7	0.006897408
79	0xbb86ac53	-0.004109898
80	0x3da61321	0.08109117
81	0x3caf921c	0.021431975
82	0x3c6a0877	0.014284245
83	0x3cc46c4e	0.023977425
84	0x3d91f409	0.07126624
85	0x3bfae1fe	0.007656335
86	0xbda55109	-0.08072097
87	0x3c6f2f3a	0.014598662
88	0x3d01e170	0.031709135
89	0xbdb79424	-0.089638025
90	0xbcb4adcf	-0.022055535
91	0xbd90e065	-0.0707405
92	0x3beaa21a	0.0071604373
93	0xbca89c16	-0.02058224
94	0x3d3aef14	0.04563816
95	0xbd617d1b	-0.05505095
96	0xbbf6dcb8	-0.007533636
97	0x3ca7952d	0.020456875
98	0xbdb68828	-0.089126885
99	0xbcdd541a	-0.027017642
100	0xbc3910db	-0.011295523
101	0x3aa6bb2b	0.0012720575
102	0x3d47c226	0.04876914
103	0xbc9b5208	-0.018960014
104	0x3bfc1848	0.0076933242
105	0x3d11d2db	0.035601478
106	0xbc87c94c	-0.016575478
107	0xbb180f97	-0.0023202652
108	0x3e18b7ff	0.14913939
109	0xbd052da9	-0.032514248
110	0xbd2d1ced	-0.042263914
111	0xbd83f87e	-0.064438805
112	0x3cda45cc	0.02664461
113	0x3d6c809b	0.057739835
114	0x3b6664e5	0.0035155353
115	0xbb9bd1e0	-0.0047552437
116	0x3df299b7	0.11845725
117	0x3e1c4075	0.15258963
118	0x3d0563d3	0.032565903
119	0xbe407316	-0.18793902
120	0x3eaab91a	0.33344346
121	0x3df93473	0.12168207
122	0x3ed19766	0.4093582
123	0xbe76897f	-0.24075888
124	0x3f3b7a8b	0.7323386
125	0xbca0fdf0	-0.019652337
126	0x3e06318c	0.13104838
127	0xbeb2b9ef	-0.3490748
128	0xbc64fb41	-0.013975919
129	0xbe19034f	-0.14942668
130	0x3f7d8a17	0.99038833
131	0x3eda4734	0.4263245
132	0xbe1a4557	-0.15065514
133	0x3f09fc8b	0.53900975
134	0x3e3b098d	0.18265362
135	0xbe3b17e2	-0.1827083
136	0xbf36f075	-0.7146066
137	0xbd339a43	-0.043848287
138	0x3d9d0c23	0.076683305
139	0xbd21d780	-0.039512157
140	0xbede2bc5	-0.43392769
141	0xbdb3e65b	-0.08784171
142	0x3e05b592	0.13057545
143	0xbd66a4b7	-0.056309428
144	0xbf8f0e51	-1.1176244
145	0xbe8aef05	-0.27135482
146	0xbd530bbd	-0.051524866
147	0x3dcd9558	0.10038251
148	0x3da8e0d4	0.082460076
149	0x3df51052	0.119660035
150	0x3de5ceef	0.1122111
151	0x3db8b98c	0.09019765
152	0x3b5f969d	0.0034116872
153	0x3c782d81	0.015147568
154	0x3dd9f04b	0.10641535
155	0xbc90a4f0	-0.017656773
156	0x3e28914b	0.16461675
157	0x3ec91b2b	0.3927854
158	0x3e161d33	0.14659576
159	0xbdc69526	-0.096964166
160	0x3da97490	0.08274186
161	0xbdcd6af7	-0.100301675
162	0xbd1290c8	-0.035782605
163	0xbd5196b7	-0.051169124
164	0xbdf799c5	-0.12089876
165	0xbe4b168c	-0.1983282
166	0x3bb30b02	0.0054639587
167	0xbe12c43e	-0.14332673
168	0xbe20d8ac	-0.15707654
169	0xbd64d585	-0.05586769
170	0xbd5b8e34	-0.053602412
171	0xbc90c226	-0.017670702
172	0xbe2482e5	-0.16065557
173	0x3f0413b0	0.5159254
174	0xbe4d5211	-0.20050837
175	0x3d866b1a	0.06563397
176	0xbdf6c1c2	-0.12048675
177	0xbd9deb48	-0.07710892
178	0xbddaafb1	-0.10678042
179	0x3ed8ff39	0.4238222
180	0x3db4f263	0.08835294
181	0xbdc6472a	-0.09681542
182	0xbd90e727	-0.07075339
183	0x3d45c21a	0.048280813
184	0xbdb96f56	-0.09054439
185	0x3e0ac4ed	0.13551684
186	0xbab9878a	-0.0014154774
187	0xbd875bdb	-0.06609317
188	0xbc604473	-0.013688195
189	0xbd79f59b	-0.061025243
190	0xbcbd3c86	-0.023100149
191	0xbd08f921	-0.033440713

bias f4 [8]
0	0x3e29c3ff	0.16578673
1	0x3f49cddd	0.7882975
2	0x3c249b90	0.010046855
3	0xbc447782	-0.0119913835
4	0x3c866abb	0.016408315
5	0x3fafe67e	1.3742216
6	0x4001d266	2.0284667
7	0x3eafc49b	0.34329686
