Final_Masterarbeit/Masterarbeit/CNN_window_size_5_booleanScaler.pt (torch, 10191 bytes, 12 tensors)

weight f4 [8, 8, 3]
0	0xbcedb8b3	-0.029018736
1	0xbbdcaa09	-0.006734137
2	0xbdcb83e5	-0.09937266
3	0x3e914fb7	0.2838113
4	0x3c71632f	0.01473312
5	0xbd98a12b	-0.07452615
6	0xbe40f189	-0.18842138
7	0xbe18068c	-0.14846247
8	0xbd54b174	-0.051927045
9	0xbd36cefc	-0.04463099
10	0xbe071bb2	-0.13194159
11	0x3deacf8c	0.11465368
12	0x3e0c287f	0.13687323
13	0x3e0ef3a6	0.13960132
14	0xbd631551	-0.05544025
15	0x3d786964	0.060647383
16	0xbe679ca9	-0.22618355
17	0xbe648780	-0.22317314
18	0x3d3c88b7	0.04602882
19	0x3e6923b8	0.22767532
20	0x3de3e047	0.11126762
21	0xbd73cc31	-0.059520904
22	0xbe47aa2e	-0.19498512
23	0x3d9b6a9a	0.07588692
24	0xbc3a2ec2	-0.011363687
25	0x3dde7fec	0.10864243
26	0x3ccb244b	0.02479758
27	0xbe3160eb	-0.17322128
28	0xbe4fdcd2	-0.2029908
29	0x3dd51058	0.10403508
30	0xbe2c915e	-0.16852328
31	0x3e4dc206	0.20093545
32	0xbd77e240	-0.060518503
33	0x3d13cbf8	0.03608319
34	0xbe1b33d9	-0.15156497
35	0x3de90060	0.11377025
36	0x3e1fab08	0.15592587
37	0xbda3c2b6	-0.079961225
38	0x3e089bde	0.13340709
39	0xbe4a3015	-0.19744904
40	0xbc2d6d15	-0.010585089
41	0xbde86858	-0.11348027
42	0x3dcf1503	0.101114295
43	0x3d371afd	0.044703472
44	0x3bce9441	0.0063042943
45	0xbda7293d	-0.081621625
46	0xbe33b7f8	-0.17550647
47	0x3decb837	0.11558574
48	0x3e623d88	0.22093785
49	0x3d86a646	0.06574683
50	0x3d5b315d	0.053513873
51	0x3e258200	0.16162872
52	0x3e8965fd	0.26835623
53	0x3e717766	0.23580703
54	0x3e42b8b8	0.19015777
55	0xbd9a4aca	-0.07533796
56	0x3d217968	0.039422423
57	0x3dde898c	0.10866079
58	0x3de332e4	0.11093691
59	0x3c8b79b0	0.017025799
60	0x3dafb26b	0.085789524
61	0x3e376f92	0.17913654
62	0x3ea154ed	0.31510106
63	0x3e06c561	0.13161232
64	0x3f3b049b	0.730539
65	0x3d7888b6	0.060677253
66	0xbd82dd98	-0.06389922
67	0xbe100599	-0.14064635
68	0xbf3d1944	-0.7386668
69	0xbe019239	-0.12653436
70	0xbe5dc019	-0.2165531
71	0xbec4008e	-0.38281673
72	0xbe62b6d4	-0.22140056
73	0xbe0c669a	-0.13711014
74	0x3d7a16ff	0.061057087
75	0x3de24c3f	0.11049699
76	0xbe1dccf0	-0.15410209
77	0xbe187bae	-0.1489093
78	0xbe151f08	-0.14562619
79	0x3db2166c	0.08695683
80	0x3dbd1ccc	0.09234008
81	0xbde9884a	-0.11402948
82	0x3ddba0f0	0.10724056
83	0x3dc5f9cc	0.096667856
84	0xbdd11f05	-0.10210995
85	0xbe795b7c	-0.24351305
86	0xbea130bc	-0.31482494
87	0x3f240265	0.64066154
88	0x3e21159d	0.15730901
89	0xbe5eda39	-0.21762933
90	0xbcfef3e9	-0.031122165
91	0xbeabb556	-0.33536786
92	0x3e9666e2	0.29375368
93	0x3d7a0435	0.06103917
94	0xbd2586af	-0.040411647
95	0xbde627cd	-0.1123806
96	0xbdc1e71c	-0.09467909
97	0x3d5229ff	0.05130958
98	0xbe829b05	-0.25508896
99	0x3e0d4984	0.13797575
100	0x3f1a8ba7	0.6036934
101	0x3e73ee9c	0.23821491
102	0x3e4d6406	0.20057687
103	0x3e20d424	0.15705925
104	0xbda6a3c4	-0.081367046
105	0x3e4c7530	0.19966578
106	0x3e424e5a	0.18975201
107	0x3e02fdac	0.1279208
108	0x3e94d729	0.29070404
109	0x3e1b05a4	0.1513887
110	0xbe8764d0	-0.264441
111	0xbcf30d4f	-0.029669432
112	0x3eba4eb8	0.36388183
113	0xbc444720	-0.011979848
114	0xbd88f271	-0.06686867
115	0xbd5f9266	-0.054582976
116	0xbee15e6f	-0.4401736
117	0xbce4501e	-0.027870234
118	0x3f51bcdc	0.819288
119	0x3f768e2f	0.96310705
120	0x3c8a42ea	0.01687761
121	0xbdfcb8e8	-0.123399556
122	0x3e427d79	0.18993177
123	0x3c2a8e41	0.010409893
124	0x3e0f9cf7	0.14024721
125	0x3de9f2fd	0.114232995
126	0xbc9b2608	-0.018939033
127	0xbd8d2af4	-0.06892958
128	0x3c8f9fe0	0.017532289
129	0x3d2140b0	0.03936833
130	0x3e494f98	0.19659269
131	0xbd93ae94	-0.072110325
132	0x3e379ae8	0.17930186
133	0xbcc8d6dc	-0.024516515
134	0x3dd5898f	0.10426628
135	0xbe03b9cf	-0.12863849
136	0xbd33824d	-0.043825436
137	0xbe485723	-0.1956449
138	0xbe1e0c21	-0.15434314
139	0xbd9a4fef	-0.075347774
140	0xbdc305aa	-0.09522565
141	0xbdd87b81	-0.105704315
142	0xbe269808	-0.16268933
143	0xbdcc8e72	-0.09988107
144	0x3d227841	0.039665464
145	0x3e4be435	0.19911273
146	0x3db25f46	0.08709578
147	0xbb9ae9bb	-0.00472757
148	0x3e3f6717	0.1869167
149	0x3d869116	0.06570642
150	0x3e30c584	0.17262846
151	0xbdd4f979	-0.10399146
152	0xbd6e9a84	-0.058252826
153	0xbc708a90	-0.014681473
154	0xbdd27cdc	-0.10277721
155	0xbd748560	-0.05969751
156	0xbdb7aac0	-0.08968115
157	0x3ceef7dc	0.029170923
158	0x3e88dc96	0.26730794
159	0xbd6a906c	-0.057266638
160	0x3e5e70aa	0.21722665
161	0x3f3133f9	0.6921993
162	0x3dad9ffe	0.08477782
163	0x3c70cb87	0.014696962
164	0xbd31cabd	-0.043406237
165	0xbe1c074d	-0.1523716
166	0xbe287475	-0.16450675
167	0x3c9cee6b	0.019156655
168	0x3d8f29ca	0.069903925
169	0xbde61d73	-0.11236086
170	0x3c471e92	0.012153285
171	0x3b3afc21	0.0028531628
172	0x3e123bac	0.14280576
173	0xbd643ca2	-0.055721886
174	0x3d08cdb0	0.033399284
175	0x3e1cba50	0.15305448
176	0xbdc1c58a	-0.09461506
177	0xbdb80898	-0.08986014
178	0xbdda0a6a	-0.106465176
179	0xbdf6ce3e	-0.12051056
180	0x3e2eaf84	0.17059141
181	0x3e0bfc8c	0.13670558
182	0xbe235714	-0.15951186
183	0x3d2e9486	0.04262211
184	0xbc2b4987	-0.010454542
185	0xbda02ad7	-0.07820671
186	0x3d9590ea	0.07303031
187	0xbe4dbd19	-0.20091666
188	0xbb8f237f	-0.004368245
189	0x3e3f0b8a	0.18656746
190	0xbe5c36f8	-0.21505344
191	0x3e094f85	0.1340924

bias f4 [8]
0	0xbdc249e9	-0.094867535
1	0xbde78a95	-0.11305729
2	0xbcc72b41	-0.024312617
3	0x3c1f77b4	0.009733129
4	0x3e354549	0.17702211
5	0x3db4d2aa	0.088292435
6	0xbe4fc223	-0.20288901
7	0xbd4bb927	-0.049737122

weight f4 [8, 8, 3]
0	0x3e1e22cf	0.15442966
1	0x3cf765ad	0.03019985
2	0xbe21efc3	-0.15814118
3	0xbe199917	-0.14999805
4	0x3de37ca7	0.1110776
5	0x3df6bec2	0.12048103
6	0xbe02a2a7	-0.1275736
7	0xbe56a327	-0.20960675
8	0xbddc56c9	-0.107587405
9	0xbece878c	-0.4033779
10	0x3e05246a	0.13002172
11	0xbc98859d	-0.0186184
12	0xbdd8f41b	-0.105934344
13	0xbe9abcf4	-0.30222285
14	0x3e9f73e6	0.3114311
15	0xbd0a6787	-0.033790138
16	0xbe22e1e1	-0.15906478
17	0xbced03dc	-0.028932504
18	0xbccdf655	-0.025141874
19	0xbdc7ab02	-0.09749414
20	0x3dcfde45	0.101498164
21	0xbe20071c	-0.15627712
22	0xbdc23f2f	-0.094847076
23	0xbe016270	-0.12635207
24	0xbe25068b	-0.16115777
25	0x3e2b5dba	0.16734973
26	0xbe4c2aa1	-0.19938137
27	0xbe19c759	-0.15017451
28	0xbe3051be	-0.17218682
29	0x3e450126	0.1923872
30	0xbe027fe9	-0.12744106
31	0xbebdc5b3	-0.37064895
32	0xbec3a377	-0.3821065
33	0x3dec58bd	0.11540363
34	0xbdc9ab5b	-0.098471366
35	0x3e814a4b	0.25251994
36	0x3e2875f4	0.16451246
37	0x3f35edb1	0.71065813
38	0x3eeecda3	0.46641263
39	0x3d19250b	0.037388843
40	0x3e1a5aaa	0.15073648
41	0x3d3bb6c3	0.045828592
42	0xbcc4fe02	-0.024046902
43	0x3a342bba	0.0006872971
44	0xbe9ea840	-0.3098774
45	0x3aa78cb8	0.0012783026
46	0xbe44d2df	-0.19221066
47	0xbcd0c2e4	-0.025483556
48	0xbdf3afa9	-0.11898739
49	0x3e7ac979	0.24490918
50	0xbd82be20	-0.0638392
51	0xbdb8ff10	-0.09033024
52	0x3e20bc85	0.15696914
53	0x3e085350	0.13313031
54	0xbdef89cf	-0.11696207
55	0x3e7b7033	0.2455452
56	0x3e32896d	0.17435236
57	0xbe46d16f	-0.1941583
58	0xbdda4fad	-0.10659728
59	0xbe646ff8	-0.22308338
60	0xbe9278ef	-0.2860789
61	0x3eed3516	0.46329564
62	0x3ea246f6	0.31694764
63	0xba590a67	-0.0008279443
64	0x3c8bf936	0.017086606
65	0x3c8523cd	0.016252423
66	0x3e7be9ec	0.24600953
67	0x3dc241eb	0.09485229
68	0xbe48c7ee	-0.19607517
69	0xbca1306d	-0.019676412
70	0xbc36d200	-0.011158466
71	0xbc4be355	-0.012444337
72	0xbd3d1a1e	-0.046167485
73	0xbe3be0bd	-0.1834745
74	0x3d66b135	0.05632134
75	0xbd0c9d3f	-0.03432965
76	0xbd425115	-0.047440607
77	0xbe14db26	-0.14536723
78	0x3e56b92b	0.20969073
79	0x3dcf7b1e	0.101309046
80	0x3eb7a65f	0.3586912
81	0x3bb4280b	0.0054979376
82	0x3e7258a7	0.2366663
83	0xbe340239	-0.17578973
84	0x3eb5d1b0	0.3551154
85	0xbba43a3f	-0.0050118263
86	0xbcbab498	-0.022791192
87	0x3e3d0a12	0.18460873
88	0x3ddc77c0	0.10765028
89	0xbe47abc3	-0.19499116
90	0xbe0da2da	-0.13831654
91	0x3d8fed90	0.07027733
92	0x3e125bbb	0.14292805
93	0xbdf3f4f5	-0.11911956
94	0x3e152f8e	0.14568922
95	0xbda36ca4	-0.07979706
96	0xbd96bbb0	-0.07360017
97	0x3e67f7c9	0.22653116
98	0x3d09d78e	0.033652835
99	0xbe26b5fe	-0.16280362
100	0x3da2c8eb	0.07948478
101	0x3be79409	0.0070672077
102	0xbe8791d4	-0.26478446
103	0x3de52bfe	0.111900315
104	0x3e9008fd	0.28131858
105	0xbd27067d	-0.040777672
106	0x3d8817f4	0.06645194
107	0xbe57090a	-0.20999542
108	0xbee943d8	-0.45559573
109	0xbe20c0ec	-0.15698594
110	0x3f3726ca	0.7154356
111	0xbcfe1578	-0.031016096
112	0xbe34b5a7	-0.1764742
113	0xbd783d78	-0.060605496
114	0xbde36713	-0.11103644
115	0x3df9a43c	0.12189528
116	0x3ecf911f	0.40540406
117	0x3e07a64c	0.13247031
118	0x3d5ac361	0.053408984
119	0x3d887d68	0.06664544
120	0xbe423435	-0.18965228
121	0xbe216d42	-0.15764335
122	0xbe382d76	-0.17986092
123	0x3c02ecb0	0.007991001
124	0xbdeb3f60	-0.11486697
125	0x3df1c430	0.11804998
126	0x3e3f1bc6	0.18662938
127	0x3e771cfc	0.2413215
128	0x3ec07d14	0.37595427
129	0x3aa024a4	0.0012217951
130	0xba88052e	-0.001037752
131	0xbe50adf3	-0.20378856
132	0xbd9042a9	-0.070439644
133	0x3e506d02	0.20354083
134	0x3d8655c4	0.06559327
135	0xbabbfc7e	-0.0014342216
136	0xbc65f37d	-0.014035103
137	0x3df82641	0.12116671
138	0x3c61991c	0.013769414
139	0xbe2b2d71	-0.16716553
140	0x3ebd19de	0.36933798
141	0x3d38afff	0.045089718
142	0x3e3bfc0f	0.18357871
143	0x3c490279	0.012268656
144	0xbd78f0ca	-0.06077651
145	0x3e0883f9	0.13331594
146	0x3c9a81af	0.018860666
147	0xbd4fc533	-0.050725173
148	0xbe071a99	-0.1319374
149	0x3cf55a31	0.029950233
150	0x3e1ccdba	0.15312853
151	0xbbe2bcfb	-0.006919501
152	0x3e8f3342	0.27968794
153	0x3caeff17	0.02136187
154	0x3d908cfb	0.0705814
155	0x3e5c52f3	0.21516018
156	0x3e19e389	0.15028204
157	0xbec0f8f3	-0.37689933
158	0xbe3429b1	-0.17594029
159	0x3e137926	0.14401683
160	0xbd611027	-0.054947045
161	0x3db4dbd6	0.08830993
162	0xbc8b454d	-0.017000819
163	0x3dad54dc	0.08463451
164	0xbee13a56	-0.4398982
165	0x3e28543d	0.16438384
166	0x3e1b20fe	0.15149304
167	0x3e179abf	0.14805125
168	0x3e20a355	0.15687306
169	0x3dad6f6f	0.0846852
170	0xbe5a5389	-0.21320929
171	0xbd5f7478	-0.054554433
172	0xbe145463	-0.14485316
173	0xbd7e499b	-0.062081914
174	0xbe80e6d1	-0.251761
175	0xbe99d658	-0.30046344
176	0x3ea77d12	0.3271261
177	0xbea0c44a	-0.31399757
178	0xbd9aa656	-0.07551257
179	0xbe6dd06a	-0.23224035
180	0xbe3c9315	-0.18415482
181	0xbea22685	-0.31670013
182	0x3e861dfb	0.26194748
183	0xbdc8a445	-0.09796957
184	0xbde398d5	-0.11113135
185	0x3d94ace2	0.07259537
186	0x3e38f6a1	0.18062831
187	0x3e81b825	0.25335804
188	0x3e9683de	0.29397482
189	0xbc4e07aa	-0.012575069
190	0xbd586a79	-0.052835915
191	0x3d722333	0.0591156

bias f4 [8]
0	0x3e2c4733	0.16824035
1	0x3e415d73	0.18883304
2	0x3dba7a0f	0.09105312
3	0x3d3ebde9	0.04656783
4	0x3d101011	0.035171572
5	0x3d3b2819	0.045692537
6	0x3e78e2ba	0.2430524
7	0x3e325671	0.17415787

weight f4 [8, 8, 3]
0	0x3dfd5627	0.12369948
1	0x3cf94cfe	0.03043222
2	0x3e2d39f6	0.16916642
3	0xbe44bb32	-0.19212034
4	0xbdf6eec4	-0.1205726
5	0xbe48b9be	-0.19602105
6	0x3de752a9	0.11295063
7	0xbdef7781	-0.116927154
8	0xbd581ede	-0.052763812
9	0xbe329f10	-0.1744349
10	0x3e409ace	0.18809053
11	0xbd381ba9	-0.044948254
12	0x3e2c2448	0.16810715
13	0x3d178c4f	0.036999043
14	0x3db7f34b	0.08981951
15	0x3ce62b77	0.028096898
16	0xbe536c7f	-0.20646857
17	0xbe0c92bb	-0.13727848
18	0xbe498603	-0.19680028
19	0xbe278fa8	-0.16363394
20	0xbdc654f4	-0.09684172
21	0x3e099bd4	0.1343835
22	0xbbf9c9b6	-0.007622923
23	0xbdcb4487	-0.0992518
24	0x3e587c15	0.21141084
25	0x3e16f7ea	0.14743009
26	0x3d794e11	0.060865466
27	0xbe3131f8	-0.17304218
28	0xbd5ed968	-0.054406554
29	0xbe973719	-0.29534224
30	0x3d4c1607	0.049825694
31	0xbc8074e9	-0.015680747
32	0xbd935ed9	-0.07195825
33	0x3e36023c	0.1777429
34	0x3e5d3461	0.21602012
35	0x3d848ae5	0.064718045
36	0xbe8383cb	-0.25686488
37	0x3e2f8c2b	0.17143314
38	0x3e9e97c4	0.30975163
39	0x3e9506d0	0.2910676
40	0x3e963cf5	0.29343382
41	0x3e130f3c	0.1436128
42	0x3e2e45ab	0.17018764
43	0x3e0b4a1a	0.13602486
44	0xbe94b005	-0.29040542
45	0xbcf5f14c	-0.030022286
46	0xbdd49ab2	-0.10381068
47	0xbe56d611	-0.20980097
48	0x3e64711f	0.22308777
49	0x3ca6f1f6	0.020379048
50	0x3e290688	0.16506398
51	0x3e115b09	0.14194883
52	0x3db8e536	0.090280935
53	0x3d8a04b3	0.067391776
54	0x3e5b071b	0.2138943
55	0x3e37784b	0.17916982
56	0xbc31ce4f	-0.01085241
57	0x3e13f4c4	0.1444884
58	0x3dc6c38f	0.097052686
59	0x3b483979	0.0030551834
60	0x3d6cd15e	0.057816856
61	0x3d78fb68	0.060786635
62	0xbe7c5ce3	-0.24644808
63	0x3e9065a9	0.2820256
64	0xbdcca16a	-0.09991725
65	0xbe91f1e1	-0.2850485
66	0xbe73ad75	-0.23796637
67	0xbcdf41f4	-0.027253129
68	0xbe04c3b5	-0.12965281
69	0x3da32c26	0.07967405
70	0x3d20048f	0.039066847
71	0x3de492f9	0.11160845
72	0x3e8171d6	0.25282162
73	0x3e0a1211	0.13483454
74	0x3e772346	0.2413455
75	0x3e28610f	0.16443275
76	0x3e9ab395	0.30215135
77	0x3bf42271	0.007450395
78	0xbe03fa99	-0.12888564
79	0x3e5472f4	0.20746976
80	0x3dbab3d1	0.091163285
81	0x3df1ec8a	0.11812694
82	0xbe007cfd	-0.12547679
83	0xbf00fd14	-0.50386167
84	0x3d1a84ed	0.037724424
85	0x3d9f5bb9	0.077811666
86	0x3efd5264	0.49476922
87	0xbe23320c	-0.1593706
88	0xbe70cec8	-0.23516381
89	0xbe67dc0f	-0.2264254
90	0xbe98543d	-0.2975177
91	0xbe99192c	-0.29902017
92	0xbe8a9ab7	-0.27071163
93	0x3e0af4ce	0.13569948
94	0x3d5e3e36	0.054258548
95	0xbd78f078	-0.060776204
96	0x3e082d0b	0.13298433
97	0x3deeba74	0.11656657
98	0xbd265107	-0.040604617
99	0xbe7b548f	-0.24543975
100	0x3e047b33	0.12937622
101	0xbe5fc4f8	-0.21852481
102	0x3d7c9a8c	0.061670825
103	0x3ee7b20c	0.45253026
104	0x3e9b9ffa	0.3039549
105	0x3e95367d	0.29143134
106	0x3cbea858	0.023273632
107	0xbecbde44	-0.39818013
108	0x3d154f73	0.03645272
109	0x3e0b7e64	0.13622433
110	0x3f254c99	0.64570004
111	0x3d0dbfd1	0.03460676
112	0x3e48b2ae	0.19599411
113	0xbce912d2	-0.028451357
114	0xbbd553bb	-0.0065102256
115	0xbddf98e0	-0.109178305
116	0xbe6252b1	-0.22101857
117	0xbe41c84e	-0.18924066
118	0x3db05693	0.08610263
119	0x3e1d3c75	0.15355094
120	0xbd769207	-0.060197856
121	0x3de66e0d	0.11251459
122	0xbe3166f0	-0.17324424
123	0xbe6451fb	-0.22296898
124	0xbeefc1c9	-0.46827534
125	0xbf015b93	-0.50530356
126	0x3e0ef59f	0.13960885
127	0x3e3ee3ac	0.18641537
128	0xbdf100b8	-0.11767715
129	0x3e6b072b	0.22951953
130	0xbcdfa6da	-0.02730124
131	0x3e324fe4	0.17413288
132	0xbdf57a08	-0.11986166
133	0x3e3af111	0.18256022
134	0x3d351fe5	0.04421987
135	0x3e567aa2	0.20945218
136	0x3e795657	0.24349342
137	0x3c0792d2	0.008274751
138	0xbd38e2a1	-0.045138005
139	0x3e1bd974	0.1521967
140	0xbde6b329	-0.11264641
141	0xbd6c9e65	-0.057768244
142	0x3e567520	0.20943117
143	0x3c4e6f2d	0.012599749
144	0xbd78d030	-0.060745418
145	0x3c857170	0.016289443
146	0x3d8812ae	0.06644188
147	0xbed49a1e	-0.41523832
148	0xbefc44b7	-0.49271175
149	0xbebd4d0e	-0.3697285
150	0x3d34f8aa	0.044182457
151	0xbd5cca97	-0.053904142
152	0xbd3a8a6f	-0.045542177
153	0x3c838128	0.016052797
154	0xbde7f00f	-0.113250844
155	0x3e0547b4	0.13015634
156	0xbd9e5ef9	-0.07732958
157	0x3db396c0	0.08768988
158	0xbe0fc356	-0.14039358
159	0x3df54479	0.11975951
160	0xbd4a99ca	-0.04946307
161	0x3ce7f0ad	0.028313005
162	0x3e720279	0.23633756
163	0x3da67b35	0.081289686
164	0xbbf0cff8	-0.0073490106
165	0x3e40bf36	0.18822941
166	0x3dacfaa6	0.08446245
167	0x3dde6671	0.10859383
168	0xbedd3900	-0.4320755
169	0xbe1c177a	-0.1524333
170	0xbd7b5ec0	-0.061369658
171	0x3e1d4a1f	0.15360306
172	0xbe4229fa	-0.18961325
173	0x3eb3b53a	0.35099202
174	0xbe2d3ed1	-0.16918494
175	0xbe84bb4f	-0.25924155
176	0xbda93b7c	-0.08263299
177	0x3e0859eb	0.13315551
178	0xbe816939	-0.2527559
179	0xbe0f2f52	-0.13982895
180	0x3dccd317	0.100012
181	0xbe05ff48	-0.13085663
182	0xbf121d45	-0.5707591
183	0x3d69c725	0.057074685
184	0xbef1c10d	-0.472176
185	0xbefe82f5	-0.49709287
186	0xbd01c2f5	-0.031680066
187	0x3da782ee	0.0817927
188	0x3eb42e89	0.35191754
189	0xbeb5d322	-0.35512644
190	0xbbc9f820	-0.006163612
191	0xbf14cc1a	-0.58123934

bias f4 [8]
0	0xbdb6d4a8	-0.0892728
1	0xbe919f6a	-0.28441936
2	0xbe4111a6	-0.18854389
3	0xbd8d35a5	-0.068949975
4	0xbe96f78e	-0.29485744
5	0xbe5d5138	-0.21613014
6	0x3edd8435	0.43264928
7	0x3f0d4f5a	0.55199206

weight f4 [8, 8, 3]
0	0xbda57e71	-0.080807574
1	0xbe251e0c	-0.16124743
2	0xbe3a087b	-0.18167298
3	0x3cd592e0	0.026071012
4	0xbcc2e51e	-0.023790892
5	0x3e32a0a6	0.17444095
6	0xbe30d384	-0.17268187
7	0xbbaf1fa1	-0.0053443466
8	0xbdee6dd9	-0.116420455
9	0x3db94574	0.0904645
10	0x3e5a44b5	0.21315272
11	0x3caa2193	0.020767963
12	0xbe0504c5	-0.129901
13	0x3e5ef6c1	0.21773817
14	0x3cec6482	0.02885652
15	0x3e216e47	0.15764724
16	0xbd91886c	-0.071060985
17	0xbe1f6122	-0.15564397
18	0x3d36dc22	0.04464353
19	0x3d52fb24	0.051509038
20	0xbd528649	-0.051397596
21	0x3dd8c8ea	0.10585196
22	0x3e33d858	0.17562997
23	0xbe130ceb	-0.14360397
24	0xbdff247c	-0.12458131
25	0xbe3111f4	-0.17292005
26	0xbe30bf91	-0.17260577
27	0xbe170a0f	-0.14749931
28	0x3db1fe73	0.086911105
29	0x3dd4da3e	0.10393189
30	0x3e3617a4	0.17782456
31	0xbe15fee2	-0.14648011
32	0xbdc6c6f5	-0.09705917
33	0x3e4e7018	0.20159948
34	0x3e6c93ca	0.23103252
35	0x3aff275a	0.0019466684
36	0xbcbf9b5d	-0.023389513
37	0x3cad08c4	0.021122344
38	0x3e8a1295	0.26967302
39	0xbdd2d319	-0.1029417
40	0xbd7bd9e2	-0.061487086
41	0x3daaf94b	0.0834833
42	0xbd865fdc	-0.065612525
43	0xbd518d79	-0.05116031
44	0xbe030b29	-0.12797226
45	0xbe7d9e22	-0.24767354
46	0xbe7d82a4	-0.24756867
47	0xbf154c8b	-0.5831992
48	0x3dd51c96	0.10405843
49	0xbcce62fe	-0.025193688
50	0xbe351cdd	-0.17686792
51	0x3e602397	0.21888576
52	0x3c9c910f	0.019112138
53	0xbebe5b4d	-0.37179032
54	0xbd885598	-0.06656951
55	0x3dfb8d0f	0.12282764
56	0xbcebcfec	-0.028785668
57	0xbe3baefb	-0.18328469
58	0x3e2341df	0.15943097
59	0xbd768019	-0.060180757
60	0x3d92b8a0	0.07164121
61	0x3dabc35f	0.083868735
62	0xbe9415b5	-0.2892281
63	0x3e543e7a	0.20726958
64	0xbb8e4e2e	-0.004342816
65	0xbd465043	-0.048416387
66	0x3da24c9b	0.079247676
67	0x3d9094cd	0.070596315
68	0xbde25711	-0.11051763
69	0x3dc73aef	0.097280376
70	0x3d99d11f	0.0751059
71	0x3daf2766	0.085524365
72	0x3e2466c6	0.1605483
73	0x3e36e9b7	0.17862593
74	0xbd01b983	-0.03167106
75	0x3d3d0e0c	0.046155974
76	0x3db4bcad	0.088250495
77	0xbe34df55	-0.1766332
78	0x3d13de72	0.036100812
79	0x3e2faefe	0.17156598
80	0xbe7afb4f	-0.24509929
81	0xbe3b01f5	-0.18262465
82	0xbd4a4c5e	-0.049389236
83	0x3cb1b2ef	0.021691767
84	0x3de5a1ea	0.11212523
85	0x3cd7309b	0.026268294
86	0x3e5e61f4	0.21717054
87	0x3dd17f89	0.102294035
88	0xbe35ee2c	-0.17766637
89	0x3df1ddf5	0.11809913
90	0x3defb997	0.1170532
91	0x3d0925e9	0.03348342
92	0x3de85bf1	0.113456614
93	0xbeb8f126	-0.36121482
94	0xbd2a762b	-0.0416166
95	0xbf27834d	-0.65434724
96	0xbe3b9418	-0.18318212
97	0xbe4e2f81	-0.20135309
98	0x3e29c900	0.16580582
99	0x3e10b04b	0.1412975
100	0x3b3e052c	0.0028994782
101	0x3dd59e99	0.10430641
102	0x3dc9f6cd	0.09861527
103	0x3e449be4	0.19200093
104	0xbe6ded8c	-0.23235148
105	0xbceb917b	-0.028755894
106	0x3cc366f3	0.023852801
107	0xbdecc06a	-0.115601376
108	0xbcb42fba	-0.021995414
109	0x3e8412d9	0.2579563
110	0x3ec73a89	0.38911846
111	0x3e030377	0.1279429
112	0xbd6f4359	-0.058413837
113	0xbdb37293	-0.08762088
114	0x3e298f51	0.16558577
115	0xbe51b246	-0.20478162
116	0xbdd6268b	-0.1045657
117	0x3d149679	0.036276314
118	0xbe2f6802	-0.1712952
119	0xbe052893	-0.13003759
120	0x3e3caa16	0.18424258
121	0xbd3bec00	-0.045879364
122	0xbcf7e670	-0.030261248
123	0xbeb62d3f	-0.35581395
124	0x3dd83351	0.10556663
125	0x3e110351	0.14161421
126	0xbe233d68	-0.15941393
127	0xbe4a115f	-0.19733189
128	0xbe401b5a	-0.18760434
129	0x3e1c58a6	0.15268192
130	0xbe4a5f2f	-0.19762872
131	0xbdcf1c67	-0.10112839
132	0x3d2f6796	0.042823397
133	0x3e15260b	0.14565293
134	0x3e69fcb1	0.228503
135	0xbbb4601c	-0.005504621
136	0x3d3db55c	0.046315536
137	0x3db6f18c	0.0893279
138	0xbe360c9a	-0.17778245
139	0xbdde5db2	-0.10857715
140	0x3e801e73	0.2502323
141	0xbe43cc4f	-0.19120906
142	0xbce27839	-0.027645217
143	0xbce07907	-0.02740146
144	0xbb282bc0	-0.0025660843
145	0x3e46c23a	0.19410029
146	0x3c1b51ee	0.009479983
147	0xbe282c3f	-0.16423129
148	0x3e82cb0d	0.2554554
149	0xbdd0bd9b	-0.101924144
150	0x3d1ba585	0.03799965
151	0xbc59bfc2	-0.0132903475
152	0xbe62c59d	-0.22145696
153	0xbe3bd9de	-0.18344828
154	0xbe385667	-0.1800171
155	0xbc8ae88d	-0.016956592
156	0x3dbb239c	0.09137651
157	0x3bc1b6fc	0.005911706
158	0x3d6142be	0.05499529
159	0x3df2cc23	0.11855342
160	0xbe2ebb85	-0.1706372
161	0x3dd4d0ab	0.10391363
162	0xbe499fca	-0.19689861
163	0xbe4a3b89	-0.19749273
164	0xbe5d88a0	-0.2163415
165	0xbd3e0427	-0.04639068
166	0x3da44b5b	0.080221854
167	0xbd7ca77e	-0.06168317
168	0x3e473db8	0.19457138
169	0x3e00e5a1	0.12587596
170	0xbe34e821	-0.17666675
171	0x3ab4f7cf	0.0013806763
172	0x3e0b3d63	0.13597636
173	0xbe21247b	-0.15736572
174	0x3e52c411	0.20582606
175	0x3e31c667	0.1736084
176	0xbda19e0d	-0.07891474
177	0x3c596baf	0.013270303
178	0xbd60f81e	-0.054924123
179	0x3e0debaa	0.1385943
180	0x3c6f710d	0.014614356
181	0x3e2e6b64	0.17033154
182	0x3d571992	0.05251462
183	0xbe2f2109	-0.17102446
184	0xbece62a1	-0.40309623
185	0xbda324a8	-0.07965976
186	0xbd40e001	-0.047088627
187	0xbe6c200f	-0.23059104
188	0xbdd93638	-0.106060445
189	0x3d753ffe	0.05987548
190	0x3cedc748	0.029025689
191	0x3e6c1294	0.23053962

bias f4 [8]
0	0xbe3d5331	-0.18488766
1	0x3ebf5f90	0.37377596
2	0xbe335b5b	-0.17515318
3	0x3e51479e	0.20437476
4	0xbcd1619d	-0.025559241
5	0xbdcc8007	-0.09985357
6	0x3e3701be	0.17871758
7	0x3e12675c	0.14297241

weight f4 [8, 8, 3]
0	0x3e1d777b	0.1537761
1	0xbd111cff	-0.035428043
2	0x3e331344	0.17487818
3	0xbd40aa73	-0.047037553
4	0xbe3d00b7	-0.18457304
5	0xbe498a3c	-0.19681638
6	0x3db9b16b	0.09067043
7	0x3e0fd35f	0.14045475
8	0xbdd3daeb	-0.1034449
9	0xbe767b5c	-0.24070495
10	0xbe86e61e	-0.2634744
11	0xbd6659b3	-0.056237888
12	0x3df44b7d	0.11928461
13	0x3e0cc26a	0.13746038
14	0x3d965a31	0.073414214
15	0xbd2367b2	-0.039893813
16	0x3e3d0586	0.18459138
17	0xbdf7475f	-0.1207416
18	0x3dda3465	0.10654525
19	0x3e898dcf	0.26866004
20	0xbc4a6ffb	-0.0123558
21	0xbc51558d	-0.012776745
22	0x3bee0a2d	0.0072643966
23	0x3d4d03a1	0.05005229
24	0xbe2d5301	-0.16926195
25	0xbe3b9b7d	-0.18321033
26	0xbdfe9587	-0.12430864
27	0xbe5f13fd	-0.21784969
28	0x3c6299ef	0.013830646
29	0x3d84a6d8	0.064771354
30	0x3ac74bc3	0.0015205074
31	0x3e282809	0.16421522
32	0xbd6105b4	-0.05493708
33	0xbd3a21e3	-0.045442473
34	0xbd009721	-0.031394128
35	0x3da5846c	0.08081898
36	0x3d757827	0.05992904
37	0xbe06ae47	-0.13152419
38	0x3e3f1ec0	0.18664074
39	0x3bce397b	0.0062934733
40	0x3e2de654	0.16982394
41	0x3e97bbb3	0.2963539
42	0xbd8592d1	-0.06522144
43	0x3dc071b7	0.093966894
44	0xbe1de62a	-0.15419832
45	0xbdb67d81	-0.08910657
46	0x3df21752	0.11820854
47	0xbe46f810	-0.19430566
48	0xbc98c7db	-0.018649986
49	0x3c806797	0.015674395
50	0x3e163cd0	0.14671636
51	0xbdaee9a3	-0.085406564
52	0xbe1799d2	-0.14804772
53	0x3df8114f	0.12112676
54	0xbca96075	-0.020675877
55	0xbe281569	-0.16414417
56	0x3ae44f4a	0.001741865
57	0xbd4966cd	-0.049170304
58	0x3e784cff	0.24248122
59	0x3e871a95	0.26387468
60	0xbc863c5d	-0.016386205
61	0x3cc26f7c	0.0237348
62	0xbc89cfd0	-0.016822726
63	0x3c199123	0.009372982
64	0xbd9ebc43	-0.07750752
65	0xbe32eefc	-0.17473978
66	0xbd1dde45	-0.03854205
67	0xbdfa9cd6	-0.12236945
68	0x3d93cc59	0.072167106
69	0x3d185d63	0.037198436
70	0x3da27778	0.07932943
71	0x3d4d31d8	0.050096363
72	0xbde365b3	-0.11103382
73	0xbe06cf20	-0.1316495
74	0x3d034f6f	0.032058176
75	0x3dcc18c5	0.09965662
76	0x3baa65ad	0.005200109
77	0x3e077926	0.13229808
78	0xbcc4460b	-0.02395918
79	0x3d0bb436	0.03410741
80	0x3d7bbf6a	0.061461844
81	0xbd810a29	-0.06300766
82	0x3e201dd1	0.15636374
83	0xbcfd55bd	-0.030924672
84	0x3e37ba4b	0.17942159
85	0xbde4c771	-0.11170853
86	0x3dd25db2	0.10271777
87	0x3e17f821	0.14840747
88	0x3dfd23de	0.12360357
89	0xbe21a7fa	-0.15786734
90	0xbe27ec35	-0.163987
91	0xbd666714	-0.056250647
92	0x3d121b31	0.035670463
93	0xbd67abdb	-0.05656038
94	0xbd9959e8	-0.074878514
95	0xbdfb9998	-0.12285155
96	0xbe13686a	-0.143953
97	0xbab116df	-0.0013510844
98	0xbe19d690	-0.15023255
99	0x3e3a8a03	0.1821671
100	0xbda5612e	-0.08075176
101	0xbd8cc782	-0.068739906
102	0xbe54e57c	-0.20790666
103	0xbe6a9d63	-0.22911601
104	0x3da2958d	0.07938681
105	0x3d21eb91	0.039531294
106	0x3e4b28ce	0.19839785
107	0x3e4ac7b0	0.19802737
108	0xbe0ca985	-0.13736542
109	0x3d8b8bf3	0.068138026
110	0xbe3a3905	-0.18185814
111	0x3e5a5cc5	0.21324451
112	0xbd6fab14	-0.058512762
113	0x3c30e8fd	0.010797736
114	0x3de162ff	0.1100521
115	0x3d152556	0.03641256
116	0xbd692904	-0.05692388
117	0x3d319d86	0.043363117
118	0xbcad72d0	-0.02117291
119	0xbe5822f1	-0.21107079
120	0xbe423a49	-0.18967547
121	0x3e02dcd5	0.12779553
122	0x3e33a02f	0.17541574
123	0xbe43907c	-0.19098085
124	0x3d4dfd5b	0.050290447
125	0x3ec00312	0.37502342
126	0xbda99f73	-0.08282366
127	0x3e014884	0.12625319
128	0xbd0ac87c	-0.033882603
129	0x3db6693a	0.08906789
130	0x3ea2f01b	0.3182381
131	0x3e11de73	0.14245014
132	0x3d300417	0.04297265
133	0xbd876994	-0.06611934
134	0xbeabdf5a	-0.3356884
135	0xbe2b31a2	-0.16718152
136	0x3dd6b18b	0.104830824
137	0x3bfb3374	0.007666046
138	0x3e2f52ea	0.17121473
139	0xbe315af8	-0.17319858
140	0x3d84668a	0.0646487
141	0xbe24709b	-0.1605858
142	0xbe155b91	-0.14585711
143	0xbe147b65	-0.14500196
144	0xbe073494	-0.1320365
145	0x3e4caece	0.19988558
146	0xbe1b8ff2	-0.1519163
147	0x3c867390	0.016412526
148	0xbdf1f7f6	-0.11814873
149	0xbe44ce03	-0.19219212
150	0xbd3c4f98	-0.045974344
151	0x3dc255fc	0.094890565
152	0x3d59e3c0	0.053195715
153	0x3d81c040	0.06335497
154	0xbe2f0618	-0.17092168
155	0xbd6c7674	-0.057730153
156	0x3cfd5290	0.030923158
157	0xbe27e5b5	-0.1639622
158	0x3e29be2c	0.16576451
159	0xbe208b92	-0.15678242
160	0xbda28145	-0.079348125
161	0x3e4b702c	0.19867009
162	0xbd159a64	-0.03652419
163	0xbda2b28a	-0.0794421
164	0xbe3a039b	-0.18165438
165	0x3dc0afdc	0.094085425
166	0xbddb2809	-0.107009955
167	0xbe3b5a29	-0.18296112
168	0x3e279490	0.16365266
169	0xbe19b274	-0.1500948
170	0x3cb1a7ce	0.02168646
171	0x3deee15e	0.11664079
172	0x3e4f35da	0.20235386
173	0x3d3c4ab7	0.04596969
174	0xbe1a4899	-0.15066756
175	0xbe4a6b81	-0.19767572
176	0x3d7c8e17	0.061658945
177	0x3ddd9739	0.10819859
178	0x3db6171f	0.08891129
179	0x3e2e7cbf	0.17039774
180	0x3b683e3e	0.003543749
181	0xbc572323	-0.013130936
182	0xbdcbda0e	-0.099537
183	0x3e54a7f5	0.20767196
184	0xbdb89cc7	-0.09014278
185	0x3d811eaa	0.06304677
186	0x3d62f858	0.05541262
187	0x3d50e5ae	0.05100029
188	0xbe0e17b1	-0.13876225
189	0xbd18d100	-0.037308693
190	0x3deb179a	0.11479111
191	0x3d68e5c8	0.05685976

bias f4 [8]
0	0x3de15710	0.11002934
1	0xbdceb210	-0.100925565
2	0x3d944ded	0.07241426
3	0x3d51c1d7	0.05121025
4	0x3d10b602	0.035329826
5	0x3d20c2f5	0.039248426
6	0xbe3c3267	-0.18378602
7	0xbe83e6ea	-0.2576211

weight f4 [8, 24, 1]
0	0x3ce63bac	0.028104626
1	0xbe99801d	-0.29980555
2	0x3e2ba406	0.16761789
3	0xbdd9b74a	-0.10630663
4	0x3e25cd34	0.1619156
5	0x3f22f994	0.63662076
6	0x3e0a47f3	0.13504009
7	0x3df3ff08	0.11913878
8	0x3e246b09	0.16056456
9	0xbe03f28b	-0.12885492
10	0x3efa45fd	0.48881522
11	0x3e2a2918	0.16617239
12	0x3dd5ed60	0.10445666
13	0x3e6136ae	0.21993515
14	0xbc9e3866	-0.019314002
15	0xbd07c73d	-0.033148993
16	0xbd762065	-0.060089488
17	0x3ec70f39	0.388788
18	0xbe723b00	-0.23655319
19	0xbc6f571a	-0.014608169
20	0xbe83a257	-0.25709793
21	0x3e53c095	0.20678933
22	0x3d1d6698	0.03842792
23	0x3d8bee93	0.06832614
24	0x3d8cfd5d	0.06884263
25	0x3e3029dd	0.1720347
26	0x3e74d2ad	0.23908491
27	0x3d4a3035	0.04936238
28	0x3eba33b8	0.36367583
29	0xbe9ffc08	-0.31246972
30	0xbedf9f06	-0.43676013
31	0xbe301683	-0.17196088
32	0xbe18ed61	-0.14934303
33	0x3e24bb9a	0.1608719
34	0x3d81be48	0.063351214
35	0x3d0f0fb7	0.034927096
36	0x3ebf406e	0.37353843
37	0x3e1c64a4	0.15272766
38	0x3e4a154d	0.19734688
39	0x3ebf6963	0.3738509
40	0xbe1100cf	-0.14160465
41	0x3da9d119	0.08291835
42	0x3d79b691	0.060965125
43	0x3cdf25eb	0.02723976
44	0xbd12fbfc	-0.035884842
45	0xbddfdeaf	-0.109311454
46	0xbd535d64	-0.051602736
47	0xbe90d61d	-0.28288355
48	0xbc5d0ee2	-0.013492318
49	0x3cf8fa34	0.030392744
50	0x3c1d0c1f	0.009585409
51	0x3cd8df9c	0.026473813
52	0x3b037890	0.0020060875
53	0xbd3887ea	-0.045051493
54	0x3d1f6a12	0.038919516
55	0xbc923ce0	-0.017851293
56	0xbd065239	-0.032793257
57	0xbcb145be	-0.021639701
58	0xbd959188	-0.073031485
59	0x3d85ff1a	0.065427974
60	0x3c043b8c	0.008070838
61	0xbc3af6fd	-0.011411426
62	0x3d4ab205	0.04948618
63	0xbccb96fd	-0.02485227
64	0x3e16785b	0.1469435
65	0x3daf3572	0.08555116
66	0x3c2aa9f1	0.010416494
67	0xbe2cef34	-0.16888124
68	0xbcde0ea8	-0.027106598
69	0x3d1ed609	0.03877834
70	0xbde1d657	-0.1102721
71	0x3e526f43	0.20550255
72	0x3b9534d1	0.0045534153
73	0xbd1ab089	-0.037766013
74	0x3c8a4f59	0.016883539
75	0xbd1078c0	-0.035271406
76	0x3b6f3cf7	0.0036504844
77	0x3d2493fe	0.0401802
78	0xbc4b758c	-0.012418162
79	0xbc8af145	-0.01696075
80	0x3dbade2e	0.09124409
81	0x3d4d243a	0.050083376
82	0xbd8b291e	-0.06794952
83	0x3d027ad7	0.03185543
84	0x3d14ec8c	0.0363584
85	0xbdb462e5	-0.08807925
86	0xbd888a5c	-0.06667015
87	0xbd9472ad	-0.07248435
88	0x3d202a9b	0.03910313
89	0x3d937171	0.071993716
90	0xbdaefed5	-0.08544699
91	0xbe20147d	-0.15632816
92	0xbd376c4d	-0.044781018
93	0xbcb5de7c	-0.022200815
94	0x3e22575e	0.1585364
95	0x3d78390b	0.060601275
96	0xbddb7d66	-0.10717277
97	0x3c8b247c	0.01698517
98	0xbca853ec	-0.02054783
99	0x3c9fda62	0.019513313
100	0xbd064b36	-0.03278657
101	0xbcca320e	-0.024682071
102	0xbd80cba9	-0.06288845
103	0xbd356d4d	-0.04429369
104	0x3df3c752	0.11903252
105	0xbbdd4af4	-0.00675332
106	0x3ddeda15	0.108814396
107	0x3c88528c	0.016640924
108	0xbd2ca4a5	-0.042149205
109	0x3d25564e	0.04036551
110	0x3de19286	0.11014275
111	0xbdad12cb	-0.0845085
112	0xbde793af	-0.11307465
113	0x3df593b9	0.119910665
114	0x3d9d1424	0.07669857
115	0xbb7379c6	-0.003715144
116	0x3b9a8fc1	0.004716844
117	0xbe47129e	-0.19440696
118	0xbdcad136	-0.09903185
119	0x3d9f4ccb	0.07778319
120	0x3db598e7	0.088670544
121	0x3e9eb550	0.30997705
122	0x3d4cf53c	0.05003856
123	0x3dc8c70b	0.098035894
124	0x3bcd167d	0.0062587843
125	0xbe78d41f	-0.24299668
126	0xbe5c57b7	-0.21517836
127	0xbf387242	-0.72049344
128	0xbd84efeb	-0.06491073
129	0x3f092f47	0.53587765
130	0x3e3db1d4	0.18524867
131	0x3ece6342	0.40310103
132	0xbea1978d	-0.31560937
133	0xbe8b80f8	-0.27246833
134	0x3e03bd26	0.12865123
135	0xbdbd05c0	-0.09229612
136	0xbe897410	-0.2684636
137	0x3beff0ff	0.00732243
138	0x3e83c47e	0.2573585
139	0x3e756317	0.23963581
140	0x3e818a94	0.2530104
141	0x3f03dca6	0.5150856
142	0xbc804028	-0.015655592
143	0xbd991193	-0.07474055
144	0x3e133f5b	0.14379637
145	0xbf15212f	-0.5825376
146	0x3e4ea380	0.20179558
147	0xbe53f05b	-0.20697157
148	0x3ec40da3	0.38291654
149	0xbea78ea6	-0.3272602
150	0x3f179667	0.5921387
151	0x3e928b07	0.28621694
152	0xbe56f099	-0.20990218
153	0x3e0b83da	0.13624516
154	0xbe276b44	-0.16349512
155	0x3db3f449	0.08786828
156	0xbceed9b2	-0.02915654
157	0xbe1a6be4	-0.1508022
158	0xbe3f728a	-0.18696037
159	0x3e162127	0.14661084
160	0xbe96ac87	-0.29428503
161	0x3e86bcc8	0.26315904
162	0x3e5d9a17	0.21640812
163	0xbd2779a7	-0.0408875
164	0xbc5d720c	-0.01351596
165	0xbe113bce	-0.1418297
166	0x3debbffc	0.115112275
167	0xbd642182	-0.055696018
168	0x3e26b9e5	0.1628185
169	0xbde9308d	-0.113862135
170	0xbcc7fdb8	-0.024412975
171	0x3f2f6fc7	0.68529934
172	0xbd589d8c	-0.052884623
173	0x3e18acbb	0.14909641
174	0xbd251a8d	-0.040308524
175	0x3d48e4a4	0.049046174
176	0x3e36ceed	0.17852373
177	0x3e17a4a5	0.148089
178	0xbd6bc8db	-0.057564598
179	0xbd5e46eb	-0.05426685
180	0x3dd4acc8	0.10384518
181	0xbe265194	-0.16242057
182	0xbe660a75	-0.22464927
183	0x3ddd9b1c	0.108206004
184	0x3d06a2eb	0.032870214
185	0xbc312e0b	-0.0108142
186	0xbe1a05aa	-0.15041223
187	0x3d52c485	0.051456947
188	0xbb99f647	-0.004698548
189	0x3e010a27	0.12601529
190	0x3dc8c320	0.09802842
191	0xbd59b1a9	-0.053147946

bias f4 [8]
0	0xbd967d8c	-0.07348165
1	0x3e53698b	0.2064573
2	0xbc938b4f	-0.018010763
3	0x3ceebb17	0.029141946
4	0x3d450ad8	0.048106045
5	0x3f0a93a8	0.54131556
6	0x3f273371	0.6531287
7	0x3cbecf36	0.023292165
