Final_Masterarbeit/Masterarbeit/CNN_window_size_5_StandardScaler.pt (torch, 10191 bytes, 12 tensors)

weight f4 [8, 8, 3]
0	0xbd4fe1f2	-0.050752588
1	0xbc7f2e8b	-0.015575062
2	0x3e6867ef	0.22695898
3	0xbdfd1f0d	-0.12359438
4	0xbda271d7	-0.079318695
5	0x3d386b48	0.045024186
6	0x3e131ace	0.14365694
7	0xbd8465cb	-0.06464728
8	0x3d3d3001	0.04618836
9	0xbda41787	-0.080123
10	0xbe0aaa9a	-0.13541642
11	0x3e5598fa	0.20859137
12	0xbcc59068	-0.02411671
13	0xbde916ab	-0.11381277
14	0x3e32b2dc	0.17451042
15	0xbe8a9655	-0.2706782
16	0x3f15a1d1	0.5845004
17	0xbe569815	-0.20956452
18	0x3da63e2f	0.08117329
19	0xbe38864a	-0.18019977
20	0xbf34fe28	-0.7070031
21	0xbe9bd1bf	-0.3043346
22	0xbead801e	-0.33886808
23	0xbdd6c83e	-0.10487412
24	0x3d0c2bd3	0.03422148
25	0xbd51a828	-0.051185757
26	0x3c724512	0.014786975
27	0xbdefdaa7	-0.117116265
28	0x3d491c46	0.04909923
29	0xbe47f546	-0.19527158
30	0xbe88ee21	-0.26744178
31	0x3e63185b	0.2217726
32	0x3eadddb5	0.33958212
33	0xbe7bae94	-0.24578315
34	0xbd9c3f9a	-0.076293185
35	0x3de019ce	0.10942422
36	0xbea4f7f4	-0.32220423
37	0xbe4749c5	-0.19461735
38	0x3e02905e	0.12750384
39	0x3f2907d7	0.6602759
40	0x3e210844	0.1572581
41	0xbf31b675	-0.6941903
42	0xbda66d69	-0.08126337
43	0xbeb96205	-0.36207595
44	0x3eb593b5	0.35464254
45	0xbe66df17	-0.2254604
46	0x3cfef968	0.031124786
47	0xbcb359eb	-0.021893462
48	0xbdeb21e7	-0.11481076
49	0x3e0ce21a	0.13758126
50	0xbe111642	-0.14168647
51	0xb9514956	-0.00019959113
52	0x3e4146d8	0.18874681
53	0x3f028c9e	0.50995815
54	0xbc85679b	-0.016284754
55	0xbe11fd01	-0.1425667
56	0x3d8213f3	0.06351461
57	0xbe049aea	-0.1294972
58	0xbe92caca	-0.2867034
59	0xbc9da080	-0.019241571
60	0x3e449d94	0.19200736
61	0x3e3f2a6d	0.18668528
62	0x3ebfef6c	0.37487352
63	0xbf25d109	-0.6477209
64	0x3ef3f7f1	0.47650102
65	0x3e4732ee	0.19453022
66	0x3e7eb4bc	0.24873632
67	0xbea0fbb8	-0.31442046
68	0x3dc57bad	0.0964273
69	0x3c289f52	0.010291891
70	0xbe586128	-0.21130812
71	0xbe2d5f2f	-0.16930841
72	0xbd92c259	-0.07165975
73	0xbdda97ec	-0.10673508
74	0x3ee53c8e	0.44772762
75	0x3e275cd9	0.16344012
76	0xbf1eec11	-0.6207896
77	0xbf18bd26	-0.5966362
78	0xbde943b7	-0.11389869
79	0x3eae4bf3	0.3404232
80	0x3de5359e	0.11191867
81	0xbe50f0c1	-0.2040434
82	0x3eba83bd	0.36428633
83	0x3ec34707	0.38140127
84	0xbe306329	-0.17225327
85	0xbdbfe9f2	-0.093707934
86	0x3e183f10	0.14867806
87	0xbd09a1cc	-0.033601567
88	0x3e33e7bc	0.17568868
89	0xbe3c0e1d	-0.18364759
90	0xbe055510	-0.1302073
91	0x3eaca81d	0.3372201
92	0x3dbba143	0.091616176
93	0x3e1cdbc6	0.15318212
94	0xbf08306a	-0.53198874
95	0xbf16c916	-0.5890058
96	0xbe38f683	-0.18062787
97	0xbe4f1855	-0.20224126
98	0xbea4b812	-0.32171685
99	0xbdb2853f	-0.08716821
100	0x3e597b7a	0.21238509
101	0x3dbe7572	0.09299745
102	0x3d6d04bc	0.057865843
103	0xbdf5bb8e	-0.11998664
104	0x3dfc39ff	0.123157494
105	0x3dc9c03e	0.098511204
106	0x3e2c141c	0.16804546
107	0xbe4ae24f	-0.19812892
108	0x3d933ffa	0.07189937
109	0xbf05ca4d	-0.5226181
110	0xbeee0a91	-0.46492437
111	0xbeb6d61c	-0.35710227
112	0xbcb95125	-0.0226217
113	0x3d4fc496	0.05072459
114	0x3f20c703	0.6280367
115	0x3ee909c4	0.45515263
116	0xbea05a97	-0.31319115
117	0xbb9ccdd3	-0.0047852783
118	0x3e96b21f	0.2943277
119	0x3f941a2f	1.1570491
120	0xbde0ceb1	-0.10976923
121	0x3e854a94	0.2603346
122	0x3d16be92	0.036802836
123	0x3da08654	0.07838121
124	0x3e93100b	0.28723177
125	0x3f03b1a2	0.5144292
126	0xbe885fee	-0.2663569
127	0xbe221594	-0.15828544
128	0x3e4554f0	0.19270682
129	0xbebbcbd8	-0.36678958
130	0xbe6db214	-0.23212463
131	0x3d9c3aa7	0.076283745
132	0xbc8fdca2	-0.01756126
133	0x3eb99ec8	0.36253953
134	0x3ea63ab0	0.3246665
135	0x3ef4ccb1	0.47812417
136	0xbf12f20d	-0.5740059
137	0xbf43bb44	-0.7645762
138	0xbe49c717	-0.19704853
139	0x3f542920	0.8287525
140	0xbe90cf7a	-0.28283292
141	0x3e7b4d40	0.24541187
142	0xbe4855f2	-0.19564036
143	0x3d6d7f23	0.057982575
144	0xbc9d72f4	-0.019219853
145	0x3d913f28	0.07092124
146	0xbd0f09d3	-0.03492148
147	0x3da027bd	0.078200795
148	0x3e90d69e	0.2828874
149	0x3e23ab21	0.15983249
150	0xbd154bd5	-0.036449272
151	0xbe3c1643	-0.18367867
152	0x3e8ae779	0.27129725
153	0x3e478b18	0.19486654
154	0x3de3ed96	0.111293
155	0x3e8bcc7d	0.2730445
156	0x3e1954f5	0.14973815
157	0x3db93169	0.09042627
158	0xbbf95507	-0.007609013
159	0xbd2a4794	-0.04157217
160	0x3829da2b	4.0495925e-05
161	0x3d700ff0	0.05860895
162	0xbe4093f4	-0.1880644
163	0xbe9c6244	-0.3054372
164	0xbe66d0a1	-0.22540523
165	0xbe0feb20	-0.14054537
166	0xbe6ee8d2	-0.23331001
167	0x3e5e777d	0.21725269
168	0x3d232b24	0.039836064
169	0x3dff5f18	0.124693096
170	0xbd9c0d6a	-0.07619746
171	0xbbc0d504	-0.0058847684
172	0x3cf5ccc4	0.030004866
173	0x3c29016e	0.010315282
174	0x3d39ffa4	0.045409814
175	0x3e99dcc3	0.3005124
176	0xbdce98e6	-0.10087757
177	0x3ca081b4	0.019593097
178	0x3e0be4fa	0.13661566
179	0x3ddbeeed	0.10738931
180	0xbe40ff89	-0.18847479
181	0x3ddea7c8	0.108718455
182	0x3df4c96c	0.11952481
183	0x3f1e4e4a	0.6183821
184	0xbec30873	-0.38092384
185	0xbf43d911	-0.7650309
186	0x3dfb352c	0.12266001
187	0xbe3ba2a8	-0.18323767
188	0x3f4b09c4	0.79311776
189	0xbe7d1e5b	-0.24718611
190	0x3e748d45	0.23882015
191	0xbe5de1c2	-0.21668151

bias f4 [8]
0	0x3e478da1	0.19487621
1	0xbe3f62b3	-0.18689995
2	0xbdc078a7	-0.093980126
3	0xbc0c9997	-0.008581541
4	0xbdbc0127	-0.09179907
5	0x3de6134b	0.112341486
6	0x3c73def0	0.014884695
7	0xbcadb894	-0.021206178

weight f4 [8, 8, 3]
0	0xbd9ba75a	-0.07600279
1	0x3d215523	0.039387833
2	0x3d8e5405	0.06949619
3	0xbe4a4d30	-0.19756007
4	0x3ea52ca2	0.32260615
5	0x3c98a297	0.018632216
6	0x3d31a553	0.043370556
7	0x3e1fc3e2	0.15602067
8	0x3e154047	0.14575301
9	0xbe39ec8d	-0.18156643
10	0xbed168e9	-0.40900353
11	0xbf044728	-0.51671076
12	0xbd9e1f93	-0.07720866
13	0xbf3c6b2e	-0.73601043
14	0xbf33aa8a	-0.70182097
15	0x3d02598f	0.03182369
16	0x3d216622	0.039404042
17	0xbd30fdac	-0.04321067
18	0xbe85d7fe	-0.2614135
19	0x3e914ba8	0.28378034
20	0xbd4c28de	-0.04984366
21	0xbe04c050	-0.12963986
22	0xbde83587	-0.113383345
23	0x3d15dcd5	0.036587555
24	0x3e39bc48	0.1813823
25	0xbe7803e4	-0.24220234
26	0xbf3aee02	-0.7301942
27	0xbaa8da5b	-0.0012882458
28	0x3d529ff3	0.05142207
29	0x3e92d874	0.28680766
30	0x3e0d08e2	0.1377292
31	0x3e05507d	0.13018985
32	0xbe9cd01c	-0.30627525
33	0xbe114dac	-0.14189786
34	0x3e4c7ca7	0.19969426
35	0x3ed53be0	0.41647243
36	0xbe564bc0	-0.20927334
37	0xbced7a8f	-0.028989105
38	0x3d17306f	0.036911424
39	0xbe1aba4e	-0.15110132
40	0x3c8042f9	0.015656935
41	0x3dcb51c8	0.09927708
42	0xbe047437	-0.12934957
43	0xbb79429b	-0.0038034085
44	0x3d948c94	0.07253376
45	0xbf1a78de	-0.6034068
46	0x3d941fc6	0.07232623
47	0x3ee63f98	0.44970393
48	0x3c98f9d2	0.018673811
49	0xbe26c989	-0.16287817
50	0xbe887b1b	-0.26656422
51	0x3ec88308	0.3916247
52	0x3d793891	0.06084496
53	0xbe0629bb	-0.13101856
54	0xbd01447c	-0.031559452
55	0xbed50c72	-0.41611058
56	0xbd590ebd	-0.05299257
57	0x3da1476e	0.07874952
58	0x3da73776	0.08164875
59	0x3f1582cc	0.58402705
60	0xbea0c416	-0.31399602
61	0x3da992ca	0.08279951
62	0xbee1ec19	-0.4412544
63	0x3d90408b	0.070435606
64	0x3d87d05a	0.06631537
65	0x3f160efb	0.5861661
66	0xbe07b656	-0.1325315
67	0xbe091538	-0.13387
68	0x3e1c1e32	0.15245894
69	0x3e659976	0.22421822
70	0xbe088b34	-0.13334352
71	0x3e74c285	0.23902328
72	0x3deb1408	0.1147843
73	0xbe8463f6	-0.25857514
74	0xbe072d3f	-0.13200854
75	0x3d1f14bb	0.03883813
76	0x3e933ddb	0.2875813
77	0x3db0a6e9	0.086255856
78	0xbe94b2e2	-0.29042727
79	0xbee23444	-0.441805
80	0xbf43b8c2	-0.76453793
81	0xbdc4cc4e	-0.096092805
82	0xbe2478c3	-0.16061692
83	0xbf3314fb	-0.6995389
84	0x3ecb22e9	0.39675072
85	0x3d2e0fa1	0.042495374
86	0x3f2660fe	0.6499175
87	0xbe34b098	-0.1764549
88	0xbdbcfa6a	-0.0922745
89	0xbeba375a	-0.36370355
90	0x3ba6267c	0.0050705057
91	0x3d81f795	0.06346051
92	0x3e155734	0.14584047
93	0xbea53268	-0.3226502
94	0xbe944bc8	-0.28964067
95	0xbd8e0861	-0.06935192
96	0xbd2fc357	-0.0429109
97	0x3d880be6	0.066428944
98	0x3ed9c150	0.42530298
99	0x3f15dee5	0.58543235
100	0x3ce89b9f	0.028394518
101	0xbe81b4ef	-0.25333354
102	0xbdc800b6	-0.097657606
103	0x3da8d03c	0.082428426
104	0xbec2ada9	-0.38023117
105	0x3da0867d	0.078381516
106	0x3e7d9ad3	0.24766092
107	0x3ea94887	0.33063146
108	0xbd4538dc	-0.04814993
109	0xbdb96e11	-0.090541966
110	0x3d5dee38	0.05418226
111	0x3dfb1959	0.12260694
112	0xbe3b55f2	-0.18294504
113	0xbe8ec089	-0.27881268
114	0xbe2b80d7	-0.16748367
115	0xbe03bc59	-0.12864818
116	0xbe15959a	-0.1460785
117	0x3e69c4b9	0.2282895
118	0x3e9a6297	0.30153343
119	0xbf0e2c6f	-0.5553655
120	0xbc95bc3b	-0.018278232
121	0x3d05379f	0.032523748
122	0xbe16c4b9	-0.14723481
123	0x3ea9f81a	0.331971
124	0xbe3397e9	-0.17538418
125	0xbe1cb8e0	-0.15304899
126	0xbe4cfded	-0.2001874
127	0x3dfa56ae	0.12223564
128	0x3e568876	0.20950493
129	0x3e1e7096	0.15472636
130	0xbe4c16cc	-0.19930571
131	0x3e1f63aa	0.15565363
132	0xbe995202	-0.2994538
133	0xbd9843f5	-0.07434837
134	0xbe2fa7ba	-0.17153826
135	0x3e32fcf0	0.174793
136	0x3e5a35c6	0.21309575
137	0xbd2d8cd2	-0.042370625
138	0x3e20bb15	0.15696366
139	0x3d9ecd0d	0.07753954
140	0xbdcf2b3a	-0.10115667
141	0x3dda8ec9	0.10671765
142	0xbd9692c3	-0.07352211
143	0xbe07e698	-0.13271558
144	0xbdf85bbb	-0.12126871
145	0xbe05b562	-0.13057473
146	0x3e781649	0.24227251
147	0xbe999b03	-0.30001077
148	0xbcb8e656	-0.02257077
149	0x3e16c214	0.14722472
150	0x3dff06be	0.12452458
151	0x3cffb791	0.031215461
152	0xbddc8a3d	-0.10768554
153	0xbdbd6a8a	-0.09248836
154	0x3d124c73	0.03571744
155	0xbede9f06	-0.434807
156	0x3ed4c079	0.41553095
157	0x3d1e63c0	0.038669348
158	0x3c9c16b6	0.019053798
159	0x3d813503	0.06308939
160	0xbe5e4044	-0.21704203
161	0xbef2871b	-0.47368702
162	0x3e61b11c	0.22040218
163	0xbe1676ba	-0.14693728
164	0x3ca56fd4	0.020194925
165	0x3a3f9116	0.0007307691
166	0x3bb77432	0.0055985684
167	0xbe09fdc2	-0.13475707
168	0xbe93c069	-0.28857735
169	0x3e0ac709	0.13552488
170	0x3f06ec70	0.52704525
171	0xbe82721c	-0.25477684
172	0x3e95c88b	0.29254565
173	0x3d917d30	0.07103956
174	0xbd1347ef	-0.035957273
175	0x3e9111c5	0.2833387
176	0x3e8961d9	0.26832464
177	0x3e920daa	0.2852605
178	0x3f275e32	0.65378106
179	0x3dac8851	0.08424438
180	0x3dce7e06	0.10082631
181	0xbe37058e	-0.17873213
182	0xbedfa2c6	-0.43678874
183	0x3e9be38f	0.3044705
184	0xbf091fd3	-0.53564185
185	0xbf377f0d	-0.7167824
186	0x3ee20de2	0.44151217
187	0x3e66cf84	0.22540098
188	0xbcc09dc5	-0.02351273
189	0x3e347f9c	0.17626804
190	0x3e2d7f8f	0.16943191
191	0xbf113d91	-0.5673457

bias f4 [8]
0	0x3e96faf7	0.29488346
1	0xbd585926	-0.052819394
2	0x3e77c189	0.24194922
3	0x3e3ed2d1	0.18635108
4	0x3e0afd7c	0.13573259
5	0xbe8bf85f	-0.2733793
6	0x3eb9b6d0	0.36272287
7	0x3e4461ca	0.19177929

weight f4 [8, 8, 3]
0	0x3e131389	0.14362921
1	0xbe3558f5	-0.17709716
2	0xbe781a4d	-0.24228783
3	0x3ecc8fc2	0.39953429
4	0x3dd97c9a	0.10619469
5	0x3ed7db2f	0.4215941
6	0x3e5c9a08	0.21543133
7	0xbe2acc4e	-0.16679499
8	0x3e5b32d3	0.21406107
9	0x3daee713	0.08540168
10	0xbbba5d35	-0.0056873807
11	0x3f0ef769	0.5584627
12	0x3ea9e200	0.33180237
13	0x3d813eea	0.06310828
14	0xbee3e4e1	-0.44510558
15	0x3df033d9	0.11728639
16	0x3e7394d7	0.23787247
17	0x3e662bc6	0.22477636
18	0x3e149b6a	0.14512411
19	0x3eacafba	0.3372782
20	0xbdd52cfb	-0.1040897
21	0xbeacfaa3	-0.3378497
22	0xbe5b8bd2	-0.21440056
23	0xbf40602c	-0.75146747
24	0xbe01935d	-0.12653871
25	0xbe8ac3bf	-0.27102467
26	0xbe6a0eb2	-0.22857168
27	0x3df656dc	0.12028286
28	0x3d2a3858	0.04155764
29	0x3e6e7483	0.23286633
30	0x3dd772a2	0.10519911
31	0xbd37dd0c	-0.04488854
32	0x3dc3f163	0.09567525
33	0xbeefdaa6	-0.46846503
34	0xbefc6c15	-0.4930121
35	0xbf3819ac	-0.7191417
36	0x3e44c712	0.19216564
37	0x3c4ef132	0.012630748
38	0xbe638ebd	-0.22222419
39	0x3d74c413	0.059757303
40	0x3e5429b9	0.20719041
41	0x3e41ce8a	0.18926445
42	0x3d0c0a63	0.034189593
43	0x3e7870cd	0.2426178
44	0xbd2bde57	-0.041960087
45	0xbdf8ef45	-0.12155012
46	0xbe93b55a	-0.28849298
47	0xbe2788b6	-0.16360745
48	0xbddb4a94	-0.10707584
49	0xbde7197d	-0.112841584
50	0xbe26595c	-0.16245025
51	0x3e32d9f8	0.17465961
52	0x3e557b47	0.20847808
53	0x3d7873df	0.06065738
54	0xbe1acceb	-0.15117233
55	0x3e3c7742	0.18404868
56	0xbe831f31	-0.25609735
57	0xbe169f28	-0.14709151
58	0xbc015dda	-0.007895911
59	0xbe1446ed	-0.14480181
60	0xbe112705	-0.14175041
61	0xbdb0cc4c	-0.086327165
62	0x3eb74cdb	0.35800824
63	0x3e298261	0.16553642
64	0x3e3bdfba	0.18347064
65	0x3c68e8ad	0.0142156305
66	0xbe4cd595	-0.2000335
67	0xbd9b762e	-0.075909
68	0xbdc50295	-0.09619633
69	0x3b955ddd	0.0045583085
70	0x3e5d824e	0.21631739
71	0x3e74d282	0.23908427
72	0xbebc05e5	-0.36723247
73	0x3e8c588a	0.274113
74	0xbe4528f0	-0.19253898
75	0x3eaf6257	0.34254715
76	0xbe427b8f	-0.18992446
77	0xbed2618a	-0.4109004
78	0xbf342cc8	-0.7038083
79	0x3e5f8e32	0.21831587
80	0xbf5c74d3	-0.8611576
81	0xbe90da0d	-0.2829136
82	0x3dd133af	0.10214936
83	0x3f0e3ec1	0.55564505
84	0xbecb3bc4	-0.39694035
85	0x3e188a05	0.148964
86	0x3e6ae0d3	0.22937326
87	0xbdd6c4f5	-0.10486785
88	0xbe91dde7	-0.2848961
89	0x3d79927e	0.06093072
90	0x3eee635b	0.46560177
91	0x3cc96ef0	0.024589032
92	0x3e602591	0.2188933
93	0x3e52d3f2	0.20588663
94	0x3d89f676	0.06736462
95	0x382689d8	3.970586e-05
96	0x3e254fa1	0.16143657
97	0x3cde98a1	0.027172389
98	0x3dd3ceb1	0.10342158
99	0x3d05622c	0.032564327
100	0x3c1827e8	0.009286858
101	0xbe825ccc	-0.25461423
102	0x3dfb988f	0.122849576
103	0xbe6bd7c0	-0.23031521
104	0xbe25712f	-0.16156457
105	0x3dd3037b	0.10303398
106	0x3c8a54f8	0.01688622
107	0xbe13f8f6	-0.1445044
108	0xbe772074	-0.24133474
109	0xbea318f3	-0.31854972
110	0x3c809904	0.015697964
111	0xbd6e9183	-0.05824424
112	0x3e7ddbfc	0.24790949
113	0xbe05a994	-0.1305297
114	0xbc3f787a	-0.011686439
115	0x3e232798	0.15933073
116	0x3d3be74a	0.04587487
117	0xbe04c747	-0.12966643
118	0xba8afc87	-0.0010603823
119	0x3d2b6bcf	0.04185086
120	0xbd2617b9	-0.040549967
121	0x3f0f3e0c	0.5595405
122	0x3e514a29	0.20438446
123	0xbe6cdd63	-0.23131327
124	0xbdb53ecc	-0.08849868
125	0x3bd12013	0.0063819974
126	0x3e3343ef	0.17506383
127	0xbe6bdea9	-0.23034157
128	0x3e5d69e2	0.21622422
129	0x3deb6440	0.114937305
130	0x3de79091	0.11306871
131	0xbd632ba8	-0.055461556
132	0x3dab6594	0.08368984
133	0x3d11d7e2	0.035606273
134	0xbe5866ff	-0.2113304
135	0xbc5eb3ba	-0.013592655
136	0xbe770b67	-0.24125443
137	0xbe868050	-0.2626977
138	0xbe95bf62	-0.29247576
139	0xbed465af	-0.41483828
140	0xbeb0650e	-0.344521
141	0xbe7b713c	-0.24554914
142	0xbeb11fe2	-0.34594637
143	0xbe9ed1b2	-0.3101936
144	0xbe121b40	-0.14268208
145	0xbe35bf8a	-0.17748848
146	0x3d14216e	0.036164694
147	0xbd247434	-0.040149882
148	0x3d9f9969	0.077929325
149	0xbe05ec6a	-0.13078466
150	0x3b729e14	0.0037020491
151	0xbe11c7be	-0.14236352
152	0x3e0a1cc7	0.1348754
153	0x3e3f85d5	0.18703397
154	0xbdb3fb25	-0.087881364
155	0xbd4ac893	-0.04950769
156	0x3baf6ae2	0.0053533176
157	0xbe490a9e	-0.19632956
158	0xbdf818fe	-0.12114142
159	0xbd8fd815	-0.07023636
160	0x3e0f3b52	0.13987473
161	0xbc4f38bb	-0.012647803
162	0xbe165103	-0.14679341
163	0xbe310560	-0.17287207
164	0x3e004c41	0.12529089
165	0x3e6bd6a3	0.23031096
166	0xbdcca046	-0.09991507
167	0xba25028d	-0.00062946306
168	0xbca0c367	-0.019624425
169	0x3e8b11f0	0.27162123
170	0x3e26a021	0.16272022
171	0xbe98b713	-0.29827175
172	0xbef7c414	-0.48391783
173	0xbef909cf	-0.48640296
174	0x3ce5ebd4	0.028066553
175	0xbd88c94d	-0.0667902
176	0xbd83c543	-0.06434109
177	0xbdc9d91b	-0.09855863
178	0xbe98172c	-0.2970518
179	0xbec52d1d	-0.3851098
180	0xbf3625eb	-0.7115161
181	0xbf206c59	-0.62665325
182	0xbf14983d	-0.580448
183	0xbcce60b9	-0.025192605
184	0x3cb7ccee	0.022436585
185	0xbb93d168	-0.004511047
186	0xbcc0ba17	-0.023526235
187	0xbe2bb391	-0.16767718
188	0x3d85870c	0.06519899
189	0xbd045c19	-0.032314394
190	0xbeb7cfcc	-0.35900724
191	0xbe7c0ece	-0.24615023

bias f4 [8]
0	0x3ef427ef	0.47686717
1	0x3f209377	0.62725013
2	0xbea01738	-0.31267715
3	0x3f072ca0	0.5280247
4	0x3eafda3f	0.34346196
5	0x3d85c152	0.065310135
6	0xbe098a69	-0.13431706
7	0x3f81ca97	1.013995

weight f4 [8, 8, 3]
0	0xbda878ac	-0.08226141
1	0xbd3b840d	-0.04578023
2	0x3c52692e	0.01284246
3	0xbc9a8f8d	-0.018867278
4	0xbc8d181d	-0.017223412
5	0xbceda7f1	-0.029010745
6	0x3e0670e5	0.13129003
7	0xbe4770c9	-0.19476618
8	0xbe29089a	-0.16507187
9	0xbe0e658c	-0.13905925
10	0xbf1005d6	-0.56258905
11	0xbec3d355	-0.3824717
12	0x3dd1165b	0.10209342
13	0xbe0fa4aa	-0.14027658
14	0xbe80855c	-0.25101745
15	0x3de63a0e	0.11241542
16	0x3f046225	0.51712257
17	0x3e9be611	0.30448964
18	0xbcbf8ee2	-0.023383562
19	0x3e14389f	0.14474724
20	0xbd92501d	-0.07144187
21	0x3652724f	3.1358975e-06
22	0x3f0721d0	0.5278597
23	0x3dbb5af3	0.091482066
24	0xbe6ed31d	-0.23322721
25	0x3d287bd6	0.041133724
26	0x3e48167c	0.19539827
27	0xbd736531	-0.059422676
28	0x3db5a97b	0.088702165
29	0x3eca55d0	0.39518595
30	0xbe93a8de	-0.28839773
31	0x3e077d04	0.13231283
32	0xbec18bb1	-0.3780189
33	0xbc9dbb40	-0.019254327
34	0xbd3e00fe	-0.046387665
35	0xbed63524	-0.41837418
36	0x3e4af6e3	0.19820742
37	0xbe029cf4	-0.12755185
38	0xbd897531	-0.067118056
39	0x3ee19351	0.44057706
40	0x3e8e5dd0	0.27805948
41	0xbe23abd5	-0.15983517
42	0xbdadd29d	-0.08487437
43	0x3e4bf954	0.1991933
44	0x3e1b37a1	0.1515794
45	0xbda6ffd5	-0.08154265
46	0xbe85d420	-0.261384
47	0xbecf67c1	-0.40508845
48	0xbe04f6b6	-0.12984738
49	0xbeafe3f1	-0.34353593
50	0x3e4828ea	0.19546857
51	0x3d187db2	0.037229247
52	0x3f5d32b8	0.86405516
53	0x3a80f401	0.0009838344
54	0x3c19f590	0.009396926
55	0x3dd1eb4f	0.1024996
56	0x3e05b27d	0.13056369
57	0xbdd00005	-0.10156254
58	0xbea8ba5d	-0.32954684
59	0x3e304278	0.17212856
60	0x3d51778b	0.051139396
61	0xbe80a17f	-0.25123212
62	0xbbd27d39	-0.006423619
63	0xbe6cbf5e	-0.23119876
64	0xbdaa4371	-0.08313645
65	0x3d794062	0.060852416
66	0xbd9d1b16	-0.07671182
67	0x3e38c89b	0.18045275
68	0xbd252ef2	-0.040327974
69	0xbe49eab8	-0.19718444
70	0xbe695728	-0.22787154
71	0x3de7f4a1	0.11325956
72	0xbec12655	-0.37724558
73	0xbea0d786	-0.3141443
74	0xbf2d20a0	-0.67627907
75	0xbe58de83	-0.21178631
76	0x3f0beccc	0.546582
77	0x3d977c21	0.073967226
78	0xbd983f77	-0.0743398
79	0x3e013e27	0.12621365
80	0x3f1024bd	0.5630606
81	0x3e6e9252	0.23298004
82	0x3ea19670	0.31560087
83	0x3e842c1f	0.25814912
84	0xbe9b25cc	-0.30302274
85	0xbd7ae49b	-0.06125317
86	0x3d20ef25	0.039290566
87	0xbe5c77f3	-0.21530132
88	0x3d3ce28e	0.046114497
89	0x3dc7f52e	0.09763561
90	0x3d744d84	0.059644237
91	0x3e3ecdb8	0.18633163
92	0x3dc725a5	0.09723977
93	0xbe81d071	-0.2535434
94	0xbee3b505	-0.44474044
95	0xbee8cc0f	-0.45468184
96	0x3d653232	0.055956073
97	0xbe8eb338	-0.27871108
98	0xbe84f927	-0.25971338
99	0xbdb36e5d	-0.087612845
100	0x3d9e7bb9	0.07738442
101	0xbc857fec	-0.01629635
102	0x3c0f1bb2	0.00873463
103	0x3e2761a5	0.16345842
104	0xbe435acd	-0.19077606
105	0x3e0a949e	0.13533255
106	0x3e3366d3	0.17519693
107	0x3e79260a	0.24330917
108	0x3e13bc47	0.14427291
109	0x3e179fb1	0.14807011
110	0xbdd6db21	-0.10491014
111	0x3d03c291	0.032167975
112	0x3dbb677b	0.09150597
113	0xbd84aabb	-0.06477877
114	0x3d2df438	0.042469233
115	0xbd3a8b6a	-0.04554311
116	0x3d884712	0.066541806
117	0xbd82a609	-0.06379325
118	0xbd02fb9e	-0.031978242
119	0xbdcb6d8d	-0.099330045
120	0xbece50be	-0.40295976
121	0xbf04a952	-0.5182086
122	0xbef6395d	-0.4809064
123	0xbdff9be0	-0.12480903
124	0xbef80134	-0.48438418
125	0xbefeb241	-0.49745372
126	0xbd4b3da5	-0.049619336
127	0xbbe5173e	-0.006991296
128	0xbe5ceeb7	-0.21575437
129	0xba2039fb	-0.00061121554
130	0x3e9863ea	0.29763728
131	0x3e1b6c65	0.15178068
132	0xbd323959	-0.043511722
133	0x3d6373ef	0.055530485
134	0xbd40ae73	-0.047041368
135	0xb9c0e6af	-0.00036792966
136	0x3b9b76c3	0.004744382
137	0xbd0ff351	-0.035144154
138	0x3e4e92c7	0.20173179
139	0xbe49e9af	-0.1971805
140	0xbddde5b9	-0.10834832
141	0x3e1a7955	0.15085347
142	0x3d9dd590	0.077067494
143	0x3e1a5d0f	0.15074562
144	0x3e160e93	0.14653997
145	0xbd58bd83	-0.052915107
146	0x3e12ab5b	0.1432318
147	0xbdb44c87	-0.08803659
148	0x3ca2718b	0.019829532
149	0xbd83608f	-0.064149015
150	0xbe425345	-0.18977077
151	0x3e0c2410	0.13685632
152	0x3e013e75	0.12621482
153	0x3e1a0475	0.15040763
154	0xbe353c46	-0.17698774
155	0x3d0b8ebe	0.034071676
156	0xbe42a295	-0.19007333
157	0x3e1cbb19	0.15305747
158	0x3e49b64a	0.19698444
159	0xbe2b0163	-0.16699748
160	0x3e03e7df	0.1288142
161	0x3e27fe3f	0.16405581
162	0x3d1e52e8	0.038653284
163	0x3dd142a3	0.10217788
164	0x3d8ef918	0.069811046
165	0x3df10b13	0.1176969
166	0x3de0de89	0.10979945
167	0x3c937e4d	0.01800456
168	0x3d7d8ed4	0.06190379
169	0x3d06e0bc	0.032929167
170	0xbd9c5d70	-0.07635009
171	0xbdb93308	-0.090429366
172	0xbe32530c	-0.17414492
173	0xbe2590bf	-0.16168498
174	0xbdd105f4	-0.102062136
175	0x3e45f26e	0.19330761
176	0x3d96dce4	0.0736635
177	0xbda5bcaf	-0.08092629
178	0xbcee1a7e	-0.029065367
179	0x3dc56ab5	0.096394934
180	0xbd25d37e	-0.040484898
181	0xbe1f0cb1	-0.15532185
182	0xbd0eb7eb	-0.034843367
183	0xbdb5e8ec	-0.08882317
184	0xbe3f7192	-0.18695667
185	0x3d226a04	0.039651886
186	0x3e3816a3	0.17977385
187	0x3d720185	0.05908348
188	0x3d876d8a	0.0661269
189	0x3e319280	0.17341042
190	0xbe5dd745	-0.2166415
191	0xbdf49167	-0.11941796

bias f4 [8]
0	0x3c4f25dc	0.012643304
1	0x3ea2095d	0.3164777
2	0xbeaf47e1	-0.34234527
3	0x3f181807	0.5941166
4	0xbe07ab8f	-0.13249038
5	0x3e93da00	0.28877258
6	0xbeb23546	-0.3480627
7	0xbdd6c021	-0.104858644

weight f4 [8, 8, 3]
0	0xbe2b3558	-0.16719568
1	0xbf01663b	-0.50546616
2	0xbed1d404	-0.40982068
3	0xbe07c77d	-0.13259692
4	0x3cf60026	0.030029368
5	0x3d4e0037	0.050293174
6	0x3d8352d0	0.064122796
7	0x3de35265	0.110997
8	0xbd460416	-0.04834374
9	0x3ce4a653	0.02791134
10	0xbd082b3d	-0.03324436
11	0xbd47a01a	-0.04873667
12	0xbe815e30	-0.25267172
13	0x3e24e45f	0.16102742
14	0xbe72a918	-0.23697317
15	0xbec1d21e	-0.3785562
16	0xbe0c7e04	-0.13719946
17	0xbe8b5b20	-0.2721796
18	0x3d642eaa	0.055708565
19	0x3d8da723	0.069166444
20	0xbd8e64ce	-0.06952821
21	0x3e2ac226	0.16675624
22	0x3dad3809	0.084579535
23	0xbd911ed5	-0.07085959
24	0xbddeccff	-0.10878944
25	0xbeb43f08	-0.3520434
26	0xbe93149f	-0.2872667
27	0xbef19389	-0.47182873
28	0xbecfe92c	-0.40607584
29	0xbe8da77b	-0.2766684
30	0x3d69a30e	0.057040267
31	0xb9eeb630	-0.00045530638
32	0xbdbf354e	-0.09336339
33	0xbe024028	-0.12719786
34	0xbe7e5ab8	-0.24839294
35	0xbe387cf3	-0.18016414
36	0xbc3cf8d7	-0.011533937
37	0x3d559d16	0.052151762
38	0xbe40c6a8	-0.18825781
39	0x3d85fdb1	0.065425284
40	0x3d7f0880	0.062263966
41	0x3ddd6722	0.10810687
42	0x3c3249f3	0.010881889
43	0xbe16d310	-0.14728951
44	0xbe39b6a2	-0.18136075
45	0x3d22cb9e	0.039744966
46	0xbd55b188	-0.05217126
47	0x3e0179af	0.12644075
48	0x3df12476	0.117745325
49	0xbe51c4fc	-0.204853
50	0x3a371900	0.0006984621
51	0xbd314112	-0.043274947
52	0xbd72dd70	-0.05929321
53	0x3e17a342	0.14808372
54	0xbe46c23b	-0.1941003
55	0x3d732940	0.05936551
56	0xbde762e8	-0.11298162
57	0xbde7db2f	-0.11321103
58	0xbe352846	-0.17691144
59	0xbe224868	-0.15847933
60	0x3e17659b	0.14784853
61	0x3dabb1db	0.083835326
62	0xbdd28b5e	-0.102804884
63	0x3cab634b	0.02092137
64	0x3d8d8de9	0.06911833
65	0xbe39eb99	-0.1815628
66	0x3e44e0ce	0.19226381
67	0xbe3fefc3	-0.18743806
68	0xbd8e76c0	-0.069562435
69	0xbe4e440f	-0.2014315
70	0xbdfc1461	-0.123085745
71	0x3d818228	0.063236535
72	0x3d11b165	0.035569567
73	0x3e57429a	0.210215
74	0xbe86c4b4	-0.26321948
75	0xbe733955	-0.23752339
76	0xbe23e8d4	-0.16006786
77	0x3eae034e	0.33986896
78	0xbddd3e16	-0.108028576
79	0xbe6754cb	-0.2259094
80	0xbe02a795	-0.1275924
81	0x3de1baab	0.11021932
82	0xbdf18142	-0.11792232
83	0x3e1524a5	0.1456476
84	0xbe892d9c	-0.2679261
85	0x3d853f01	0.06506158
86	0xbe25da91	-0.16196658
87	0xbe0309d3	-0.12796716
88	0xbe397cd3	-0.18114023
89	0x3d95f1b5	0.073214926
90	0x3e344596	0.1760467
91	0xbd17856e	-0.036992483
92	0xbde1ffc4	-0.110351115
93	0xbe264a05	-0.16239174
94	0x3e273609	0.16329207
95	0x3d553917	0.0520564
96	0xbde207f5	-0.11036674
97	0x3c1c1a25	0.009527718
98	0xbdb6937d	-0.0891485
99	0x3d2e4eae	0.042555504
100	0x3ea0410e	0.31299633
101	0xbc224221	-0.009903462
102	0x3d2c972d	0.04213636
103	0xbb89ae32	-0.004201674
104	0xbdcb9e1b	-0.099422656
105	0x3d5f48b2	0.054512687
106	0xbe6fc4d6	-0.2341493
107	0xbe382b06	-0.17985162
108	0xbdcd153e	-0.10013817
109	0xbe3c5de9	-0.18395199
110	0x3dd2d8f4	0.10295287
111	0xbe1c4b59	-0.15263118
112	0xbe4f289b	-0.20230334
113	0x3dfe757c	0.12424752
114	0x3e4ee90e	0.20206091
115	0xbe3eede0	-0.1864543
116	0x3dd4078d	0.10353003
117	0xbe0fd8b0	-0.14047503
118	0xbdfa5f89	-0.12225253
119	0x3daf7c6a	0.08568652
120	0xbdfb2ab3	-0.122640036
121	0x3e1a9a41	0.15097906
122	0x3e3607f5	0.17776473
123	0xbe74a4c7	-0.23890983
124	0x3c6979bd	0.014250216
125	0xbd6af2a3	-0.057360303
126	0x3e872861	0.26397994
127	0x3e34ab9c	0.17643589
128	0x3dc49bd9	0.09600038
129	0xbd82cff4	-0.0638732
130	0x3e1482ce	0.14503023
131	0xbe42a375	-0.19007666
132	0xbe8427c6	-0.25811595
133	0xbe096e0d	-0.13420887
134	0xbda4f3b2	-0.08054294
135	0xbd830d85	-0.06399063
136	0xbe840674	-0.25786173
137	0xbc91b50e	-0.017786529
138	0x3d77e8a6	0.060524605
139	0x3e12fd53	0.14354448
140	0xbe0c0440	-0.13673496
141	0x3c9c3464	0.01906795
142	0xbdbeca98	-0.093159854
143	0xbdd48480	-0.10376835
144	0xbdea73a2	-0.114478365
145	0x3d42a22b	0.047517937
146	0x3df3b35e	0.11899446
147	0xbf03e938	-0.5152774
148	0x3c8bc11a	0.017059851
149	0x3f310df4	0.69161916
150	0xbdf49d57	-0.11944073
151	0x3b526ca8	0.0032108221
152	0x3d91835e	0.071051344
153	0xbe0c2463	-0.13685755
154	0xbed1b5d4	-0.40959036
155	0x3e3255a8	0.17415488
156	0x3da5c435	0.08094064
157	0x3e2377e7	0.15963708
158	0x3e82c30a	0.25539428
159	0x3db07f0d	0.08617983
160	0xbe151f7c	-0.14562792
161	0xbe0d3c65	-0.1379257
162	0x3de3c7e3	0.1112211
163	0x3d872f91	0.066008694
164	0xbdb43fa3	-0.088012
165	0x3e0399b7	0.12851606
166	0x3c432a02	0.011911871
167	0x3e385ef9	0.18004979
168	0x3d25877e	0.04041242
169	0x3e3e102d	0.18560858
170	0xbd5b2dfd	-0.053510655
171	0x3e6f1f62	0.23351815
172	0xbdd2560e	-0.1027032
173	0xbcef6ebf	-0.029227613
174	0xbcffffed	-0.031249965
175	0xbe35e56b	-0.17763297
176	0x3d3559d9	0.04427514
177	0xbc78a923	-0.015177044
178	0xbcabf98c	-0.020993017
179	0x3e07cc02	0.13261417
180	0x3e39f286	0.18158922
181	0xbbdbe8be	-0.0067110946
182	0xbc57f7c3	-0.01318163
183	0xbe151195	-0.14557488
184	0xbef770a6	-0.4832813
185	0xbe4cff5b	-0.20019285
186	0x3b10f1ce	0.0022116783
187	0x3d166cbe	0.0367248
188	0xbd72e8ab	-0.05930392
189	0xbcfa1c18	-0.030530974
190	0x3ddd24f1	0.10798062
191	0xbd079b6d	-0.03310721

bias f4 [8]
0	0x3ef83b9a	0.48482972
1	0x3f0bcd2b	0.54609936
2	0xbe24752b	-0.16060321
3	0xbb4a5536	-0.0030873544
4	0xbdadf4eb	-0.0849398
5	0x3e7230ff	0.23651503
6	0xbc6757bb	-0.014120038
7	0x3eafe655	0.34355417

weight f4 [8, 24, 1]
0	0xbce6f972	-0.028195117
1	0x3dbb5bfc	0.09148404
2	0x3ca525c0	0.020159602
3	0xbd640949	-0.055672918
4	0xbd11caf2	-0.035593934
5	0x3f2aa9b6	0.6666521
6	0x3d776c6c	0.060406134
7	0x3de3475e	0.110975966
8	0x3f4922e0	0.7856884
9	0x3d9024ed	0.07038293
10	0xbd85f5ff	-0.06541061
11	0xbdb3e03e	-0.08783005
12	0x3dcdc74f	0.10047781
13	0x3d47c71a	0.048773862
14	0xbc489906	-0.012243515
15	0xbbc07b51	-0.0058740755
16	0xbf2bda3a	-0.6712986
17	0xbef33de9	-0.4750817
18	0xbe44f4f4	-0.19234067
19	0x3e87f931	0.26557305
20	0x3d426390	0.04745823
21	0x3e304b32	0.17216185
22	0x3e13e718	0.14443624
23	0xbc3eea98	-0.011652611
24	0x3e8760de	0.2644109
25	0xbf163b66	-0.58684385
26	0x3ce343de	0.027742323
27	0x3e0c2830	0.13687205
28	0x3e5e55a0	0.21712351
29	0x3d3139b6	0.043267928
30	0xbdd81b12	-0.10552038
31	0x3f71e8f1	0.94496065
32	0xbe82211d	-0.25415888
33	0xbec5f967	-0.3866684
34	0x3f10aab8	0.56510496
35	0xbea98e07	-0.3311617
36	0xbe097915	-0.13425095
37	0xbc654bc6	-0.013995117
38	0xbe2ffb6e	-0.17185757
39	0x3de61c4e	0.112358674
40	0x3e7d4569	0.24733509
41	0x3f41f868	0.7576966
42	0xbdd6442d	-0.10462222
43	0xbe60c32a	-0.21949449
44	0x3e5e707b	0.21722595
45	0x3e810cd4	0.252051
46	0xbe0a6906	-0.13516626
47	0xbbbcdf35	-0.005763913
48	0xbd8c6b16	-0.068563625
49	0x3e871241	0.26381114
50	0x3c90c6a1	0.017672839
51	0xbda9820b	-0.08276757
52	0xbd953338	-0.0728516
53	0xbc0e18b0	-0.008672878
54	0xbdda2cad	-0.106530525
55	0xbe355a55	-0.1771024
56	0xbd78a3de	-0.06070315
57	0x3d28abc3	0.04117943
58	0xbe3d8cf1	-0.18510796
59	0x3a909376	0.0011030275
60	0xbd1918e9	-0.03737727
61	0x3e29830f	0.16553901
62	0x3db6ade6	0.08919887
63	0xbc40d1dc	-0.011768784
64	0xbe293f82	-0.16528133
65	0x3d836935	0.06416551
66	0xbd8dec9b	-0.069298945
67	0xbd2af6ff	-0.04173946
68	0x3df9e1b9	0.12201256
69	0xbe6275b4	-0.22115213
70	0x3dc2debe	0.09515141
71	0xbe83f86d	-0.2577547
72	0xbd89c1f5	-0.067264475
73	0x3e8aec48	0.27133393
74	0x3c99bbf6	0.018766385
75	0xbda1754a	-0.07883699
76	0xbd88c9a0	-0.06679082
77	0xbd6dee92	-0.058088847
78	0x3c6577c6	0.014005607
79	0xbe3deea4	-0.18548065
80	0xbb8991bb	-0.0041982806
81	0x3db50d8d	0.08840475
82	0xbe626576	-0.22109017
83	0xbbb76b20	-0.005597487
84	0x3be8fe91	0.007110425
85	0x3e92fb4b	0.28707346
86	0x3cb5bc0f	0.0221844
87	0xbe185b03	-0.14878468
88	0xbd5a7233	-0.053331565
89	0x3da2f218	0.07956332
90	0x3ded40a2	0.11584593
91	0x3b93b705	0.0045079016
92	0xbae49376	-0.0017438966
93	0xbde9d917	-0.1141836
94	0x3db26696	0.08710973
95	0xbe14d813	-0.14535551
96	0xbd85d50c	-0.06534776
97	0x3e61fa3f	0.22068118
98	0x3c8337de	0.01601785
99	0xbd9297cf	-0.071578614
100	0xbe1661c5	-0.14685734
101	0xbdcf8fad	-0.10134826
102	0xbc74f255	-0.014950355
103	0xbd86b650	-0.06577742
104	0xbe95536b	-0.29165205
105	0x3ba225cc	0.0049483534
106	0xbe3f7208	-0.18695843
107	0xbd44d2c1	-0.048052553
108	0x3c35313f	0.011059104
109	0x3e155b3d	0.14585586
110	0x3e482af0	0.1954763
111	0x3dff5755	0.12467829
112	0xbe59c8b7	-0.21267973
113	0xbe06768d	-0.13131161
114	0xbc8d8339	-0.017274486
115	0x3da28f3a	0.079374745
116	0x3e24484a	0.16043201
117	0xbd8684f0	-0.065683246
118	0x3d609eea	0.054839052
119	0xbe840030	-0.25781393
120	0xbea0af3e	-0.313837
121	0xbe727330	-0.23676753
122	0xbe4011a5	-0.18756731
123	0x3e9af1a8	0.30262494
124	0x3ed8bea8	0.4233296
125	0xbea6c1f6	-0.32569855
126	0xbcebeb21	-0.028798642
127	0x3e83d687	0.2574961
128	0x3d666f31	0.056258384
129	0x3d8f5d92	0.07000269
130	0x3c9833f6	0.018579464
131	0x3f656a68	0.8961549
132	0xbc15cf7a	-0.009143705
133	0xbba42830	-0.0050096735
134	0x3e49d053	0.19708376
135	0x3dca941a	0.098915294
136	0x3c137db8	0.009002142
137	0x3e8d0efc	0.27550495
138	0xbe20c216	-0.15699038
139	0xbe90ee50	-0.28306818
140	0xbe8a1553	-0.26969394
141	0xbe05ca18	-0.13065374
142	0xbf29e6a7	-0.6636757
143	0x3cd3224b	0.025773188
144	0xbd812e5b	-0.0630767
145	0x3f10a10e	0.5649575
146	0x3d470dba	0.048597075
147	0xbe510c87	-0.20414935
148	0xbe82e911	-0.2556844
149	0xbdf3b8fc	-0.11900517
150	0x3d73af46	0.059493326
151	0xbee8c52f	-0.4546294
152	0xbe08c566	-0.13356552
153	0x3e976dc5	0.29575935
154	0xbebf50d8	-0.37366366
155	0xbe3e31b6	-0.1857365
156	0x3d37dc81	0.044888023
157	0xbf23645c	-0.6382501
158	0xbce483bf	-0.027894853
159	0x3d594cf2	0.053051896
160	0x3f26d125	0.6516288
161	0xbea9171e	-0.3302545
162	0x3de63fd7	0.11242645
163	0x3e82923c	0.25502193
164	0xbd16620d	-0.036714602
165	0x3e594281	0.21216775
166	0x3ecb3df0	0.39695692
167	0x3f33dce5	0.70258933
168	0x3e94409b	0.2895554
169	0xbf01ca06	-0.5069889
170	0x3cb0be9e	0.021575268
171	0x3d2ed13e	0.042680018
172	0xbde7cf52	-0.1131884
173	0x3dacbca9	0.084344216
174	0x3d01dc8c	0.03170447
175	0xbf15d3f9	-0.5852657
176	0xbd5d72f0	-0.05406469
177	0xbe29ec3c	-0.16594023
178	0x3eb4b769	0.3529618
179	0xbe6ec300	-0.23316574
180	0x3de4438b	0.11145695
181	0x3c0f9aec	0.008764964
182	0xbe804019	-0.25048903
183	0xbe0203dc	-0.12696785
184	0x3dd20b42	0.102560535
185	0x3de21e91	0.11040986
186	0xbd1bded2	-0.038054295
187	0x3daa3e3f	0.08312654
188	0xbd54185c	-0.051781043
189	0x3da12239	0.078678556
190	0xbc8da6ef	-0.017291514
191	0x3ba1cdde	0.0049378714

bias f4 [8]
0	0xbe9fbfe3	-0.31201085
1	0x3c5e02fd	0.013550517
2	0xbeea38fe	-0.45746607
3	0xbf161c64	-0.5863707
4	0xbecd5e18	-0.4011085
5	0x3f378925	0.7169364
6	0x3f87c6eb	1.060758
7	0xbdaba998	-0.08381957
