Final_Masterarbeit/Masterarbeit/CNN_window_size_66_MinMaxScaler.pt (torch, 10191 bytes, 12 tensors)

weight f4 [8, 8, 3]
000000 22 b3 07 3e 97 94 85 bc 1d 57 ba 3d fa cb 63 be
       0.13251927 -0.016306205 0.09098647 -0.2224578
000010 b9 cc 96 bd 67 98 90 be 63 c3 f7 3d 46 66 18 3e
       -0.073632665 -0.28241274 0.12097814 0.14882764
000020 83 5e ca 3d 64 95 9b 3c 70 c4 65 bd fe 92 28 3e
       0.09881308 0.018992133 -0.05609554 0.16462323
000030 ac 03 17 be c5 b5 fc bd ec 42 33 3e 67 1d 9a bd
       -0.14747494 -0.12339357 0.17505997 -0.07525139
000040 72 d0 96 be 74 fb 94 3e 92 54 92 bd 03 4c 3d 3e
       -0.29455906 0.29098094 -0.07145037 0.18486027
000050 87 ff 0c 3e 36 83 14 be bd db 33 be ce 77 12 be
       0.13769351 -0.14503178 -0.17564292 -0.14303514
000060 ae ec a0 be 82 2d 40 be 89 e6 5a be 0f 7c 79 bc
       -0.31430572 -0.1876736 -0.21377005 -0.015227332
000070 2a 74 98 bc d0 25 87 3e 24 0b d7 bd 5a f3 46 be
       -0.018610079 0.26396036 -0.10500172 -0.19428769
000080 b9 60 94 bc c2 cb 10 be e2 10 20 be 09 ce 37 3e
       -0.018112527 -0.14140227 -0.1563144 0.1794969
000090 30 dc ef 3e 61 0b 3a 3e dd 46 03 3e 03 60 d3 3b
       0.46847677 0.18168403 0.12820001 0.0064506545
0000a0 0c 5e 05 3f 49 c8 fb 3d 50 ad 8a bd 4e 54 9a 3d
       0.5209663 0.12294061 -0.06771338 0.07535611
0000b0 2a 25 39 3e 20 19 91 bc 1c c7 85 3e 13 ad db 3d
       0.18080583 -0.017712176 0.2612847 0.10726371
0000c0 bc 67 77 be e9 7c f7 bc e4 68 88 3d a9 0c 02 3e
       -0.24160665 -0.030210929 0.06660631 0.12700142
0000d0 6a ca 33 3e 10 24 68 3e 6e d0 f3 3d b1 2f 42 3d
       0.17557684 0.22670007 0.11904989 0.047408763
0000e0 7d e6 27 be d2 92 9c 3d 41 f6 c2 bd 67 24 9a bd
       -0.16396518 0.07645191 -0.095196255 -0.075264744
0000f0 d4 bb 65 3e 1d 06 89 3e 31 ff 61 3e 99 9c 8f 3d
       0.22434932 0.26762477 0.22070004 0.070122905
000100 26 0f 1b 3e f3 13 03 be 83 2e 84 be d3 1c 69 bc
       0.15142497 -0.12800579 -0.25816736 -0.014228064
000110 f1 aa 99 be 2f 8d 08 3d 8c 4b d1 bd 38 4d 76 bd
       -0.3001323 0.03333777 -0.102194875 -0.060132235
000120 b4 b3 22 3d dd 91 0e bd 0b db b0 bd ea 54 8b be
       0.03972216 -0.034807075 -0.08635529 -0.27213222
000130 67 6e 00 be b5 35 71 be 1c fc 1f be 64 2c 10 be
       -0.12542115 -0.23555644 -0.15623516 -0.14079434
000140 2c d5 1d 3e fb 71 7e bd b8 f1 48 3e b8 32 08 be
       0.1541335 -0.06212042 0.19623458 -0.13300598
000150 dd 8a 4c be 00 7c a2 3d 68 0d 08 be 6c 05 33 3f
       -0.19974847 0.079338074 -0.13286364 0.6993015
000160 e2 16 c6 3e c3 b1 e5 3d 26 81 85 be af 5d 73 3c
       0.38689333 0.11215546 -0.26075095 0.014853879
000170 cb 7e d5 3a 82 d9 04 be 24 3e 5d be 5c e1 42 be
       0.0016288398 -0.12973598 -0.21605736 -0.1903128
000180 95 00 47 bb 1f 5a 26 be d8 16 3e 3d bd 69 e2 bd
       -0.0030365337 -0.16245316 0.046408504 -0.11055324
000190 6b 08 41 3e ca ab 87 3e e8 87 fc 3d 55 bc 06 3d
       0.18850867 0.26498252 0.123306096 0.03289445
0001a0 43 36 87 3d 07 c1 8f 3d f2 fa 02 be 44 51 4c 3e
       0.066021465 0.07019239 -0.1279104 0.19952875
0001b0 3f 34 b8 3e 6c 6d a7 3e ae 0e 81 3e e2 4f 91 bd
       0.3597736 0.3270067 0.25206512 -0.070953146
0001c0 8d 0d cc 3b dd dc 34 bc af 36 be bd 24 7a 1c 3e
       0.0062272013 -0.011038986 -0.09287774 0.15280968
0001d0 b4 cf ab 3c 41 12 21 3e f7 7b 71 3e 1a 66 94 3e
       0.020973064 0.1572962 0.23582445 0.28984147
0001e0 ef 96 89 be a4 ed 57 be 9e 01 6c bc f6 68 33 be
       -0.26872966 -0.21086746 -0.014404682 -0.17520508
0001f0 dd 20 8d 3e 98 db 9b 3e 93 4d 42 be 3b 39 ac 3c
       0.27564135 0.30440974 -0.18974905 0.021023383
000200 42 87 13 be 3c cd 34 be 3a b4 16 3d f8 b1 ef 3d
       -0.14407066 -0.17656416 0.03679297 0.11703867
000210 9b 3e b9 3d b8 7d ec 3e 04 5f ac 3d 01 12 25 3e
       0.09045144 0.46189666 0.0841656 0.16120149
000220 ee fb 25 be 9e 4c 0d 3e 58 9e d2 bd 60 2f 49 3e
       -0.16209385 0.13798758 -0.10284108 0.19646978
000230 04 9a c5 bd d0 97 a0 3e 71 a7 99 3e e4 a8 ae 3e
       -0.09648517 0.31365824 0.3001056 0.34113228
000240 65 30 0f 3e 19 58 64 3e 8c 98 5e 3e 36 b0 29 3e
       0.13983305 0.22299232 0.2173788 0.16571125
000250 ff 7b e6 3d 33 3c 76 bd a7 5a e5 3c 70 75 4e 3e
       0.11254119 -0.060116004 0.027997328 0.20161986
000260 15 c1 fc bd e0 f8 3d be 49 6f 3c 3e cb e6 21 3e
       -0.12341515 -0.1855197 0.18401827 0.15810697
000270 a7 23 7e be 96 a2 df be 00 ec 6a be fa ae f1 3d
       -0.24818288 -0.4367873 -0.2294159 0.11800952
000280 c9 e3 95 3e 7d 8f 24 3e d6 10 96 be cf 48 ec be
       0.2927535 0.16070361 -0.2930972 -0.461493
000290 66 43 bd be f6 8c 0b be 83 7d a8 bd ba 86 6f bc
       -0.36965483 -0.13627991 -0.082270645 -0.014619524
0002a0 38 be 11 bc 55 81 85 be 22 71 a4 bd 4f e2 1b 3e
       -0.008895449 -0.26075235 -0.08029391 0.15223049
0002b0 75 87 63 bd f1 2d b6 bc c6 d3 91 bd 88 24 cc bd
       -0.055549104 -0.022238703 -0.07120471 -0.09967905
0002c0 c4 76 5a bd 0e d6 70 3d 30 0c 65 3d 14 fc 5c bd
       -0.05333592 0.05879789 0.055919826 -0.053951338
0002d0 a3 8d a6 bd c2 26 f9 3d e3 29 df bc 81 35 b6 3d
       -0.08132484 0.121655956 -0.027241653 0.08896924
0002e0 42 05 9a 3e 2b 42 9b bd 56 59 f4 bc 97 ae 29 3e
       0.30082136 -0.0758098 -0.029827755 0.16570507
0002f0 8f 9d 85 3d 2d 90 af bd ca 82 fe bd c8 16 a4 bb
       0.065241925 -0.08572421 -0.1242729 -0.0050075985

bias f4 [8]
000000 43 52 63 3e 46 22 85 be 38 6d a6 3d d4 28 60 3c
       0.22199349 -0.2600271 0.081263006 0.013681609
000010 f3 2e 0c be 2e 76 04 bd 56 ba 40 bc be b4 f1 bd
       -0.13689785 -0.032339267 -0.011763176 -0.11802052

weight f4 [8, 8, 3]
000000 14 68 5b 3d 6c 76 07 be 92 47 d5 bd 0c 53 61 3e
       0.053566054 -0.13228768 -0.104140416 0.22004336
000010 1d ef 82 3e 48 54 31 3c ba ed 09 be a9 a7 46 bd
       0.25573054 0.010823317 -0.13469592 -0.048499737
000020 4d e6 7c 3e cb 78 23 3e 51 14 d7 3d a1 98 69 3d
       0.24697228 0.15964048 0.10501922 0.057030324
000030 86 c2 d1 bc f5 b9 20 3e d2 db 48 3e 08 c6 e5 3d
       -0.025605451 0.15695937 0.19615105 0.11219412
000040 5a ec 1b bd aa f6 0b 3e a3 53 9b be 42 b3 c1 3d
       -0.0380672 0.13668314 -0.30337247 0.09458019
000050 14 35 fa bd e0 9d 52 bd 82 7b 8e 3e cc 84 35 3d
       -0.12217155 -0.051420093 0.27828604 0.044316098
000060 99 e0 3b 3e 3c 2e 7e bd 38 e0 46 be 9a e8 23 be
       0.18347396 -0.06205581 -0.1942147 -0.16006699
000070 2e a6 20 3e 76 1d 8d bd 06 1b 89 bd e5 25 db bd
       0.15688393 -0.06890385 -0.066946074 -0.10700587
000080 50 bf ef bd 70 23 1b bd d8 6b fc bd 0e c3 40 3e
       -0.11706412 -0.037875593 -0.12325257 0.18824407
000090 ac ad 07 3e d3 05 c1 3d 27 58 18 be ce 45 df 3d
       0.13249844 0.09424939 -0.14877377 0.10901986
0000a0 25 d8 9a bd e1 10 b3 3c 35 e8 b3 3d 63 c5 d8 bc
       -0.075607575 0.021858634 0.08784524 -0.026461309
0000b0 fd b0 e2 bd 8a 40 1c bd 85 5c 12 be ac 64 39 be
       -0.11068914 -0.038147487 -0.14293106 -0.1810481
0000c0 1e ef 3d be ec dc 37 3e 13 9e ce ba e1 e3 94 bb
       -0.18548247 0.17955369 -0.0015763663 -0.004543767
0000d0 92 12 7c be 6e db 31 3e 4d d2 ee 3d 08 78 02 3d
       -0.24616459 0.17368862 0.116612054 0.031852752
0000e0 0e 8d d9 bd 27 76 51 be d4 3d ca bd 9d e4 db be
       -0.10622607 -0.20455228 -0.09875074 -0.42947856
0000f0 09 aa f5 3c 32 71 40 3e e9 45 d0 3d 9b e2 a4 3e
       0.029988306 0.1879318 0.10169584 0.32204136
000100 3a 38 93 3e 93 bc 2e bd 1b e3 e1 3c e4 30 bd be
       0.28753835 -0.042660307 0.027574113 -0.36951363
000110 54 93 81 be d6 cf e3 3c e8 a7 8d be d1 2d ef 3d
       -0.25307715 0.027809065 -0.27667165 0.11678661
000120 29 0a 0c 3e a5 3d 94 3e 50 fd 67 3e 50 a7 02 3e
       0.13675751 0.2895328 0.22655225 0.12759137
000130 18 38 91 bd de c1 c0 bd cf aa 93 be 97 a0 99 bd
       -0.07090777 -0.09411977 -0.28841254 -0.07501333
000140 fa 18 8f be ec 4e 19 3e f4 87 82 3e 13 50 be bd
       -0.27948743 0.14971513 0.2549435 -0.09292617
000150 16 8f 13 be c1 12 ec bd 8b 91 89 be f5 f3 81 bc
       -0.14410052 -0.115270145 -0.26868853 -0.015863398
000160 02 d7 29 3e 83 98 5c 3c 6c 63 ce 3d f9 0e f4 3d
       0.16585925 0.013464096 0.10077557 0.11916918
000170 e5 dd d5 bd 98 df c8 bb bf 33 1f be 96 54 5b 3d
       -0.10442714 -0.00613017 -0.15547083 0.053547464
000180 c7 be 42 be 44 40 ae bd ea d0 04 be af 67 f6 3d
       -0.19018088 -0.085083514 -0.1297032 0.12031495
000190 f3 04 27 3e 25 42 fa 3d b6 ab 27 3e dd e6 eb 3c
       0.16310482 0.12219647 0.16374096 0.028796608
0001a0 33 b1 b3 3d 17 61 d5 bd 71 37 34 3b 18 c0 8f be
       0.087740324 -0.10418909 0.0027498866 -0.28076243
0001b0 e3 46 1a bd 8a f1 88 3e 90 a0 1a 3e 89 52 46 3d
       -0.03766526 0.2674678 0.15100312 0.048418555
0001c0 61 9e 30 3d 00 10 3f 3e 12 e8 de be 2f 32 6f be
       0.043119792 0.18658447 -0.4353643 -0.23358987
0001d0 9c 03 89 bc 3a 12 35 ba b2 43 02 bd ee 31 bb bd
       -0.016725354 -0.0006907318 -0.03180284 -0.09140383
0001e0 e8 0c c7 bd 51 38 0a be 2e ab 01 3e de 96 56 3e
       -0.097192585 -0.13498046 0.12662956 0.20955989
0001f0 e6 2a 8b be 59 43 c7 bd 5f 54 2a 3e d6 e4 c0 3d
       -0.27181166 -0.097296424 0.16633748 0.09418647
000200 74 49 24 be 4c 27 e1 3e 36 67 4a 3e c8 e8 02 3d
       -0.16043645 0.43975294 0.19765934 0.03196028
000210 be 82 c3 3d e5 3e f0 bd ad 6d 85 bd f0 2a 07 3d
       0.095464215 -0.11730746 -0.065150596 0.032999933
000220 bb 65 85 bc fe 53 9e 3c c5 3b b1 bd 96 f1 19 3d
       -0.01628386 0.01932716 -0.08653978 0.03758391
000230 6d 38 51 3d 10 2a b8 3d 2e 09 25 3e 35 6c 22 3d
       0.051079202 0.08992398 0.16116783 0.039653976
000240 da ad 10 3e d3 4d e8 bd 10 b5 31 be a6 08 33 bd
       0.14128819 -0.11342969 -0.17354226 -0.04370942
000250 12 d8 57 be 6d 0b 07 bd 9b a0 11 3d 05 ff 6a bc
       -0.21078518 -0.03296988 0.035553556 -0.014343028
000260 6d 31 de 3d 25 3f 4b bd 3f c0 40 be a8 4a 0c 3e
       0.10849271 -0.049620766 -0.18823336 0.13700354
000270 e8 bf ce bc 4e f7 1e 3d 2a a4 61 bd 5d 52 5f 3d
       -0.025237992 0.038810067 -0.0550882 0.054521907
000280 f9 2d 7b bd 4d 69 9e bd a5 29 01 3d 78 cb 2c bb
       -0.06132314 -0.07734928 0.031533856 -0.0026366394
000290 07 a4 d9 3d 91 41 95 3c 34 95 4e be bc 7c 8b bd
       0.10626989 0.018219741 -0.20174104 -0.068109006
0002a0 22 29 cb bd e8 8e 4e be 71 7a f6 bd b3 98 02 bd
       -0.09919955 -0.20171702 -0.120350726 -0.031883907
0002b0 53 37 98 3d 15 27 92 bc 63 e3 5c 3e 05 12 81 3e
       0.07432427 -0.017840901 0.21571116 0.2520906
0002c0 5e 53 95 3d ba cf 7b 3e 0c 33 c7 bd d5 63 95 bc
       0.07291292 0.2459096 -0.09726533 -0.01823608
0002d0 28 64 00 3e aa b2 d1 bd 0d f2 f9 bd cd 34 b8 bc
       0.12538207 -0.102391556 -0.12204371 -0.022486115
0002e0 4f fe 2c 3b 4f 04 99 3e 1b 12 ac 3e ee d5 95 3e
       0.0026396697 0.298861 0.33607563 0.29264778
0002f0 ef 2b 20 3e e2 3c 4c 3c be fc 8d 3c 36 c8 54 3d
       0.1564176 0.0124656875 0.01733243 0.05194875

bias f4 [8]
000000 23 ca a7 bd dd 56 0e 3d 18 c1 8f 3e b3 be e5 3d
       -0.081928514 0.034750808 0.28077006 0.112180136
000010 7d 2a 71 3d 55 ee ef bc fe aa 89 bd e0 d0 1e be
       0.05887841 -0.02928845 -0.06722067 -0.15509367

weight f4 [8, 8, 3]
000000 e2 a4 a0 3d b9 3f f2 3d 09 b5 50 3e 41 5c c8 3d
       0.07843949 0.118285604 0.2038156 0.09783221
000010 fd 2b 11 3e f9 83 df bd 05 0a 09 3e 6b ac 3b 3e
       0.14176936 -0.10913844 0.13382728 0.18327491
000020 50 15 3b 3e 24 a5 d5 3d 68 11 8d be 6b a5 43 be
       0.18269849 0.10431889 -0.27552342 -0.1910607
000030 8c 3d b3 3d df 36 94 3e 08 6e c9 3d 12 6a 80 3d
       0.087519735 0.28948113 0.0983544 0.06270231
000040 2a bd d4 3d e9 7e 1d be 94 2f 73 3a 15 77 40 3e
       0.10387643 -0.15380444 0.0009276804 0.18795426
000050 2b 31 2b be 7b 7e e6 bd f5 66 dd bd 05 17 51 3e
       -0.16717975 -0.11254593 -0.10810653 0.20418938
000060 ff 0c b5 3d a7 0b a5 3d 59 04 e6 bd 93 be 18 3e
       0.088403694 0.08058863 -0.11231298 0.14916448
000070 01 4c 41 be 7f 3c 0a 3d de 7d 6c be c4 66 52 3c
       -0.1887665 0.0337491 -0.2309489 0.012841884
000080 e3 1d b6 3b 80 8a 79 3d 1d ed 0e be 5e e1 00 bd
       0.005557762 0.0609231 -0.13957639 -0.031464927
000090 76 0a 9e 3c 06 cd 94 bd d0 a6 49 3e fa 19 17 3d
       0.019292098 -0.072656676 0.1969254 0.036890008
0000a0 2a 86 07 be 11 c4 30 3d eb 83 45 3e ed 0d 10 be
       -0.13234773 0.043155733 0.19288604 -0.14067812
0000b0 2a a0 12 be 8d e0 25 be 0b 83 06 3e a2 bc b9 3d
       -0.1431891 -0.1619894 0.13135926 0.09069182
0000c0 29 0c 68 3d 23 23 ea 3d 9c 56 23 3e 20 69 4f 3c
       0.05665222 0.11432483 0.15951008 0.012659341
0000d0 11 08 27 3e dd 21 f0 3d 9b 19 a4 be b4 86 c6 bd
       0.16311671 0.11725209 -0.32050785 -0.09693661
0000e0 57 37 c6 be ee 04 00 be b7 9f 2e 3e 2f aa 46 3e
       -0.38714096 -0.1250188 0.17053114 0.19400857
0000f0 f7 01 89 3c e1 91 2f 3e cf 39 a4 3d 57 a7 09 3d
       0.01672457 0.17145492 0.080188386 0.033606853
000100 03 c3 7a 3e 9b 4a 59 bd 8b 60 24 be 55 22 a5 bd
       0.24488454 -0.053049665 -0.16052453 -0.08063189
000110 fe d2 66 3e 0f 9f fd bb c5 5f 46 3e 2f f7 c0 3e
       0.22541425 -0.0077399085 0.1937247 0.37688586
000120 15 d3 64 be 4d d8 ac 3d a9 c2 a5 bd 9b 6c b8 3d
       -0.22346146 0.084396936 -0.08093769 0.0900509
000130 63 dc 0d bc cc 38 ef bc 71 35 db 3d c1 a1 51 3b
       -0.008658501 -0.029201888 0.107035525 0.0031987282
000140 55 45 d8 bb b1 de 9e bd dc 73 b1 be 2c f1 85 be
       -0.006600062 -0.07757319 -0.34658706 -0.26160562
000150 ea 77 0d 3e 48 c9 34 3e 88 a7 3c 3d e0 24 f5 3d
       0.13815275 0.17654908 0.046058208 0.11969924
000160 f0 91 d7 bd 2d ba 96 be 30 6a 31 3e c8 9e 46 be
       -0.10525882 -0.29438916 0.17325664 -0.19396508
000170 6a 45 d9 bd 3e 7c c2 3c fc 21 dc bd 60 62 3e 3d
       -0.10608943 0.023740884 -0.107486695 0.046480536
000180 da e3 a9 be 1b 42 48 be a4 fc 2d be 7d 5d e5 3d
       -0.3318165 -0.19556467 -0.16990906 0.11199472
000190 dc 56 73 3e d9 7e 69 3d 88 cb cc 3e 5e 6b ce 3d
       0.23763603 0.057005737 0.39999032 0.100790724
0001a0 71 e4 26 3d c7 51 f8 3d 8b 4e 0b 3d af 6b cb 3b
       0.040745202 0.12124973 0.03401045 0.0062079052
0001b0 ab 80 35 bd 92 ef 7f be 76 bf 57 be 69 40 03 3d
       -0.04431216 -0.24993733 -0.2106913 0.03204385
0001c0 96 37 f3 be 7c ba ae be d8 97 03 3e ab fc 32 bb
       -0.47503346 -0.3412665 0.12850893 -0.0027311246
0001d0 45 f2 e4 bd 40 f5 8a be 39 d3 75 be be 67 6d be
       -0.11179022 -0.27140236 -0.24006356 -0.23184106
0001e0 c8 33 18 be a5 8e c4 3d 60 9e 83 bd a5 47 06 3e
       -0.14863503 0.0959752 -0.06426692 0.13113268
0001f0 aa fc 36 3e 96 31 fe bc e5 d7 3a be 75 68 b8 bd
       0.17869821 -0.031029504 -0.1824642 -0.090042986
000200 1a 91 2d bd 6a 31 03 3d 19 ee 18 3e 4e 47 2c be
       -0.042374708 0.032029547 0.14934577 -0.16824076
000210 da e9 90 3d 22 50 36 be 13 31 0d be dd 93 12 3e
       0.07075854 -0.17804006 -0.13788252 0.14314218
000220 d2 5a 1b be 96 ec fd 3d 51 5c 1f be fa 18 25 bd
       -0.15171364 0.12398641 -0.1556256 -0.040307023
000230 b4 48 41 3b 2d a8 3e 3d 6f 88 6e 3e 0f 45 30 3e
       0.0029492797 0.046547104 0.23294233 0.17213844
000240 eb fa bd 3e d1 7f 3b 3e ef db 43 3d 5e 61 2c 3e
       0.37105498 0.18310477 0.047817167 0.16834018
000250 48 df 67 bd ed 71 2f be 85 06 0e be 2a f2 c1 bd
       -0.056609422 -0.17133303 -0.13869675 -0.09470017
000260 24 c3 a7 bc ba e9 f6 bc 47 94 5b 3e 21 8d 84 3e
       -0.020478792 -0.030140746 0.21443282 0.25888923
000270 d8 ab 68 be 4a fa 81 be 46 1f 0c be dd 6e 37 bd
       -0.22721803 -0.25386268 -0.13683805 -0.04478346
000280 3f 94 3c 3d 01 da 8f 3d 38 ba ab 3b d2 8b 1e be
       0.046039816 0.07024003 0.005240705 -0.15483025
000290 4b 5e 15 be 89 ba e1 bd d6 55 ac be 89 cf 80 be
       -0.14586751 -0.11021907 -0.33659238 -0.25158337
0002a0 b1 37 61 bd cc a5 01 be ac 78 09 bd 44 1b 32 bd
       -0.054984752 -0.12660903 -0.033562347 -0.043483034
0002b0 c3 22 29 be 62 44 c8 3d 8c 5c 9b bd 8a f0 69 bd
       -0.16517167 0.09778668 -0.07586011 -0.05711416
0002c0 9c 2d b7 bb 3c c6 2d be 8a 49 29 be 8e 3c 4e 3d
       -0.005590154 -0.16970152 -0.16531959 0.05035072
0002d0 b9 dd c7 3d 79 1a 63 bc e0 b4 fe 3d fd 23 43 3e
       0.09759087 -0.013861292 0.12436843 0.19056697
0002e0 7a c3 11 3e d1 aa 18 be b8 e3 e1 3d 0b 69 6d 3d
       0.14234725 -0.14908911 0.11029762 0.057961505
0002f0 f2 5c ea 3d 7a c0 36 be 59 24 b3 bc fd 18 39 be
       0.11443509 -0.17846861 -0.021867918 -0.18075939

bias f4 [8]
000000 e7 ae 55 be 1c 09 06 bd 85 bb 48 be 2f 7c ae 3e
       -0.20867501 -0.03272353 -0.19602783 0.3407912
000010 23 61 40 3e 89 fe a1 bd dd 14 2f 3e fb 06 0e 3c
       0.18787055 -0.07909877 0.17097802 0.008668656

weight f4 [8, 8, 3]
000000 bf 7d 78 be 7a 13 14 bb 58 f8 75 be ec a2 14 be
       -0.24266718 -0.0022594617 -0.24020517 -0.14515275
000010 3a ee 3f be f0 e6 41 bd e5 22 cc bc 23 a4 2e be
       -0.1874322 -0.04733938 -0.024918983 -0.170548
000020 88 3b 3f bc 48 38 a3 3c 66 43 8e 3e 2e de 84 3e
       -0.011671908 0.019924298 0.27785796 0.2595076
000030 ca e2 19 be 30 b2 d2 3c d4 d5 89 3e 28 25 c9 bd
       -0.1502792 0.025719732 0.2692095 -0.0982154
000040 6b b1 99 bd a1 83 0e 3e 3a f3 8f be d2 39 89 bd
       -0.07504543 0.139174 -0.28115255 -0.067004815
000050 70 b2 8c b9 2c 15 c0 bd 74 bf 26 3e 52 71 b4 bd
       -0.00026835827 -0.09379038 0.16283971 -0.08810677
000060 e4 b8 cb 3d bc f1 db 3c fb 2f 21 be 03 61 8d 3d
       0.099473745 0.026848666 -0.1574096 0.06903269
000070 c8 9e 24 3e cb 69 24 3e 88 40 e8 3e 38 cf 81 3e
       0.16076195 0.16055982 0.45361733 0.25353408
000080 ac 2a b4 3e 15 b2 94 be c8 b8 63 be 7a 91 c3 be
       0.35188806 -0.29042116 -0.22238457 -0.38196927
000090 ce a8 9e bc 2c 15 d1 bc 7a 13 4b 3d 86 23 08 be
       -0.019367602 -0.02552279 0.04957912 -0.13294801
0000a0 09 b7 13 be 08 f8 12 be 17 a1 81 be ad 70 5b be
       -0.14425291 -0.14352429 -0.25318214 -0.21429701
0000b0 9b e0 78 bc e9 c9 c9 bd db cd c8 3b 5e 70 0d 3d
       -0.015190269 -0.098529644 0.0061280555 0.03453099
0000c0 f3 ad 25 3e a3 7d b8 bd 08 bb fc bc e6 06 2b 3e
       0.16179638 -0.09008338 -0.030850902 0.1670185
0000d0 49 95 27 3e 30 ec a8 3d a5 cf f0 3d 53 84 1e be
       0.16365542 0.08248174 0.11758355 -0.15480165
0000e0 eb ff e6 3c f8 73 64 3e 7d ca 93 3e 74 eb 2e bd
       0.028198203 0.22309864 0.28865424 -0.042705014
0000f0 9f 69 33 bd 73 99 35 be 03 b6 94 bd d9 0b 04 3c
       -0.0438019 -0.17734317 -0.072612785 0.008059465
000100 8a c7 1f 3e ff 9e 9b 3d f4 40 12 3e d6 4b 79 be
       0.15603462 0.075986855 0.1428259 -0.24345335
000110 aa 7b a0 3d 08 00 8b bc 39 46 b3 3d 3d b3 89 3d
       0.07836087 -0.016967788 0.08753628 0.0672364
000120 c7 cc c2 bd 97 1b 08 3e f5 a7 2f be 02 d7 34 bd
       -0.095117144 0.13291775 -0.17153914 -0.04415036
000130 21 eb 4c 3e c6 9d dd bd 7d ce 2c be 8b af 42 3d
       0.2001157 -0.108211085 -0.16875644 0.047530692
000140 a0 1d fd 3c 8d 7a 13 be 9e 69 37 3d d3 05 77 bd
       0.030897915 -0.14402218 0.04477846 -0.06030829
000150 3e 75 97 bd 9b 28 3f be ff d2 6a bd ca 30 52 bd
       -0.07395409 -0.18667834 -0.057330128 -0.05131606
000160 45 dd b9 3d 2b b4 57 bc e4 69 29 be 3e 89 38 be
       0.09075407 -0.013165514 -0.165443 -0.18021104
000170 45 b9 e4 3b b8 3a 99 3c 2e 64 1d 3e 8f 18 45 3d
       0.0069800937 0.018704757 0.15370247 0.048119124
000180 7c 05 d1 3c 73 16 27 3e e2 28 e7 bd 57 33 9f 3d
       0.02551531 0.16317157 -0.11287095 0.07773464
000190 78 3c f7 bd 6e 03 05 be a7 16 26 be 00 3c b6 bc
       -0.120720804 -0.1298959 -0.16219579 -0.022245407
0001a0 9e 02 18 be b3 c1 a5 bc 37 56 2c be 5b a1 1f 3e
       -0.14844748 -0.020233965 -0.16829763 0.15588896
0001b0 ea 58 fe bd d8 3b 06 3e f4 a5 a1 bd e0 b0 5f 3d
       -0.12419303 0.13108766 -0.07892981 0.05461204
0001c0 3c 78 2f 3e ac ee 50 3e 58 12 86 bd 2c b4 76 bd
       0.1713571 0.20403546 -0.065464675 -0.06023042
0001d0 9c 39 09 3e ce 4b 3f 3e dc 08 34 be 44 23 46 3e
       0.13400882 0.18681261 -0.17581505 0.1934939
0001e0 8a 7b 96 3d da c3 09 3d 62 ad 06 3e 06 29 61 bc
       0.07347782 0.033634044 0.13152078 -0.013742691
0001f0 11 c9 c0 bd ef aa 53 3d 48 2e 07 3c f5 1e ab 3d
       -0.094133504 0.051676687 0.00825078 0.08355514
000200 50 25 a1 3c b9 44 05 3e bf c1 20 3e 58 0c 46 3b
       0.019671112 0.13014497 0.15698908 0.003021976
000210 96 d9 c2 bd c2 4c 6f 3e d1 c0 e4 3d 89 c1 07 3e
       -0.095141575 0.23369125 0.11169589 0.13257422
000220 2b 82 6a 3c 40 16 3d 3e dd 17 c5 bb ec f2 94 be
       0.014313261 0.18465519 -0.0060148076 -0.29091585
000230 47 fd f1 3d 34 04 20 3d 01 59 e1 3c ca 08 2b be
       0.11815887 0.03906651 0.02750826 -0.16702572
000240 e1 0e ea 3c 4c a1 dd 3d c9 b5 24 3e 29 39 dc bd
       0.028571548 0.108217806 0.1608497 -0.1075309
000250 d3 a8 cf 3d 50 d6 6f 3d 53 fa 95 3d 91 57 e2 3d
       0.101396225 0.058553994 0.07323136 0.11051858
000260 87 18 4c 3d 99 e9 5a 3e b3 b1 6e 3d 29 98 ce bd
       0.04982808 0.21378173 0.058274936 -0.10087616
000270 61 eb 47 be 5e 9d 0b 3e 4b 74 d5 3d 40 7f b2 bb
       -0.19523384 0.1363425 0.10422572 -0.0054472983
000280 71 22 40 3d 7b 8e 09 3e 4c d6 6a 3d ba e7 22 be
       0.046907846 0.13433258 0.057333276 -0.15908709
000290 3b b7 32 3e ff ba 05 3e 2f 4c 4d be ce ac 27 be
       0.1745271 0.13059615 -0.20048593 -0.16374514
0002a0 a9 e3 41 3d ba 29 20 bb ef a6 f8 bd 96 ec d7 bd
       0.047336254 -0.0024438933 -0.12141215 -0.10543172
0002b0 4e c9 81 3d 05 03 19 3d 9e 78 30 3e 0c f6 27 be
       0.06337224 0.037356395 0.17233512 -0.16402453
0002c0 54 ac 54 be 64 50 49 3d c1 80 35 3d 67 f6 23 3e
       -0.20768863 0.049148932 0.044312242 0.16011964
0002d0 db 8f f3 bd 3f 2e 09 be c0 8b cf bd 76 e9 eb 3d
       -0.11892673 -0.13396548 -0.10134077 0.115191385
0002e0 49 f7 06 3e 32 e5 9b 3c 32 44 92 bd 8b 6b 36 be
       0.1318027 0.019030187 -0.071419135 -0.17814462
0002f0 e0 82 6a 3d 00 c5 1c bc aa f1 21 3e 43 a1 0a 3d
       0.05725372 -0.009568453 0.15814844 0.033845197

bias f4 [8]
000000 05 a0 18 bd 7e aa 21 3d 2e b3 c8 bd 3f e1 04 3e
       -0.03726198 0.039469235 -0.09799801 0.1297655
000010 49 d3 0d be 8d b3 ef 3c 5f 97 12 be 63 27 3b 3d
       -0.1385013 0.029260421 -0.14315556 0.04569186

weight f4 [8, 8, 3]
000000 f2 9e 3f be b6 a1 11 3e 9b 75 b9 bd 5a 4d 1d be
       -0.18712977 0.14221844 -0.090556346 -0.15361539
000010 4d c2 f6 bd aa 78 31 be ac b0 ef 3d a0 bd db 3d
       -0.12048779 -0.17331186 0.11703619 0.107295275
000020 2e 7c 3a be 88 98 04 3e 48 eb 63 3d 18 47 92 3c
       -0.18211433 0.12948811 0.055644304 0.017856166
000030 80 ab c0 3d 40 e6 2e bb c8 52 34 bd 60 aa 33 be
       0.09407711 -0.0026687533 -0.04402426 -0.17545462
000040 dc d1 ee 3d 6b be fc bd 2a 2c 16 be e8 66 46 bd
       0.11661121 -0.12341007 -0.14665285 -0.048437983
000050 38 3a 50 3d 7c d9 48 be e3 7a fe bd be 6a 0d 3e
       0.05083677 -0.19614214 -0.124257825 0.1381025
000060 90 21 ff bc 62 fd 35 3e 44 ef 0c 3e c9 4c 49 3d
       -0.031143934 0.17772439 0.13763148 0.049145494
000070 0c e1 17 3e 30 c4 66 bc bd af 3e be 8d 32 ec bd
       0.14831942 -0.014084861 -0.18621726 -0.11533079
000080 38 22 82 bd 04 e0 ea 3d d3 92 36 3e 42 bf 4e be
       -0.06354183 0.11468509 0.17829446 -0.20190147
000090 8c e0 8e 3d 60 8f 5c 3d 20 a2 9a bd ac b9 43 be
       0.06976423 0.05384767 -0.07550454 -0.19113797
0000a0 95 f6 dc 3d a3 78 36 be 57 03 1c 3e 00 ac 04 be
       0.10789219 -0.17819457 0.15235649 -0.12956238
0000b0 60 51 b9 bd fa 94 2c be 54 ac 01 be 03 7d 0d 3e
       -0.09048724 -0.16853705 -0.12663394 0.1381722
0000c0 f0 72 17 be 8b b4 21 be 31 dc a7 bd a1 82 94 3e
       -0.14789939 -0.15791528 -0.08196295 0.29005912
0000d0 b6 b7 9b 3e 4e 90 ee 3d fd e2 0f 3d 32 05 71 be
       0.30413598 0.11648618 0.035128582 -0.23537138
0000e0 75 dc 95 bd 35 b0 c4 3c cd 86 cc 3d 69 2d 80 3c
       -0.073174395 0.024009803 0.09986649 0.015646653
0000f0 ad 86 f5 bd 70 06 4c 3e dc 28 02 be 38 46 24 be
       -0.11988578 0.1992433 -0.12710899 -0.16042411
000100 14 3f 62 be b7 a9 5d be c2 8f ec bd 6e f6 3f 3e
       -0.22094375 -0.21646772 -0.11550857 0.18746349
000110 a7 95 a5 bd 37 d5 e1 bd 3d 55 c3 bd e3 2f df 3c
       -0.080851845 -0.11026996 -0.09537742 0.027244514
000120 9e 30 4d 3e d4 76 05 3e 4e ee f5 3d d8 e1 2f 3e
       0.20038077 0.1303361 0.12008344 0.17175996
000130 5a 69 42 be 9a c7 b4 bd 07 1d d5 bd c1 ca 91 bd
       -0.18985501 -0.088271335 -0.10405927 -0.0711875
000140 7e f0 26 be 8d 76 f9 3d 74 1c ef bd e6 d2 4a 3e
       -0.16302678 0.12180815 -0.11675349 0.19807014
000150 6c ff a2 3d f8 b8 21 be 00 7e 6d ba a7 8c c4 bc
       0.07958874 -0.15793216 -0.0009059608 -0.02399285
000160 38 4e 0a be 65 24 84 bd a4 c3 d9 3d 46 fa 0c 3e
       -0.135064 -0.06452254 0.106330186 0.13767347
000170 e4 17 e6 3d 5a 38 9c 3d e8 b0 a9 bd cd 03 8f 3b
       0.112350255 0.07627936 -0.08285695 0.0043644668
000180 20 7a 0d bd bf 9f a2 bd 21 40 23 be f3 bc d1 bd
       -0.034540296 -0.079406254 -0.15942432 -0.10241117
000190 10 38 37 3e a7 39 ad bc b7 11 36 be dc 39 3a be
       0.1789248 -0.021145655 -0.17780195 -0.18186134
0001a0 c1 13 21 be 5c 11 2d be 14 b7 e8 3d f6 e0 27 3e
       -0.15730192 -0.16901153 0.113630444 0.1639441
0001b0 48 ef 28 3e 92 5c 25 3e d4 15 28 3d a4 00 4c be
       0.16497529 0.16148594 0.041036442 -0.1992212
0001c0 1b b9 3f be a5 8b 73 3d a9 90 39 be 5e 30 4f be
       -0.18722956 0.059459347 -0.1812159 -0.20233294
0001d0 a8 bf 86 3d f6 b3 d6 bd 2c 46 0e 3e b0 09 d8 bd
       0.06579524 -0.104835436 0.13893956 -0.10548723
0001e0 95 36 00 be 27 81 1c be 95 b1 c5 bd 5d 0c 47 be
       -0.12520821 -0.15283643 -0.09653012 -0.1943831
0001f0 e4 5a 23 bd a9 85 3e bb af ef 34 3e 79 eb cd 3d
       -0.039881602 -0.0029071367 0.17669557 0.100546785
000200 a0 b9 4e 3d 23 60 47 be 20 a4 31 be 0f 4a d2 3d
       0.050469995 -0.19470267 -0.17347765 0.10268032
000210 46 b5 0e 3d ed 9d 05 be 48 ea 84 3d d8 4e b0 3d
       0.034840845 -0.13048525 0.06489998 0.08608788
000220 bc 1f bf 3d 2a 6e 4a be ec a5 44 3e 78 7f 07 be
       0.09332225 -0.19768587 0.19203919 -0.13232219
000230 21 a3 01 be 4c 96 be 3d a8 35 04 be 09 c2 01 be
       -0.12659885 0.093060106 -0.12911093 -0.12671675
000240 40 89 8d 3d 13 b3 0f 3e a5 c0 c8 3d 62 4d 7b bd
       0.06910944 0.14033155 0.09802369 -0.061353095
000250 23 6b ef 3d 0a 21 12 be be 69 10 be 01 fb ff bd
       0.116903566 -0.14270416 -0.14102837 -0.12499047
000260 14 a5 aa 3c 17 63 1c be 19 eb f4 3d 6f 6f 1a 3e
       0.020830669 -0.15272175 0.11958904 0.15081571
000270 ca 5f 0f be 8c 54 46 be 20 8f dd bd 2c 3a 4d be
       -0.14001384 -0.1936819 -0.108183146 -0.20041722
000280 92 b2 fb bc d5 07 c6 bd 92 87 c5 bc d5 be 3d 3e
       -0.030724797 -0.096694626 -0.024112497 0.18529828
000290 53 09 21 3e f6 fd a3 3d 7f 1c a4 3d fa ab 22 3e
       0.15726213 0.080074236 0.08013248 0.15885916
0002a0 5c fa f4 3a 37 1a c4 bd 08 7a d3 bd 66 4e f3 bd
       0.0018690336 -0.095753126 -0.1032601 -0.11880188
0002b0 00 a4 1a be 7f 33 b9 3d c3 b0 cf bd ab 0d 21 3e
       -0.15101624 0.09043025 -0.101411365 0.1572787
0002c0 e2 a4 bf bc 52 02 cd 3d 34 09 69 be 7e 66 2b 3c
       -0.023394052 0.10010208 -0.22757417 0.010461448
0002d0 53 35 25 be ea e2 b4 3d f2 d7 9c 3d 03 0c 4f 3d
       -0.16133623 0.08832343 0.07658376 0.050548565
0002e0 40 1a a9 bd 94 f0 9e 3d 81 0f 03 3e 7d 29 00 be
       -0.0825696 0.077607304 0.12798883 -0.12515827
0002f0 eb bd 11 be 78 bd 96 bd ab 3f f4 bd e0 de 82 bc
       -0.14232604 -0.07360357 -0.11926206 -0.015975416

bias f4 [8]
000000 8d d7 26 be 21 97 18 be 70 2e d9 3d 15 37 47 be
       -0.16293164 -0.14901401 0.106045604 -0.19454606
000010 58 9a 56 bd e2 83 18 be 72 92 2e bc 10 e5 e0 3d
       -0.052393287 -0.1489406 -0.0106550325 0.1098119

weight f4 [8, 24, 1]
000000 de 27 3e 3d fe e1 33 3e 30 64 84 bd df d5 2f bc
       0.04642474 0.17566678 -0.06464422 -0.010732143
000010 0d 55 48 be 1d f3 5b 3e 09 0f a5 be 45 66 46 bd
       -0.19563694 0.21479459 -0.32238033 -0.048437376
000020 77 ef 2d bd 1a 11 87 be 1d 48 24 3d 58 0d 71 3e
       -0.0424647 -0.26380235 0.040107835 0.23540246
000030 b8 c3 af 3d cf 38 33 bc 65 54 ec bd 39 2d b8 bb
       0.08582252 -0.010938837 -0.115395345 -0.0056206253
000040 aa 86 b0 bd 51 7c ed 3d be a7 0e 3e 26 e2 2b bd
       -0.08619435 0.11595977 0.13931176 -0.04196372
000050 32 fb 07 3d 16 7c 3b be cd 78 b7 3c 32 77 31 3d
       0.033198543 -0.18309054 0.02239647 0.043326564
000060 0e a6 d1 3e ff 3a 60 3d 15 2e db 3e a1 07 b1 3e
       0.40947002 0.054743763 0.42808595 0.34576133
000070 1c 72 c8 3d d0 b4 99 bc 29 80 b2 3e 3d 8f c9 bc
       0.0978739 -0.018762976 0.34863403 -0.024604434
000080 b4 3c 82 be 1a d4 0e bf f0 5e f1 3d ef ea d0 3d
       -0.25436938 -0.5579239 0.11785686 0.1020106
000090 5c a3 e0 bc 80 b6 84 3c 68 74 f8 bd 64 5b 31 3e
       -0.027421646 0.016200304 -0.12131578 0.17320019
0000a0 36 0c 3f be 94 54 02 3e 09 b0 83 be 9f 28 07 3c
       -0.18657002 0.12727576 -0.25720242 0.008249431
0000b0 b7 79 a4 3d 59 3a c6 3d bc 46 09 3e bd ee b5 3d
       0.08031028 0.09679098 0.1340589 0.08883426
0000c0 4d a6 c1 3c 6c 37 d7 3d 9d 6d 4a bd c6 0e e1 3d
       0.023638869 0.10508618 -0.04942094 0.10989146
0000d0 d1 be e8 3c 76 ff 03 3e ee 44 73 3d 4b 38 f8 3d
       0.0284113 0.1289042 0.05939191 0.12120112
0000e0 d6 0e 15 bd ea 47 9d 3d f8 43 2c 3c 1e cc 1b 3e
       -0.0363911 0.07679732 0.010514252 0.15214583
0000f0 2e 91 42 3e 41 0b c6 bd 24 d9 92 bd c1 60 0d be
       0.19000694 -0.09670115 -0.071703225 -0.1380644
000100 50 eb 43 3d ee bd 08 be 1d b7 9e bd eb 04 63 3d
       0.047831833 -0.13353702 -0.0774977 0.055424612
000110 80 96 26 bc cb 50 78 3d de 45 e0 bd ae f5 61 bd
       -0.010167718 0.060623925 -0.10950826 -0.05516594
000120 66 6d 41 3d d3 05 48 3d 46 c1 b6 bb 2d 55 11 bd
       0.04722347 0.04883368 -0.005577239 -0.03548162
000130 8a d4 9a 3c 30 1f f2 3d 80 63 10 bd 2f 36 3b 3e
       0.018900175 0.11822355 -0.03525114 0.18282388
000140 f6 20 1b 3c d5 43 a6 bd 6b d4 86 bd e3 dc 02 be
       0.009468308 -0.08118407 -0.06583484 -0.12779574
000150 06 f0 96 3d 56 9f 63 bd 77 b9 e7 bc 25 74 83 3d
       0.073699996 -0.055571876 -0.028286679 0.06418637
000160 82 b1 48 3e 8d d2 16 3e 4c 32 1d 3d ad c0 f6 3d
       0.19598964 0.14728756 0.038378045 0.12048469
000170 00 8f 47 3d b1 d1 1d bd 11 21 81 bd 62 fa 34 bd
       0.04872036 -0.038530055 -0.06305135 -0.044184096
000180 bf 7d 8f 3c 01 ea 99 bd e8 e7 44 3d db 96 3c 3d
       0.017516015 -0.07515336 0.048072726 0.046042304
000190 3e 3d 4c 3d 88 43 c2 bc 04 0a 87 3d 55 04 f7 3c
       0.049863093 -0.023713842 0.06593707 0.030153433
0001a0 b6 3d ec 3b ac 73 bd ba 75 26 d5 3c 3e f3 de 3d
       0.007209505 -0.0014454029 0.026019314 0.108862385
0001b0 59 96 be 3d 14 10 bc bd be 00 62 3d 83 12 f9 bb
       0.0930602 -0.09182754 0.05517649 -0.0076010837
0001c0 5c ae f0 3d 63 71 05 bd 23 f2 87 bd d3 40 48 3e
       0.117520064 -0.032578837 -0.06637981 0.19555978
0001d0 f7 d5 39 3e 6f 41 61 3d 1c d9 c4 bd 1c 16 8c bd
       0.18148027 0.054994043 -0.09611723 -0.068401545
0001e0 7c c3 70 3e cc e1 83 bc 5f 33 44 bd ad 23 ed be
       0.23512071 -0.01609888 -0.047900554 -0.4631628
0001f0 80 43 58 bf 7f 0d 8f 3d cc 87 63 3e 19 f5 17 3d
       -0.84477997 0.06984996 0.22219771 0.037098978
000200 36 6e 93 be 54 f3 4b 3d 8f 4f ca 3d b6 21 d3 3d
       -0.28795022 0.049792603 0.09878456 0.10309164
000210 91 8e c0 3d 70 20 ae be 77 75 42 3e 0e 8d 27 3d
       0.094021924 -0.34009123 0.18990122 0.040906005
000220 e4 66 55 bd cb 27 17 be 38 27 9c 3e dd 55 0d 3d
       -0.052100077 -0.14761274 0.30498672 0.034505714
000230 d8 fb 9d bd c4 73 29 3e 8a ab 14 be 57 8f a9 3d
       -0.07714051 0.16548067 -0.14518562 0.08279293
000240 7d 1e f1 bd 72 7b c7 bc 45 f5 61 be ee 92 95 3e
       -0.11773393 -0.024350855 -0.22066219 0.2921366
000250 f8 c0 b1 ba 49 dc 1f be 7b 0c 08 3e f5 ad 35 3d
       -0.0013561537 -0.15611376 0.13286011 0.04435535
000260 cb c7 98 3e a5 85 ac bd 90 27 bb bd 62 0b c7 3c
       0.2983993 -0.08423928 -0.09138405 0.02429742
000270 63 e1 25 bc 70 71 7a bd ac da df bc c8 55 a0 bd
       -0.010124537 -0.06114334 -0.02732595 -0.078288615
000280 02 07 2a be f3 45 4f bd 0a dd a0 3e 5e c4 1f 3e
       -0.16604236 -0.05060382 0.3141864 0.15602252
000290 5f ab 72 3d 9d de 87 3b 9a c6 3f bd 20 7e 69 3e
       0.059245463 0.0041464106 -0.04682026 0.22802019
0002a0 38 8f fb bc 90 46 d9 bd 50 55 6f 3d 15 c8 a5 bc
       -0.03070794 -0.10609162 0.05843097 -0.020237008
0002b0 46 bd 1a 3d 22 7d 11 be 0e 1a a3 3c c2 1e f9 3b
       0.03777816 -0.1420789 0.019909885 0.0076025436
0002c0 03 21 83 bc 49 d8 5e bd 04 88 9a 3d 74 7c 55 bd
       -0.016006952 -0.054405484 0.07545474 -0.05212064
0002d0 d1 31 0d 3e c9 b4 94 3c 6e 82 ad 3d c4 c6 27 bd
       0.13788535 0.018152611 0.08472143 -0.040961042
0002e0 16 18 37 be 58 c0 3c be 26 1e a0 bc 6a bb 32 be
       -0.17880282 -0.18432748 -0.019545626 -0.17454305
0002f0 f3 7a 33 be ca bd 03 be d8 ce 1c 3d 84 9d 0f be
       -0.1752737 -0.12865368 0.0382832 -0.14024931

bias f4 [8]
000000 12 93 34 3d 10 af 67 3e d1 ea 2c bc 00 ad 87 3c
       0.04408557 0.22625375 -0.0105540315 0.016561985
000010 7a ba 12 bc 89 bc 5b 3f 36 8b 4e 3f b7 4e bb 3d
       -0.008955592 0.85834557 0.8068117 0.09145873
