Final_Masterarbeit/Masterarbeit/CNN_window_size_20_StandardScaler.pt (torch, 10191 bytes, 12 tensors)

weight f4 [8, 8, 3]
000000 d1 43 bf bd 46 c8 cb be 3a 6b c7 be 0b f8 af 3c
       -0.09339107 -0.39801234 -0.38948995 0.02148058
000010 14 05 08 3f 50 45 f1 3e 6a 87 4c bd 39 5f d0 bd
       0.5313275 0.47123194 -0.04993383 -0.10174412
000020 7f b9 0b be 45 02 9f 3c 41 ba 9d be a6 75 6b bc
       -0.1364498 0.019410262 -0.30806163 -0.014371311
000030 c2 a0 f2 3d 0f 7a 15 be 6d ea 13 bf 80 b3 98 be
       0.11847068 -0.14597343 -0.5777958 -0.29824448
000040 b2 20 10 bd b5 36 b6 3e 75 45 7f 3e b5 23 88 3e
       -0.03518743 0.35588613 0.2492884 0.26589742
000050 78 d9 50 bf 5a 16 8e 3e 75 ae ac 3e 7d 21 b4 3f
       -0.8158183 0.27751428 0.3372685 1.407272
000060 e6 20 d3 be 6a 03 8b be 56 62 ca 3d d9 76 6b bd
       -0.41236037 -0.27151042 0.09882037 -0.05748639
000070 47 04 97 3e 25 28 9b be c0 26 78 be 44 32 70 be
       0.2949545 -0.30304065 -0.24233532 -0.23456675
000080 9d 4f 74 3e 3d 5f c0 be f0 08 11 be a5 73 7f bd
       0.23858495 -0.3757266 -0.14163566 -0.062366147
000090 1a 96 86 be b6 bc 98 be f2 48 05 be b0 1c 8e 3e
       -0.26286393 -0.29831475 -0.13016108 0.27756262
0000a0 2e 74 bc 3e 3a 65 26 bf 04 94 cc be 4d 30 2e be
       0.36807388 -0.6499821 -0.39956677 -0.17010613
0000b0 d0 a7 92 3e 95 fd 41 3f e6 8b 3d 3f 84 62 37 3f
       0.28643656 0.7577756 0.74041593 0.716347
0000c0 81 62 da bd 54 57 a1 bd 89 1f 63 be 95 e5 24 be
       -0.106633194 -0.07877985 -0.22179998 -0.16103204
0000d0 ea d6 09 be 66 50 10 be 8c 39 fe 3c 18 4d 86 be
       -0.1346089 -0.1409317 0.0310333 -0.26230693
0000e0 39 71 d5 be 45 25 38 be 84 e6 44 bc 31 4a cc be
       -0.41687945 -0.17982967 -0.01201785 -0.39900354
0000f0 c5 7c 64 be b6 c1 3e bd 0c 94 63 be d8 d6 f8 be
       -0.22313221 -0.046571456 -0.22224444 -0.48601413
000100 46 e9 2c 3d 65 6b 92 3e 96 cb fc 3d 08 25 5a 3e
       0.042214654 0.2859756 0.123435184 0.21303189
000110 89 c4 05 3d 87 8a ef 3e fd 6d 34 3f 94 0b 48 3f
       0.032658134 0.46785375 0.7048033 0.78142667
000120 c4 d9 67 be 79 ad c6 bc d6 93 4b bd fc 2f 63 3d
       -0.22641665 -0.02425264 -0.049701534 0.055465683
000130 6b c9 ed 3e 95 e3 06 3f 82 1f eb bd fc 88 23 3d
       0.46442732 0.5269101 -0.11480619 0.03992556
000140 a9 fa c3 bd 6d e9 f5 bb c8 dc e4 3d 6d 3b 3f be
       -0.09569294 -0.007504633 0.11174923 -0.18675013
000150 f5 35 ab 3d 7f 52 0e 3e aa f4 4e 3f 4f 2a e8 3c
       0.08359901 0.13898657 0.8084208 0.028340487
000160 4e 58 db 3d 64 ca fa 3d 37 4d ad be b1 0b 41 bf
       0.10710202 0.12245634 -0.33847973 -0.75408465
000170 f4 c5 2a bf f0 e6 16 3d af 76 f2 bd 7d 60 0c bc
       -0.667083 0.036841333 -0.11839043 -0.0085679265
000180 5a 86 56 3d 86 8e bf 3d 82 2c 36 3e b8 09 d2 3c
       0.05237422 0.09353356 0.17790416 0.0256394
000190 59 6d da be 4d 15 83 be 8d ad c4 3c 28 70 31 3e
       -0.4266155 -0.2560219 0.024008537 0.1732794
0001a0 aa af 50 3e 15 08 c0 3d e0 f7 3d 3e 1b ce 0b 3d
       0.2037951 0.093765415 0.18551588 0.034132104
0001b0 bf 5e ff 3d 32 d0 36 3e 94 74 58 bd e0 fb c2 bd
       0.12469243 0.17852858 -0.052845553 -0.095206976
0001c0 6c 02 e5 3e df a5 48 3e 00 1f d6 bd 46 9c d7 be
       0.4472841 0.19594525 -0.104551315 -0.42111415
0001d0 9e 21 92 be d2 a1 fb 3d 69 2b 3b bd cd b3 b1 3d
       -0.28541273 0.12286724 -0.045695696 0.086768724
0001e0 75 86 a1 bc fb 02 a7 3c 32 fd a9 3e 0e 38 e9 3c
       -0.019717434 0.020387163 0.33200985 0.028469112
0001f0 ab ba b8 3c 31 2d c0 3e a7 09 c2 bd a5 06 35 3d
       0.022549948 0.37534478 -0.09474497 0.04419579
000200 94 9f a0 3d d8 29 70 be bf fa 59 be 47 3d 0d 3e
       0.07842937 -0.23453462 -0.21287058 0.13792907
000210 d8 c6 3d 3d 98 ce 23 3d bb 64 e0 3d d3 c0 72 bd
       0.04633221 0.039991945 0.10956713 -0.059265923
000220 71 cd 1c bf b0 18 b3 bf 0e 5d f5 bb e8 03 bd 3e
       -0.6125098 -1.3991909 -0.0074878996 0.36917043
000230 87 f3 b2 3e 2b 90 1b 3f 46 a9 d1 3e 0f 51 ef bc
       0.34951422 0.6076686 0.40949458 -0.029213456
000240 86 f0 4c 3e 5f f1 b0 3e f8 56 9d bd 28 15 9f 3d
       0.20013627 0.34559152 -0.076826036 0.07767707
000250 f4 7d 77 3e 81 39 bb be d8 ca 04 be 0a 9f 1f 3d
       0.24169141 -0.3656731 -0.12968004 0.03897003
000260 5b 12 90 3d 2d 11 f1 bd 85 e7 45 be 6e 89 2c bd
       0.07034751 -0.11770854 -0.19326599 -0.04212325
000270 3a a6 29 3f cc d0 32 3d dd 95 a2 3c 8d e2 f1 bd
       0.66269267 0.043656155 0.019846851 -0.11810789
000280 f0 79 a7 3d 52 79 44 be 3a 37 b5 be 2b 53 d4 bd
       0.081775546 -0.19186905 -0.35393697 -0.103674255
000290 9a 4a c8 be ac 89 98 be af eb 65 be 2b 2b 45 3d
       -0.39119416 -0.29792535 -0.22453187 0.04813687
0002a0 19 5a 02 3e af cd 04 be e0 97 49 3f 80 e3 87 3e
       0.12729682 -0.12969087 0.7874737 0.26540756
0002b0 ca 8a ff be f2 b6 a2 bf 46 37 8a bd 48 96 44 3e
       -0.49910575 -1.271208 -0.06748824 0.19197953
0002c0 5b f9 11 3f e6 64 48 be 66 73 80 3c 56 24 c3 3e
       0.5702111 -0.1956974 0.015680026 0.3811366
0002d0 c3 69 d2 3d 01 a5 28 3e ca f5 3c 3e dc 20 94 be
       0.10274079 0.16469194 0.18453136 -0.2893132
0002e0 19 03 a8 be 8b fc 22 3f 50 cc 17 bd b4 c0 77 3f
       -0.32814863 0.636666 -0.037060082 0.96778417
0002f0 94 12 3c bf 6e 00 07 3d b6 58 ae be 97 65 4c be
       -0.7346585 0.032959394 -0.34052056 -0.19960628

bias f4 [8]
000000 0c 85 cd bd d4 24 a8 3e b0 0f 92 b6 5c 50 fa 3d
       -0.10035142 0.32840598 -4.3529653e-06 0.122223586
000010 a2 92 2d 3e 38 49 fe 3e ae 37 41 bc 51 f2 0e be
       0.16950467 0.49665236 -0.01179306 -0.13959624

weight f4 [8, 8, 3]
000000 e1 f4 f8 bd 6d af 95 bd 03 ce 4b be 8f 07 b5 3c
       -0.12156082 -0.073088504 -0.19902806 0.02209833
000010 f0 66 3c be bd f9 2e be 8c 45 b9 bd b3 68 d5 bc
       -0.18398643 -0.17087455 -0.09046468 -0.026050901
000020 f9 f1 1d 3e 2c 5e 25 be 9f b7 c0 bd 8b 94 e8 3d
       0.15424336 -0.16149205 -0.09410023 0.11356457
000030 31 59 cd bd c6 63 3d be 96 f8 2f be 9d e0 ec bd
       -0.100267775 -0.18495092 -0.17184672 -0.11566279
000040 18 59 cd bd ca 6f 12 be eb 09 42 be e4 42 a9 3d
       -0.10026759 -0.14300457 -0.18949096 0.082647115
000050 93 88 3c 3d 3c 80 2d be e4 49 1a 3e 00 67 d6 b9
       0.046028685 -0.16943449 0.1506725 -0.00040894002
000060 73 d2 d8 be 98 5e ce be 93 b6 28 bf 39 5c b3 3d
       -0.4234806 -0.40306544 -0.65903586 0.087578245
000070 f5 4c 88 3d e4 1f 01 3e 5a d9 80 3e fd c2 08 3e
       0.066553034 0.12609822 0.25165826 0.13355632
000080 fe 6b 81 bd 2f 0f 2c 3e 1f 2d 9c bd a0 63 ce 3c
       -0.06319426 0.16802667 -0.07625794 0.02519399
000090 b3 cb 73 3e 41 eb bc 3e 47 38 8b bd a5 84 02 3e
       0.23808174 0.36898234 -0.067978434 0.12745912
0000a0 26 64 96 be c4 43 3e bf 8a bd 7e be c0 3f f3 be
       -0.29373282 -0.7432215 -0.24876991 -0.47509575
0000b0 c0 63 08 be be a3 9f 3d e8 81 22 3e 25 d7 5a 3e
       -0.13319302 0.07794903 0.15869868 0.21371134
0000c0 53 87 5b be b3 22 16 3c 54 5e 75 3d 15 92 0f bf
       -0.21438341 0.009163546 0.05990441 -0.5608228
0000d0 cf 9d 0f be 0e 53 26 3f f2 d3 8a bd 6d 2e 82 3e
       -0.14025043 0.6497048 -0.067787066 0.25426045
0000e0 71 77 14 3f 6b dd 3e 3c 69 96 ca be dd 78 61 bc
       0.57994753 0.01164947 -0.3956788 -0.013761726
0000f0 ed 6b e2 3d 8f e1 ee 3d 70 9e 17 be 99 08 b7 be
       0.110557415 0.11664116 -0.14806533 -0.35748747
000100 07 2d 8a be ee 1c ae 3e 28 7d f2 3b 47 a8 f2 bd
       -0.26987478 0.34006447 0.0074001737 -0.118485026
000110 16 6e 3e be cf bc 19 3f e4 f0 48 be 5f 11 87 be
       -0.18596682 0.60053724 -0.19623142 -0.2638044
000120 bf 04 0f bf 88 8f 90 bd 2c 40 6e 3e 5c 77 bb be
       -0.55866617 -0.070586264 0.23266667 -0.366145
000130 51 04 15 be 50 d8 14 3e b0 6f 59 be 88 1c 71 bd
       -0.14552428 0.14535642 -0.21234012 -0.0588651
000140 44 4c 42 3f 48 8c 6a 3d 94 9c 9c bd 66 db 9e be
       0.7589762 0.05726269 -0.076470524 -0.31026763
000150 77 2a ec 3d 84 67 b9 bb 01 24 82 be 7a ad 7e bd
       0.11531537 -0.005658092 -0.25418094 -0.06217716
000160 ea 2e 0d be 9c f6 ad be 27 1c 98 be 6f 4b eb bd
       -0.13787428 -0.3397721 -0.2970898 -0.11488997
000170 af d4 02 bc 71 eb 67 3d 0b 9e 6f be d0 6f e6 be
       -0.007985278 0.05662102 -0.23400132 -0.4500718
000180 58 c1 d3 3e 07 ae ba 3d 80 75 4f bf 13 48 02 be
       0.41358447 0.09115224 -0.81038666 -0.12722807
000190 39 04 bf be cd d3 88 3e 92 a1 58 bd ac 49 b7 bd
       -0.3730791 0.2672409 -0.05288846 -0.08949599
0001a0 30 2b 4b be ff ec 40 3e 53 ad 98 be e7 cd cd be
       -0.19840693 0.18840407 -0.29819736 -0.40196154
0001b0 c4 3d 51 3d 45 53 c3 3c bc 22 c9 3d 53 5a 7e be
       0.051084295 0.023843417 0.09821078 -0.24839143
0001c0 19 e0 83 bb f7 7c 4a 3f 2a fb 24 be 09 2f 61 be
       -0.0040245173 0.7909693 -0.16111436 -0.21990599
0001d0 d5 29 92 bc 5b 75 99 be e8 3b 9a 3e e3 e2 86 3f
       -0.017842213 -0.29972348 0.3012383 1.053799
0001e0 3f 51 27 3e c6 ab a3 3e ff 95 84 bd 4b 40 04 3f
       0.16339587 0.3196699 -0.06473922 0.51660603
0001f0 82 0f ab be ed e9 c7 bc 76 af 25 3e b6 69 a4 3d
       -0.3341027 -0.024403537 0.16180214 0.08027975
000200 3f 79 b7 bd a5 aa f0 3d 95 e5 31 be ad fa 4a bf
       -0.08958673 0.11751298 -0.17372735 -0.7928875
000210 84 37 7a be 52 62 ce bd b1 96 28 be f8 e0 ab be
       -0.2443524 -0.10077347 -0.16463734 -0.33570075
000220 ae b4 d8 be 11 34 12 bf 46 9e 47 be 1d 8f 8e be
       -0.42325348 -0.571107 -0.1949397 -0.27843562
000230 53 5c 86 be ff 2d 31 be bb 7e 5a be 21 6f 02 3e
       -0.26242313 -0.17302702 -0.21337406 0.12737705
000240 27 a0 74 bd 1a 48 88 be 2b 72 1e 3e ea 2b 61 be
       -0.059723046 -0.2661751 0.15473239 -0.21989408
000250 60 70 f2 be 1f 1f a3 3d 36 1a 9f 3c 39 d1 98 be
       -0.4735136 0.0796492 0.019421678 -0.29847124
000260 e9 6b d5 be 70 d9 a2 bd 29 bc b4 bd a5 f9 eb be
       -0.4168389 -0.07951629 -0.08824951 -0.460889
000270 f2 9b 8a 3d bb cb 2a be e4 27 6a be d5 53 d4 bd
       0.067680255 -0.1667928 -0.2286678 -0.10367552
000280 88 99 0f 3e 47 cb 28 3e 87 6e bf be 66 b5 7d be
       0.14023411 0.16483794 -0.37389013 -0.2477623
000290 b6 75 48 3d bc f1 e7 bd d6 a2 b0 3e cd cf 95 be
       0.048940383 -0.11325404 0.34499234 -0.29260102
0002a0 b8 27 45 3d 37 b3 db 3a d5 1b 90 bf 60 49 74 be
       0.048133582 0.0016761784 -1.1258494 -0.23856115
0002b0 65 60 bd bd aa 4d e6 bb a4 b9 3c 3e 8b 0b 92 3d
       -0.092469014 -0.0070283012 0.18430191 0.07131108
0002c0 8e b4 84 3e ed db 0f bc de 99 45 be a6 d0 a3 3e
       0.25919002 -0.008780462 -0.19296977 0.31995124
0002d0 36 d9 79 be bd 6e 9e be a6 82 08 bf 9a 35 34 bd
       -0.24399266 -0.30943862 -0.53324354 -0.04399643
0002e0 53 af 8a be cc 50 86 bf 09 a1 38 bc a2 97 4d 3e
       -0.27086887 -1.0493407 -0.0112688625 0.20077375
0002f0 2a 80 1a be e5 45 06 bc b5 55 b1 3d 26 d2 70 3e
       -0.15087953 -0.008195375 0.086589254 0.23517665

bias f4 [8]
000000 b1 07 d5 bd 0e 69 98 bc f6 bb ae bc 91 6c 60 3e
       -0.10401858 -0.018604781 -0.021329861 0.21916415
000010 bd 96 88 ba 62 bb 3a 3e 36 cc b5 3e e4 65 fe 3e
       -0.00104209 0.18235543 0.35507363 0.4968711

weight f4 [8, 8, 3]
000000 63 d9 12 bd 7e bd 9a bd 40 61 39 3e 0a c7 ce bd
       -0.035851847 -0.07555674 0.18103504 -0.100965574
000010 4a c9 63 be 00 d2 ff bb 83 72 55 be 84 96 b0 be
       -0.22244754 -0.0078070164 -0.20844464 -0.34489834
000020 94 60 71 be 2a 0d 78 3d 7a 06 6c bd b3 a5 74 be
       -0.23571998 0.06055943 -0.057623364 -0.23891334
000030 86 99 5d be 3e a5 1f bf cf bd bb 3e af ef 11 be
       -0.21640596 -0.62361515 0.3666825 -0.14251588
000040 3e d9 f8 3d 3d f6 1e 3e d8 11 b7 3d df be 97 be
       0.12150811 0.1552362 0.0893895 -0.2963781
000050 38 12 37 bf 9a 91 cf be 40 f2 96 be d5 3c 38 3f
       -0.71512175 -0.40540773 -0.29481697 0.7196782
000060 81 e0 6b bc 4d 49 13 be 03 7d 53 3c 0f 0b 15 bf
       -0.014396788 -0.14383431 0.012908223 -0.5822
000070 db c4 25 bf 3a d6 01 bf 25 f9 d4 be e4 b9 9d be
       -0.647535 -0.5071751 -0.41596332 -0.30805886
000080 f1 9a 77 be 93 a2 55 bc 62 17 ab be 70 39 29 bf
       -0.24180199 -0.013039249 -0.33416277 -0.6610327
000090 81 4d cb be 1d 51 e2 be 24 b3 0c bf ac df 96 be
       -0.39707568 -0.4420251 -0.54960847 -0.29467523
0000a0 76 4d d0 be 67 39 58 bf 55 b0 8a be 3c 6c c8 be
       -0.40684098 -0.8446259 -0.27087656 -0.39145076
0000b0 46 10 30 bf fa bf 49 be 27 60 21 be 7a 64 ef bc
       -0.6877483 -0.1970214 -0.15759335 -0.029222716
0000c0 49 8e 5a bc 83 6f cc b9 01 01 18 3e c2 13 07 bf
       -0.0133395875 -0.00038992995 0.14844133 -0.52764523
0000d0 f0 ac 01 bf 65 6c 2e bf 94 58 95 3d 07 68 48 3d
       -0.50654507 -0.68134147 0.072922856 0.048927333
0000e0 13 01 38 3c 36 8f aa bc 74 84 e6 3d 7e 1a 0e 3e
       0.011230725 -0.020820241 0.11255732 0.13877293
0000f0 3f ae e9 be 23 f2 9e be 2d 61 a5 bf 02 f7 ba 3d
       -0.45640752 -0.3104411 -1.2920281 0.09129144
000100 93 39 f4 3d d8 cd 41 be 08 b0 34 bd 8e aa f8 bb
       0.11925044 -0.1892618 -0.04411319 -0.007588691
000110 fa e9 97 bd 6d ac 8d be 03 e8 62 3c 02 fc c3 be
       -0.07417674 -0.27670613 0.013849261 -0.38278204
000120 20 34 b8 3d 6e 6c 0d be 6c 30 a4 3d 02 9b 57 be
       0.08994317 -0.13810894 0.08017048 -0.21055225
000130 cf 3d a7 bd 98 db b0 3d 9a 42 3e 3e ee 36 39 be
       -0.08166086 0.08635634 0.18580094 -0.1808736
000140 0e 1c 50 3e 1f 52 45 3e c1 a1 ae bc 18 41 66 be
       0.20323202 0.19269608 -0.021317365 -0.22485769
000150 02 0e 17 bf 37 14 b9 be 9e bf 36 3f eb 03 cb 3e
       -0.5900575 -0.36148235 0.71386135 0.39651427
000160 ee 15 43 3e 8b 42 ff bd 6b 64 99 bd bf db eb bd
       0.19051334 -0.12463864 -0.07489856 -0.115165226
000170 7b 5b 00 3f e9 f2 50 be e7 89 71 bd 5e 6e 0c bf
       0.5013959 -0.20405163 -0.058969405 -0.54855907
000180 e2 09 1c bd 22 49 0d be b0 53 8c bc f1 11 4e be
       -0.038095362 -0.13797429 -0.017129749 -0.20124032
000190 4f 75 39 bd df 2b 5e be 7b 9a 8a 3e d3 cc 95 3d
       -0.04527789 -0.21696423 0.27070984 0.07314458
0001a0 2f 2c be 3e f6 8c 4b 3d 4a 5e f2 bd 6f 4b 74 3f
       0.37143084 0.049694978 -0.118343905 0.954276
0001b0 a2 d4 6c 3c 81 a3 71 3e d3 f7 23 bf d2 13 9f 3d
       0.0144549925 0.23597528 -0.64050025 0.07767452
0001c0 17 f6 36 bc 65 70 59 bf 91 c3 eb bc 75 28 42 be
       -0.011167071 -0.84937125 -0.028779777 -0.18960746
0001d0 50 31 f8 bd 01 6c dc be 61 33 ba be 4d 3a 68 bf
       -0.121187806 -0.4305115 -0.36367324 -0.9071396
0001e0 9d 62 cb bd 5f a3 a4 3d bc c3 47 3e df 34 13 be
       -0.09930918 0.08038973 0.1950826 -0.14375637
0001f0 62 15 ae be 8f aa f3 be c6 b4 13 bf f2 94 07 bf
       -0.3400069 -0.47591063 -0.57697713 -0.5296165
000200 be 75 7e be 0c 6d 8a 3c e8 d2 01 be c1 d3 95 3d
       -0.24849603 0.0168977 -0.1267811 0.073157795
000210 5c 08 12 bf 37 d2 89 be e9 21 48 bf 2b f4 7e be
       -0.57044005 -0.26918194 -0.7817674 -0.2489783
000220 68 f6 db 3b 45 3d 77 be a4 a3 89 bd a0 cc 10 3e
       0.0067127235 -0.24144466 -0.06720665 0.14140558
000230 27 20 15 3e 7d 7b a9 3d df 3e a1 3d ab 87 b0 3e
       0.14563046 0.08275507 0.0787332 0.34478506
000240 7a d5 60 bc dd 73 e3 bd f2 8b 45 3e 6a 61 2e bb
       -0.013722772 -0.111060835 0.19291666 -0.0026608356
000250 b5 96 f5 3d 4f 86 b8 3d 21 43 11 bd 1c d7 2d bd
       0.11991636 0.09009992 -0.03546441 -0.042441472
000260 7f 5a 83 bd d7 76 7a b9 49 dc 38 3c 0a b0 82 bd
       -0.06413745 -0.00023886129 0.011282989 -0.06381233
000270 12 d9 0a be 94 b0 5a be 2e 55 95 bd 11 29 cb be
       -0.13559368 -0.21356422 -0.07291637 -0.3967977
000280 43 5d d6 be 81 aa 0d bf a2 7e 66 be 53 82 a4 be
       -0.41868028 -0.55338293 -0.22509244 -0.3213068
000290 f8 f0 b0 bd 7d 18 a6 be 33 3a 05 bf 11 c3 ab be
       -0.08639711 -0.32440558 -0.5204193 -0.3354726
0002a0 6c 60 27 3e 96 76 ad bd c3 ca 02 be 29 99 8b be
       0.16345376 -0.08469884 -0.1277266 -0.2726529
0002b0 7a b1 1c 3e 62 90 35 bf 06 90 48 bd e0 6a 0a 3e
       0.15302077 -0.70923436 -0.048965476 0.13517332
0002c0 80 10 e1 bc d2 c4 fe 3c 90 3a 27 be 77 77 07 bf
       -0.027473688 0.03109971 -0.16330934 -0.52916664
0002d0 e2 cf 20 3e 5e bc 54 bd 1b 66 86 bc 9d 50 89 be
       0.15704301 -0.051937453 -0.01640611 -0.26819316
0002e0 73 ab 02 bf cb d0 19 bf 24 45 b7 be 1a 67 4e 3e
       -0.5104286 -0.6008422 -0.35794938 0.20156518
0002f0 20 e2 f8 3d ff 9c 5d 3d 85 d9 f0 be 21 64 96 bf
       0.12152505 0.0541048 -0.47040954 -1.1749307

bias f4 [8]
000000 48 a7 72 3c 93 3b 5a 3f 6c f6 2d 3f ba 5b a2 3d
       0.014810391 0.85247153 0.67954135 0.07927652
000010 8e 64 e3 3e 64 21 a9 3e 02 8e 0f 3f 5d 12 1a 3f
       0.44412655 0.33033288 0.5607606 0.6018427

weight f4 [8, 8, 3]
000000 21 99 46 3d 16 c5 4e be 20 b6 50 be 65 dd c6 bd
       0.04848588 -0.2019237 -0.20381975 -0.097101964
000010 ad 0a a8 3d 1b 99 af bd bf 4b 12 bd e4 a9 bd 3e
       0.08205161 -0.085741244 -0.03571677 0.3704368
000020 3f d1 dd bb 9b bc d0 be f9 b5 1c be 6c df 68 be
       -0.006769329 -0.40768895 -0.15303792 -0.22741479
000030 0a 3b e2 be 7f 61 6e be 33 c4 95 be 37 77 ac bd
       -0.44185668 -0.2327938 -0.2925125 -0.08421176
000040 d0 48 c5 be 36 0f be be ce e3 0f bd fb bb 57 3c
       -0.38532114 -0.3712098 -0.03512936 0.013167377
000050 7b 3b 7a bd 98 d0 d3 bc 69 de c4 be 34 04 7b be
       -0.06109188 -0.025856301 -0.38450935 -0.24513322
000060 e1 37 08 3e fb 80 8d 3e b5 cb 28 3e 1e 8c e3 bc
       0.13302566 0.27637467 0.16483958 -0.027776774
000070 0f 8a b3 be 3a d0 fe bc d5 7b 24 be 02 b1 59 bf
       -0.35066268 -0.03110515 -0.16062863 -0.8503572
000080 57 69 3d bf 46 2d 91 3d 3c c2 0e 3e 76 52 f6 bc
       -0.7398886 0.07088713 0.13941282 -0.030068617
000090 f8 7d 05 3c 87 88 04 be f0 74 1c bc 3f 2f 31 be
       0.008147709 -0.12942706 -0.009549364 -0.17303179
0000a0 1a da 8d bd 90 e6 d0 be 00 3e 16 bd 61 d9 2d be
       -0.06926365 -0.40800905 -0.03668022 -0.16977455
0000b0 17 6e 96 bb 84 e4 c7 3c 9a d1 d5 be 6f 06 b9 3d
       -0.0045907605 0.024400957 -0.41761476 0.0903443
0000c0 2e b5 29 3d 43 99 01 3e 05 dd 08 be dd db 3e be
       0.041432552 0.12656121 -0.13365562 -0.18638559
0000d0 f4 e3 1e be 7d 42 7d be 87 97 e5 be 7c 2b ba be
       -0.15516645 -0.24732395 -0.4484217 -0.363613
0000e0 a9 3a 04 3f cb 36 d1 be 4a 33 9b bd 7f 9d 6f 3e
       0.5165201 -0.40862116 -0.07578142 0.23399924
0000f0 12 fa 47 be 2a 5d bc be 45 73 70 3f ba 61 80 3d
       -0.19528988 -0.3678983 0.9392589 0.0626864
000100 61 0d 6b 3d a6 17 99 bd 82 02 84 be 10 fc e8 bd
       0.057385806 -0.07475214 -0.25783163 -0.11376202
000110 d9 db 3f be c7 25 c8 bd 1d 0d d7 be 13 73 14 bf
       -0.18736209 -0.097728305 -0.42002192 -0.5798809
000120 74 b7 ac 3d 0e 0b 4b bd ac 08 90 3d 5f 65 c0 3d
       0.084334284 -0.04957109 0.07032904 0.09394335
000130 b6 20 65 3d 30 de 61 bd f5 0f 2e 3e 22 6e 29 3d
       0.0559394 -0.055143535 0.16998275 0.041364796
000140 79 dc 92 3e aa 7f 82 be 1d 60 9b be d0 1b 45 be
       0.28683832 -0.25488025 -0.30346766 -0.19248891
000150 e1 8e f9 3d 47 22 a0 3e cb e0 a6 3d 0e 7a 3d be
       0.12185455 0.31276152 0.081483446 -0.18503591
000160 4b 01 a1 be ed 31 a6 bd 47 19 7f be dd 83 2d be
       -0.314463 -0.08114991 -0.24911986 -0.16944833
000170 be b9 c3 bd 4a 42 c3 be f2 c4 30 be f4 3c e3 be
       -0.09556912 -0.38136512 -0.17262629 -0.4438244
000180 d1 ef 84 3e 6d 35 07 3f 63 5a 31 3f 98 b0 f9 bd
       0.25964215 0.52815896 0.69278544 -0.12191886
000190 0e 6a ed be 74 40 05 be 4a 13 3a 3d b2 a4 f0 be
       -0.46369976 -0.13012868 0.04542855 -0.47000653
0001a0 dd 2e 56 bf 83 c5 60 3d 38 1d a0 be d1 61 f2 bd
       -0.8366526 0.05487586 -0.31272292 -0.11835063
0001b0 3f 1d 08 bc d8 19 09 bf e1 24 03 bf 67 74 83 be
       -0.008307754 -0.5355506 -0.5122815 -0.25674745
0001c0 5d 52 0d be 87 6c bd be de 2e d3 be 1e 6f a4 be
       -0.1380095 -0.36996862 -0.41246694 -0.32116026
0001d0 d0 d9 7d be f4 1b 88 3c ee 20 8c bf 45 9a 76 bf
       -0.2479012 0.016614892 -1.0947549 -0.96329147
0001e0 66 6e 06 bd 9c cc af 3d b5 3e 56 3e 96 20 8a bd
       -0.032820128 0.08583948 0.20922358 -0.067444965
0001f0 7e f2 22 3f 06 c8 8f 3c 33 a5 83 bc 86 85 31 3f
       0.63651264 0.017551433 -0.016069984 0.69344366
000200 5b d2 84 3d 0d 2c e4 be e6 55 9b bd 37 79 4d bf
       0.064854346 -0.44564858 -0.07584743 -0.80263084
000210 c2 a8 bb be 65 a9 45 bf 92 ef 50 bf fc 79 31 3d
       -0.3665219 -0.772116 -0.81615555 0.043329224
000220 f4 06 20 3e 87 4b 53 3e 36 53 83 be 7f c3 2c be
       0.15627652 0.2063428 -0.25649422 -0.16871451
000230 b8 aa 12 bd fc ba 89 be 29 f2 99 be 35 a5 f6 be
       -0.03580734 -0.2690047 -0.30067566 -0.48172918
000240 8b 95 a3 3d dd 97 c4 bc d4 5f a9 3e 0e 92 da 3e
       0.079875074 -0.023998195 0.33080924 0.42689556
000250 c5 13 ad be 0d eb 6a bc 8f 04 3c 3f de 52 68 be
       -0.33804145 -0.014338267 0.73444456 -0.22687861
000260 56 a2 bc bf b3 a0 11 bd 33 ca 99 bd ad 18 e6 3e
       -1.4737041 -0.035553645 -0.075092696 0.449407
000270 0b 87 0f be 89 0c 87 be 97 cc 38 3e 44 d9 f8 3e
       -0.14016359 -0.2637675 0.18046795 0.4860326
000280 67 eb f1 3e 25 e0 1c be 7c 56 39 3d 76 70 df bc
       0.4724991 -0.1531988 0.045248494 -0.027275305
000290 0e 5e be bd 67 06 09 be 04 2b dc be cd 9a ab 3e
       -0.09295283 -0.13381349 -0.43001568 0.3351654
0002a0 44 4d 10 bd 90 39 ce 3c e5 aa 14 3f 89 49 cc bc
       -0.035229936 0.025173932 0.58073264 -0.024937408
0002b0 0a 7b fd 3d 93 05 9a be 8d 52 62 3e d9 69 91 be
       0.123769835 -0.30082378 0.22101803 -0.28401068
0002c0 47 84 7e bf 62 2c f6 3b 86 c2 27 be d1 b4 6e be
       -0.9942059 0.007512615 -0.16382799 -0.23311163
0002d0 a9 06 0d 3e 59 4f db be 57 53 ce be 2f 92 10 3d
       0.13772072 -0.42833975 -0.40297958 0.03529566
0002e0 8d 87 b7 b9 7c 1c b5 be 49 47 1c be 61 5c 01 bf
       -0.00035005473 -0.35373294 -0.15261568 -0.50531584
0002f0 34 2b 38 be 59 80 47 be fe 44 3f be c4 eb 43 bf
       -0.1798523 -0.19482554 -0.18678662 -0.76531625

bias f4 [8]
000000 4f e3 d2 bc c9 4a 49 3f ae 64 71 bb 07 dc 14 be
       -0.025743155 0.7862974 -0.0036833691 -0.14537059
000010 7b 72 2b 3f 0d 56 a7 bd 58 88 94 bd b0 18 0f 3f
       0.6697156 -0.0817071 -0.07252568 0.55897045

weight f4 [8, 8, 3]
000000 ab 2f a5 3c 91 a4 0e be 65 2f 77 bd d9 5f 64 3d
       0.020164331 -0.13929965 -0.060347933 0.05575547
000010 d3 e4 04 3e 07 94 87 bd e8 89 ba 3d b2 25 f9 be
       0.12977915 -0.06620031 0.09108335 -0.48661572
000020 95 b7 51 3f cb 57 90 3e 50 1c ce bd 37 aa 63 be
       0.8192075 0.2819198 -0.10063994 -0.222329
000030 7a 3c f4 ba 6c f3 7e 3d b2 97 cd bd 5d 57 c2 3c
       -0.0018633746 0.062243864 -0.10038699 0.023723299
000040 8b 78 15 be 08 8e 02 3e 9b 77 97 3c db 7a 99 3d
       -0.14596765 0.12749493 0.01848965 0.07494136
000050 d4 1c 59 be 2a 58 35 3d 57 d5 7f 3e 5f c2 19 be
       -0.21202403 0.044273533 0.24983726 -0.15015553
000060 11 f4 2b bd 4c 14 2a 3e 44 9a 32 3e d3 be 5b be
       -0.041980807 0.16609305 0.1744166 -0.21459512
000070 85 dd 7e 3c f7 dd 1d be 33 ac d8 bd 21 d6 11 be
       0.015555744 -0.15416704 -0.105797194 -0.1424184
000080 fe 00 51 be 05 f9 0d 3d 7f b7 cb bd 11 21 1a 3e
       -0.20410535 0.03466131 -0.099471085 0.15051676
000090 71 c7 72 bd 1a 28 00 be f2 d3 8b 3e dd cb 6e be
       -0.059272233 -0.12515298 0.2731014 -0.23319955
0000a0 49 a5 32 be 97 2e 40 be 1f e9 54 bd 2e f2 53 be
       -0.17445864 -0.18767773 -0.051980134 -0.20697853
0000b0 65 0b c4 3d 86 fb 20 be e1 a6 45 be c3 aa 24 3d
       0.09572486 -0.15720949 -0.1930194 0.040201914
0000c0 32 42 9a be b9 fe 27 bf f3 9d 2a bf d5 ef a7 bd
       -0.30128628 -0.6562305 -0.6664726 -0.08200041
0000d0 8a 18 66 3d c3 b5 b2 bd 58 8f a4 3c 95 9f 7a 3e
       0.056175746 -0.087260745 0.020087883 0.24474938
0000e0 37 39 10 bf d7 7f 08 bf e8 ed 8a be e3 e0 80 be
       -0.563373 -0.5332007 -0.27134633 -0.25171575
0000f0 27 0d 4e 3e a8 9d c2 be 60 f1 a4 be af e6 bd bd
       0.20122205 -0.38010907 -0.32215405 -0.09272515
000100 5d be 6c be 9b 27 f6 be b2 26 8b bd d9 d3 3d be
       -0.23119493 -0.48077092 -0.0679449 -0.18537845
000110 2f 16 d3 3e 06 93 e8 bd 77 25 1c be 2c 23 fa bb
       0.41227862 -0.113561675 -0.15248667 -0.0076335873
000120 31 f6 d5 3d 72 37 98 bd bb dd 51 be 4e 87 3c 3c
       0.10447348 -0.0743245 -0.2049474 0.0115068685
000130 45 13 2a be 11 1a c8 3c 6a 87 19 3d 40 c4 23 3e
       -0.16608913 0.024426492 0.037482657 0.15992832
000140 2b 2c 46 3e 24 90 9b 3c ec 68 9a 3c da 09 31 3e
       0.19352786 0.01898963 0.018848859 0.17288914
000150 11 3e c4 3c f2 c9 57 be ce e5 21 3e 2e ab 94 3e
       0.023955377 -0.2107313 0.1581032 0.2903685
000160 bf 02 0b 3f fa 71 f8 bd 99 ef 74 be 7b 19 4e bb
       0.54301065 -0.12131114 -0.23919524 -0.0031448293
000170 0e 0b 20 3f 0d 1c 41 be 07 b5 a0 bd 65 02 f5 3d
       0.6251687 -0.18858357 -0.07847028 0.11963347
000180 e8 48 23 bd 16 f2 12 3e 4d b6 75 bd 28 2a e0 bd
       -0.03986445 0.14350161 -0.05998831 -0.10945541
000190 60 7f b2 3e fd 5c da bc ff 24 5d be 86 fc 22 3f
       0.34862804 -0.026655668 -0.21596144 0.6366657
0001a0 1f e0 e3 be 73 04 b8 bd d4 cb 24 3e f9 ea cd bd
       -0.44506928 -0.089852236 0.1609338 -0.10054583
0001b0 dc 7f f9 3d 85 44 cf be f9 ac 96 bc 81 50 2b be
       0.1218259 -0.40481964 -0.018393027 -0.16729929
0001c0 50 4c 90 be 60 3b 36 be 12 59 09 3e 2b 41 c2 3c
       -0.28183222 -0.17796087 0.13412884 0.023712715
0001d0 ed a4 86 3e 1c 0d 9e be ad 26 69 be aa f0 05 be
       0.26297703 -0.30869377 -0.2276866 -0.13080087
0001e0 c5 19 97 3e c9 f3 bf 3d c9 2c 56 be 84 c3 28 be
       0.29511848 0.0937267 -0.20915522 -0.16480833
0001f0 2a 58 b8 be b5 f1 ff 3e 23 26 3e be 94 6c 8f 3e
       -0.36004764 0.49989095 -0.18569236 0.28012526
000200 be 8d e0 3b db 94 4e 3d e0 09 eb 3d 65 42 d8 3c
       0.0068528345 0.05043493 0.11476493 0.026398847
000210 4c c6 71 bd cc e4 bc be 03 b0 9e 3e 77 41 24 bc
       -0.059027 -0.36893308 0.3099366 -0.010025374
000220 ca ab 24 3d ff 24 ff be 2b cf 8e 3e c7 84 6e 3d
       0.040202893 -0.49832913 0.27892432 0.058232095
000230 e7 3f 8c 3f 6a a6 98 be 89 ce 4f bf 59 b3 a3 3e
       1.0957001 -0.29814464 -0.8117452 0.3197277
000240 21 5f 96 bd 9d 8c 37 be 92 14 c5 3d 66 38 38 ba
       -0.07342363 -0.17924733 0.09623064 -0.0007027447
000250 f2 98 42 be c8 0f 3a 3e 03 51 41 be b0 a0 46 3d
       -0.19003657 0.18170083 -0.1887856 0.048493087
000260 f5 63 78 3d 8c e3 06 be c0 c7 20 bd d6 40 91 3c
       0.0606422 -0.1317274 -0.039252996 0.017731111
000270 14 1c 9a bd 4b b9 8f bd 57 23 1c 3d 0c d0 d5 3d
       -0.07524887 -0.07017764 0.03811964 0.104400724
000280 10 a3 aa bd a3 cb 28 be bc a3 18 bd 0c d6 27 bd
       -0.08331883 -0.16483931 -0.037265524 -0.040975615
000290 2f 22 93 3a 7d 41 e6 3d fd 4a 0a 3e f4 7a 93 bd
       0.0011225397 0.1124296 0.13505168 -0.07201186
0002a0 1c 78 32 bd 81 6e fb bd c9 00 59 bd c1 0f bb 3c
       -0.043571576 -0.12276936 -0.052979264 0.02283466
0002b0 8d de db 3b b8 0f 1b 3e 19 eb a4 bd 17 ed a1 bc
       0.0067098797 0.15142715 -0.08052654 -0.019766374
0002c0 d7 1e 77 3e c8 ca 91 3d e7 d0 d0 bd 65 c5 92 3d
       0.24132858 0.071187556 -0.10196095 0.07166556
0002d0 f8 73 07 be b5 ce ea be 5a 98 20 3f 2a be 89 3d
       -0.13227832 -0.4586083 0.6273247 0.06725724
0002e0 98 c6 09 3e f7 d8 86 be 84 94 e7 bd 26 d6 c7 bd
       0.13454664 -0.26337406 -0.11307624 -0.097576424
0002f0 21 94 4a 3e 37 44 96 bc 0c d1 ad be 4d 50 ce 3e
       0.19783069 -0.018343074 -0.33948553 0.4029564

bias f4 [8]
000000 b8 42 7e be 36 14 75 bc fc 4a b0 3e ab 0a b4 be
       -0.24830139 -0.014958432 0.3443221 -0.3516439
000010 33 90 1e bd 4d 10 7e bd 32 15 3e be 66 65 eb bd
       -0.038711738 -0.062027264 -0.18562773 -0.114939496

weight f4 [8, 24, 1]
000000 b5 30 bc 3e ec 65 bc bc 1d c0 19 bf 84 6e b3 bc
       0.3675591 -0.022997819 -0.60058767 -0.021903284
000010 92 b7 b1 bc dd 16 c5 3e 34 c4 4a bc 2c ca 65 be
       -0.021693978 0.38494006 -0.01237588 -0.22440404
000020 2d 25 87 bb fd 4b fe be 8f f5 d3 bd 57 63 0f 3d
       -0.0041243047 -0.4966735 -0.10349571 0.035006847
000030 e2 43 e8 3c 93 62 95 3f 40 80 0a 3d 28 32 9f bc
       0.028352682 1.1670707 0.033813715 -0.019433096
000040 84 68 2d be 12 91 ff bd 3a cb cc be dc c5 d2 be
       -0.16934401 -0.12478842 -0.399988 -0.4116658
000050 cc a2 fb 3d 1b b9 71 bd db 74 26 3e ea 7e 38 bd
       0.122869104 -0.05901442 0.16255514 -0.04504291
000060 b3 45 20 3e 40 4e 49 3f 83 4a de 3e 9f dc 14 3e
       0.15651588 0.78635025 0.43416223 0.14537285
000070 17 22 00 be e9 9d 92 3e 65 a4 1a bf 82 62 0a bf
       -0.12513004 0.286361 -0.60407096 -0.5405656
000080 1f b2 e4 bd 50 f0 90 bf 62 cf b9 3e ff b4 14 3e
       -0.111667864 -1.1323338 0.36291033 0.1452217
000090 de be 01 3d cb d2 07 bf 87 97 a0 be 54 ce 18 be
       0.031676166 -0.5305602 -0.31365606 -0.14922458
0000a0 94 b9 15 3f 40 c9 22 be 62 1e 7a be 8b cc 36 be
       0.58486295 -0.15897083 -0.24425653 -0.17851464
0000b0 4f 58 aa 3c de 49 4c bf 41 c1 b8 bc 59 5a 81 3e
       0.020794062 -0.7980021 -0.022553088 0.25264242
0000c0 9f 38 20 bd 85 86 85 3b 74 85 5e 3d f3 ff 24 bc
       -0.039116498 0.004074874 0.05432649 -0.010070789
0000d0 9d 5f 21 3d ca 38 ce 3c 7d 32 7a 3e 7f 7c 6e 3d
       0.039397825 0.025173564 0.24433322 0.058224197
0000e0 bc 54 50 3d 26 27 22 3e 5f 8e 7c bd 2c 94 e0 bd
       0.05086206 0.15835246 -0.061659213 -0.109657615
0000f0 a8 6b 36 3e 43 00 22 be 63 3e e9 bb fa 0a b3 3d
       0.17814505 -0.15820412 -0.007118033 0.08742328
000100 01 dd 32 be da 51 22 3e 73 8a b0 3d 90 12 44 3c
       -0.17467119 0.15851536 0.08620157 0.011967316
000110 90 5b c8 bc 4e e8 15 3e 76 88 ef bc 20 d3 64 3c
       -0.024457723 0.14639398 -0.029239874 0.013966352
000120 47 13 4f bd 39 46 47 3c 00 55 47 3d eb a3 11 bc
       -0.050555494 0.0121627385 0.048665047 -0.008889179
000130 10 90 2a 3d 92 a5 8a 3c 6c 34 78 3e 6e b5 62 3d
       0.041641295 0.016924653 0.24238747 0.055348806
000140 10 22 0a 3d d4 ab 23 3e 09 a1 45 bd b5 7d e5 bd
       0.03372389 0.15983516 -0.04824928 -0.11205617
000150 bf d8 36 3e 36 7c 0d be 59 df 4a bc 6f 76 ab 3d
       0.1785612 -0.13816914 -0.012382352 0.08372199
000160 56 d2 2e be 7b 33 5f 3e 13 79 bf 3d f3 14 19 bd
       -0.17072424 0.21796982 0.09349265 -0.037373494
000170 6c ad 2e bd b4 0a 30 3e a1 e9 1f be 49 d5 e9 3b
       -0.042645857 0.17191583 -0.15616466 0.0071360213
000180 d5 77 9d bc 03 69 be 3c 2a cc 64 bd ac f8 29 bd
       -0.01922218 0.023243433 -0.05585877 -0.041496918
000190 dc d0 2f 3c 5f 1b 31 be 60 e1 88 3e b8 47 d5 bc
       0.010730948 -0.17295597 0.26734447 -0.026035175
0001a0 b2 e4 c6 3d 5f c7 9a bb f7 09 d1 bd a7 cf ab bd
       0.09711589 -0.004723474 -0.10206979 -0.08389216
0001b0 a6 b9 14 3e 6c 0d 3f be fc e0 81 bb ab dd 3f 3d
       0.14523944 -0.18657464 -0.003963588 0.04684226
0001c0 3f b4 25 be 4e be 4b 3d b8 3e 16 bc fc 9c d8 bb
       -0.1618204 0.049742036 -0.009170227 -0.006610511
0001d0 82 5f 0b 3d 06 96 19 3e fc 47 1b 3d ac 33 e2 b9
       0.03402663 0.14998636 0.037910447 -0.00043144578
0001e0 2f 8a 29 be c4 d5 62 3e c2 e0 d0 bd c6 93 6c 3d
       -0.16556619 0.22151858 -0.10199119 0.057758115
0001f0 65 39 38 3e 48 9e 04 be 8d b6 59 3b 97 1d f1 3e
       0.17990644 -0.12951005 0.003322038 0.47092888
000200 a4 70 fd 3d a4 ea b3 3e 6b a6 db bd ca da 74 be
       0.12375 0.35139954 -0.10725101 -0.23911586
000210 86 64 9f bf 0f e9 87 bd 90 78 d4 3e f8 8b 2d bf
       -1.2452552 -0.06636249 0.41498232 -0.677917
000220 af 3c 46 3e 96 c4 55 be 96 2f 9f 3e ae 36 b7 3c
       0.19359086 -0.20875773 0.31090993 0.02236494
000230 4a b4 4c 3e 3c 74 e2 bc 8d 17 2a 3e c7 b3 db be
       0.1999065 -0.027643315 0.16610546 -0.42910597
000240 98 b5 b7 3b b0 37 83 bf 52 d2 44 3e fb 01 f5 bd
       0.0056063645 -1.025137 0.19220856 -0.11963268
000250 ee 37 00 be a8 74 d8 be 50 ba bf be cf 04 c6 3d
       -0.12521335 -0.42276502 -0.37446833 0.09668886
000260 ff 09 1b 3e e5 c6 04 3f d7 e8 64 be 88 ad 14 3e
       0.15140532 0.5186599 -0.22354446 0.14519322
000270 dc 0f 0f 3f 94 ef 06 3e a4 6a 0a bd 69 6d f2 3e
       0.55883574 0.1317733 -0.033793107 0.47349098
000280 4d f2 08 bf ee 93 3b 3e 81 9d 63 3e a4 28 dd 3e
       -0.5349472 0.1831815 0.22228052 0.4319507
000290 70 f8 d0 bd 53 8b a4 3e 2c 92 3f be 69 6b 32 3e
       -0.10203636 0.32137546 -0.18708104 0.17423786
0002a0 15 98 79 be a6 72 56 3b 7a 2c f1 3c b9 a2 be b9
       -0.24374421 0.0032722144 0.029440153 -0.00036360862
0002b0 e6 ca c9 3a 85 ca 3f 3c 0c 04 71 3e 25 ed e1 3d
       0.0015395551 0.011705999 0.235367 0.1103156
0002c0 a6 07 b1 be 81 ef e6 3e 21 c1 97 3e b2 49 61 3e
       -0.34576148 0.45104602 0.29639533 0.22000769
0002d0 94 ba 01 3e 52 41 4c be 05 b9 a3 bd 11 95 1f 3e
       0.1266883 -0.19946793 -0.07994274 0.15584208
0002e0 f2 a5 df 3e 17 ba 56 3d 92 41 1a bd 31 85 02 3e
       0.43681294 0.052423563 -0.03766019 0.12746121
0002f0 13 d9 66 be 96 22 dd 3d 45 52 db bd 04 8a ea 3c
       -0.22543745 0.10797612 -0.10709051 0.028630264

bias f4 [8]
000000 ba 11 10 be fe 39 82 3f c0 6b 54 bf 9c 02 54 bf
       -0.14069262 1.0173948 -0.82976913 -0.8281648
000010 fe 16 25 bf 57 d3 83 3f 2e 92 8c 3f 51 d6 35 bf
       -0.6448821 1.0298871 1.098211 -0.71030146
