Masterarbeit_YorickLALY/Code_and_Neural_Network/10_ep_CNN_window_size_20.pt (torch, 10191 bytes, 12 tensors)

weight f4 [8, 8, 3]
0	0x3cd10383	0.02551437
1	0x3d4eefd8	0.0505217
2	0xbe3661c6	-0.17810735
3	0xbe6963af	-0.22791933
4	0xbebe7f4b	-0.37206492
5	0xbe099ad4	-0.13437968
6	0xbe4f06fc	-0.20217508
7	0x3dc1fff7	0.094726495
8	0xbe286e0e	-0.16448233
9	0xbe340147	-0.17578612
10	0x3e3521c5	0.17688663
11	0xbdb7af51	-0.08968986
12	0x3cbc4b19	0.022985028
13	0xbe2c5355	-0.16828664
14	0xbaecf1e0	-0.0018077455
15	0xbe03afb5	-0.12859996
16	0x3f01719f	0.50564
17	0xbeee9d30	-0.466043
18	0x3e627ec2	0.22118667
19	0xbd01484a	-0.03156308
20	0xbec25163	-0.37952718
21	0xbe8483ea	-0.25881892
22	0xbe6b8d77	-0.23003183
23	0xbbb9aa94	-0.0056660865
24	0xbd979b53	-0.074026726
25	0xbd5c2f1e	-0.053755872
26	0x3db43d5e	0.08800767
27	0x3ebb247c	0.36551273
28	0xbe75d8fe	-0.24008557
29	0xbf8cc71c	-1.0998263
30	0x3cf13135	0.029442409
31	0x3d98a7bf	0.0745387
32	0x3e222395	0.15833886
33	0x3e29bcb7	0.16575895
34	0x3d979faf	0.07403504
35	0x3d284924	0.041085377
36	0xbd4362a5	-0.047701497
37	0xbdb81317	-0.08988016
38	0x3cdf322b	0.027245602
39	0xbcd45d3c	-0.025923364
40	0x3ee52ed6	0.44762295
41	0x3f44da2c	0.76895404
42	0xbdbf71ce	-0.093478784
43	0x3dbdb5c2	0.09263183
44	0xbe2d2c49	-0.16911425
45	0xbe322842	-0.1739817
46	0xbeb7b8f7	-0.35883304
47	0xbefe357c	-0.4965018
48	0xbcd29ea7	-0.025710417
49	0x3d5645eb	0.052312773
50	0xbec7a429	-0.38992432
51	0xbd2a8e39	-0.04163954
52	0x3ef8b681	0.4857674
53	0x3c4a143f	0.012333929
54	0x3cbedfdf	0.02330011
55	0x3e366d0f	0.1781504
56	0xbda55c38	-0.0807423
57	0xbe0c4caa	-0.1370112
58	0x3cf695c8	0.030100718
59	0xbe04a95d	-0.12955232
60	0x3ed4262a	0.41435367
61	0x3e824787	0.25445196
62	0x3e87ad6b	0.26499495
63	0x3db3b5db	0.087749206
64	0x3e41f33f	0.18940447
65	0x3daa1f8d	0.08306799
66	0xbdfdeda2	-0.123988405
67	0xbe4bf936	-0.19919285
68	0xbf622a79	-0.8834606
69	0x3ef375fc	0.47550952
70	0x3f5f33ba	0.87188303
71	0xbdc1a7e2	-0.09455849
72	0xbd99dc16	-0.07512681
73	0xbe47ee34	-0.19524461
74	0x3e196482	0.14979747
75	0xbe58900d	-0.21148701
76	0xbe22c915	-0.15897019
77	0x3e04df35	0.12975772
78	0x3dccc98d	0.0999938
79	0x3e2666c6	0.16250142
80	0x3d20ad5d	0.039227832
81	0xbc231d37	-0.009955696
82	0x3c7afbc1	0.015318812
83	0x3e3efc53	0.18650942
84	0x3cdb3489	0.02675845
85	0x3e085df2	0.13317087
86	0x3e3660ca	0.1781036
87	0x3c2ef895	0.010679384
88	0xbc907e9b	-0.017638495
89	0x3d92ffc5	0.071776904
90	0xbe1e32e3	-0.15449099
91	0xbe3b574c	-0.1829502
92	0xbd8d0af6	-0.06886856
93	0xbe1cfc49	-0.15330614
94	0xbd900acc	-0.07033309
95	0x3cad9623	0.021189755
96	0xbc2070ab	-0.009792487
97	0x3a1d60fe	0.00060035277
98	0x3e0c11da	0.13678685
99	0xbddd4fdd	-0.10806248
100	0xbea4a729	-0.32158783
101	0xbe8258d6	-0.254584
102	0xbc9617d1	-0.018321903
103	0x3c512786	0.012765771
104	0x3e5068ed	0.20352526
105	0xbe412e9b	-0.18865435
106	0x3db54a64	0.088520795
107	0x3e299ba8	0.16563284
108	0xbcf1d655	-0.029521147
109	0xbbda0f0e	-0.0066546267
110	0x3e1aad92	0.15105274
111	0xbccddcd3	-0.025129711
112	0x3ebf2e79	0.37340143
113	0xbea10be8	-0.31454396
114	0xbd687920	-0.05675614
115	0x3e372dca	0.17888561
116	0xbed51adf	-0.41622064
117	0x3d9e25b9	0.07722039
118	0xbe32a330	-0.17445064
119	0x3d575727	0.05257335
120	0xbe7521af	-0.2393863
121	0xbe51523d	-0.20441528
122	0xbe1fd0c2	-0.15606979
123	0xbe395ca7	-0.1810175
124	0x3be65502	0.0070291767
125	0x3f6621d2	0.89895356
126	0x3e2ebaf5	0.17063506
127	0x3d23e027	0.04000869
128	0x3df8e216	0.121524975
129	0x3e4cfd95	0.20018609
130	0x3c89f568	0.016840652
131	0xbde453c6	-0.11148791
132	0x3de7e7cf	0.11323511
133	0x3e104357	0.14088188
134	0x3e3744fc	0.17897409
135	0x3e930e00	0.2872162
136	0xbe0f2ca0	-0.13981867
137	0xbf1a0535	-0.60164195
138	0x3ceaf0b8	0.028679237
139	0x3e517c1b	0.20457499
140	0x3e9d873c	0.30767238
141	0xbd378dec	-0.04481308
142	0x3db526e6	0.0884531
143	0x3ee398e1	0.44452575
144	0x3e324928	0.1741072
145	0x3d4eb6bf	0.05046725
146	0xbe28850e	-0.16457006
147	0x3e1a64a8	0.1507746
148	0x3e7777d7	0.24166809
149	0x3d4a5730	0.049399555
150	0x3e4f0f4c	0.20220679
151	0x3c905332	0.017617796
152	0x3db13447	0.08652549
153	0xbdec9d03	-0.11553385
154	0xbde63923	-0.11241367
155	0x3dfa380c	0.12217721
156	0x3e140eac	0.14458722
157	0xbdbd7100	-0.09250069
158	0x3d4b7ced	0.049679685
159	0xbe137590	-0.14400315
160	0x3e9606f0	0.29302168
161	0x3c006fda	0.0078391675
162	0xbd511f32	-0.05105514
163	0xbe7f0951	-0.24905898
164	0xbf169c0e	-0.5883187
165	0x3dc22ad7	0.09480827
166	0xbdaa88f1	-0.08326901
167	0xbd9a19d2	-0.07524456
168	0xbc71d14d	-0.014759374
169	0xbca1e172	-0.019760821
170	0xbe48d1af	-0.19611238
171	0xbde1f40f	-0.110328786
172	0x3da4dfc2	0.08050491
173	0x3ed0c9a9	0.40778854
174	0x3c8d9a8e	0.017285611
175	0x3e0672ef	0.13129781
176	0xbe3f4e78	-0.18682277
177	0x3d3b0ba2	0.04566539
178	0x3d0b0f0c	0.033949897
179	0x3e264dda	0.16240636
180	0x3e948315	0.29006258
181	0x3cf092f3	0.029366946
182	0x3ea3381f	0.31878754
183	0xbe43afb6	-0.19109997
184	0x3dcc91a1	0.09988714
185	0x3f2be3f1	0.67144686
186	0xbd8cd394	-0.06876293
187	0xbe3ef0ef	-0.18646596
188	0xbf1a7720	-0.6033802
189	0x3e76e953	0.24112444
190	0x3f074173	0.5283424
191	0x3fa0f76c	1.2575507

bias f4 [8]
0	0xbdf6af5a	-0.120451644
1	0xbe9fd79e	-0.3121919
2	0x3eb2e597	0.34940788
3	0xbe1096fb	-0.14120094
4	0xbe1daa76	-0.15397057
5	0xbca6bd12	-0.020353828
6	0xbdc728ed	-0.09724603
7	0x3e948f58	0.29015613

weight f4 [8, 8, 3]
0	0x3d6976e3	0.056998145
1	0x3e8e28b0	0.27765417
2	0xbcc71ad7	-0.02430479
3	0xbe0143db	-0.12623541
4	0xbdc1dae2	-0.09465577
5	0xbd730ee8	-0.059340388
6	0x3d672d59	0.05643973
7	0xbd1603b1	-0.036624614
8	0xbd93a154	-0.07208505
9	0xbd84c257	-0.0648238
10	0x3d86762c	0.06565508
11	0x3e0ca5f7	0.13735186
12	0xbde541f7	-0.111942224
13	0xbd49316e	-0.049119405
14	0xbe16b17c	-0.14716142
15	0xbf170d94	-0.59005094
16	0xbec4b9c7	-0.38422987
17	0xbed477ec	-0.41497743
18	0x3e0bb52f	0.13643335
19	0x3be9d636	0.0071361316
20	0xbd2dcaab	-0.042429607
21	0xbe49e057	-0.19714485
22	0xbdea2ac9	-0.11433942
23	0xbd138fc6	-0.036025785
24	0xbe9c326b	-0.30507216
25	0x3f0b9bc8	0.5453458
26	0x3ef1b9ed	0.47212163
27	0x3c321e21	0.010871441
28	0xbbff5348	-0.0077919103
29	0x3f69a326	0.9126457
30	0x3e796a83	0.24357037
31	0xbe99012e	-0.29883713
32	0xbec3812f	-0.38184497
33	0xbd437eae	-0.047728233
34	0x3db30f37	0.087431364
35	0x3c0f0e9b	0.00873151
36	0x3d2a0be7	0.041515257
37	0x3ea6151b	0.32437977
38	0x3ee09c24	0.43869126
39	0xbe0cdd2f	-0.1375625
40	0x3de81d82	0.11333753
41	0xbf27da17	-0.65567154
42	0x3e07a677	0.13247095
43	0xbd21e7e4	-0.03952779
44	0xbeb7a407	-0.3586733
45	0xbe1f334a	-0.15546909
46	0x3e6b5120	0.22980165
47	0xbecc9ff3	-0.39965782
48	0xbd87cece	-0.06631242
49	0xbca418c7	-0.020031346
50	0x3dee6637	0.1164059
51	0xbe806b65	-0.25081936
52	0xbe7ced9b	-0.24700014
53	0x3eaa3203	0.3324128
54	0xbde29680	-0.11063862
55	0xbe5376f4	-0.20650846
56	0xbdc709cb	-0.09718665
57	0x3e4cd995	0.20004876
58	0x3db76578	0.089549005
59	0x3e65ae02	0.2242966
60	0xba5859d0	-0.0008253129
61	0x3e64407f	0.22290228
62	0x3b526d17	0.003210848
63	0x3e839535	0.25699773
64	0x3c961d22	0.018324438
65	0xbf02a895	-0.51038486
66	0xbe116e44	-0.14202219
67	0x3cac3d2f	0.021025268
68	0xbe5a4fae	-0.21319458
69	0xbdeb121d	-0.11478064
70	0xbda01c94	-0.07817951
71	0xbd60f8dc	-0.05492483
72	0x3dd4d952	0.10393013
73	0x3ebe0210	0.3711095
74	0xbcbafa62	-0.02282447
75	0x3dd9334c	0.10605487
76	0x3d11d775	0.035605866
77	0xbe7c1021	-0.24615528
78	0xbe6255ae	-0.22102997
79	0xbd8c9bc0	-0.068656445
80	0x3be8cb7a	0.0071043344
81	0xbe2eaf12	-0.17058972
82	0xbddf31a6	-0.108981416
83	0x3d04b270	0.032396734
84	0x3db0109c	0.08596918
85	0x3e0114ba	0.12605563
86	0x3a86a115	0.0010271395
87	0x3e85a5f8	0.26103187
88	0xbc43df78	-0.011955135
89	0xbed3833f	-0.4131107
90	0x3c305c4e	0.010764195
91	0xbdec9505	-0.11551861
92	0x3cc1c743	0.023654586
93	0xbe8d7a29	-0.27632263
94	0xbe8bff91	-0.2734342
95	0xbe6deda0	-0.23235178
96	0x3bed3e7f	0.007240116
97	0x3d63eba8	0.05564466
98	0x3da63e07	0.081172995
99	0x3e5db811	0.21652247
100	0xbe03d83e	-0.12875459
101	0xbed05081	-0.4068642
102	0x3e4f78d1	0.20260932
103	0xbea9fd92	-0.3320127
104	0xbc7ed75b	-0.015554274
105	0xbc841dbe	-0.016127463
106	0xbc64b9bb	-0.013960297
107	0xbd869a49	-0.06572396
108	0x3d2584d3	0.040409874
109	0xbe22a4b8	-0.15883148
110	0x3e14915c	0.14508575
111	0x3d4824cf	0.04886323
112	0xbeb04971	-0.3443103
113	0xbea9bd18	-0.3315208
114	0x3d942b92	0.07234873
115	0xbe05d3f2	-0.13069132
116	0xbd0db3d6	-0.034595333
117	0x3db37949	0.08763368
118	0xbea7f124	-0.32801163
119	0xbe82b666	-0.25529784
120	0xbd9ffb50	-0.07811606
121	0x3e3ae83c	0.18252653
122	0xbe3d9114	-0.18512374
123	0x3e9c7e5a	0.3056515
124	0x3c420187	0.011841184
125	0xbeba2296	-0.36354512
126	0x3dff19fd	0.12456129
127	0xbbbd7e8e	-0.0057829088
128	0xbc8a99f2	-0.01691911
129	0xbe14b70a	-0.14522949
130	0xbd499a4e	-0.049219422
131	0xbd1fa51d	-0.038975824
132	0xbe134689	-0.14382376
133	0x3e646ada	0.22306386
134	0x3e08d56f	0.13362668
135	0xbe433238	-0.19062126
136	0xbd722c1d	-0.0591241
137	0xbef75b9f	-0.4831209
138	0xbcb86773	-0.022510266
139	0x3c895a10	0.016766578
140	0xbe44f9c3	-0.19235902
141	0xbd888d59	-0.06667585
142	0x3ccba841	0.024860503
143	0xbd0ad360	-0.03389299
144	0xbd9638b8	-0.07335037
145	0x3e00baf2	0.12571314
146	0x3e0a9496	0.13533244
147	0xbe078ef8	-0.13238132
148	0x3e447d53	0.19188432
149	0x3e4efab5	0.20212825
150	0xbe9beb12	-0.30452782
151	0xbf2b7107	-0.6696934
152	0xbf064449	-0.52447945
153	0xbd7ad9d7	-0.061242905
154	0x3e36f89a	0.17868271
155	0x3e2855bb	0.16438954
156	0x3dd3c560	0.10340381
157	0x3ca8c868	0.020603374
158	0x3c6f3868	0.014600851
159	0xbe28cdf2	-0.16484812
160	0x3ea0f848	0.31439424
161	0x3e4992b1	0.19684865
162	0x3e32728f	0.17426513
163	0xbe216e3e	-0.1576471
164	0xbed19b7f	-0.40938947
165	0x3e20db61	0.15708686
166	0x3ddd124c	0.107945055
167	0xbf80de4a	-1.0067837
168	0xbcafbf9f	-0.021453677
169	0x3d39f9f6	0.045404397
170	0xbdd0bb85	-0.101920165
171	0x3d4ba68a	0.04971937
172	0x3c125126	0.00893048
173	0xbec115e8	-0.37712026
174	0xbd266b1b	-0.040629487
175	0xbd01cfb1	-0.03169221
176	0xbdc33a27	-0.09532576
177	0x3e1e388c	0.15451258
178	0xbe3165a2	-0.17323926
179	0xbe04301f	-0.12908982
180	0x3e440411	0.19142176
181	0xbe903416	-0.28164738
182	0xbc1c0e16	-0.009524843
183	0x3de6d7a4	0.11271599
184	0x3e0ddc99	0.13853683
185	0xbec178bc	-0.37787426
186	0xbdc49663	-0.095989965
187	0xbe1cae73	-0.15300922
188	0x3d8561e6	0.06512813
189	0xbe287721	-0.16451694
190	0xbda8fb64	-0.08251074
191	0xbe90bb20	-0.28267765

bias f4 [8]
0	0x3efcc958	0.49372363
1	0x3e762a41	0.24039556
2	0x3e616d6e	0.220144
3	0x3ecbc3b0	0.39797735
4	0x3f30717e	0.68923175
5	0x3d8b3691	0.06797517
6	0x3f3f8ea5	0.74827033
7	0x3eeadb72	0.45870548

weight f4 [8, 8, 3]
0	0xbec58855	-0.38580576
1	0xbeb9dbd6	-0.36300534
2	0xbe2f2dc3	-0.171073
3	0x3e02cb11	0.12772776
4	0xbc994036	-0.018707376
5	0xbf932da1	-1.14983
6	0xbd6c5e79	-0.057707284
7	0xbf056272	-0.5210334
8	0xbe5db345	-0.21650417
9	0xbca4b79d	-0.020107085
10	0xbf273b4e	-0.65324867
11	0xbe653c52	-0.22386292
12	0xbec86f7c	-0.39147556
13	0xbf0396eb	-0.5140216
14	0xbed38642	-0.41313368
15	0x3aab1e17	0.0013055232
16	0xbeec752f	-0.46183154
17	0x3d853c17	0.06505602
18	0x3e531515	0.20613511
19	0xbbd0e891	-0.0063753803
20	0xbf916470	-1.1358776
21	0xbdf5d254	-0.120030075
22	0xbe874739	-0.26421526
23	0xbe42e720	-0.1903348
24	0xbda90ccd	-0.08254395
25	0x3c74b613	0.014935988
26	0xbd811494	-0.06302753
27	0xbeacac0d	-0.33725014
28	0xbef81650	-0.48454523
29	0x3f470391	0.77739817
30	0xbd7212a5	-0.059099812
31	0xbeaf2f4e	-0.34215778
32	0x3eaa3858	0.33246112
33	0xbe22e8a0	-0.15909052
34	0x3ddb4d47	0.10708099
35	0xbe903707	-0.28166983
36	0xbe782bd2	-0.24235466
37	0xbe3cda37	-0.18442617
38	0x3b001449	0.001954334
39	0xbd220747	-0.03955772
40	0xbe18cf56	-0.14922842
41	0x3d2700e4	0.040772334
42	0xbea15466	-0.31509703
43	0xbedc1ca8	-0.42990613
44	0x3eb6236f	0.3557391
45	0xbd9ad8f0	-0.07560909
46	0xbb0987f8	-0.0020985585
47	0xbed5f483	-0.4178811
48	0xbcac3a2c	-0.021023832
49	0xbe7fa267	-0.24964295
50	0xbde54738	-0.111952245
51	0x3cf97a91	0.030453952
52	0xbd6bf615	-0.05760773
53	0xbf1e64df	-0.6187267
54	0xbda0d873	-0.078537844
55	0x3e2f1784	0.17098814
56	0xbdf83e43	-0.121212505
57	0xbd2b0994	-0.04175718
58	0x3d292918	0.041298956
59	0x3dbdb466	0.09262924
60	0x3e094e99	0.13408889
61	0xbdeb49e7	-0.11488705
62	0x3dfd8088	0.12378031
63	0xbe4c6645	-0.19960888
64	0xbeb3e05a	-0.35132104
65	0xbe479338	-0.19489753
66	0xbe48c3c0	-0.19605923
67	0xbdf8a188	-0.12140185
68	0x3c2ac4b3	0.010422873
69	0xbd167190	-0.036729395
70	0x3d02568d	0.031820823
71	0x3bc6dfe7	0.0060691717
72	0xbe45b6bc	-0.19307989
73	0xbc5d3c28	-0.013503112
74	0xbde4c06d	-0.11169515
75	0x3e2b8e05	0.16753395
76	0xbe4a4b59	-0.19755305
77	0xbeead300	-0.45864105
78	0xbe527634	-0.20552903
79	0xbd0113ac	-0.0315129
80	0xbe0e0f2a	-0.13872972
81	0xbc912adc	-0.017720632
82	0xbe878e19	-0.264756
83	0xbe11f929	-0.14255203
84	0xbe64d6fc	-0.22347635
85	0x3d13a529	0.03604618
86	0xbd623659	-0.05522761
87	0x3e477b71	0.19480683
88	0xbe1bbf67	-0.15209733
89	0xbe29fb06	-0.16599664
90	0x3f0b6886	0.54456365
91	0xbc5de93d	-0.013544378
92	0xbeb720d5	-0.35767236
93	0x3e5aaaad	0.2135417
94	0x3d752296	0.059847437
95	0xbe15db39	-0.14634408
96	0x3c9a7b4e	0.018857624
97	0xbe06dc15	-0.13169892
98	0x3d951397	0.07279127
99	0xbdb54002	-0.08850099
100	0x3a5b968a	0.0008376619
101	0x3d03494a	0.032052316
102	0x3dde1903	0.10844614
103	0xbe0c37b9	-0.13693132
104	0xbe71cf5d	-0.23614259
105	0xbbad5c7e	-0.005290567
106	0xbd778fd5	-0.060439903
107	0xbe2fd534	-0.17171174
108	0xbcf0b8ac	-0.029384933
109	0xbe125a54	-0.1429227
110	0x3c82ae7b	0.01595234
111	0xbd9ee516	-0.077585384
112	0xbe21fe83	-0.15819745
113	0xbd895939	-0.06706471
114	0xbeb38994	-0.350659
115	0xbeb4f09f	-0.3533983
116	0xbea4d2a4	-0.32191956
117	0xbda2aa73	-0.07942667
118	0xbe3d2626	-0.18471584
119	0xbe84e474	-0.25955546
120	0x3e2d63fa	0.1693267
121	0x3eb39ec1	0.35082057
122	0x3e38218f	0.17981552
123	0x3d150481	0.03638125
124	0xbe335f7b	-0.17516892
125	0xbe714ffa	-0.23565665
126	0xbd724a7f	-0.059153076
127	0x3e87be31	0.26512292
128	0x3d0e1be5	0.03469457
129	0x3decbc56	0.1155936
130	0xbe03e5ef	-0.12880681
131	0xbb039bed	-0.0020081953
132	0x3e933e43	0.2875844
133	0x3e3b5d68	0.1829735
134	0x3e4e07ed	0.20120211
135	0xbda36ea7	-0.0798009
136	0x3e7da09f	0.24768303
137	0x3d640d29	0.055676613
138	0xbe0b6e78	-0.13616359
139	0xbc0aab18	-0.0084636435
140	0x3e6c81e8	0.2309643
141	0xbd30e8f8	-0.043190926
142	0x3e8fe31a	0.28102952
143	0x3dc8bf17	0.098020725
144	0x3da39a3b	0.079884015
145	0xbd34a0ca	-0.044098653
146	0xbd5dfc87	-0.054195907
147	0x3e217939	0.15768899
148	0xbe2ca110	-0.16858315
149	0xbdd991cd	-0.106235124
150	0xbe169c48	-0.14708054
151	0xbe087634	-0.13326341
152	0x3e1668cf	0.14688419
153	0xbe204d3c	-0.15654463
154	0x3e297306	0.16547784
155	0x3dd14ab3	0.10219326
156	0x3d7a5666	0.061117552
157	0x3d0b1f6d	0.033965517
158	0xbe43e726	-0.19131145
159	0x3d14fa33	0.03637142
160	0x3d49d2e8	0.0492734
161	0xbe1d5b89	-0.15366949
162	0x3aad45c4	0.0013219644
163	0xbdbed056	-0.09317081
164	0xbd16bd7e	-0.036801808
165	0xbe054133	-0.13013153
166	0xbdc3f50e	-0.09568225
167	0xbd3dbdd5	-0.046323616
168	0x3dc87d28	0.09789497
169	0x3e1f3b51	0.15549971
170	0x3e1a04d9	0.15040912
171	0xbcc2209b	-0.023697188
172	0x3e3de2a1	0.18543483
173	0x3e632989	0.22183813
174	0xbcdf6d6c	-0.027273856
175	0xbe1c4e77	-0.15264307
176	0xbe005563	-0.12532572
177	0xbe4f8ad7	-0.20267807
178	0xbce58227	-0.028016163
179	0xbd54022c	-0.051759884
180	0x3e0397fe	0.12850949
181	0x3e90a62e	0.28251785
182	0x3d7bff5c	0.061522827
183	0x3df22b3c	0.118246526
184	0x3c03d14b	0.008045505
185	0x3d82df5e	0.0639026
186	0xbef3867a	-0.47563535
187	0xbee4599e	-0.44599622
188	0xbf11fa47	-0.5702252
189	0xbd56234e	-0.052279763
190	0xbdb7dfa8	-0.08978206
191	0xbe0f8f55	-0.1401952

bias f4 [8]
0	0x3f44c391	0.7686091
1	0xbe2c0b5b	-0.16801207
2	0x3f1be332	0.6089355
3	0x3d37320f	0.044725474
4	0x3e159d3c	0.14610761
5	0xbcdaa688	-0.026690736
6	0xbde4faa3	-0.11180618
7	0x3e2f3e1f	0.17113541

weight f4 [8, 8, 3]
0	0x3e962267	0.29323122
1	0x3ede6e7f	0.43443677
2	0xbe456e03	-0.19280247
3	0x3d5cacc4	0.0538757
4	0x3cf56a67	0.029957963
5	0x3ed37a2d	0.4130415
6	0xbd8d1953	-0.06889596
7	0xbd1cb18e	-0.038255267
8	0xbe6fee25	-0.23430689
9	0xbe532877	-0.20620905
10	0xbe155f31	-0.14587094
11	0xbde7caae	-0.11317955
12	0xbd0a9a9c	-0.033838853
13	0x3d60d06b	0.054886263
14	0xbdf4ecf1	-0.119592555
15	0x3dedb96d	0.11607633
16	0x3e1a5963	0.15073161
17	0xbe2c9424	-0.16853386
18	0xbe375697	-0.17904125
19	0x3d29f64a	0.041494645
20	0xbd9cbb34	-0.07652894
21	0x3d652121	0.055939797
22	0x3e06fef1	0.1318319
23	0x3dbc59b1	0.09196795
24	0xbe5546ce	-0.20827791
25	0xbec07d5f	-0.3759565
26	0xbf351e4e	-0.70749366
27	0x3d89c233	0.06726494
28	0xbd97557c	-0.07389352
29	0xbd8de463	-0.06928327
30	0x3d8c87e3	0.06861856
31	0x3f1aa2c1	0.6040459
32	0x3ec86ceb	0.39145598
33	0xbd47edc5	-0.04881074
34	0xbd9398d3	-0.07206883
35	0x3e2dbc63	0.16966395
36	0xbe451e7e	-0.19249913
37	0xbdae364a	-0.085064486
38	0xbe423dd1	-0.18968894
39	0xbdcefe7b	-0.10107132
40	0x3db15491	0.08658708
41	0x3dfadb0c	0.12248811
42	0x3d3e1ef0	0.046416223
43	0x3d17f9f7	0.03710362
44	0xbdb4fe16	-0.088375255
45	0xbdbb4a4a	-0.09145029
46	0xbd98b66f	-0.074566714
47	0xbe86766e	-0.2626223
48	0xbe3694c0	-0.17830181
49	0xbd8ebfca	-0.069701746
50	0x3c3f99e4	0.011694405
51	0xbe2982f8	-0.16553867
52	0xbdb34920	-0.08754182
53	0x3d2bbffd	0.04193114
54	0x3c36a917	0.011148713
55	0xbe6e3893	-0.23263769
56	0xbafb5cae	-0.0019177401
57	0xbd6a06f4	-0.057135537
58	0xbde05c0a	-0.10955055
59	0x3e3e0abc	0.18558782
60	0xbdd078b2	-0.10179271
61	0x3d057bec	0.032588884
62	0x3d9d44b3	0.07679119
63	0xbd81e237	-0.06341975
64	0x3bc4ceeb	0.006006112
65	0xbe575ba0	-0.21031046
66	0xbb4d10a1	-0.003129043
67	0xbd1d672a	-0.038428463
68	0x3e2fc1c4	0.1716376
69	0x3dba8609	0.091075964
70	0xbd1c6453	-0.038181614
71	0x3d5b12b1	0.053484622
72	0x3e7fc6cc	0.24978179
73	0x3dda1f39	0.106504865
74	0x3f9f1c76	1.243056
75	0x3e05fbfd	0.13084407
76	0xbdd290a1	-0.10281492
77	0xbe7419c4	-0.23837954
78	0xbda5134a	-0.0806032
79	0xbe68141a	-0.22663918
80	0x3d469cdb	0.048489433
81	0x3e6a5933	0.2288559
82	0x3e2f6328	0.17127669
83	0x3d9856d1	0.07438434
84	0xbe6d753f	-0.23189257
85	0xbf14e2b0	-0.581584
86	0x3a486009	0.0007643705
87	0x3ccb3ea9	0.024810152
88	0xbc98a31a	-0.01863246
89	0xbe10b521	-0.14131595
90	0x3b936e94	0.004499266
91	0x3df84e55	0.12124316
92	0xbe205661	-0.15657951
93	0xbf0733e5	-0.5281356
94	0xbec6f7b8	-0.3886087
95	0xbe4f40db	-0.20239584
96	0xba144ac3	-0.00056568923
97	0xbdba1bec	-0.09087357
98	0x3d30c00a	0.043151893
99	0xbe0dd95f	-0.13852452
100	0x3d48ecf4	0.0490541
101	0xbe2b0862	-0.16702417
102	0xbcbae967	-0.022816373
103	0xbc9e5b6b	-0.0193307
104	0xbe0c16da	-0.13680592
105	0x3d498d56	0.049207054
106	0x3e4cac5a	0.19987622
107	0x3e3fb155	0.1871999
108	0xbe172207	-0.14759074
109	0xbd354b34	-0.044261172
110	0xbd8aae87	-0.0677157
111	0x3e4d285a	0.20034924
112	0xbbc75b9f	-0.00608392
113	0x3da8f16e	0.08249174
114	0x3c0233b8	0.007946901
115	0xbca35f92	-0.019943032
116	0x3dc545fc	0.09632489
117	0xbdab4e41	-0.08364535
118	0x3d5419f8	0.05178258
119	0x3da239e2	0.079211965
120	0x3e171982	0.14755824
121	0xbc94ac56	-0.018148582
122	0xbf0cdf5a	-0.5502831
123	0x3e05cd6a	0.1306664
124	0xbe7579ac	-0.23972195
125	0x3f6e1b6b	0.93010587
126	0xbebbc542	-0.36673933
127	0xbf858188	-1.0430155
128	0xbf724a0a	-0.94644225
129	0xbcba7dd4	-0.022765078
130	0xbeab4194	-0.3344847
131	0xbed62b61	-0.4182997
132	0xbd3fca94	-0.046824053
133	0xbe3d91a4	-0.18512589
134	0xbdb9935b	-0.09061309
135	0xbd667fb7	-0.056274142
136	0xbe74d410	-0.2390902
137	0xbec811f8	-0.3907621
138	0x3e10e874	0.14151174
139	0x3db1304a	0.086517885
140	0x3d867866	0.06565933
141	0xbe5f0cf1	-0.2178228
142	0xbeab02ad	-0.3340048
143	0xbe96a576	-0.29423112
144	0xbd058efb	-0.03260706
145	0x3db4553c	0.0880532
146	0xbd49f534	-0.04930611
147	0xba20e0c7	-0.000613701
148	0xbdb92c04	-0.090415984
149	0xbe2a6cc9	-0.1664306
150	0xbe0d9ec5	-0.13830097
151	0x3bb1c76c	0.0054253843
152	0xbde11a84	-0.109913856
153	0xbdb30c1b	-0.08742543
154	0xbd84eccc	-0.06490478
155	0xbc279636	-0.010228684
156	0xbdaf5577	-0.08561223
157	0x3e9c298b	0.30500445
158	0x3e0f57fe	0.1399841
159	0x3e6761b7	0.22595869
160	0x3db3fb9d	0.08788226
161	0x3e5abf0e	0.21361944
162	0xbda43188	-0.0801726
163	0xbdf3dd9c	-0.11907503
164	0x3d83b553	0.06431069
165	0x3e22f9c1	0.15915586
166	0xbc7749df	-0.015093296
167	0x3dd0332a	0.10166009
168	0xbefc5af1	-0.49288133
169	0xbf38032c	-0.7187984
170	0xbf5bebf9	-0.8590694
171	0x3ce772a8	0.028252915
172	0xbead4a4e	-0.33845752
173	0xbe1b4abe	-0.1516523
174	0xbe339d48	-0.17540467
175	0x3e48e3eb	0.19618194
176	0x3e251860	0.1612258
177	0xbe12151d	-0.14265867
178	0xbdb6733a	-0.089086965
179	0xbe1af4ac	-0.15132397
180	0x3d7efcdd	0.062252868
181	0xbc715f46	-0.014732188
182	0xbe578a2e	-0.21048805
183	0xbbf9fb44	-0.00762883
184	0xbe2c1939	-0.16806497
185	0x3d886065	0.06659011
186	0x3dc424f7	0.09577363
187	0xbe00c28b	-0.12574212
188	0x3cd4d83b	0.025982013
189	0x3da3c97a	0.07997413
190	0x3e26e23c	0.16297239
191	0x3e398435	0.18116839

bias f4 [8]
0	0xbe80e936	-0.25177926
1	0xbdbd7db6	-0.09252493
2	0xbdd03e0b	-0.10168084
3	0xbec8dd41	-0.39231303
4	0xbe921b82	-0.28536612
5	0x3f39762c	0.7244594
6	0xbef9dba4	-0.48800385
7	0x3ef23fe5	0.47314373

weight f4 [8, 8, 3]
0	0x3da5b634	0.08091393
1	0xbe9a7601	-0.30168155
2	0xbe609c5f	-0.21934651
3	0xbdd2d8c6	-0.102952525
4	0xbe3920c4	-0.18078905
5	0xbe3e60f4	-0.18591672
6	0x3d516f97	0.05113181
7	0xbcbd91d1	-0.02314082
8	0xbdf993bc	-0.12186381
9	0xbde8ec9c	-0.11373255
10	0x3e30cc87	0.17265521
11	0xbe65b5a4	-0.22432572
12	0xbddbe30f	-0.10736667
13	0x3dd4d711	0.10392583
14	0xbe1af875	-0.15133841
15	0xbc6a58a9	-0.014303365
16	0x3d8d11b6	0.06888144
17	0xbe31099f	-0.17288826
18	0xbe0c3401	-0.13691713
19	0xbdc7af0f	-0.09750187
20	0x3e4bdbc3	0.19908051
21	0xbe3d27b2	-0.18472174
22	0xbe994d1d	-0.29941645
23	0x3d55c085	0.052185554
24	0x3d72f5ee	0.059316568
25	0xbe028cd2	-0.12749031
26	0x3dfa9189	0.1223479
27	0xbddcc8c3	-0.1078048
28	0x3de38348	0.11109024
29	0x3dc6d64a	0.09708841
30	0x3e263659	0.1623167
31	0x3c8c91fa	0.01715945
32	0x3de8c4e7	0.11365681
33	0xbdc24197	-0.094851665
34	0xbe619b55	-0.2203191
35	0x3d93ab95	0.07210461
36	0x3e211703	0.15731435
37	0x3e58930f	0.21149848
38	0xbc8c636e	-0.017137256
39	0xbe2cae35	-0.1686333
40	0x3e38b408	0.18037426
41	0xbc9cf005	-0.019157419
42	0x3db0f7fe	0.08641051
43	0xbd92f4ee	-0.07175623
44	0x3e0fbd6e	0.14037105
45	0xbcf856cb	-0.030314824
46	0xbe495386	-0.19660768
47	0x3e1a3d45	0.15062435
48	0x3d7e126d	0.06202929
49	0xbe62defe	-0.22155377
50	0x3eb73b14	0.3578726
51	0xbe849e30	-0.25901937
52	0x3d700abd	0.05860399
53	0xbde0faf7	-0.10985368
54	0x3e613003	0.21990971
55	0xbd868ba8	-0.06569606
56	0xbcc18ce7	-0.023626758
57	0x3eeea289	0.4660838
58	0x3e6cc0ab	0.23120372
59	0x3e13dcaf	0.14439653
60	0x3e00a102	0.1256142
61	0x3e4b6488	0.19862568
62	0xbcab2f7b	-0.020896664
63	0xbdf7f253	-0.121067666
64	0xbe338d7c	-0.17534441
65	0x3efd9160	0.49524975
66	0x3e055036	0.1301888
67	0xbe21969e	-0.15780112
68	0xbe3835ff	-0.17989348
69	0xbe875655	-0.26433054
70	0xbe4b1f85	-0.19836242
71	0xbe82e94c	-0.25568616
72	0xbb60afd1	-0.0034284482
73	0xbd941a6f	-0.07231604
74	0xbe528cc6	-0.20561513
75	0xbe46aac1	-0.19401075
76	0xbe4f293c	-0.20230573
77	0xbdf5015b	-0.11963149
78	0x3de8e7bc	0.11372325
79	0x3de2c856	0.11073367
80	0xba9aa31f	-0.0011797881
81	0xbe320e66	-0.17388305
82	0x3c92ecff	0.017935274
83	0xbe8efa13	-0.27925166
84	0x3d643000	0.05570984
85	0xbd8fcf3d	-0.070219494
86	0x3c810b82	0.015752558
87	0xbe2026c8	-0.15639794
88	0xbdc89a2d	-0.09795032
89	0x3dae44ee	0.08509241
90	0x3e171b0c	0.14756411
91	0x3df443df	0.11927008
92	0x3e905ad0	0.28194284
93	0x3d3274dd	0.04356848
94	0xbc87145b	-0.016489198
95	0xbdb5fce9	-0.088861294
96	0x3d9c3595	0.076274075
97	0xbe57a0e7	-0.21057473
98	0x3e0a6d52	0.13518265
99	0xbd001d81	-0.031278137
100	0x3c4acd98	0.012378119
101	0xbe3310b1	-0.17486836
102	0x3e0fc382	0.14039424
103	0xbdbf33ac	-0.093360275
104	0x3c996a5e	0.018727478
105	0xbe56d687	-0.20980273
106	0xbdb5b761	-0.088728674
107	0x3efeb3a1	0.4974642
108	0x3dcf9b9a	0.101371005
109	0xbd9d1d0e	-0.07671557
110	0xbe45ca24	-0.19315392
111	0x3ec3d102	0.38245398
112	0x3e9d2263	0.30690297
113	0xbebd71b3	-0.37000808
114	0xbe1c9fa8	-0.15295279
115	0x3e0a7d0d	0.13524266
116	0xbe44fd23	-0.19237189
117	0x3da11fb8	0.07867378
118	0xbdfef9d4	-0.12449995
119	0xbe22b203	-0.15888219
120	0xbe120999	-0.14261474
121	0xbc82f39e	-0.015985306
122	0xbdb4a28d	-0.088200666
123	0xbd9e6d6f	-0.077357166
124	0x3c93563c	0.017985456
125	0xbe3ad9c9	-0.18247141
126	0x3e3566b6	0.17714962
127	0xbe38d176	-0.18048653
128	0xbddc5a93	-0.10759463
129	0xbd481fec	-0.048858568
130	0x3d64c161	0.055848483
131	0x3eb02477	0.3440282
132	0xbd8e1a40	-0.069386005
133	0x3bf41e82	0.007449926
134	0x3d307244	0.043077722
135	0x3e88f268	0.2674744
136	0x3e3e6947	0.18594848
137	0xbd3f806e	-0.04675334
138	0xbe0fdc71	-0.14048935
139	0x3e1f13ec	0.15534943
140	0x3bd4220a	0.0064737843
141	0x3e87a192	0.26490456
142	0x3d9e53ec	0.077308506
143	0xbc9e3d7b	-0.019316426
144	0xbe3547bb	-0.17703144
145	0xbdc54728	-0.096327126
146	0xbdd922d1	-0.10602344
147	0x3bd222a3	0.0064128204
148	0xbd676bfe	-0.056499474
149	0xbe77bbce	-0.24192736
150	0xbb23e226	-0.002500662
151	0xbda53b7c	-0.08067986
152	0xbd801cb4	-0.06255475
153	0xbe61ce80	-0.2205143
154	0x3df30540	0.11866236
155	0xbe23c779	-0.15994062
156	0xbe5d9067	-0.21637116
157	0xbe3196b7	-0.1734265
158	0xbe0e45a0	-0.13893747
159	0xbe1af1d4	-0.15131313
160	0xbe1f66bf	-0.15566538
161	0x3df5f175	0.12008945
162	0xbca17868	-0.019710734
163	0xbbf749b2	-0.007546627
164	0x3d490727	0.049079087
165	0xbdaf086e	-0.0854653
166	0xbc741fce	-0.014900161
167	0xbd82f913	-0.063951634
168	0x3ca9db6d	0.020734513
169	0x3e3c9da6	0.18419513
170	0xbe00485d	-0.12527604
171	0x3e028253	0.12745027
172	0xbde19f51	-0.11016715
173	0xbe45b606	-0.19307718
174	0x3ddb07b3	0.10694828
175	0xbc737306	-0.014858967
176	0xbdb3325a	-0.08749838
177	0xba9b3372	-0.0011840893
178	0xbe28ee96	-0.16497263
179	0x3a184f54	0.00058101607
180	0xbccd0a1c	-0.025029235
181	0x3c20abc4	0.009806577
182	0xbe04c0e2	-0.12964204
183	0x3c86b47a	0.01644348
184	0xbd9eeb21	-0.07759691
185	0x3ddca4f4	0.1077365
186	0x3e1bd42b	0.15217654
187	0xbe0803de	-0.13282725
188	0x3ad221a0	0.001603175
189	0xbcc114b7	-0.023569448
190	0x3e030944	0.12796503
191	0xbe4b847f	-0.19874762

bias f4 [8]
0	0x3a8377f9	0.0010030261
1	0xbe30e761	-0.17275764
2	0xbcbd433c	-0.023103349
3	0xbd52e935	-0.051491935
4	0xbe7a0271	-0.24414994
5	0xbe8ef77f	-0.279232
6	0xbb58b766	-0.0033068298
7	0xbe184b47	-0.14872466

weight f4 [8, 24, 1]
0	0x3f4ce58e	0.8003777
1	0xbc84ed14	-0.016226329
2	0x3e8fb6b2	0.28069073
3	0x3c0b2b45	0.008494203
4	0x3e61da85	0.22056015
5	0xbdee55da	-0.11637469
6	0xbdabe774	-0.083937556
7	0x3e48f667	0.19625245
8	0xbe874ce7	-0.2642586
9	0xbe6dd15b	-0.23224394
10	0x3cf61284	0.030038126
11	0xbf39a015	-0.7250989
12	0x3e6e4292	0.23267582
13	0xbdd76c4a	-0.105187014
14	0x3ca583f3	0.02020452
15	0xbe8f92be	-0.28041643
16	0x3e131f9c	0.14367527
17	0xbe6cc528	-0.23122084
18	0xbf1c90c3	-0.6115839
19	0xbdb2ef66	-0.08737068
20	0xbd82d9cb	-0.06389197
21	0x3e50aec0	0.20379162
22	0x3df042af	0.11731469
23	0xbe220210	-0.158211
24	0x3ece4693	0.4028822
25	0xbf111f77	-0.56688637
26	0x3eed173b	0.46306786
27	0xbd94508a	-0.07241924
28	0xbda32c58	-0.07967442
29	0xbed09afd	-0.40743247
30	0x3dd2f281	0.1030016
31	0xbe3137fa	-0.1730651
32	0x3dd537e2	0.104110494
33	0xbf30d2ee	-0.69071853
34	0x3dc1b30b	0.09457978
35	0x3f0f03a8	0.55864954
36	0xbd988dea	-0.07448943
37	0xbf260d8b	-0.64864415
38	0xbd350a29	-0.044199143
39	0xbf865ad2	-1.0496466
40	0xbea49b27	-0.32149622
41	0xbd9d205c	-0.07672188
42	0xbeeabb26	-0.45845908
43	0x3e469041	0.19390966
44	0x3eda7c2d	0.42672864
45	0x3ebd1d65	0.3693649
46	0xbd8f2658	-0.06989735
47	0xbdaa772c	-0.083235115
48	0x3cae6565	0.021288583
49	0x3bbd1554	0.005770365
50	0x3c26996a	0.010168413
51	0xbb2ffd91	-0.0026854018
52	0xbe0663cd	-0.13124008
53	0xbcfcbb96	-0.030851167
54	0xbdbd13d7	-0.092323
55	0x3cb7562f	0.022379963
56	0xbb71508f	-0.0036821698
57	0x3c2f864c	0.010713171
58	0xbe15daaf	-0.14634202
59	0xbb9d6c91	-0.004804202
60	0x3d52dec7	0.05148199
61	0xbc4033d5	-0.011731108
62	0x3dd7c49b	0.105355464
63	0xb90fa636	-0.00013699461
64	0x3d4ce6f3	0.050024938
65	0x3e343da2	0.17601636
66	0xbc7a5701	-0.015279532
67	0xbdd79ce0	-0.105279684
68	0x3d127331	0.035754386
69	0x3d7db70f	0.061942156
70	0x3e0d00f9	0.13769902
71	0xbda1fdd4	-0.07909742
72	0xbbb6df03	-0.0055807843
73	0x3ca4aa0b	0.020100614
74	0x3bfaa286	0.007648769
75	0x3bda0a17	0.006654035
76	0x3d8eb6db	0.06968471
77	0x3b5c3ecf	0.0033606773
78	0xbda2b9e4	-0.07945612
79	0xbc758b0b	-0.014986764
80	0x3c849435	0.016183952
81	0xbbf8bc4f	-0.0075908075
82	0xbe2eb318	-0.17060506
83	0x3d4359a3	0.047692906
84	0x3cedcebd	0.029029245
85	0xbc03e936	-0.008051207
86	0xbca62930	-0.020283312
87	0x3c0212a8	0.007939018
88	0x3c25d3c5	0.010121291
89	0x3e4135c8	0.18868172
90	0xbd570a28	-0.05249992
91	0x3cdab858	0.02669923
92	0xbce93df8	-0.028471932
93	0x3d9d8ab9	0.07692475
94	0xbd89a41e	-0.06720756
95	0xbe14a0e2	-0.14514497
96	0xbdfe6513	-0.12421622
97	0xbd3a25fa	-0.045446374
98	0x3d0e7406	0.034778617
99	0xbd41bddb	-0.0473002
100	0xbd6ff942	-0.05858732
101	0xbd5b5f31	-0.05355758
102	0xbd41e6cc	-0.047339246
103	0xbb6fa3d4	-0.0036566155
104	0x3d909138	0.07058948
105	0xbd9ebece	-0.07751237
106	0xbe2980f8	-0.16553104
107	0x3c02acae	0.00797574
108	0x3d60b3c5	0.05485894
109	0xbd64afcb	-0.05583171
110	0x3d9ffa62	0.078114286
111	0xbd94e01f	-0.0726931
112	0x3d27158f	0.040792044
113	0xbde8e91c	-0.11372587
114	0xbbc83920	-0.0061103255
115	0x3c8e1b2b	0.01734694
116	0x3d8b53bd	0.06803081
117	0xbd5d6d7c	-0.05405949
118	0xbb403bd3	-0.0029332533
119	0xbde0a824	-0.1096957
120	0xbe44f431	-0.19233777
121	0xbee32d5a	-0.44370538
122	0x3f6133d7	0.87969726
123	0x3ec6b397	0.3880889
124	0xbd728012	-0.05920417
125	0x3e7c007b	0.24609558
126	0xbe02d836	-0.1277779
127	0xbdf6abf8	-0.12044519
128	0x3d80f964	0.062975675
129	0x3ec42850	0.38312006
130	0x3baac263	0.005211161
131	0x3e420017	0.18945347
132	0xbbdf9a4e	-0.0068238145
133	0xbfa3d65c	-1.2799792
134	0x3ca5a6a5	0.020221064
135	0xbd670caf	-0.05640858
136	0x3d2051e8	0.039140612
137	0xbe2c646d	-0.16835184
138	0xbe9479a8	-0.28999066
139	0xbdcbe0f1	-0.099550135
140	0x3f03a0aa	0.5141703
141	0xbe26f583	-0.16304593
142	0xbd9bb1e9	-0.07602293
143	0x3e1b92ef	0.1519277
144	0x3ef820dd	0.48462573
145	0x3db1646c	0.08661732
146	0x3d08131d	0.033221353
147	0x3dc0a225	0.094059266
148	0xbe765838	-0.2405709
149	0xbe9b733c	-0.30361354
150	0x3e12a6fc	0.14321512
151	0xbf469dd7	-0.77584594
152	0xbe28debb	-0.16491215
153	0x3e9a63c7	0.3015425
154	0x3dd05297	0.10172003
155	0xbe855884	-0.26044095
156	0x3ec6d980	0.38837814
157	0x3da4f449	0.08054406
158	0x3ef8acf1	0.48569444
159	0x3d8dd314	0.069250256
160	0x3db67205	0.08908466
161	0xbd9ebd6c	-0.07750973
162	0xbde97ca1	-0.11400724
163	0x3ed07aa1	0.40718558
164	0x3bccd1e5	0.0062506073
165	0x3e00a5df	0.12563275
166	0x3e8b0704	0.2715379
167	0x3e537604	0.20650488
168	0x3c027e1f	0.00796464
169	0xbd5e9882	-0.05434466
170	0xbe83fa0d	-0.2577671
171	0x3d0c1743	0.03420187
172	0xbe982315	-0.29714265
173	0xbcd68af6	-0.026189309
174	0x3e244206	0.16040811
175	0xbe067abf	-0.13132761
176	0xbcc2720e	-0.023736026
177	0xbcccff9c	-0.025024228
178	0x3dc88db7	0.09792655
179	0x3eaf0afb	0.34188065
180	0xbe3dc18c	-0.18530864
181	0xbc9baa2d	-0.019002045
182	0xbbb60486	-0.0055547385
183	0x3e02ec0b	0.12785356
184	0xbd7aa91a	-0.061196424
185	0xbcae8112	-0.02130178
186	0xbe205ce7	-0.1566044
187	0xbd388d50	-0.04505664
188	0x3ea3b13a	0.3197115
189	0x3e2cbac2	0.16868117
190	0xbdc32b1f	-0.09529709
191	0xbdd56e41	-0.1042142

bias f4 [8]
0	0x3dcbef20	0.09957719
1	0x4006ab3a	2.1042008
2	0x3a9194e0	0.001110699
3	0xbc23bcbe	-0.00999373
4	0x3dc20b76	0.09474842
5	0x3fe22c53	1.7669777
6	0x4004b616	2.0736136
7	0x3e55a59f	0.2086396
