Masterarbeit_YorickLALY/Code_and_Neural_Network/50_ep_CNN_window_size_20.pt (torch, 10191 bytes, 12 tensors)

weight f4 [8, 8, 3]
0	0xbd607742	-0.054801233
1	0xbb6d0733	-0.003616762
2	0xbdc490d6	-0.09597938
3	0xbe24a50e	-0.16078588
4	0x3e2631a0	0.16229868
5	0xbdfe98c4	-0.124314815
6	0xbc8ef378	-0.01745008
7	0xbd084112	-0.03326518
8	0x3e176edc	0.14788383
9	0x3dbbed0c	0.091760725
10	0x3d71e982	0.05906058
11	0x3c41a080	0.011818051
12	0x3e34ad28	0.17644179
13	0xbdbf38f7	-0.09337037
14	0xbc55a1e0	-0.013039082
15	0xbd29d717	-0.04146489
16	0xbdde730b	-0.108617865
17	0xbde3f630	-0.11130941
18	0xbd82192b	-0.06352457
19	0xbc8fd267	-0.017556382
20	0xbcf86bb2	-0.03032479
21	0x3cb38fc1	0.021919133
22	0x3e1ae92b	0.15128009
23	0xbd52fa8f	-0.051508483
24	0xbd27376e	-0.040824346
25	0xbd75fe31	-0.06005687
26	0x3ead59b1	0.33857492
27	0xbdd46479	-0.10370726
28	0xbebe068d	-0.37114373
29	0x3d21a0f2	0.03946013
30	0x3db6d7ac	0.08927855
31	0x3cd81856	0.026378792
32	0x3dc9f7d1	0.0986172
33	0x3e2ad51c	0.16682857
34	0xbda5594e	-0.08073674
35	0xbdee0592	-0.11622156
36	0xbd0e550f	-0.034749087
37	0xbe51fab8	-0.20505798
38	0xbd6c4209	-0.057680164
39	0x3ec8648d	0.39139214
40	0xbd4a47cf	-0.04938489
41	0xbf9b6b3d	-1.2142102
42	0x3c9760fc	0.018478863
43	0x3e45fc6f	0.19334577
44	0x3f17e469	0.593329
45	0x3d9b0667	0.075695805
46	0xbe5022f8	-0.2032584
47	0xbee72982	-0.45148855
48	0x3d226351	0.039645497
49	0xbde111cb	-0.10989722
50	0x3df084f9	0.117441125
51	0xbe085107	-0.1331216
52	0xbb8abfba	-0.0042342814
53	0x3e43c0fe	0.1911659
54	0xbe09e547	-0.13466369
55	0xbdeed075	-0.11660854
56	0xbe2370f2	-0.15961054
57	0xbe00b43e	-0.12568757
58	0xbe26dd44	-0.16295344
59	0xbdb7873d	-0.089613415
60	0xbe02aa90	-0.12760377
61	0x3d6fb2fa	0.058520295
62	0x3e349fbf	0.17639063
63	0xbce35a1e	-0.027752932
64	0xbe8023d3	-0.25027332
65	0x3e01689b	0.1263756
66	0xbe6364e0	-0.2220645
67	0xbe941fef	-0.28930613
68	0x3bab6427	0.005230445
69	0xbe20c25e	-0.15699145
70	0x3d92db75	0.07170764
71	0x3e588443	0.21144204
72	0x3d81fc95	0.06347004
73	0xbd4d936e	-0.050189428
74	0xbe797e23	-0.24364524
75	0xbe7bce96	-0.24590525
76	0x3e160545	0.14650448
77	0x3e1b67c7	0.15176307
78	0x3e206a45	0.15665539
79	0xbdc9712d	-0.0983604
80	0x3e413438	0.18867576
81	0x3d7f8ec5	0.062392015
82	0xbda410f0	-0.08011043
83	0x3e3c63c8	0.18397439
84	0x3e78c3b7	0.2429341
85	0x3e2c11e6	0.16803703
86	0x3c9794d0	0.018503577
87	0xbe8223f6	-0.2541806
88	0xbe11a1de	-0.14221904
89	0x3decd965	0.11564902
90	0xbe0eea38	-0.13956535
91	0x3d857a80	0.06517506
92	0x3d600073	0.05468793
93	0x3eded1ac	0.43519342
94	0x3eaef9a0	0.34174824
95	0x3edc3cb6	0.4301507
96	0x3e036bf6	0.12834153
97	0x3cf86177	0.030319912
98	0x3d414e59	0.04719386
99	0xbe609670	-0.21932387
100	0xbcb9da9d	-0.02268725
101	0x3d3e74d5	0.04649814
102	0xbc604298	-0.013687752
103	0x3dd15194	0.10220638
104	0x3dae3437	0.08506053
105	0xbd538fcd	-0.05165081
106	0x3e2971f7	0.1654738
107	0x3ded32be	0.11581944
108	0xbe1e37d5	-0.15450986
109	0x3e398048	0.18115342
110	0xbe244083	-0.16040234
111	0x3caf0acb	0.021367451
112	0xbd99d986	-0.075121924
113	0x3b8362bf	0.004009574
114	0x3d27e88e	0.040993266
115	0xbe4ca525	-0.19984873
116	0x3d05447f	0.032536026
117	0xbe5c6383	-0.21522336
118	0x3e0a32a6	0.13495883
119	0xbd6e0fc0	-0.05812049
120	0xbe56e1e9	-0.20984615
121	0xbdfc698e	-0.123248205
122	0xbc4fe27d	-0.012688276
123	0x3d2671c0	0.040635824
124	0x3acbdc92	0.0015553406
125	0xbc0d58f3	-0.008627164
126	0x3e18a978	0.14908397
127	0x3d82dac2	0.06389381
128	0xbe15e078	-0.1463641
129	0x3d8a2765	0.06745795
130	0xbd4024f4	-0.04691024
131	0xbd888eaf	-0.0666784
132	0xbd124a6f	-0.035715517
133	0x3e48caca	0.19608608
134	0xbdfc31d2	-0.1231419
135	0xbca72d80	-0.020407438
136	0xbce5f5d8	-0.028071329
137	0xbdd22505	-0.10260967
138	0xbe681d83	-0.22667508
139	0xbe09c2bd	-0.13453193
140	0xbea1fdfa	-0.3163908
141	0x3e1f0e6f	0.1553285
142	0xbdcdf0c3	-0.10055687
143	0x3c803387	0.01564957
144	0xbd2c836a	-0.042117514
145	0x3d8fe488	0.07026011
146	0xba200593	-0.0006104346
147	0x3cd11232	0.025521372
148	0xbe981c67	-0.2970917
149	0xbf644b75	-0.8917764
150	0xbe4fd8ec	-0.20297593
151	0xbe3df3ba	-0.18550006
152	0x3da7dbb2	0.081962004
153	0xbe019d4f	-0.12657665
154	0x3dd5a63c	0.10432097
155	0xbdb5bf3f	-0.08874368
156	0xbe739bee	-0.23789951
157	0xbe48d6e1	-0.1961322
158	0xbce98ddd	-0.028510028
159	0xbe749b8e	-0.23887464
160	0x3e902236	0.281511
161	0x3f291b22	0.66057026
162	0x3e32f92c	0.17477864
163	0x3e3ca664	0.18422848
164	0x3e5a51af	0.21320222
165	0x3e4580af	0.1928737
166	0x3df8ff6e	0.12158094
167	0xbeaad5c5	-0.33366218
168	0xbf26c4c6	-0.65144
169	0xbecc02b0	-0.398458
170	0xbef85bdb	-0.4850758
171	0xbe7157a1	-0.23568584
172	0x3e993aa5	0.29927555
173	0x3ed69136	0.41907662
174	0x3d7b4313	0.061343264
175	0xbe004d9a	-0.12529603
176	0x3e0c4a64	0.13700253
177	0xbd3019dc	-0.04299341
178	0xbe3dc526	-0.18532237
179	0xbe02c4e1	-0.12770416
180	0x3db92922	0.090410486
181	0xbd580e34	-0.05274792
182	0xbe412ada	-0.18864003
183	0x3dedece2	0.116174474
184	0xbd05dc11	-0.032680575
185	0xbe64db7b	-0.2234935
186	0x3dcbd3e2	0.09952523
187	0xbc31ba49	-0.0108476365
188	0x3ea1aae3	0.3157569
189	0x3f3e3555	0.7430013
190	0x3f680890	0.90638065
191	0x3f96a5ec	1.1769385

bias f4 [8]
0	0xbdb04954	-0.08607736
1	0x3f2de338	0.67924833
2	0xbcae6b7e	-0.02129149
3	0xbb9eb61d	-0.004843487
4	0xbdcbc7e8	-0.099502385
5	0xbd01ba85	-0.03167202
6	0xbe2fcd97	-0.1716827
7	0xbe00497c	-0.12528032

weight f4 [8, 8, 3]
0	0xbba0c1bd	-0.004905908
1	0x3e34b802	0.17648318
2	0x3e152018	0.14563024
3	0x3b87228c	0.0041239914
4	0xbe2a76fb	-0.1664695
5	0x3e5f0ef7	0.21783052
6	0x3a329ba6	0.00068133546
7	0xbda7f853	-0.08201661
8	0xbb635ff4	-0.0034694644
9	0xbdb2e7d8	-0.08735627
10	0x3ddbde31	0.10735739
11	0x3d636e36	0.055525027
12	0xbe4c8db6	-0.19975933
13	0xbdcecd2a	-0.10097726
14	0xbba9b5f3	-0.0051791607
15	0x3c556981	0.013025642
16	0xbe14d147	-0.14532958
17	0xbdccc583	-0.0999861
18	0xbdd6fa4a	-0.104969576
19	0xbe0540a5	-0.13012941
20	0xbdeb3d61	-0.114863165
21	0xbe317ad9	-0.17332019
22	0xbe59042d	-0.21192999
23	0xbe0690c0	-0.13141155
24	0x3b5f2a06	0.0034052148
25	0x3e0e481e	0.13894698
26	0xbdae6b34	-0.08516541
27	0xbe28ea87	-0.16495715
28	0x3d7faed2	0.06242258
29	0xbeb84c25	-0.35995594
30	0xbd740d75	-0.059583146
31	0xbe0a90c6	-0.13531789
32	0xbe0ecad9	-0.13944568
33	0xbd84fa0a	-0.06493004
34	0x3b467072	0.0030279425
35	0xbe409617	-0.18807255
36	0x3aa4919e	0.0012555604
37	0xbd448469	-0.04797784
38	0x3d951ebf	0.07281255
39	0xbe10cfeb	-0.14141814
40	0xbe163442	-0.14668372
41	0x3d0ce37a	0.034396626
42	0x3e628853	0.22122316
43	0x3c237f94	0.009979147
44	0x3f3f9786	0.7484058
45	0x3d9ee2cb	0.07758101
46	0xbcc94423	-0.024568623
47	0xbefb4bbe	-0.49081224
48	0xbe23ccb1	-0.15996052
49	0x3d85d310	0.065343976
50	0xbd3525ce	-0.044225506
51	0x3db25154	0.08706918
52	0x3e384547	0.17995177
53	0x3f5e81b9	0.8691669
54	0x3e20ce9e	0.15703818
55	0xbd518b97	-0.051158514
56	0x3d926eab	0.071500145
57	0xbe010a8e	-0.12601683
58	0x3c27ca7b	0.010241146
59	0xbe3b5ccf	-0.18297122
60	0x3e0414c8	0.12898552
61	0xbe21e587	-0.15810214
62	0x3df745da	0.1207387
63	0x3a69f4ec	0.0008924741
64	0xbe42e9c5	-0.19034488
65	0xbd63140e	-0.055439048
66	0x3c0d7571	0.008633957
67	0x3df33887	0.11876016
68	0xbe6c9554	-0.23103839
69	0xbcc2f55d	-0.023798639
70	0xbdc09239	-0.0940289
71	0xbe7dcd42	-0.24785331
72	0xbe26f288	-0.16303456
73	0xbd49b43c	-0.04924415
74	0x3c572520	0.01313141
75	0xbe6c7a8b	-0.23093621
76	0x3eae48ba	0.3403986
77	0xbec2434b	-0.37941965
78	0xbe524bed	-0.20536776
79	0xbd12d135	-0.035844047
80	0xbe369362	-0.1782966
81	0xbd42b282	-0.04753352
82	0x3d175172	0.036942907
83	0xbdde8ff1	-0.108672984
84	0xbcd80fe7	-0.02637477
85	0x3df34a9b	0.11879464
86	0xbd4a5177	-0.049394097
87	0xbe83e458	-0.2576015
88	0xbdf493af	-0.11942231
89	0xbce6d6d5	-0.028178612
90	0x3ea39dc3	0.319563
91	0x3e242373	0.16029148
92	0x3e897f3a	0.2685488
93	0xbe7d130e	-0.247143
94	0xbdd5b31c	-0.10434553
95	0xbf20a6d3	-0.62754554
96	0xbdbb39f4	-0.09141913
97	0xbc235d77	-0.009971014
98	0xbe0396ff	-0.12850569
99	0x3e11b0fb	0.14227669
100	0x3e8cf1ec	0.27528322
101	0xbed22c51	-0.41049436
102	0x3c76b701	0.01505828
103	0x3e0ff8d1	0.1405976
104	0xbe03a18b	-0.12854593
105	0x3dc9dbb0	0.09856355
106	0x3c098937	0.008394531
107	0xbe655677	-0.22396265
108	0x3d82d3ec	0.06388077
109	0x3d807bc0	0.062736034
110	0xbe3c151b	-0.18367426
111	0xbe403784	-0.18771178
112	0xbde2e8af	-0.11079537
113	0x3d3ba83f	0.04581475
114	0x3e55a69b	0.20864336
115	0x3d2b6ace	0.041849904
116	0xbe979bfc	-0.29611194
117	0x3baa2f61	0.0051936363
118	0xbd40ab1f	-0.047038194
119	0x3cbf9491	0.023386272
120	0xbe2f9531	-0.17146756
121	0xbe26cffa	-0.16290274
122	0xbe4ba2a6	-0.19886264
123	0x3ee5c047	0.44873258
124	0x3de31346	0.110876605
125	0xbeec0bab	-0.46102652
126	0xbd8eba16	-0.06969087
127	0xbb14b411	-0.0022690336
128	0xbcd12ff9	-0.02553557
129	0xbdcf909f	-0.10135006
130	0xbdb4caaf	-0.08827721
131	0xbe87ec15	-0.26547304
132	0xbe728288	-0.23682606
133	0x3e2fc2a6	0.17164096
134	0xbddf268a	-0.108960226
135	0x3d4efc53	0.050533604
136	0x3d231f6d	0.03982489
137	0x3e1530df	0.14569424
138	0xbd0b6cf9	-0.03403947
139	0xbd4df2f5	-0.05028053
140	0xbef38c45	-0.47567955
141	0xbe3d7132	-0.18500212
142	0xbea1340c	-0.3148502
143	0xbe4cdace	-0.20005342
144	0xbdae07b5	-0.08497564
145	0x3d8847d8	0.06654328
146	0x3e250ae1	0.16117431
147	0x3d64f4e4	0.05589761
148	0xbdc87d60	-0.097895384
149	0xbe87f224	-0.26551926
150	0xbd9fe3e1	-0.07807136
151	0xbc4d5f95	-0.012534996
152	0xbdb344c0	-0.087533474
153	0x3e2bd806	0.16781625
154	0x3e197212	0.1498492
155	0xbe5d6afd	-0.21622844
156	0xbe39f793	-0.18160848
157	0xbdd9c363	-0.1063297
158	0x3d2ba540	0.04190564
159	0x3d623cc1	0.05523372
160	0xbdd37a89	-0.10326106
161	0x3d994ced	0.074853756
162	0x3e170c6b	0.14750831
163	0xbcbc3459	-0.02297418
164	0x3e7989b7	0.2436894
165	0x3e911c51	0.28341916
166	0x3e588d68	0.21147692
167	0x3c771b75	0.01508223
168	0xbd29e954	-0.041482285
169	0x3e0244db	0.12721579
170	0x3e29f34c	0.16596717
171	0x3e49c866	0.19705352
172	0x3c048a6d	0.008089644
173	0xbe112c79	-0.14177121
174	0xbda24d30	-0.079248786
175	0x3d9fc9c1	0.078021534
176	0x3d201aeb	0.03908817
177	0xbe96adef	-0.29429576
178	0x3e1f9bc1	0.15586759
179	0x3d75a204	0.059968963
180	0xbe491388	-0.19636357
181	0xbcc17d5c	-0.023619346
182	0x3dfd61f0	0.12372196
183	0xbe1645a2	-0.14675
184	0xbe32eaf9	-0.17472447
185	0xbd8700b8	-0.06591934
186	0x3dccb7dd	0.09996007
187	0x3e4ff8f3	0.2030981
188	0xbce4fdcb	-0.02795305
189	0xbf04a3f3	-0.51812667
190	0x3cbe67b8	0.023242816
191	0x3eef4612	0.46733147

bias f4 [8]
0	0x3e51f240	0.20502567
1	0xbd841b2a	-0.06450494
2	0xbd2829f6	-0.041055642
3	0xbd03d782	-0.032187946
4	0xbc0cd943	-0.008596721
5	0x3eaf46ca	0.34233695
6	0xbe716c89	-0.23576559
7	0xbe376423	-0.17909293

weight f4 [8, 8, 3]
0	0xbcc42d76	-0.023947459
1	0x3e1f480b	0.15554826
2	0x3e0ade70	0.13561416
3	0xbdfb6b49	-0.122763224
4	0xbe6c41e1	-0.23072006
5	0x3cb199da	0.021679807
6	0xbd45ac6d	-0.04826014
7	0x3e05c626	0.13063869
8	0x3bde53b4	0.0067848805
9	0xbba99f79	-0.0051764813
10	0xbd8b0436	-0.067879125
11	0xbe24b006	-0.16082773
12	0x3c9d9a69	0.019238668
13	0xbd29d2fb	-0.041460972
14	0xbd236bd5	-0.03989776
15	0x3e89c7e5	0.2691032
16	0x3d0d61b3	0.034517
17	0x3e29fdbc	0.16600698
18	0xbe3933ea	-0.1808621
19	0xbdbe08d9	-0.09279031
20	0x3ca621be	0.020279761
21	0xbe1510ff	-0.14557265
22	0x3d9195fd	0.07108686
23	0xbe46bc8f	-0.19407867
24	0xbe5a2afe	-0.21305463
25	0xbe385724	-0.18001992
26	0xbe1c8c35	-0.1528786
27	0xbd3fba6c	-0.046808645
28	0xbc8d188a	-0.017223615
29	0xbf11576d	-0.56774026
30	0xbdc48ed0	-0.09597552
31	0x3cbc0667	0.022952272
32	0xbf0364ce	-0.5132569
33	0xbe3472dc	-0.1762194
34	0xbe2a3f84	-0.16625792
35	0xbe86370b	-0.2621387
36	0xbe01aa3a	-0.12662593
37	0xbe81d30e	-0.25356334
38	0xbd330f92	-0.04371602
39	0xbe3e7155	-0.1859792
40	0xbebc68eb	-0.36798796
41	0xbea082be	-0.31349748
42	0x3ded63fb	0.115913354
43	0x3db7cbd0	0.08974421
44	0xbd73f6fe	-0.059561722
45	0x3e02bc38	0.12767112
46	0x3e8f3202	0.2796784
47	0x3ecc4bc8	0.39901567
48	0xbdfab705	-0.122419395
49	0xbd92221d	-0.07135413
50	0xbe4f2835	-0.20230182
51	0x3e0772f1	0.1322744
52	0x3dfcc4bb	0.12342211
53	0xbcb2b719	-0.021815823
54	0x3dacb03c	0.084320515
55	0xbcc1b7c6	-0.0236472
56	0xbd9ada87	-0.07561212
57	0xbe48689a	-0.19571152
58	0xbe199be0	-0.15000868
59	0xbe2b96e7	-0.16756783
60	0xbc93efbc	-0.01805865
61	0x3dc89a3d	0.097950436
62	0xbe1a7424	-0.15083367
63	0x3ddf29a3	0.108966134
64	0xbd94b192	-0.07260431
65	0xbc7de04b	-0.01549537
66	0x3e174e54	0.14775974
67	0xbd9b72ef	-0.07590281
68	0xbde09bca	-0.109672144
69	0x3da6d1bf	0.08145475
70	0x3e0c299e	0.1368775
71	0x3e2393e1	0.1597438
72	0xbe498f29	-0.19683518
73	0xbd91dde8	-0.071224034
74	0xbda8c259	-0.08240194
75	0xbe08d870	-0.13363814
76	0xbe27860d	-0.1635973
77	0xbefe96c1	-0.4972439
78	0xbd3b93d7	-0.045795288
79	0xbc6a9712	-0.0143182445
80	0x3e38bd1b	0.18040888
81	0x3e27a242	0.1637049
82	0xbe45cecb	-0.19317167
83	0xbefbbb67	-0.49166414
84	0xbdc6fb32	-0.097158805
85	0xbde20bdc	-0.11037418
86	0x3decc3d7	0.11560791
87	0xbdad9836	-0.084762976
88	0x3eb5e3cc	0.35525358
89	0x3e3fc2f0	0.18726707
90	0xbadcf91f	-0.0016858912
91	0x3d841f0d	0.06451235
92	0xbdab66e0	-0.08369231
93	0xbd09ff9a	-0.033691026
94	0x3d100970	0.03516525
95	0xbdc8bce0	-0.0980165
96	0xbd96ede8	-0.07369596
97	0x3e2058e8	0.15658915
98	0xbe15cf15	-0.14629777
99	0xbe3c36ce	-0.18380281
100	0xb850d13c	-4.978593e-05
101	0xbe35c9f4	-0.1775282
102	0xbe20075b	-0.15627806
103	0xbdfba5f6	-0.12287514
104	0xbce3cec6	-0.027808558
105	0x3dd9141b	0.10599538
106	0xbe2d4268	-0.16919863
107	0xbe8e1abc	-0.27754772
108	0x3de76378	0.11298269
109	0x3e0660ca	0.1312286
110	0x3df7cb86	0.12099366
111	0x3dcda523	0.10041263
112	0x3dbd8de5	0.0925558
113	0x3df22002	0.11822511
114	0x3dfe4492	0.124154225
115	0xbd90c717	-0.070692234
116	0xbe85e490	-0.26150942
117	0xbe19bc43	-0.15013222
118	0xbdbf89de	-0.09352468
119	0xbe3e85fb	-0.18605797
120	0x3e2d2ad0	0.16910863
121	0x3e80405a	0.25049096
122	0xbd8a4f44	-0.067534
123	0xbe064615	-0.13112672
124	0xbe9a4117	-0.30127785
125	0xbebea60d	-0.37236062
126	0xbf058863	-0.52161235
127	0xbf23b0e7	-0.63941807
128	0xbf15a5d1	-0.5845614
129	0xbeb5506e	-0.35412925
130	0xbe7a9083	-0.2446919
131	0xbf0b9e22	-0.54538167
132	0xbc9cd819	-0.019146012
133	0xbe5f4603	-0.21804051
134	0x3de05427	0.10953551
135	0x3ce82100	0.028336048
136	0x3dc2be06	0.095089
137	0x3e6bf614	0.2304309
138	0xbf44a77e	-0.7681807
139	0xbf0c9e31	-0.5492888
140	0xbf22a8dc	-0.6353891
141	0xbb355005	-0.0027666104
142	0xbe8be030	-0.2731948
143	0xbdf5fb9e	-0.12010883
144	0xbd4a3d14	-0.049374655
145	0xbdc3f017	-0.09567278
146	0x3ccc5a9b	0.024945548
147	0x3d5e5828	0.05428329
148	0xba27a1ea	-0.00063946715
149	0xbe6cddf2	-0.2313154
150	0x3c6d14d0	0.014470294
151	0x3d9d8bf6	0.07692711
152	0x3e6c6b79	0.23087873
153	0xbd225007	-0.0396271
154	0x3d84aa4f	0.06477796
155	0xbe73a7e5	-0.23794515
156	0x3e7c98aa	0.24667612
157	0x3de80df5	0.11330787
158	0x3dbcf724	0.09226826
159	0x3e136f8d	0.14398022
160	0x3e854cb2	0.26035076
161	0x3bd16e89	0.0063913506
162	0xbe748d18	-0.23881948
163	0xbdd4b3cf	-0.10385858
164	0x3e041ce0	0.1290164
165	0xbc000d7e	-0.007815717
166	0x3cb3ed37	0.021963699
167	0x3e6e0bc6	0.23246679
168	0x3d2d263b	0.042272788
169	0xbe3b6297	-0.18299328
170	0xbe1314ec	-0.1436345
171	0x3e066223	0.13123374
172	0xbe1d74f9	-0.15376653
173	0xbe98c8a3	-0.29840574
174	0xbe2501ec	-0.16114014
175	0xbe48ee65	-0.1962219
176	0xbf027999	-0.50966793
177	0x3bc6a88b	0.0060625724
178	0xbe44cfee	-0.19219944
179	0xbea41cd5	-0.32053247
180	0x3d96bf1e	0.073606715
181	0xbeb83c48	-0.3598349
182	0xbda55391	-0.0807258
183	0xbe887f71	-0.2665973
184	0xbeded456	-0.43521374
185	0xbe83be3e	-0.2573108
186	0xbea9c6f9	-0.33159617
187	0xbebf583e	-0.3737201
188	0xbede2afd	-0.43392172
189	0xbd572381	-0.052524094
190	0xbd156f50	-0.03648311
191	0xbd1e390c	-0.038628623

bias f4 [8]
0	0xbe187239	-0.14887322
1	0x3f394075	0.7236398
2	0xbe8a4b31	-0.27010491
3	0x3ed8016b	0.42188582
4	0x3e3090dc	0.1724276
5	0x3ef75fba	0.4831522
6	0x3dc1d8d9	0.094651885
7	0x3f8a9044	1.0825276

weight f4 [8, 8, 3]
0	0xbe0df177	-0.13861643
1	0xbca3e3c5	-0.02000607
2	0xbcb15e6f	-0.021651475
3	0xbdb6eb80	-0.08931637
4	0x3e0f8007	0.14013682
5	0xbbd4de0c	-0.0064961966
6	0xbdbbd765	-0.091719426
7	0x3d483596	0.04887923
8	0x3e02a493	0.12758093
9	0x3e2bf2f4	0.16791898
10	0xbda367ce	-0.079787835
11	0xbdcbb797	-0.09947126
12	0x3dd726c5	0.105054416
13	0xbe0783c8	-0.13233864
14	0xbe1f4c89	-0.1555654
15	0x3e2909f7	0.16507708
16	0x3e63fd50	0.222646
17	0x3e020eb7	0.12700926
18	0xbdd9309e	-0.10604976
19	0x3d5d37ac	0.05400817
20	0x3e2b8deb	0.16753356
21	0xbe5d1007	-0.21588145
22	0xbdd60cb6	-0.10451643
23	0xbe201f83	-0.15637021
24	0xbd8416dd	-0.06449673
25	0x3e514c40	0.20439243
26	0x3d6052bb	0.054766398
27	0xbc874be0	-0.016515672
28	0x3dfa7e8c	0.12231168
29	0x3e2b9318	0.1675533
30	0xbd6592e9	-0.056048308
31	0xbdd603a1	-0.10449911
32	0xbdcacc37	-0.09902232
33	0xbd3ab3fd	-0.045581806
34	0x3d143eda	0.036192752
35	0xbeeb024d	-0.45900193
36	0x3d2ef2ab	0.042711895
37	0xbe68c5e0	-0.22731733
38	0xbe41f183	-0.18939786
39	0xbd995957	-0.07487743
40	0x3d26ab23	0.040690552
41	0x3ded6f8d	0.11593542
42	0xbd8e9a87	-0.069630675
43	0x3e18d836	0.14926228
44	0xbe25f972	-0.16208437
45	0x3d4809cf	0.04883748
46	0xbe7c11b8	-0.24616134
47	0xbe54fd52	-0.20799759
48	0x3e30d800	0.17269897
49	0xbd699598	-0.05702743
50	0x3d9f7e56	0.077877685
51	0xbd760fb7	-0.06007358
52	0xbe4470ca	-0.1918365
53	0x3db4b0c9	0.088227816
54	0x3d3f0193	0.04663236
55	0x3dc1504c	0.094391435
56	0xbc903e85	-0.017607937
57	0x3d19419b	0.037416082
58	0xb9dc8a97	-0.00042064927
59	0x3e8df626	0.2772686
60	0xbd911856	-0.0708472
61	0x3d7b89eb	0.061410826
62	0x3dd616dc	0.10453579
63	0x3e756ff9	0.23968495
64	0xbdff53d7	-0.12467163
65	0xbd965e97	-0.0734226
66	0x3bdb5933	0.006693983
67	0x3cbb7d20	0.022886813
68	0xbbaabb44	-0.005210312
69	0x3c9bfb89	0.01904084
70	0x3ce87007	0.028373731
71	0xbe470166	-0.19434127
72	0xbdca9c0a	-0.09893043
73	0xbd834d22	-0.06411196
74	0x3cf30cb4	0.029669143
75	0x3cc62f8c	0.024192594
76	0x3dc7cba2	0.09755637
77	0xbe87e64a	-0.26542884
78	0xbd09ebf8	-0.033672303
79	0xbe3ee006	-0.18640146
80	0xbdd8205c	-0.10553047
81	0xbabf60fd	-0.0014601048
82	0xbdf3fdff	-0.1191368
83	0xbe3f4b5e	-0.18681094
84	0xbde27399	-0.11057205
85	0x3d62ddbd	0.055387247
86	0x39ee90e0	0.00045502838
87	0xbdf451ae	-0.11929642
88	0xbe55ace5	-0.20866735
89	0xbdbe6fc6	-0.09298663
90	0x3c6c9670	0.014440164
91	0xbd2e622c	-0.042574093
92	0xbd1df226	-0.03856101
93	0x3ef4faa2	0.47847468
94	0x3eac062c	0.3359846
95	0x3eefc878	0.46832633
96	0xbd3a172a	-0.045432247
97	0x3e48ce14	0.19609863
98	0x3db6f802	0.089340225
99	0xbcdc5462	-0.026895706
100	0xbd8851b9	-0.06656212
101	0xbe7f60cb	-0.24939267
102	0x3da40303	0.08008387
103	0xbd8b372b	-0.06797632
104	0x3e15ca78	0.14628017
105	0x3d74f263	0.05980147
106	0xba687031	-0.00088668155
107	0xbe2fc8c7	-0.17166434
108	0xbe112022	-0.14172414
109	0xbd80bf83	-0.06286528
110	0xbe2a9ee1	-0.1666217
111	0x3df1612d	0.11786113
112	0x3eab5ed5	0.3347079
113	0x3ea25ac6	0.3170988
114	0xbd636130	-0.055512607
115	0xbd82c1eb	-0.06384643
116	0xbe4c0d6b	-0.19926994
117	0xbe1fe1df	-0.15613507
118	0xbda29b8f	-0.07939827
119	0xbe8c8cdb	-0.27451214
120	0xbdf4886a	-0.119400814
121	0xbdc9283c	-0.09822127
122	0x3c7c079e	0.015382675
123	0xbdf26255	-0.118351616
124	0xbd565bf7	-0.0523338
125	0xbe91ae52	-0.28453308
126	0x3e05b801	0.13058473
127	0x3e17a6b4	0.14809686
128	0x3cbb02ee	0.022828545
129	0xbdfb51d2	-0.12271465
130	0xbf0a17da	-0.53942645
131	0xbf2bf8b8	-0.6717639
132	0xbe5c21bf	-0.21497248
133	0xbed32fda	-0.41247445
134	0xbe17df51	-0.14831282
135	0xbd9670bf	-0.07345723
136	0xbddaa302	-0.106756225
137	0xbe63a39a	-0.22230378
138	0x3d631ddc	0.055448398
139	0xbe8b482f	-0.2720351
140	0xbe52707c	-0.20550722
141	0xbdc4ee66	-0.096157834
142	0xbe8ce857	-0.2752101
143	0xbee2066f	-0.44145533
144	0x3cbd9e68	0.023146823
145	0xbd1210db	-0.035660606
146	0xbd55f867	-0.052238848
147	0xbe4432b9	-0.19159974
148	0xbe48b4fb	-0.19600289
149	0x3ddc298f	0.10750114
150	0x3e2cc59c	0.16872257
151	0x3e238958	0.15970361
152	0xbe4fa74c	-0.20278662
153	0xbe520c13	-0.20512418
154	0xbd82979b	-0.06376573
155	0xbd590d95	-0.05299147
156	0x3d19ff7f	0.037597176
157	0xbca246e0	-0.019809186
158	0xbc3c541e	-0.0114946645
159	0xbdeb9d1e	-0.11504577
160	0xbe037fdf	-0.12841748
161	0x3db91657	0.09037464
162	0xbe0e6a2e	-0.13907692
163	0x3e0d56dc	0.13802665
164	0xbe31c346	-0.17359647
165	0x3dbafc99	0.091302104
166	0xbdd2dbe0	-0.10295844
167	0x3d930163	0.07177999
168	0x3e014164	0.12622601
169	0xbdbbf24e	-0.09177075
170	0xbc98d44e	-0.018655922
171	0xbe885e09	-0.26634243
172	0x3d1bc4ad	0.03802936
173	0xba4d86f0	-0.00078402366
174	0xbda56367	-0.080756
175	0x3e5292c3	0.20563798
176	0xbd132976	-0.035928212
177	0x3d0df9ca	0.034662046
178	0xbe3ca94f	-0.18423961
179	0xbd00a3de	-0.031406276
180	0xbcd3b9e0	-0.025845468
181	0x3d8ec837	0.06971782
182	0xbbe135d6	-0.006872873
183	0xbc07e4b6	-0.008294275
184	0xbe370df6	-0.1787642
185	0xbc8fdbcf	-0.017560868
186	0x3e0014e2	0.12507966
187	0x3c2e438d	0.010636223
188	0xbe1f6404	-0.15565497
189	0x3ea5982b	0.32342657
190	0x3e2b1272	0.16706255
191	0x3eb3c5bb	0.35111794

bias f4 [8]
0	0xbea0d569	-0.3141282
1	0x3e9c7cff	0.30564114
2	0xbc1b3453	-0.009472924
3	0xbd7db083	-0.061935913
4	0xbe7af673	-0.24508075
5	0x3f6b9423	0.92022914
6	0xbdb187b7	-0.08668464
7	0xbe9141cb	-0.2837051

weight f4 [8, 8, 3]
0	0x3d07baca	0.03313712
1	0xbd8afd89	-0.06786639
2	0xbe360c7a	-0.17778197
3	0xbdd76d5a	-0.10518904
4	0xbe508681	-0.20363809
5	0x3d3256f2	0.04353995
6	0xbe252229	-0.16126312
7	0xbdec53fb	-0.115394555
8	0x3e18ac1c	0.14909405
9	0x3d3bbda3	0.04583515
10	0xbd50feee	-0.05102437
11	0xbe1d047e	-0.15333745
12	0xbe1ee260	-0.15516043
13	0x3dcbeb30	0.09956968
14	0xbd14a19a	-0.036286928
15	0xbcb2f087	-0.021843208
16	0xbc549b52	-0.012976484
17	0xbe3d84a8	-0.18507636
18	0x3e0ca790	0.13735795
19	0xbb9c5d0f	-0.0047718356
20	0xbe102452	-0.14076355
21	0xbe079b1d	-0.13242765
22	0x3ba64589	0.005074207
23	0x3d8b0aa5	0.0678914
24	0xbda689c3	-0.08131745
25	0xbd1cdc1f	-0.03829586
26	0x3db883f5	0.09009544
27	0xbd96200d	-0.07330332
28	0xbe5b52e3	-0.21418338
29	0x3ddc9673	0.107708834
30	0xbe35f8a5	-0.17770632
31	0xbd84a717	-0.06477182
32	0x3e3ac8d9	0.1824068
33	0xbd618a64	-0.05506362
34	0xbde37a80	-0.111073494
35	0xbe473967	-0.19455491
36	0x3e2833cc	0.16426009
37	0xbdcaf1c1	-0.09909392
38	0x3e205a3e	0.15659425
39	0xbcbf8ada	-0.02338164
40	0x3ddba83d	0.10725448
41	0x3a7d2952	0.0009657341
42	0x3e2a051c	0.16603512
43	0xbdc2533d	-0.09488533
44	0x3d74d256	0.059770904
45	0xbd2fa915	-0.04288586
46	0xbe386f11	-0.18011118
47	0x39c943aa	0.0003838812
48	0x3dd2722e	0.10275684
49	0x3dec9d81	0.11553479
50	0x3d970f78	0.07375997
51	0x3df156e6	0.11784153
52	0xbdc14bcc	-0.09438285
53	0xbddf7978	-0.1091184
54	0x3e051837	0.12997518
55	0x3ddc41d8	0.10754746
56	0x3b523678	0.0032075923
57	0xbdc7955f	-0.09745287
58	0xbcbec7be	-0.023288604
59	0xbd9fc730	-0.07801664
60	0x3e0c46a1	0.13698818
61	0x3cebf85e	0.028804954
62	0x3e1b8397	0.15186916
63	0x3e149fb5	0.14514048
64	0x3d8ecd81	0.069727905
65	0xbe14dfe5	-0.14538534
66	0x3d75d95d	0.060021747
67	0xbe03592c	-0.12826985
68	0x3e464251	0.19361235
69	0x3c507dfe	0.012725351
70	0xbd861a70	-0.06548011
71	0xbd8de185	-0.0692778
72	0x3da4a02e	0.08038364
73	0xbe0f5da2	-0.14000562
74	0xbe0c10f1	-0.13678338
75	0xbe5451f9	-0.20734395
76	0xbdb199fa	-0.08671947
77	0xbd00e70e	-0.03147035
78	0x3dae3020	0.08505273
79	0xbdc8f0e2	-0.0981157
80	0xbe8806c8	-0.26567674
81	0x3ddb9b8e	0.10723029
82	0xbe38a73c	-0.18032545
83	0xbd00d4a0	-0.031452775
84	0xbe50ab91	-0.20377947
85	0xbe267733	-0.16256408
86	0xbcf5da83	-0.030011421
87	0x3d035830	0.032066524
88	0xbe25a94e	-0.16177866
89	0xbd0291f8	-0.031877488
90	0x3e210521	0.15724613
91	0x3e455627	0.19271146
92	0x3d899d22	0.06719424
93	0xbe75363e	-0.23946473
94	0x3db4389c	0.0879986
95	0xbdf08c53	-0.11745515
96	0xbe4aa137	-0.19788061
97	0xbe27c772	-0.16384676
98	0x3e08011a	0.1328167
99	0x3db222da	0.08698054
100	0x3e23eb69	0.1600777
101	0x3e171f45	0.14758022
102	0xbe2c7d83	-0.16844754
103	0xbe1bb5d2	-0.15206078
104	0x3d281132	0.041032024
105	0xbd3cca9c	-0.04609166
106	0xbe2ef7ee	-0.17086765
107	0xbe08dcc7	-0.1336547
108	0x3ddfaefa	0.10922046
109	0x3e3493b8	0.17634475
110	0x3e34ee0f	0.17668937
111	0x3d4d6ed2	0.050154515
112	0x3de2789e	0.11058162
113	0xbde49a27	-0.11162215
114	0xbd755b62	-0.059901603
115	0x3e15f5c1	0.14644529
116	0x3e23b152	0.15985611
117	0xbe3d1176	-0.18463692
118	0xbe0b5b68	-0.13609087
119	0xbe28617e	-0.1644344
120	0xbe405262	-0.18781427
121	0x3dabfaa8	0.08397418
122	0x3d2cf62c	0.042226955
123	0xbe2a2a12	-0.16617611
124	0x3df5fbd9	0.12010927
125	0xbca8f191	-0.020623
126	0x3cb89138	0.022530183
127	0xbdcc7ab9	-0.09984345
128	0xbe215192	-0.15753773
129	0xbe10ab49	-0.1412784
130	0xbd17a317	-0.03702077
131	0x3d9c19fb	0.07622143
132	0x3d31599b	0.043298345
133	0xbd7eb157	-0.062180843
134	0x3df24600	0.11829758
135	0xbe2fb355	-0.17158253
136	0x3cb1ffd8	0.021728441
137	0x3d82f2b0	0.06393945
138	0x3e438356	0.1909307
139	0x3da0a053	0.078430794
140	0x3d841fd6	0.06451385
141	0xbe4c3004	-0.19940192
142	0x3e1609a6	0.14652118
143	0xbd0657d3	-0.0327986
144	0x3def2e72	0.116787806
145	0xbe5b2d8f	-0.21404098
146	0xbde276b1	-0.11057795
147	0x3d6e45e2	0.058172114
148	0xbd495754	-0.04915555
149	0xbdd8a844	-0.10578969
150	0xbdacf80e	-0.0844575
151	0xbe4e3d84	-0.20140654
152	0xbd56e318	-0.052462667
153	0xbe2de23c	-0.16980833
154	0x3d86e345	0.06586317
155	0xbe815be4	-0.2526542
156	0xbdb8e224	-0.09027508
157	0xbd7a5430	-0.061115444
158	0xbd019ffd	-0.031646717
159	0xbd3f5047	-0.046707418
160	0xbe24d831	-0.16098095
161	0xbed8e178	-0.4235952
162	0xbc6b0ce3	-0.014346334
163	0xbe3316b2	-0.17489126
164	0x3d9b1411	0.07572187
165	0xbd50e518	-0.05099973
166	0x3c9820b7	0.018570287
167	0xbdd472be	-0.10373448
168	0xbb3c1c2a	-0.002870331
169	0xbd90378f	-0.07041847
170	0x3e1cbe09	0.15306868
171	0xbda7a6c9	-0.081861086
172	0x3d2b73c7	0.04185846
173	0xbe1c3489	-0.15254416
174	0xbdc8d597	-0.09806364
175	0x3c5bd37e	0.013417123
176	0xbb903912	-0.0044013346
177	0xbe2a50da	-0.16632405
178	0xbd90697c	-0.070513695
179	0x3e021f13	0.12707166
180	0xbe436813	-0.1908267
181	0xbd76d648	-0.06026295
182	0x3e1f6781	0.15566827
183	0xbb2fbcbe	-0.002681538
184	0x3d8ffb40	0.07030344
185	0x3d37f3d4	0.044910267
186	0x3e2d1bbd	0.16905113
187	0x3e45daa2	0.19321683
188	0x3e1efaf7	0.15525423
189	0x3d2a58fb	0.041588765
190	0x3c991389	0.018686073
191	0x3d8a081f	0.0673983

bias f4 [8]
0	0x3de45e95	0.111508526
1	0xbba7b514	-0.0051180217
2	0xbe317d26	-0.17332897
3	0xbc65081a	-0.013978982
4	0xbdfeaf33	-0.1243576
5	0xbe258d92	-0.16167286
6	0x3e88c01c	0.26709068
7	0xbe411715	-0.18856461

weight f4 [8, 24, 1]
0	0xbcb02a3a	-0.02150451
1	0xbd9623af	-0.07331025
2	0xbe2f975e	-0.17147586
3	0x3d25992a	0.04042927
4	0x3e72617a	0.23669997
5	0x3fac70fa	1.3471978
6	0xbe02283e	-0.12710664
7	0x3e25a596	0.16176447
8	0xbe27a9a6	-0.1637331
9	0x3c903961	0.017605485
10	0x3d4f0dbd	0.05055021
11	0xbcced183	-0.025246387
12	0xbe36967c	-0.17830843
13	0xbd567290	-0.05235535
14	0xbdf344d1	-0.1187836
15	0xbd9b9fdf	-0.07598852
16	0x3d69e9e4	0.05710782
17	0xbc94d7eb	-0.018169364
18	0xbe5579a5	-0.20847185
19	0x3e97019e	0.2949342
20	0xbd0c4ba2	-0.034251817
21	0x3e4d6b2f	0.20060419
22	0x3e275b1f	0.16343354
23	0x3dd4e682	0.103955284
24	0xbda7c342	-0.08191539
25	0x3f7294dd	0.947584
26	0xbc8ffeb9	-0.017577516
27	0xbd29f545	-0.041493673
28	0x3e098925	0.13431223
29	0x3e6929d6	0.22769865
30	0xbea4ad61	-0.32163528
31	0x3f140a47	0.5782818
32	0xbd9304ba	-0.07178636
33	0x3e1e1842	0.15438941
34	0xbc9a49f4	-0.018834092
35	0xbf2a1989	-0.66445214
36	0x3d1d11d4	0.03834708
37	0xbeb8f73d	-0.36126128
38	0xba8cec28	-0.0010751532
39	0xbe61ff41	-0.22070028
40	0xbd0ca6a7	-0.03433862
41	0xbdeb56f3	-0.114911936
42	0xbdc35173	-0.095370196
43	0x3e3790cf	0.17926334
44	0xbe57a5eb	-0.21059386
45	0x3e336131	0.17517544
46	0x3de2156a	0.11039241
47	0xbc772552	-0.015084581
48	0xbe0d4dd2	-0.13799217
49	0xbbb49a07	-0.0055115256
50	0x3c75f907	0.015012986
51	0x3d0257ce	0.03182202
52	0x3c0a17e5	0.008428548
53	0x3b181b9f	0.0023209823
54	0x3ca12876	0.019672614
55	0xbd225cda	-0.03963933
56	0xbdb52f25	-0.08846883
57	0xbd433595	-0.04765852
58	0xbdb83981	-0.08995343
59	0x3d2f61cd	0.04281788
60	0xbc07082f	-0.008241697
61	0x3d830543	0.06397488
62	0x3cd85538	0.026407823
63	0x3d4152e5	0.047198195
64	0x3dccf698	0.100079715
65	0xbdd19005	-0.10232548
66	0x3dd00f0f	0.10159122
67	0x3d17ddf0	0.03707689
68	0x3dfc6bb8	0.12325233
69	0xbd938e08	-0.07204825
70	0x3df66c91	0.12032426
71	0x3e249a92	0.16074589
72	0xbd04bcb6	-0.03240653
73	0x3c36a67f	0.011148094
74	0xbe0e5c46	-0.13902387
75	0xbc7c8588	-0.015412696
76	0x3b671aef	0.0035263856
77	0xbca1dbab	-0.019758066
78	0x3bb32b07	0.0054677757
79	0x3d59781d	0.053093065
80	0x3d8993af	0.067176215
81	0xbce828dd	-0.028339798
82	0x3d648306	0.055789016
83	0xbd2e6431	-0.04257602
84	0xbd981042	-0.07424976
85	0x3b37fd2f	0.0028074493
86	0xbd3c005c	-0.04589878
87	0xbbafca09	-0.0053646606
88	0xbde1df0b	-0.1102887
89	0x3d86be34	0.06579247
90	0xbcec322d	-0.02883252
91	0xba5013ed	-0.00079375395
92	0x3cccb4d3	0.024988567
93	0xbd96d7c2	-0.07365371
94	0xbb11f7f1	-0.0022273029
95	0x3e231c84	0.15928847
96	0x3e1d42f1	0.15357567
97	0xbbf684bf	-0.007523149
98	0xbe4b170d	-0.19833012
99	0xbd0c1952	-0.034203835
100	0xbd5f9b11	-0.054591242
101	0xbdceddea	-0.101009205
102	0xbd2d960b	-0.04237942
103	0x3da558d7	0.080735855
104	0x3de75038	0.112945974
105	0xbcec14f8	-0.028818592
106	0x3cf28e37	0.029608829
107	0xbdb93f3f	-0.09045266
108	0x3d80b9a5	0.06285409
109	0xbd75b73c	-0.0599892
110	0xbcd21304	-0.025643833
111	0x3d8b8821	0.06813074
112	0xbe3bb03a	-0.18328944
113	0xbcc9baea	-0.02462526
114	0x3d8efdd3	0.06982007
115	0xbdc21719	-0.09477062
116	0x3deebafe	0.1165676
117	0xbd232d44	-0.03983809
118	0x3d2ee99b	0.042703252
119	0x3d0dc2c9	0.03460959
120	0xbe6874d6	-0.2270082
121	0x3d816af4	0.06319228
122	0x3df98c09	0.12184913
123	0x3eed3e5a	0.46336633
124	0x3e7a1785	0.24423034
125	0xbe3a74e2	-0.1820865
126	0x3ef72236	0.48268288
127	0x3e2dcbf0	0.16972327
128	0x3d9f3baf	0.077750556
129	0xbf04886c	-0.51770663
130	0x3e5ff9a0	0.21872568
131	0xbe27a8e3	-0.16373019
132	0x3cbc250c	0.022966884
133	0xbf9eabda	-1.2396195
134	0x3e165f6c	0.14684838
135	0xbde18503	-0.11011698
136	0x3e6cccf2	0.23125055
137	0xbbfeac4e	-0.007772005
138	0xbd6eb7cf	-0.058280762
139	0x3de986a3	0.11402633
140	0x3e5f3f90	0.21801591
141	0xbd85be2c	-0.06530413
142	0x3ed08064	0.40722954
143	0xbe59e8ff	-0.21280287
144	0xbe852ccd	-0.26010743
145	0x3d8e6b84	0.06954101
146	0x3d244e48	0.040113717
147	0x3d3a7e57	0.045530643
148	0x3d9ee371	0.07758225
149	0x3e771fcd	0.24133225
150	0x3e49479d	0.19656225
151	0xbf301890	-0.6878748
152	0xbd28afa5	-0.041183133
153	0xbd2800be	-0.041016333
154	0x3d99b4d3	0.075051926
155	0xbe3191af	-0.1734073
156	0xbeba26dc	-0.36357772
157	0x3ea8aa39	0.3294237
158	0x3d91f1be	0.07126187
159	0x3e813b3c	0.25240505
160	0x3d71f18e	0.059068255
161	0x3c1dfb4d	0.009642434
162	0xbdc72ad8	-0.09724969
163	0x3efc8e63	0.49327382
164	0xbde51f1b	-0.111875735
165	0xbd35bf76	-0.044372045
166	0x3e904986	0.28181094
167	0xbe0012e3	-0.12507205
168	0xbcf7c3ae	-0.030244675
169	0x3d1345e9	0.035955343
170	0x3d3ddbec	0.046352312
171	0xbe901990	-0.28144503
172	0x3c93058f	0.017946986
173	0x3c94e2b0	0.0181745
174	0x3e3a8da2	0.18218091
175	0xbd666336	-0.05624696
176	0xbdb658f9	-0.08903689
177	0x3dd493a5	0.103797235
178	0x3d8e5f43	0.069517635
179	0xbdee71a4	-0.11642769
180	0xbcf78457	-0.030214472
181	0xbd743926	-0.059624813
182	0xbe251039	-0.1611947
183	0x3e2eec32	0.17082289
184	0xbbded05d	-0.006799741
185	0x3e152111	0.14563395
186	0xbe052367	-0.13001786
187	0x3de0e1c5	0.10980562
188	0x3c0022fb	0.00782084
189	0x3dca8b13	0.098898076
190	0xbe2e7ff1	-0.17040993
191	0x3e026403	0.12733464

bias f4 [8]
0	0x3d330a70	0.043711126
1	0x3e9aa8ba	0.30206853
2	0xbd39b886	-0.04534199
3	0x3b60626e	0.0034238356
4	0x3d7f16d8	0.062277645
5	0x3fa3798d	1.2771469
6	0x3ff69b01	1.9266053
7	0x3d09ee38	0.03367445
