Masterarbeit_YorickLALY/Code_and_Neural_Network/CNN.pt (torch, 10191 bytes, 12 tensors)

weight f4 [8, 8, 3]
-0.15875873 0.05929646 0.06622258 -0.050450176 -0.08207547 -0.16160616 0.041521877 -0.042474598
0.16020408 -0.0806167 -0.11287128 0.062910855 0.112045616 0.13638291 -0.14577754 0.05666569
-0.084480345 0.051968783 -0.017408967 -0.17127556 -0.111923374 -0.1913012 0.18507618 -0.0038828403
-0.4457481 -0.51808816 0.43904632 -0.08827958 -0.20478174 0.3622995 -0.010358959 -0.14832865
-0.04629813 0.018524908 0.13555887 0.1066269 0.08595899 0.7649002 1.340074 0.12898816
-0.025618173 -0.12813143 0.19522382 -0.15409316 0.14736968 1.0296516 0.50406766 1.1210805
-0.10750273 0.14338672 -0.19268553 -0.11981573 0.1449631 -0.050706528 0.01654936 0.08864675
-0.20221211 0.10139054 0.07638274 0.042278126 0.18298836 -0.123738855 -0.059514977 0.082491085
-0.062318206 -0.21451242 0.0009573676 -0.042837474 -0.18544844 0.09285039 0.21376188 0.14567132
-0.14962284 -0.06685277 -0.13002142 -0.15589641 -0.079977594 -0.5322202 0.10136004 0.15659578
0.14625056 0.14387435 0.013119208 0.16252048 -0.074082926 0.06910691 0.09157329 0.33871454
0.24526224 0.44060832 -0.28179577 0.26650548 -0.101204135 0.3917682 -0.028829543 -0.27940223
-0.098183714 -0.11591723 -0.08752475 0.30971932 0.12438272 -0.32721135 0.17966415 -0.012548937
0.18339129 0.064105466 0.08219304 -0.10553496 -0.07531786 -0.10564604 -0.17731035 -0.41065937
-0.2788463 -0.12013155 0.24844223 0.18388918 0.16179831 0.24399617 -0.07590109 -0.24587208
-0.07038197 -0.036711976 -0.14064474 0.1371194 -0.11585544 0.07310868 -0.02318903 0.012647057
-0.057194866 0.14151688 0.1856053 -0.18885 -0.19853018 -0.026635017 0.19086708 -0.05576937
0.018422244 -0.029112525 -0.051304903 -0.03734228 -0.13379595 0.18726107 -0.20390518 0.078257985
-0.040409997 -0.09482284 0.13037759 -0.20064954 -0.0007263073 -0.17358848 0.0073818564 -0.16622812
0.028502047 -0.1420562 -0.12278465 -0.023540497 0.11281664 -0.19578017 0.06997643 0.07776813
-0.18630397 0.097177796 0.047746334 -0.045941465 -0.060810193 -0.1508461 0.20430297 -0.024161356
0.046532005 -0.09762993 0.0594081 0.080221534 -0.015798062 0.11510664 0.07098898 -0.021388248
-0.051104277 -0.08214075 -0.041588917 0.14164612 0.15123385 -0.15296668 -0.03266786 -0.13984296
-0.08169983 -0.07800713 -0.18441035 -0.17518763 0.053909093 -0.17550196 -0.1268858 0.0033371747
00000000: a691 22be d8e0 723d b49f 873d d8a4 4ebd
00000010: 2f17 a8bd 167c 25be d812 2a3d d8f9 2dbd
00000020: 8a0c 243e 5e1a a5bd 0f29 e7bd 68d7 803d
00000030: 2c78 e53d f6a7 0b3e b546 15be 481a 683d
00000040: 0804 adbd 38dd 543d 409d 8ebc dc62 2fbe
00000050: 1538 e5bd 76e4 43be 9c84 3d3e 4077 7ebb
00000060: 1839 e4be 6da1 04bf aeca e03e edcb b4bd
00000070: 4eb2 51be 527f b93e a0b8 29bc 77e3 17be
00000080: 1ca3 3dbd 8cc1 973c f2cf 0a3e 345f da3d
00000090: 440b b03d 80d0 433f 8b87 ab3f 7915 043e
000000a0: 34dd d1bc e334 03be c1e8 473e 99ca 1dbe
000000b0: 14e8 163e a0cb 833f 940a 013f 917f 8f3f
000000c0: 642a dcbd f8d3 123e 5b4f 45be f361 f5bd
000000d0: 3571 143e a6b1 4fbd 8692 873c 6d8c b53d
000000e0: b110 4fbe d8a5 cf3d 8e6e 9c3d d42b 2d3d
000000f0: 4d61 3b3e cc6a fdbd fac5 73bd 16f1 a83d
00000100: 6041 7fbd 25a9 5bbe daf7 7a3a 5976 2fbd
00000110: 32e6 3dbe 5828 be3d 65e4 5a3e dd2a 153e
00000120: bb36 19be 1bea 88bd 5624 05be 4fa3 1fbe
00000130: 4bcb a3bd 953f 08bf da95 cf3d a55a 203e
00000140: b5c2 153e cc53 133e f2f1 563c c56b 263e
00000150: cab8 97bd ec87 8d3d c78a bb3d fe6b ad3e
00000160: 0626 7b3e 6a97 e13e 8947 90be 6873 883e
00000170: 1d44 cfbd d795 c83e ef2b ecbc cf0d 8fbe
00000180: 8b14 c9bd 0366 edbd 2d40 b3bd 8893 9e3e
00000190: 5ebc fe3d 3f88 a7be e1f9 373e 0f9a 4dbc
000001a0: edca 3b3e ba49 833d d354 a83d b722 d8bd
000001b0: 4040 9abd f35c d8bd d890 35be f241 d2be
000001c0: f1c4 8ebe 8807 f6bd a467 7e3e 724d 3c3e
000001d0: 75ae 253e 22da 793e 0872 9bbd e4c5 7bbe
000001e0: 6c24 90bd 4c5f 16bd 2d05 10be 0769 0c3e
000001f0: 9e45 edbd 01ba 953d ecf6 bdbc 9a35 4f3c
00000200: 2a45 6abd cde9 103e 510f 3e3e e561 41be
00000210: 7f4b 4bbe ae31 dabc a972 433e 6c6e 64bd
00000220: 3fea 963c 647d eebc 1725 52bd 38f4 18bd
00000230: ce01 09be 5ec1 3f3e 85cc 50be b945 a03d
00000240: f484 25bd 7a32 c2bd b481 053e 1377 4dbe
00000250: a865 3eba 2ec1 31be 80e3 f13b b437 2abe
00000260: 207d e93c 2e77 11be 8576 fbbd 00d8 c0bc
00000270: 690c e73d 997a 48be cd4f 8f3d e644 9f3d
00000280: 78c6 3ebe 2705 c73d a991 433d 1e2d 3cbd
00000290: 1c14 79bd 6677 1abe cc34 513e 09ee c5bc
000002a0: 5898 3e3d 33f2 c7bd e855 733d 304b a43d
000002b0: f06a 81bc 08bd eb3d ac62 913d 6836 afbc
000002c0: b852 51bd 6939 a8bd 2459 2abd ae0b 113e
000002d0: 0cdd 1a3e 4ca3 1cbe bcce 05bd fe32 0fbe
000002e0: 3e52 a7bd 34c2 9fbd 11d6 3cbe 6364 33be
000002f0: c8cf 5c3d c9b6 33be 5aee 01be 80b4 5a3b

bias f4 [8]
-0.11799073 0.09614538 -0.13703075 -0.039615493 0.10750832 -0.039969757 -0.10824334 -0.15613033
00000000: 20a5 f1bd dee7 c43d ca51 0cbe db43 22bd
00000010: 522d dc3d 54b7 23bd afae ddbd a1e0 1fbe

weight f4 [8, 8, 3]
0.045916975 -0.046036974 0.10341796 -0.40241885 -0.81742907 0.8452289 0.11469888 -0.117307834
0.075822316 -0.17122938 -0.019984778 -0.14066286 0.18646893 -0.06415532 -0.17523743 -0.037864115
0.14093615 -0.034407225 -0.15119821 -0.09057173 0.116904944 -0.064299926 -0.13679 0.07702431
0.15636435 0.0648084 -0.16715334 0.17997824 -0.26268432 -0.09828683 0.040123317 0.08717148
0.09256418 -0.027272457 -0.13212168 0.2282449 0.021499436 0.19993332 0.051601946 0.11200293
-0.16123392 -0.16444296 0.052151162 -0.06705378 0.0058325613 0.13961169 0.08095658 -0.03629078
0.0008228123 -0.1894509 0.19304666 0.22042263 0.029465698 0.08093359 -0.1806174 0.083593264
0.0819634 -0.16620065 0.042938724 -0.34201044 0.095515184 0.21639556 -0.003096855 0.0063841273
-0.09367591 -0.010116154 -0.20831811 -0.083360285 0.17239235 -0.1571116 0.20304343 0.040913656
0.16685396 0.10616717 0.15184712 -0.06872598 -0.05298968 -0.13112383 0.12598428 0.11305323
0.03007146 0.25317666 0.10354746 -0.28766832 -0.061667327 -0.0013355375 0.43993732 0.06936991
0.035742983 0.10995557 -0.007189299 -0.08375174 0.04493437 -0.12325439 -0.059087172 -0.13855088
-0.12587735 0.017426357 -0.19516295 0.1781355 -0.16234866 -0.04001838 0.028307233 0.15055102
-0.1653243 -0.20067297 -0.20092607 -0.00048162602 0.12411347 -0.1299479 0.14927356 -0.16044967
0.08274436 0.008834766 0.07891093 0.012031738 -0.16570215 0.12946269 0.12730572 0.100069225
-0.046168566 0.19986013 -0.18516296 0.116489895 0.12922013 0.100660935 -0.19092466 0.2012992
-0.11278854 0.22014026 0.37459755 -0.21375959 -0.38227996 0.023894493 -0.17432003 0.03882214
0.01279085 -0.17562898 -0.0030987004 0.06428482 0.0022195275 0.054299653 -0.19161268 -0.19132744
0.036696196 -0.10597259 0.14985532 0.35146323 -0.15925081 -0.45325157 0.18536413 0.0045589525
0.1608481 0.35083815 0.19293858 0.04294968 0.09182219 -0.20152566 -0.35762268 0.0087580355
-0.062101938 0.052946087 -0.011778164 -0.026154611 0.16006552 0.014785394 0.017023861 0.050150454
0.091232926 -0.09469718 -0.17760448 0.8882494 -0.27122557 -0.678284 -0.20086944 -0.18211867
0.13075604 0.12242989 0.029766899 -0.102729365 0.14695945 -0.2534955 -0.26765326 0.07377545
-0.07345708 0.11038777 -0.09368322 0.11336598 0.12943995 0.17505401 -0.08560748 -0.17426515
00000000: 7013 3c3d 4491 3cbd cccc d33d d809 cebe
00000010: 0843 51bf ec60 583f 3fe7 ea3d 173f f0bd
00000020: bb48 9b3d c156 2fbe 1eb7 a3bc ed09 10be
00000030: b6f1 3e3e dd63 83bd 7171 33be 6717 1bbd
00000040: 9151 103e 97ee 0cbd b4d3 1abe ac7d b9bd
00000050: dc6b ef3d aeaf 83bd ae12 0cbe ecbe 9d3d
00000060: fa1d 203e 44ba 843d 3f2a 2bbe 374c 383e
00000070: 8f7e 86be 9b4a c9bd 5958 243d f686 b23d
00000080: 4a92 bd3d 7d6a dfbc e84a 07be 08b9 693e
00000090: 961f b03c 52bb 4c3e 905c 533d cb61 e53d
000000a0: 811a 25be bc63 28be 759c 553d 7e53 89bd
000000b0: 121f bf3b 5ef6 0e3e 90cc a53d a4a5 14bd
000000c0: 00b2 573a 6bff 41be 06ae 453e 78b6 613e
000000d0: 0c62 f13c 83c0 a53d c5f3 38be f232 ab3d
000000e0: 6ddc a73d 8130 2abe 84e0 2f3d fe1b afbe
000000f0: 779d c33d cc96 5d3e 9bf4 4abb f131 d13b
00000100: 28d9 bfbd 3abe 25bc 5851 55be ccb8 aabd
00000110: 9f87 303e dde1 20be 9eea 4f3e 1495 273d
00000120: c4db 2a3e 2c6e d93d d07d 1b3e 35c0 8cbd
00000130: b50b 59bd 5345 06be 0602 013e 7488 e73d
00000140: 6c58 f63c 5fa0 813e b110 d43d 4349 93be
00000150: e196 7cbd 340d afba 773f e13e d011 8e3d
00000160: 3c67 123d 6330 e13d 3694 ebbb 0886 abbd
00000170: 1a0d 383d cc6c fcbd 6405 72bd 48e0 0dbe
00000180: fee5 00be b8c1 8e3c ccd8 47be 2769 363e
00000190: ba3e 26be 50ea 23bd 92e4 e73c 0c2a 1a3e
000001a0: c64a 29be 377d 4dbe 90bf 4dbe c082 fcb9
000001b0: 342f fe3d 1011 05be 2bdb 183e eb4c 24be
000001c0: e075 a93d b2bf 103c 0e9c a13d c420 453c
000001d0: d3ad 29be de91 043e 6e5c 023e 18f1 cc3d
000001e0: 401b 3dbd 22a8 4c3e 5c9b 3dbe 4192 ee3d
000001f0: 4852 043e 5227 ce3d c181 43be 6121 4e3e
00000200: aefd e6bd 736c 613e 40cb bf3e cbe3 5abe
00000210: 33ba c3be 62be c33c f380 32be f703 1f3d
00000220: b790 513c 15d8 33be 9113 4bbb c2a7 833d
00000230: 7e75 113b 5069 5e3d 1d36 44be 57eb 43be
00000240: c04e 163d 2808 d9bd ac73 193e fdf2 b33e
00000250: a512 23be 9710 e8be 18d0 3d3e 4463 953b
00000260: 5db5 243e 0fa1 b33e b191 453e 01ec 2f3d
00000270: 460d bc3d be5c 4ebe 521a b7be dd7d 0f3c
00000280: 9a5e 7ebd ffdd 583d 33f9 40bc 3242 d6bc
00000290: 37e8 233e 703e 723c a075 8b3c 906a 4d3d
000002a0: 54d8 ba3d 98f0 c1bd f3dd 35be 5064 633f
000002b0: 14de 8abe 05a4 2dbf b8b0 4dbe 517d 3abe
000002c0: e9e4 053e 86bc fa3d b6d9 f33c c663 d2bd
000002d0: 8a7c 163e 2aca 81be d909 89be 9517 973d
000002e0: aa70 96bd fc12 e23d fddc bfbd 6c2c e83d
000002f0: e88b 043e 5c41 333e f952 afbd 9072 32be

bias f4 [8]
0.052949876 -0.067927636 0.2405612 0.12580073 -0.21577086 0.002308895 -0.022378266 -0.0009329977
00000000: f8e1 583d a51d 8bbd ad55 763e e8d1 003e
00000010: 09f3 5cbe d550 173b a052 b7bc 6a94 74ba

weight f4 [8, 8, 3]
-0.20970215 -0.04751939 -0.24613683 -0.097213335 0.24002896 0.050405934 0.0769821 -0.09029568
-0.32636264 0.21217199 0.11173019 -0.4143769 -0.03830889 0.0034720525 0.11292426 -0.28260675
-0.4867315 -0.21846135 -0.28714442 -0.041079257 0.35712984 -0.1992989 -0.029025985 0.09151056
-0.14365242 -0.19903924 0.35523844 0.049710616 0.16972698 -0.07532991 -0.038188558 0.078453
-0.17757073 0.029155176 -0.048828743 -0.20901461 0.0709681 0.05782625 0.01875578 -0.12551416
0.11944363 0.11567544 0.01207659 0.04180609 -0.011499277 -0.1789826 0.10319778 0.04992601
0.0065277703 0.15038638 0.2632813 -0.20311373 0.041589186 -0.27209672 -0.09779614 -0.069309264
0.14725521 -0.018112643 0.03511139 0.29553998 -0.17466249 -0.0009161233 -0.09876277 -0.2534813
-0.10416181 -0.13684393 0.23542117 -0.11248084 -0.050317258 0.30135483 -0.15589313 -0.031724412
0.029348794 -0.032365102 -0.20191011 0.06921206 0.050845698 0.01149998 -0.032544907 -0.081072465
-0.05269083 0.24409968 0.040562708 -0.031071251 -0.07358092 -0.015975 4.8365246e-07 -0.05550645
-0.0057348115 0.07641551 0.26603302 0.2517913 0.08862999 -0.16478398 -0.09242348 -0.10110248
0.17690533 0.27198747 0.9193295 0.22137858 0.06327495 -0.11806267 -0.026592823 0.021618184
0.36298785 -0.031444594 -0.03803592 -0.4195807 0.033801477 0.1270286 -0.18348926 -0.17757905
-0.11214275 0.1647395 0.28612393 -0.05489116 -0.165999 0.7353218 -0.17003931 0.44813043
-0.11263364 -0.18245348 0.096916206 -0.119792394 -0.22382265 0.004476912 -0.38591486 0.059886258
0.27814996 -0.035004914 -0.037532248 0.16287836 -0.19850524 -0.18487008 -0.08862492 -0.011561256
0.25509158 0.1982827 0.22179608 0.16168106 -0.09177507 0.08560041 0.048314687 0.09313808
0.104341686 0.079602115 -0.013032733 0.09997487 0.13022408 0.09592192 -0.11482123 0.19478984
-0.18747884 -0.14888307 -0.005903008 -0.1491949 -0.16115025 -0.12047908 -0.12059642 -0.19992232
-0.19135126 -0.18863429 0.012613028 -0.102630384 0.118486546 0.009965601 -0.103122324 -0.13099022
-0.101993866 0.0887535 -0.006721569 0.14187069 0.16582592 -0.011978959 0.051147126 -0.017425442
-0.1741637 0.062117606 -0.029609058 0.10254312 0.08187332 0.05284483 0.011536262 0.00606829
0.012299851 -0.1763996 0.031972516 -0.13233528 0.082038656 -0.19251002 -0.15153563 0.14846686
00000000: 29bc 56be b1a3 42bd 4b0b 7cbe c917 c7bd
00000010: 27ca 753e 7476 4e3d cba8 9d3d f1ec b8bd
00000020: 0119 a7be 9d43 593e ccd2 e43d 3629 d4be
00000030: c8e9 1cbd 608b 633b d644 e73d d5b1 90be
00000040: df34 f9be 55b4 5fbe 9804 93be b942 28bd
00000050: b9d9 b63e 0315 4cbe e7c7 edbc e369 bb3d
00000060: 9f19 13be f1d0 4bbe d0e1 b53e 5c9d 4b3d
00000070: e9cc 2d3e 9146 9abd 9b6b 1cbd f7ab a03d
00000080: 1ad5 35be d6d6 ee3c a600 48bd ed07 56be
00000090: b957 913d 38db 6c3d b9a5 993c c986 00be
000000a0: dd9e f43d 3fe7 ec3d e4dc 453c dd3c 2b3d
000000b0: 7767 3cbc 3747 37be 5c59 d33d 377f 4c3d
000000c0: e8e6 d53b e3fe 193e cecc 863e 0cfd 4fbe
000000d0: 6c59 2a3d 4350 8bbe 5849 c8bd 04f2 8dbd
000000e0: 12ca 163e f760 94bc f6d0 0f3d 0451 973e
000000f0: b9da 32be fe27 70ba 2344 cabd 4dc8 81be
00000100: c952 d5bd d120 0cbe 3f12 713e 5b5c e6bd
00000110: 7819 4ebd 2e4b 9a3e 73a2 1fbe 75f1 01bd
00000120: e26c f03c 4591 04bd 86c1 4ebe 0dbf 8d3d
00000130: 9443 503d 6a6a 3c3c cf4d 05bd 5209 a6bd
00000140: 57d2 57bd 44f5 793e 1525 263d 2389 febc
00000150: 98b1 96bd 01de 82bc 58d4 0135 bb5a 63bd
00000160: 16eb bbbb bc7f 9c3d 7b35 883e caea 803e
00000170: a483 b53d 22bd 28be 8548 bdbd d10e cfbd
00000180: ac26 353e f141 8b3e 2e59 6b3f 11b1 623e
00000190: 4c96 813d d7ca f1bd 31d9 d9bc 9e18 b13c
000001a0: 8bd9 b93e 0ccc 00bd 8ecb 1bbd 48d3 d6be
000001b0: 6b73 0a3d c913 023e 9ce4 3bbe 48d7 35be
000001c0: 19ab e5bd 79b1 283e d67e 923e 8ed5 60bd
000001d0: a4fb 29be 0d3e 3c3f c91e 2ebe 5a71 e53e
000001e0: 77ac e6bd 16d5 3abe 017c c63d b755 f5bd
000001f0: c431 65be 0fb3 923b a296 c5be 4b4b 753d
00000200: ac69 8e3e 5061 0fbd 6abb 19bd 96c9 263e
00000210: f544 4bbe 954e 3dbe fb80 b5bd 6c6b 3dbc
00000220: 5d9b 823e 9f0a 4b3e 831e 633e b88f 253e
00000230: 91f4 bbbd 454f af3d 9fe5 453d 2dbf be3d
00000240: 18b1 d53d 6f06 a33d 3f87 55bc a0bf cc3d
00000250: 7659 053e b672 c43d 6527 ebbd fd76 473e
00000260: 74fa 3fbe ce74 18be 056e c1bb 8cc6 18be
00000270: 9204 25be bcbd f6bd 41fb f6bd 70b8 4cbe
00000280: 96f1 43be 5929 41be e0a6 4e3c e12f d2bd
00000290: 13a9 f23d c346 233c cc31 d3bd 4d22 06be
000002a0: 29e2 d0bd 65c4 b53d 9c40 dcbb 8d46 113e
000002b0: 45ce 293e 6543 44bc a67f 513d cdbf 8ebc
000002c0: f857 32be 086f 7e3d b28e f2bc 2102 d23d
000002d0: 33ad a73d d273 583d 9702 3d3c 82d8 c63b
000002e0: 5085 493c 19a2 34be 9df5 023d e682 07be
000002f0: e203 a83d 5921 45be 282c 1bbe b207 183e

bias f4 [8]
0.35732597 -0.11626024 0.17907546 0.006709669 -0.16857597 -0.0077972366 -0.13309771 -0.24978478
00000000: 6ef3 b63e d919 eebd 8f5f 373e c8dc db3b
00000010: 2e9f 2cbe f67f ffbb c44a 08be 95c7 7fbe

weight f4 [8, 8, 3]
0.076275975 0.22780056 0.046860944 -0.092770405 -0.09074774 0.25648248 -0.0052329917 -0.103531845
0.068067655 0.10091725 -0.16010654 -0.22180964 -0.39713466 -0.11169902 0.5625702 -0.06450069
0.016618676 0.2084079 0.09972363 -0.029099854 -0.05809746 -0.17290132 0.17734107 0.1623187
0.066671394 -0.30071482 0.08328231 0.074949525 -0.041870225 0.10113642 0.0898032 0.18771648
0.11424786 -0.206577 -0.20876442 -0.2393492 -0.5354103 -0.31038868 -0.43140465 -0.07805201
0.13375208 -0.036536958 0.022914935 0.15308587 0.15369056 0.026303664 -0.026131526 0.021406388
-0.024322923 -0.17044681 -0.30342406 0.09813455 -0.13424273 0.25951797 0.12379655 0.032582633
0.20803455 0.0070132534 -0.017242197 -0.2348537 0.3441425 -0.3505243 0.051545598 -0.07376035
-0.130959 0.008473489 0.08878707 0.20137307 0.13790634 -0.098494254 0.052224983 -0.06754376
-0.05829119 -0.15620255 -0.024339382 -0.19393975 0.06514161 -0.16169764 0.14630412 -0.20961441
-0.02912783 -0.01609337 -0.025945103 -0.1717806 0.066325605 0.0033843264 -0.15708284 -0.061230823
-0.14633156 -0.14605843 -0.105381705 -0.043808986 -0.052572053 -0.12255269 0.10037605 -0.19001211
0.1465595 -0.07036136 -0.047658976 0.08193883 -0.17902939 -0.011958872 -0.15054943 -0.22007146
-0.030337095 0.15109462 -0.007146602 0.032955423 0.15325294 0.21091048 0.21505146 -0.08278816
-0.089316025 -0.023774488 -0.12525928 0.07750053 0.0078559965 0.062265012 -0.105100706 -0.0088002775
-0.11340932 0.25684467 0.02600048 -0.2056301 -0.20117685 -0.065531254 0.043529235 -0.18693373
0.15726985 -0.028479716 -0.18809868 -0.12716131 0.27086398 -0.006117523 0.3919625 0.110687286
0.06703318 0.024584286 0.12074365 0.11260014 0.11039839 0.18544824 0.031669274 0.1544023
0.17574838 0.17220135 0.07587123 0.21671091 -0.104513906 0.16000067 -0.19237226 -0.1378854
0.07343862 0.14742202 -0.0058058123 -0.12013306 -0.14024869 0.24327172 -0.116095655 -0.043508764
0.12846597 -0.07926212 0.10734086 0.14538418 0.0277733 0.18158536 -0.15213884 0.090377025
-0.25480855 -0.17862587 -0.075207815 -0.1671295 0.11114173 0.1489618 0.22142486 0.003520954
-0.16733608 -0.26419237 0.13073997 0.056602005 0.51350117 -0.20759234 -0.23535496 0.025146848
0.023314398 -0.1925716 -0.021285547 -0.1485321 0.17813633 -0.059968017 0.11163029 0.026834903
00000000: 9436 9c3d 8d44 693e 43f1 3f3d 69fe bdbd
00000010: f3d9 b9bd ac51 833e 8479 abbb 8108 d4bd
00000020: 0e67 8b3d b4ad ce3d f8f2 23be 1122 63be
00000030: 3c55 cbbe 75c2 e4bd 9a04 103f f018 84bd
00000040: e423 883c e168 553e e73b cc3d d162 eebc
00000050: 9af7 6dbd 0b0d 31be e698 353e e036 263e
00000060: 038b 883d 4bf7 99be ea8f aa3d 237f 993d
00000070: 1d80 2bbd 9d20 cf3d bdea b73d c038 403e
00000080: c8fa e93d ec88 53be 57c6 55be f517 75be
00000090: a610 09bf 44eb 9ebe 12e1 dcbe bbd9 9fbd
000000a0: 4ef6 083e c7a7 15bd 1ab8 bb3c 8bc2 1c3e
000000b0: 0f61 1d3e c87a d73c c811 d6bc 735c af3c
000000c0: de40 c7bc 9c89 2ebe 665a 9bbe c4fa c83d
000000d0: ed76 09be 8adf 843e 0c89 fd3d 5e75 053d
000000e0: 0207 553e 6fcf e53b 823f 8dbc 7d7d 70be
000000f0: 7233 b03e ec77 b3be 7a21 533d ab0f 97bd
00000100: 1e1a 06be 64d4 0a3c ffd5 b53d be34 4e3e
00000110: 5237 0d3e 5bb7 c9bd dde9 553d 6254 8abd
00000120: bec2 6ebd 90f3 1fbe 6263 c7bc 2498 46be
00000130: f768 853d 1194 25be bfd0 153e 29a5 56be
00000140: 7d9d eebc 3ed6 83bc d38a d4bc 41e7 2fbe
00000150: b8d5 873d 93cb 5d3b 53da 20be 2ccd 7abd
00000160: f1d7 15be 5790 15be 5dd2 d7bd 0d71 33bd
00000170: cb55 57bd e8fc fabd f591 cd3d 8992 42be
00000180: b213 163e 9e19 90bd 0f36 43bd 8ccf a73d
00000190: 7b53 37be 25ef 43bc a129 1abe 6a5a 61be
000001a0: 8085 f8bc 8cb8 1a3e 0b2e eabb 44fc 063d
000001b0: 57ee 1c3e ebf8 573e 7336 5c3e d78c a9bd
000001c0: 52eb b6bd b7c2 c2bc f843 00be 99b8 9e3d
000001d0: 70b6 003c 9909 7f3d 0a3f d7bd 0a2f 10bc
000001e0: 2543 e8bd 2581 833e f5fe d43c b290 52be
000001f0: 4e01 4ebe 4035 86bd b64b 323d 8e6b 3fbe
00000200: 590b 213e 4b4e e9bc f19c 40be 9336 02be
00000210: afae 8a3e 8175 c8bb 4faf c83e 04b0 e23d
00000220: b148 893d fc64 c93c 7248 f73d e79a e63d
00000230: 8d18 e23d 25e6 3d3e a4b7 013d a31b 1e3e
00000240: 62f7 333e 8d55 303e 6062 9b3d 77e9 5d3e
00000250: 630b d6bd 37d7 233e 3cfd 44be d531 0dbe
00000260: fd66 963d ccf5 163e af3e bebb 5208 f6bd
00000270: 5a9d 0fbe 391c 793e 8fc3 edbd 3f36 32bd
00000280: 958c 033e 2e54 a2bd 86d5 db3d 97df 143e
00000290: d584 e33c 83f1 393e 49ca 1bbe 9717 b93d
000002a0: 4476 82be b3e9 36be 8e06 9abd ff23 2bbe
000002b0: 469e e33d 7189 183e 33bd 623e cebf 663b
000002c0: 265a 2bbe 3944 87be b3e0 053e 81d7 673d
000002d0: d074 033f 1693 54be e400 71be c300 ce3c
000002e0: d6fd be3c 7d31 45be 075f aebc cc18 18be
000002f0: 5f69 363e 06a1 75bd 6c9e e43d dfd4 db3c

bias f4 [8]
-0.11587886 0.65691286 0.081116796 0.079583995 -0.19857769 -0.0879961 -0.051829092 0.103274055
00000000: e551 edbd 712b 283f 9020 a63d effc a23d
00000010: f357 4bbe 4d37 b4bd be4a 54bd 5981 d33d

weight f4 [8, 8, 3]
0.097386904 -0.103173025 -0.143264 0.1022378 0.004038729 -0.06360129 -0.07199074 -0.18383214
0.076795064 -0.1284104 -0.12822458 0.14060609 -0.035596017 0.0062307757 -0.14629766 0.17803206
0.2984102 0.11460667 0.124849275 0.032851525 -0.04767875 0.06608167 0.12398301 -0.07788017
-0.12986685 0.18722004 0.054217618 -0.108710475 0.08584987 -0.092636794 -0.048099797 -0.03204594
-0.15711997 0.039846238 0.19505614 0.19523713 -0.1059837 -0.10743311 0.022240117 0.031962402
0.018203484 -0.1220874 -0.15916239 0.12840892 0.063766874 -0.10587932 -0.08329261 -0.07369023
-0.13235156 -0.13763987 -0.10858404 -0.20915349 -0.10645712 0.19098207 0.16726075 0.034541104
-0.16100045 0.044376038 -0.001684997 -0.019491725 0.13966665 -0.08817475 -0.0065510906 0.1651323
-0.12491926 -0.15517898 0.18074681 -0.14831822 0.04939119 -0.011549278 -0.084141396 0.017492654
-0.05068594 0.16598555 0.43389228 -0.34148365 0.060841218 -0.1569561 0.3000594 0.2702172
-0.023564195 0.011123808 0.03024785 0.027798742 0.041897036 -0.06320608 0.030272273 -0.11673635
0.15295658 0.12738696 -0.13061593 -0.11248298 -0.108315535 0.41260508 0.1007948 -0.21767515
0.18148075 -0.055155396 -0.029352317 -0.07651981 0.010538774 -0.085003935 0.18315268 -0.1667856
-0.011173732 -0.12541123 0.18188514 0.055113707 -0.08035261 -0.08118133 0.16172154 0.11049187
0.06318341 -0.13730331 -0.015494494 -0.05448225 -0.14063941 0.23464128 0.0011166413 -0.065173335
0.085614055 -0.0061392016 -0.325876 0.18993561 0.08618399 0.22615486 -0.05721582 -0.047409598
-0.06418164 -0.05534015 0.16124822 0.012686474 -0.21578132 -0.11465937 -0.15773314 -0.2904704
-0.2845332 -0.36360058 -0.1106851 -0.112312146 -0.08983791 -0.116282955 0.011938063 0.27103543
0.1307883 -0.16423528 0.10502446 -0.12043049 0.107950635 -0.052603662 -0.101228945 0.13992351
-0.10484255 0.10662027 0.06666973 0.19138707 -0.04468092 -0.09659097 0.15588951 0.31522837
0.17690523 0.020341046 0.08998215 -0.041226692 0.065894194 0.023519544 -0.12273224 0.07683218
-0.10165576 -0.17873721 -0.14027722 0.094517745 -0.14947827 0.16685902 0.003229496 0.1678395
-0.16529828 0.15752503 -0.058127295 -0.079965144 0.06430893 -0.031443764 -0.0046381666 0.02890979
0.04111365 -0.0041485373 -0.1600522 -0.080167405 -0.16553569 -0.14803478 -0.051854204 0.053478956
00000000: c972 c73d 614c d3bd ccb3 12be 0d62 d13d
00000010: 5057 843b 6541 82bd e26f 93bd 7e3e 3cbe
00000020: bb46 9d3d 047e 03be 4e4d 03be 0bfb 0f3e
00000030: 21cd 11bd 892b cc3b 0ecf 15be 094e 363e
00000040: 39c9 983e e7b6 ea3d fab0 ff3d 528f 063d
00000050: cb4a 43bd d455 873d ceea fd3d a37f 9fbd
00000060: d1fb 04be 9cb6 3f3e 4b13 5e3d 99a3 debd
00000070: 0fd2 af3d 5cb8 bdbd 4b04 45bd 9b42 03bd
00000080: 0fe4 20be cf35 233d ccbc 473e 3eec 473e
00000090: fb0d d9bd e405 dcbd e830 b63c 02eb 023d
000000a0: 791f 953c f508 fabd 77fb 22be a17d 033e
000000b0: 3598 823d 42d7 d8bd 5195 aabd e7ea 96bd
000000c0: 2b87 07be 77f1 0cbe 4f61 debd 552c 56be
000000d0: 3106 dabd ce90 433e 6746 2b3e f97a 0d3d
000000e0: 4ddd 24be a6c3 353d 1edb dcba 1cad 9fbc
000000f0: c604 0f3e f794 b4bd 88aa d6bb 7118 293e
00000100: abd5 ffbd 3de7 1ebe b115 393e bbe0 17be
00000110: 6b4e 4a3d 2f39 3dbc 5352 acbd c14c 8f3c
00000120: 0f9c 4fbd 1ef8 293e 2127 de3e f2d6 aebe
00000130: a434 793d 1ab9 20be 63a1 993e e959 8a3e
00000140: b309 c1bc a240 363c 57ca f73c 30ba e33c
00000150: 3a9c 2b3d 3072 81bd 8ffd f73c 7813 efbd
00000160: a6a0 1c3e ba71 023e 2fc0 05be 7a5d e6bd
00000170: 89d4 ddbd f940 d33e 816d ce3d 3ce6 5ebe
00000180: 17d6 393e a0ea 61bd 4574 f0bc 6bb6 9cbd
00000190: d2aa 2c3c 8b16 aebd 608c 3b3e d8c9 2abe
000001a0: 0712 37bc cd6b 00be 1940 3a3e e9be 613d
000001b0: e98f a4bd 6642 a6bd 559a 253e 9049 e23d
000001c0: 4e66 813d 3d99 0cbe 9edc 7dbc c828 5fbd
000001d0: c703 10be ce45 703e 445c 923a 9979 85bd
000001e0: 6c56 af3d 5b2b c9bb 38d9 a6be 7b7e 423e
000001f0: 3b81 b03d 2495 673e 235b 6abd 9130 42bd
00000200: aa71 83bd 5aac 62bd 411e 253e eeda 4f3c
00000210: c7f5 5cbe 88d2 eabd cc84 21be 89b8 94be
00000220: 56ae 91be db29 babe dfae e2bd e903 e6bd
00000230: f0fc b7bd c225 eebd de97 433c 28c5 8a3e
00000240: 5eed 053e 4b2d 28be 1017 d73d 43a4 f6bd
00000250: 3915 dd3d f076 57bd 1f51 cfbd 1c48 0f3e
00000260: b1b7 d6bd ba5b da3d 248a 883d f9fa 433e
00000270: 5703 37bd 7dd1 c5bd 80a1 1f3e 9d65 a13e
00000280: a526 353e 44a2 a63c 9048 b83d 52dd 28bd
00000290: 89f3 863d 0fac c03c 0a5b fbbd 315a 9d3d
000002a0: e530 d0bd e306 37be d5a4 0fbe 8592 c13d
000002b0: d510 19be 17dd 2a3e f4a5 533b 1ede 2b3e
000002c0: f443 29be 3e4e 213e e316 6ebd c4c4 a3bd
000002d0: 66b4 833d 2dcb 00bd c3fb 97bb 39d4 ec3c
000002e0: c966 283d 74f0 87bb b9e4 23be cf2e a4bd
000002f0: 3082 29be 6e96 17be 1365 54bd c00c 5b3d

bias f4 [8]
-0.27070856 -0.061803892 0.018849371 0.13169354 -0.1771002 0.4151709 -0.26642752 -0.18517062
00000000: 509a 8abe 1426 7dbd ff69 9a3c acda 063e
00000010: c159 35be 4891 d43e 3069 88be 5e9d 3dbe

weight f4 [8, 24, 1]
-0.15263905 0.09033563 0.33372843 -0.2019557 0.1927656 0.022116693 -0.07197647 -0.10144801
0.13124135 -0.54285073 0.25003457 0.10328534 -0.19606519 0.1790062 0.27875382 0.17397036
-0.2697967 -0.11643449 -0.102259986 0.36521682 0.19259721 -0.69733876 -0.1995247 -0.17308962
-0.08681042 -0.07115164 -0.13972221 -0.13445319 0.48883218 0.41409355 -0.014003701 -0.11296638
0.4632088 -0.35499644 0.11791981 0.22064674 -0.28209844 0.27191895 -0.101145126 0.45534945
-0.16184896 0.03203844 0.17349489 0.5927007 0.17660815 -0.47731465 -0.27733028 -0.15185943
-0.011006384 -0.0371993 0.039591894 0.059563674 -0.025428712 -0.023970595 0.026576532 -0.016215209
0.045759257 0.076159835 -0.05672054 0.11632022 0.123446256 -0.04888112 0.13327502 0.05807299
0.15051171 -0.011527276 -0.16718192 0.10092325 0.1496362 0.00095463387 -0.06707258 -0.097962365
0.06533085 0.052652527 0.010652901 0.0033891955 0.007591812 0.014939053 0.043066412 -0.032586977
-0.034129605 0.0015208859 -0.10791396 0.19667217 0.10431924 0.027593428 -0.18628515 0.015686484
-0.060088206 -0.09963141 0.088842556 0.039719336 -0.04382445 0.03679039 -0.083351605 0.04401991
0.06755324 -0.050936557 -0.017991224 0.037565295 0.019517051 0.035808023 0.0923089 0.08057485
0.00062553 -0.0052994047 0.0769165 0.10952675 0.06986316 -0.06304758 0.1009013 0.0028041329
0.16430585 0.13073665 -0.12444297 0.038073044 -0.18553035 0.04772585 -0.09524572 0.10070836
-0.8185616 0.061845638 0.45421195 0.22978342 0.13287665 0.79835063 0.0798714 0.09356644
0.060205977 0.26362956 0.421822 -0.03162958 0.08818288 -0.03778494 -0.059517197 0.147271
-0.05767039 0.056158286 0.012815889 0.287066 -0.01719943 0.033855233 -0.049737964 -0.041913766
0.3204713 -0.03243314 -0.024650166 -0.029145088 0.13642731 0.19522478 -0.0008514293 0.10537409
0.21066259 0.3386143 0.27329782 0.0019304471 -0.068114415 -0.11679935 -0.11814946 0.13220747
0.16121002 -0.09155131 -0.12698077 0.0107502695 -0.028357875 0.14158839 -0.04654911 0.05787995
0.112893544 0.07332147 0.10251891 0.2499215 0.027711706 0.03400744 0.08808971 0.15722388
-0.045882642 0.14486085 -0.09258932 0.1846469 -0.11379523 0.15465921 0.0034456274 0.03945776
-0.18489954 0.09602276 0.07590933 0.03424247 -0.16324727 0.18537991 0.16280152 -0.07841629
00000000: 694d 1cbe e301 b93d 74de aa3e 7acd 4ebe
00000010: 5864 453e 112e b53c 6668 93bd f9c3 cfbd
00000020: 2264 063e 44f8 0abf 8804 803e 4487 d33d
00000030: 50c5 48be 674d 373e d2b8 8e3e 4925 323e
00000040: cb22 8abe 3575 eebd af6d d1bd b3fd ba3e
00000050: 3438 453e cb84 32bf 3450 4cbe 683e 31be
00000060: a9c9 b1bd f3b7 91bd 5713 0fbe 19ae 09be
00000070: 3648 fa3e 1204 d43e c76f 65bc eb5a e7bd
00000080: b429 ed3e 18c2 b5be f17f f13d 38f1 613e
00000090: 356f 90be f638 8b3e 2d25 cfbd 9023 e93e
000000a0: bcbb 25be bd3a 033d a5a8 313e 3cbb 173f
000000b0: c4d8 343e 9662 f4be 3cfe 8dbe 0a81 1bbe
000000c0: 1f54 34bc 4b5e 18bd 1c2b 223d 0af9 733d
000000d0: e04f d0bc fb5d c4bc 07b7 d93c c2d5 84bc
000000e0: 0f6e 3b3d b0f9 9b3d cc53 68bd 4c39 ee3d
000000f0: 64d1 fc3d 9237 48bd 3f79 083e f2dd 6d3d
00000100: be1f 1a3e e6dc 3cbc bd31 2bbe d9b0 ce3d
00000110: 3b3a 193e 6540 7a3a 595d 89bd 7ea0 c8bd
00000120: 2ecc 853d 2daa 573d 8189 2e3c 441d 5e3b
00000130: bcc4 f83b eec2 743c 6866 303d ec79 05bd
00000140: 7ccb 0bbd 7658 c73a ff01 ddbd 6e64 493e
00000150: 53a5 d53d 9d0b e23c 89c1 3ebe f180 803c
00000160: 0d1f 76bd 8d0b ccbd 16f3 b53d beb0 223d
00000170: 4481 33bd 85b1 163d 3fb4 aabd 394e 343d
00000180: 5a59 8a3d daa2 50bd 5562 93bc 11de 193d
00000190: 39e2 9f3c 6fab 123d 730c bd3d 6d04 a53d
000001a0: 9cfa 233a a1a6 adbb 6686 9d3d 904f e03d
000001b0: 6b14 8f3d 171f 81bd 57a5 ce3d 8bc5 373b
000001c0: cb3f 283e d4df 053e f5db febd 7bf2 1b3d
000001d0: abfb 3dbe 2e7c 433d 3010 c3bd 2f40 ce3d
000001e0: 418d 51bf da51 7d3d 788e e83e 584c 6b3e
000001f0: d110 083e b560 4c3f 9e93 a33d c39f bf3d
00000200: 8b9a 763d 74fa 863e 0ef9 d73e 058e 01bd
00000210: 3a99 b43d 62c4 1abd 4ec8 73bd 36ce 163e
00000220: c937 6cbd 3b06 663d bcf9 513c 51fa 923e
00000230: d2e5 8cbc c9ab 0a3d 09ba 4bbd c5ad 2bbd
00000240: d014 a43e 9dd8 04bd 25ef c9bc aec1 eebc
00000250: 9ab3 0b3e 01e9 473e 7432 5fba 5fce d73d
00000260: efb7 573e db5e ad3e b1ed 8b3e 0e07 fd3a
00000270: 927f 8bbd 7f34 efbd 58f8 f1bd 6561 073e
00000280: 3d14 253e 417f bbbd 3f07 02be e621 303c
00000290: c64e e8bc 8cfc 103e 48aa 3ebd 8713 6d3d
000002a0: bb34 e73d 9129 963d 6ff5 d13d 6ceb 7f3e
000002b0: a903 e33c 634b 0b3d 6168 b43d 4cff 203e
000002c0: 70ef 3bbd 6756 143e 789f bdbd 1414 3d3e
000002d0: 790d e9bd fc5e 1e3e 09d0 613b 769e 213d
000002e0: 4e56 3dbe 95a7 c43d 5a76 9b3d d541 0c3d
000002f0: 4b2a 27be 3bd4 3d3e 71b5 263e b898 a0bd

bias f4 [8]
0.7927106 1.1175636 -0.05683333 -0.036719162 -0.039305262 1.1058729 1.791333 -0.1820874
00000000: 15ef 4a3f 530c 8f3f 11ca 68bd d566 16bd
00000010: 8efe 20bd 3e8d 8d3f 664a e53f 1f75 3abe
