Masterarbeit_YorickLALY/Code_and_Neural_Network/CNN_window_size_10_booleanScaler.pt (torch, 10191 bytes, 12 tensors)

weight f4 [8, 8, 3]
00000000: 2291 19be 3d9c 243e 3d01 09be d105 923e
00000010: c545 9c3e fcc2 e43e 084f 893c d0df 6a3c
00000020: 906d 13bd eee2 95bd 99a4 2abe 083c 0bbe
00000030: 90b6 c13d 61b8 cd3d 5c7d c63e bebb 72bd
00000040: c5f5 d13e 3356 433c cb4b bebe a0f6 f03d
00000050: 317f 68be cc1f 4e3c 2580 71be 0734 9b3c
00000060: 3a8b 2c3d b46d fb3d e6d7 0bbe 22bd fd3b
00000070: a2c4 d4bd 8be2 21be 0090 803a 108d 433e
00000080: c6d3 ddbd 506f 43bd 9027 2b3c 774e f5bd
00000090: aa2f 263e 0b17 bf3d 2425 27bd 5873 6fbd
000000a0: bb9b 7c3e 8f96 8b3c 1404 aa3d fc23 5ebe
000000b0: 035f 3e3d b1ca 13bd 6d35 3abe ba83 ccbc
000000c0: 3904 33be c3ab 33be 8d9e 94be 36ea 513d
000000d0: 3a71 ae3e b955 713d bddd c5bd 0047 18be
000000e0: d3a5 34be 6c19 e93d 0048 bcbb a0ed b33d
000000f0: 7e87 323e 3330 da3c 90d8 1abe a6d6 b73d
00000100: 79e4 423e 4089 d33e 3c37 b43e b276 8bbb
00000110: 1d18 963d 1d36 42be ff40 1b3e ce37 5e3f
00000120: c720 1e3d b137 3c3d 0ad0 88be db18 3bbc
00000130: 0523 763e 0349 c9be a458 453e de02 0ebe
00000140: 4800 163e 1497 00bd c07a c8bb 707d 1abd
00000150: a644 ba3d 4565 533c b3f3 123e ed66 0b3f
00000160: eb09 663e d8b8 0fbf 9b49 84bd 605b 8c3e
00000170: 7a5e cdbe 2fc8 b63d 7cb9 85bd 5289 9bbe
00000180: 65e8 283e 35d5 953e 8c72 00bd 7ef3 163d
00000190: 65de 95bc a7ab a53c 84a9 173d b82b 7dbd
000001a0: 10bc 24be e0ab bb3b 926f 03be 3892 bbbc
000001b0: 683f 6c3e 7329 c13e 9621 ae3e 48b1 05be
000001c0: 3347 b3bc 802f 223e 4d6b e03c 1a71 713e
000001d0: e7b9 753e 4dec b4bd 5d68 e9bd 659b 0ebf
000001e0: b176 3cbe d239 a5bd 724a a73c 04b2 41be
000001f0: d31b 7c3e adb3 4d3d 9e1a 163e 40ad 21bc
00000200: c8ac 833d 0055 f0bb 7622 453e 9c5f 1abe
00000210: 45bb 293e 3a7a 6dbd 692b 483e 49d4 a3be
00000220: 4d39 c53e 1eb9 5c3e 4d21 19bf f59f fc3d
00000230: db4e ab3d 5c2a 34be f6b8 bbbd f66f b13d
00000240: ebb3 733d fffa 42be c5f7 463e 96c9 2bbe
00000250: b455 01bf 7836 0abf 3cb2 023e 2f20 fdbd
00000260: a0e2 6c3c ae58 2d3e 7e25 203e 0c7b d2bd
00000270: 0052 0fbe 35f8 8ebd f109 093c 64a2 463f
00000280: 8611 d9bd d5ee f6be 6c09 9fbb df29 7b3e
00000290: 3827 083f 8ea0 3abd 7c61 d2be ee79 3ebf
000002a0: ad79 0dbe 885c abbd 2dc0 61bd a02c acbe
000002b0: 066e 733d f13c 6e3d 8823 80bc e036 95bd
000002c0: 4824 963c 588c 083d b7ea 1ebe a83e b13c
000002d0: 5e94 8bbd 93b4 6fbd 4352 58be a05e 17bf
000002e0: ea5f 3ebe 9781 223e 9f1c 883e 783c b63e
000002f0: 82a2 b33e 8b70 fbbd 1f20 e33c 9b95 a23e
-0.1499677 0.16075225 -0.13379379 0.28520063 0.3052198 0.4468001 0.016761318 0.014335588
-0.03599316 -0.07318674 -0.16664352 -0.13597119 0.09458649 0.10044933 0.38767517 -0.059261076
0.4100782 0.011922407 -0.371672 0.1176579 -0.2270477 0.012580823 -0.2358404 0.018945707
0.042124964 0.122767836 -0.13656577 0.0077434937 -0.10389067 -0.15809076 0.000980854 0.1909678
-0.10831408 -0.047713578 0.010446444 -0.119778566 0.1622912 0.09330567 -0.040806904 -0.05845961
0.24668781 0.017039565 0.08301559 -0.21693414 0.04647733 -0.036081973 -0.18184443 -0.024965156
-0.1748208 -0.1754599 -0.29027215 0.05124875 0.3407076 0.058919642 -0.09661434 -0.14870834
-0.17641382 0.11381802 -0.0057458878 0.08785558 0.17434499 0.026634311 -0.15121675 0.08976488
0.19032468 0.4131565 0.3519839 -0.004256093 0.07328818 -0.18965955 0.15161513 0.868039
0.038605478 0.04595155 -0.2672122 -0.0114195 0.24036796 -0.39313516 0.19272095 -0.13868281
0.14648545 -0.03139408 -0.0061181486 -0.037717283 0.09095125 0.0129025625 0.14350776 0.5445393
0.22464721 -0.56141424 -0.06459352 0.27413464 -0.40111142 0.08924901 -0.06529519 -0.30378205
0.16494901 0.29264227 -0.03135924 0.036853306 -0.018294523 0.020223452 0.037026897 -0.06180927
-0.16087365 0.005727276 -0.1283553 -0.022896871 0.23071063 0.37726936 0.3401 -0.13055909
-0.021884536 0.15838432 0.027394915 0.23578301 0.23996697 -0.08834133 -0.11396859 -0.55705863
-0.18404652 -0.08067669 0.02042124 -0.18915564 0.24619989 0.05022018 0.14658591 -0.009867966
0.0642944 -0.0073343515 0.19251427 -0.15075535 0.16575344 -0.057977892 0.1954781 -0.31997898
0.3852028 0.21554992 -0.5981644 0.12335197 0.0836465 -0.17594284 -0.09166138 0.08663933
0.059497755 -0.1904106 0.19430454 -0.16776118 -0.505214 -0.5398936 0.12763304 -0.12359654
0.0144583285 0.1692836 0.15639302 -0.102773756 -0.13996124 -0.069809355 0.008364187 0.7759154
-0.105990455 -0.4822909 -0.004853418 0.24527691 0.53184843 -0.045563273 -0.4109 -0.744048
-0.13815947 -0.08367258 -0.055114914 -0.33627796 0.0594311 0.058163587 -0.015641943 -0.07285857
0.018327847 0.033336967 -0.15519224 0.021636322 -0.06815408 -0.05852182 -0.2112513 -0.5912876
-0.18591276 0.15869747 0.26584336 0.3559301 0.3508492 -0.12277325 0.027725277 0.31754765

bias f4 [8]
00000000: 9a04 533d 3037 c33d 9e30 89be 6790 f53e
00000010: 1563 f43c c680 59be 9c97 2b3e 9c18 663d
0.05151806 0.095320106 -0.26794904 0.47961733 0.029832402 -0.2124053 0.16757053 0.056175813

weight f4 [8, 8, 3]
00000000: 1897 053e 1a22 6f3e 60cc 813e 0f37 323e
00000010: 3296 713d 90f9 89bd 4cc3 143e edd6 33bd
00000020: 41db a6be f1ae b8bd 1d85 0c3f 54b6 f7bc
00000030: cb47 28be 520d 6e3e bb69 27be 4ec7 623e
00000040: d506 c93e 0d0f 343c 86e3 f3be 1292 22bf
00000050: d947 2abf 9472 d5bd 0d4d 35be 86eb 91be
00000060: 9b48 0a3e 23ee 0dbe 22f3 43be 697f 85bd
00000070: e4a7 4c3e 6481 b03c 4b96 67bd 2b9a 3fbd
00000080: 1cf9 f1be 0381 dc3e ad74 db3d 9540 c23e
00000090: 694c 67be 7a92 25be 47fd e03d 5906 113f
000000a0: 0736 213e ca0c 40bd d00c b53e e8bd 113e
000000b0: c215 0d3f 6209 0fbf 9b0f a73d 071f 3fbd
000000c0: a661 e0bd 239a 8abd 994c 183d 4c86 49be
000000d0: 40ee 433e fd07 f9bd a007 2dbc fd9a 473e
000000e0: 2dc1 0abe e0c7 efbd a8ba 8dbd 4bba 7abd
000000f0: fb09 c9bd 39bb 0ebd b48d ebbc da61 f13d
00000100: b75a 15be 17df 443e bcef 1b3e 2634 263e
00000110: 5b2a 013d a2b8 bdbd d90e 3dbe 1e20 27bb
00000120: cf6b 00be 6005 6abd 6d98 77bd a369 403e
00000130: bbfd 9d38 10ee 6cbe 36e9 9a3e a71b b53e
00000140: c399 d73e 6c89 8dbd 4ba1 213e 7cbe dc3d
00000150: 3f5a 77be 914a c4be cdd5 1fbf 5db9 823c
00000160: a186 f43d d3ad f73d b916 d33c 8762 11be
00000170: bc16 fbbe 7e63 563d 8370 f83d 441d 8b3e
00000180: c186 4b3e c7f7 a83d 0e1b 173e 6c76 4fbd
00000190: 56c5 0cbe f4bc abbd 5a34 293e 39d6 3c3e
000001a0: dc43 ae3e 5fd1 5cbb bcb7 82be 1a50 9a3d
000001b0: 4db2 7bbd 983a a03e 6ada 133e 9ad8 993e
000001c0: d859 113d c9da aabd 2c83 7bbd d70e fcbd
000001d0: 9440 593e 74b5 81be 689a 85be f059 10be
000001e0: 0b06 eebe 223e ccbd 3652 5f3d 30ac 9e3d
000001f0: 5ecf 3cbe aece 003e 4853 8b3c 1368 313e
00000200: 2ab9 f33e 9839 4ebe b53b 95bd a657 873e
00000210: 8c45 a13b 1282 783e 99ff 0f3e 8f57 34be
00000220: 545a 59be f9f5 9b3d 76bc 37be e757 853e
00000230: 9dc7 76bc 9a86 453e fa10 6a3e ca38 413d
00000240: 73da ddbd 90ff 0f3d 02f8 c93d b89a 6e3b
00000250: 382b 143e 08f6 723e b8ca 043d c8bc 5cbd
00000260: 4d72 983c 86a5 04bd 4002 33be 3cb1 39be
00000270: 8419 6a3e db3e 333e f61b 23bd 49f5 f1bc
00000280: 3871 473d 74bd 543e 3c4b b73c d8a6 63be
00000290: 5670 c43d 0dc7 3f3e 86b8 68bd 46b8 1e3d
000002a0: e46b 97bc 7fe6 ad3d a002 053e ac84 e83d
000002b0: dd28 f83d ba54 2e3e cbb2 653e 3891 bb3d
000002c0: 2181 8e3d b0a8 3fbb 9eb6 5fbe b940 58be
000002d0: c372 aa3d 3815 1fbd a0ae 58be e68b b53d
000002e0: bc30 7cbd 7e20 293d 1ef4 9a3b 99af 3cbe
000002f0: a6aa cabd 4680 743e 52bd 523e ee1b b7bd
0.13045919 0.23352852 0.25351238 0.17403816 0.058981128 -0.067370534 0.14527625 -0.04390614
-0.32589152 -0.090177424 0.54890615 -0.030238308 -0.16433637 0.23247269 -0.16348927 0.22146341
0.39263025 0.0109899165 -0.47634524 -0.63504136 -0.6651588 -0.10422245 -0.17705174 -0.28500003
0.1350426 -0.13860373 -0.19135717 -0.06518442 0.1998592 0.021546073 -0.056539815 -0.046777885
-0.47260368 0.43067178 0.107156135 0.37939897 -0.22587742 -0.16169158 0.10985809 0.5665031
0.15743266 -0.046887197 0.35361338 0.142326 0.55111325 -0.5587369 0.081572734 -0.04666045
-0.10956125 -0.067676805 0.037182424 -0.19680136 0.19133854 -0.12159727 -0.0105609 0.19492717
-0.13550253 -0.11708045 -0.069203675 -0.06121282 -0.09816357 -0.03484652 -0.028754093 0.11786242
-0.14585386 0.19225727 0.1522817 0.1623083 0.031534534 -0.092637315 -0.18462695 -0.002550132
-0.12541126 -0.057134032 -0.0604481 0.18790297 7.5336044e-05 -0.23137689 0.3025605 0.3537266
0.42109498 -0.06910977 0.15784185 0.107785195 -0.2415552 -0.3833814 -0.6243561 0.015957529
0.11939741 0.12093701 0.025767671 -0.14197741 -0.49040782 0.052340977 0.12130835 0.27170765
0.19875623 0.08250385 0.14756414 -0.050650045 -0.13747153 -0.08385649 0.16523877 0.18441094
0.34036148 -0.003369413 -0.25530803 0.075348094 -0.061449338 0.31294703 0.14438787 0.30048066
0.035486072 -0.08342511 -0.061404392 -0.12307518 0.21216041 -0.2533375 -0.26094365 -0.14096808
-0.46488985 -0.099727884 0.05452176 0.07747686 -0.1843848 0.12578842 0.017007485 0.17324857
0.47602206 -0.20139158 -0.07286779 0.26434058 0.0049216207 0.24268368 0.14062347 -0.17611526
-0.21225864 0.07615275 -0.17942986 0.26043627 -0.01506224 0.19289628 0.22858039 0.0471733
-0.108326815 0.035155833 0.09861757 0.0036408138 0.14469612 0.23726666 0.03241989 -0.053890973
0.01860919 -0.032384418 -0.17481327 -0.18134016 0.22861296 0.17504446 -0.039821588 -0.029535906
0.04869196 0.20775396 0.022374742 -0.22231615 0.09591739 0.18728276 -0.0568166 0.038749956
-0.018484063 0.08491229 0.12989283 0.1135343 0.12117169 0.17024508 0.22431485 0.09158558
0.06958223 -0.0029244833 -0.21847007 -0.2111844 0.0832267 -0.038838595 -0.21160364 0.08864574
-0.061569914 0.041290753 0.004728808 -0.1842636 -0.0989583 0.23877057 0.20580032 -0.08940874

bias f4 [8]
00000000: 2c2f 9f3e 5c16 9cbc c65c 42be de50 283e
00000010: 326c 1bbe ce6d 07bd 0446 21be 8ffe 46be
0.31090677 -0.01905363 -0.18980703 0.16437098 -0.15177992 -0.033063702 -0.15749365 -0.19433044

weight f4 [8, 8, 3]
00000000: a868 98be 20e4 7d3d b57c 3f3d 01bd d0be
00000010: 73dd 8bbd 2f68 76be 1763 433d d9f7 bcbb
00000020: a380 26bd 6d10 cf3c 8b70 8d3d 30ed 873e
00000030: 3402 e7be 43f3 95be 6c53 e8be c0a9 e23e
00000040: befc b6be adb7 7c3e d673 5f3b 2f83 2cbe
00000050: 2d6a 7b3e f73a 993d 36a6 e1bd a547 65be
00000060: 4018 813c 70dc 163f 569b 833e 0e19 f8bd
00000070: 721d 173e c4f3 f5be 2572 6ebd 49e3 ad3d
00000080: 56fc e2ba 79ff 2a3d a2ad e13d 39bb c93e
00000090: b155 683c 1fd6 82be e968 953c b1bc 09bd
000000a0: d91d 81bd c4fd 963e 181a 353e b917 42bc
000000b0: 7027 29bd 0ca6 1ebd 25fd 85be 8716 33bd
000000c0: 813a 14be 7d41 de3e af50 dc3d 13fc 5ebd
000000d0: 3f57 113d f92f 5c3e 9a5a fdbd 62cc 3cbe
000000e0: e595 f339 3bfd a4be 0542 16bf f000 77be
000000f0: 864e 0d3e 2a78 00bd 4358 3e3e 2507 bbbc
00000100: b876 68bd 066c 4abe f89e aa3d e0b9 fdbd
00000110: 0160 02be aedd 063e 4604 bc3d 9021 04bc
00000120: 830a 6fbe 3399 943e 9b24 ee3d 9c16 3fbe
00000130: 3c0a 163c d118 bbbe e692 7a3d 7395 013e
00000140: e6bc 0b3d 60cf a9bd da8b 8ebe 5527 e4be
00000150: 3dc3 5e3e 853b f0bd f597 163e b66e 693e
00000160: 91f2 503e bb72 9e3d 377a 01be 29e2 a2bc
00000170: ac40 3a3c ae24 f13d 932f e53c 172f 183e
00000180: 40e1 e6bc cb3e b4bd 171e 9a3e 63c9 3bbd
00000190: 9aab 85bc 3ea4 dfbc 7c42 99bd a8f5 65bd
000001a0: 2cd9 0d3e b097 e33d b9e5 3bbe 9eeb 56be
000001b0: 6297 a73d de0d fc3d d384 8ebb 4468 76be
000001c0: b5d1 553d 64a9 cf3d d5fe 1e3e eb52 e73d
000001d0: 6b71 1b3e e524 09be d5cb a3bd 450e 2ebd
000001e0: 14ec 0a3e b689 bf3e b793 c93e 8be7 f73d
000001f0: 9315 21bd 15cd 9b3d 1296 08be 2811 5dbd
00000200: 130b f2bd 8d82 b1be 846f 22be da9b 1fbd
00000210: 3b28 83bd 5438 24be feeb 513d 4a76 9cbe
00000220: 6db4 cbbe afe1 b3bd 70a2 54bd 71cc 083e
00000230: 9671 4f3d 39d2 853d 81e7 dbbd e3d8 25bc
00000240: f5e0 963c 1525 a93e 8b86 683d dea7 14be
00000250: dc98 c1bd 6f66 a7be fae3 503e ea01 3d3e
00000260: d6e5 5ebd 5878 f53d 97ad d9bd a76d 6d3e
00000270: 873d 323e 3cf1 0f3e 5d80 22bb 8859 bfbd
00000280: 6557 003e 3443 803c a0d6 01bc a211 02be
00000290: de1a 283e 6fee 05be 8e1b 84bd 9de9 843c
000002a0: b5e3 cdbe 09e6 cfbd a8c1 643e 36d8 883e
000002b0: 01a7 cd3d a995 e2bd 1346 5d3d 254f dd3d
000002c0: b368 9abd 0499 92bd 70b8 dc3c 5025 e53e
000002d0: a7a6 c63d 8487 c33c a00f 6ebe 65df 67be
000002e0: 3b25 ab3e b5fa 3bbc 6978 0abc 0367 8f3d
000002f0: 4324 6ebe bc22 0abe 4a88 4f3e 5f2f e93d
-0.29767346 0.061985135 0.04674979 -0.407692 -0.068293475 -0.2406318 0.04770192 -0.0057668504
-0.04065002 0.025276387 0.069062315 0.26548147 -0.45118868 -0.29287156 -0.45376146 0.44270134
-0.35739702 0.24679442 0.0034096143 -0.16846918 0.24552222 0.0748195 -0.1101803 -0.22390611
0.015758634 0.5893011 0.2570445 -0.12114154 0.14757326 -0.4803754 -0.058214325 0.08490617
-0.0017317634 0.041747544 0.11019446 0.39400652 0.014180587 -0.25553986 0.018238502 -0.033627216
-0.06304521 0.29490483 0.17685735 -0.011846476 -0.041297376 -0.038732573 -0.26169696 -0.043722656
-0.14475442 0.4340934 0.10757577 -0.054439615 0.035483595 0.21502675 -0.123707965 -0.18437341
0.00046460252 -0.3222445 -0.5869449 -0.24121451 0.13799486 -0.031364597 0.18588357 -0.022830555
-0.056753844 -0.1976777 0.08331102 -0.123889685 -0.12731935 0.13170502 0.091805026 -0.008064643
-0.23343854 0.29023132 0.11628076 -0.18660969 0.0091577135 -0.3654237 0.06117525 0.12654667
0.034115694 -0.08291507 -0.27841073 -0.44561258 0.21754165 -0.117301024 0.14706405 0.22796139
0.20405032 0.07736727 -0.12644278 -0.019883232 0.011367958 0.11774574 0.027976787 0.14861713
-0.02818358 -0.08801039 0.30101082 -0.045846354 -0.016317178 -0.027299996 -0.07483384 -0.05614248
0.13852376 0.111129165 -0.18349351 -0.20988318 0.08183171 0.123073325 -0.00434933 -0.24063212
0.052201945 0.101397306 0.15526898 0.11295112 0.15179984 -0.1339298 -0.07997862 -0.042494077
0.13566619 0.37409753 0.3937051 0.1210471 -0.039327215 0.07607476 -0.13338497 -0.05397144
-0.118185185 -0.34669915 -0.15862852 -0.03896699 -0.06404158 -0.16037112 0.05125045 -0.30558997
-0.3978609 -0.0878328 -0.051912725 0.13359238 0.050645433 0.065342374 -0.10737515 -0.010122511
0.018417815 0.33036104 0.056768935 -0.14517161 -0.09452984 -0.32695338 0.20399466 0.18457761
-0.054418407 0.119858444 -0.10628813 0.2318636 0.17406283 0.14056867 -0.0024795749 -0.093432486
0.12533338 0.015657045 -0.007924706 -0.12702039 0.16416499 -0.13079236 -0.06450568 0.016224677
-0.4021279 -0.101512976 0.22339499 0.26727456 0.10041619 -0.11063702 0.054021906 0.10806111
-0.07539501 -0.07158092 0.026943415 0.4475503 0.09699755 0.02386833 -0.23248148 -0.22643812
0.33426842 -0.011473347 -0.00845156 0.0700207 -0.2325602 -0.13489813 0.20266834 0.113859884

bias f4 [8]
00000000: bc78 f83e da5d ee3c e79b 8bbd 03e0 9f3e
00000010: fb87 c5bc 34d1 193e 7a11 dabd 9638 d6bd
0.48529613 0.029097486 -0.068168454 0.31225595 -0.024112692 0.15021211 -0.10647865 -0.10460012

weight f4 [8, 8, 3]
00000000: 5e1c 453e 2a78 9dbd bdb8 223c a94f 1bbe
00000010: 9de9 47be d56e 423d 623c 3ebd 4217 42be
00000020: 5f33 17bd cce7 9bbd 0d42 87bc 8210 32bd
00000030: 0339 00be 4a23 27be e06b 21bd 61d1 8cba
00000040: fa80 863d ae33 f4bd 4f46 3e3e 05ea b53d
00000050: 4edf c73a 2a8f a23d 2dfb da3d c227 22be
00000060: ce85 433e 2d23 92be f945 003d 1c02 60bd
00000070: 7231 e7bd 9053 c3bd a3ae f03c 570c 3d3e
00000080: 1787 173e bad2 023e c69f 1abe aa25 9fbe
00000090: 8809 443e 63d4 613e 142a 20be 2220 c9bd
000000a0: 56bd 74be b4d3 acbd c5a6 0a3e 6fd4 4a3c
000000b0: 4c80 3ebc 6863 e5bd 3a8c 8d3d 42b8 453e
000000c0: 72dc e83d 58c5 663d 35c5 f33c 4ead 2c3d
000000d0: 0c24 093e fba1 27bd 3b6d 123e 06b7 aebc
000000e0: 1d12 2c3e 42af 84be 906b 0cbe c70b 95be
000000f0: 7d75 d8bd 3ed1 69be d43d 10be 9ddf 513e
00000100: ce7b b53e 0605 2d3e c465 88be 08ee 0ebd
00000110: 7301 f53d 2ee0 97bd ed6b a93d 28db 3bbe
00000120: 34ad 863e 8fec b83d 07f9 4d3d 0530 b2bd
00000130: c190 c03d d9e5 143d b85b bcbd 16c7 8ebd
00000140: e1e3 dcbd 968c 16be 7386 34bd 2149 35be
00000150: b811 e53d 3a54 0fbe 4784 413e 4086 61be
00000160: 998f 06be 19cb b1bb bbc4 47bb 0826 4d3d
00000170: 9965 9ebd 38af 843d 5c81 0b3e 15a1 5fbd
00000180: 5460 43bf 7314 e93d e913 ce3d f8d6 9bbe
00000190: 3377 9dbe aa66 36bf ed60 5f3e 76ff 753d
000001a0: d40c e33e da7e dbbd 3021 043e bdfa 82be
000001b0: 4392 0bbe 7328 8cbd ed73 30bd 48a1 e7bc
000001c0: c49e 6ebd 95a2 8d3d 74c7 383e 6536 80bc
000001d0: c1d6 27bc 5824 023f ecf5 c33d eb19 b4be
000001e0: 1195 353e a1e7 0f3e 242f 54bd 5f83 443d
000001f0: d16b 1fbe 810e 74be 9e53 99bd dc22 e0bd
00000200: 20d1 80be 96f6 373e 908c 7bbd cc21 6b3e
00000210: 99bd 2ebe a753 ab3c 29a8 833d 78f0 913d
00000220: 3791 f5ba 31dc 983d 118f 66be 62a6 5cbe
00000230: 82c5 a9be 12e4 f5be aab7 9dbb 3666 13be
00000240: 016d 7a3e 4402 833d f169 e13e 516a 2a3d
00000250: de88 2a3e 4d69 673e 8f04 84be 4441 a43c
00000260: 6acd af3c c904 81be 41bc 31bd 23e1 b9be
00000270: 5610 d93c 31b9 d0bb f70d 46bd 6468 3fbe
00000280: da84 1ebe 1cc2 3abe 0d36 503c bb1f 0ebe
00000290: 5a2e 39bd d9a9 243e 77eb e0bc 3125 843e
000002a0: 4fcf c4bd 8a7b b93d 7cd7 373e ae60 8d3d
000002b0: dd4d 953c de33 97bc 6d01 b23d c813 153e
000002c0: 39e1 15be 3f98 46be b5fb 25be ee11 81bd
000002d0: 57f7 b3bd 9fe3 38bd e087 2b3e af55 bbbd
000002e0: 2c37 113e 71b9 1fbe 7f9a c7bc 963c 013e
000002f0: 8a8f 6fbe 8e53 a23d 4625 283e 056c 0f3e
0.19249102 -0.07688935 0.00993174 -0.15167107 -0.1952271 0.04746898 -0.046444304 -0.18954185
-0.036914226 -0.07612571 -0.016510988 -0.043472774 -0.12521748 -0.16322055 -0.03940952 -0.0010743552
0.06567569 -0.119239196 0.18581508 0.08882526 0.0015249045 0.07937463 0.10692439 -0.15835479
0.19094011 -0.28542462 0.03131673 -0.05468951 -0.11288728 -0.09537423 0.029380148 0.18461739
0.14797626 0.12775698 -0.15100011 -0.31083423 0.19144261 0.22053675 -0.15641052 -0.09820582
-0.23900351 -0.08438817 0.1354018 0.01237975 -0.011627268 -0.11200601 0.06911512 0.1930857
0.113701716 0.056340545 0.029757122 0.042157464 0.13392657 -0.04092596 0.1429948 -0.021327507
0.16803785 -0.2591496 -0.13712907 -0.29110548 -0.10569284 -0.22833726 -0.14086086 0.20495458
0.35446018 0.16896448 -0.2664014 -0.034894973 0.11963167 -0.07415806 0.08272538 -0.1834532
0.26304018 0.09029495 0.05028632 -0.08700565 0.094026096 0.036352012 -0.091971815 -0.069715664
-0.10785652 -0.14702067 -0.044073533 -0.17703678 0.1118502 -0.13996974 0.18898116 -0.22023869
-0.13140716 -0.0054258225 -0.003048225 0.050085098 -0.07734222 0.06478733 0.13623565 -0.05459698
-0.7631886 0.113808535 0.10062391 -0.30437446 -0.30755004 -0.712504 0.21814318 0.06005808
0.44345725 -0.107175544 0.12903285 -0.25581923 -0.13630013 -0.068436526 -0.043079305 -0.028275147
-0.05825688 0.06915776 0.18044835 -0.015650937 -0.010244072 0.50836706 0.0956839 -0.35176024
0.17732646 0.14053203 -0.05180277 0.047976848 -0.15568472 -0.23833658 -0.07486652 -0.10944149
-0.2515955 0.17965159 -0.061413348 0.22962111 -0.17064513 0.020913912 0.064285584 0.07125944
-0.0018735294 0.07463873 -0.22515513 -0.21547845 -0.331585 -0.48025566 -0.004813154 -0.14394459
0.24455644 0.063969165 0.4402614 0.041605297 0.16653773 0.22598763 -0.25784728 0.020050652
0.021460254 -0.25198963 -0.043392424 -0.36304578 0.026497047 -0.006369733 -0.04835316 -0.18692166
-0.15480366 -0.1823811 0.012708199 -0.13879292 -0.04521022 0.16080417 -0.027456028 0.25809625
-0.096098535 0.09056766 0.17953295 0.06903206 0.018225605 -0.01845735 0.08691678 0.14558327
-0.14636697 -0.19394015 -0.162093 -0.06302248 -0.08787411 -0.04513895 0.16751051 -0.09147202
0.14181203 -0.15598084 -0.024365662 0.12620768 -0.233946 0.07926093 0.16420469 0.1400605

bias f4 [8]
00000000: 973f 16bd 1dd7 a13e d704 ec3c 7fce 52bd
00000010: f59f d03e 243c 023f 478a b3bd d8ba 8ebe
-0.036681738 0.3160943 0.028810902 -0.05146646 0.40747038 0.5087302 -0.08766609 -0.27876925

weight f4 [8, 8, 3]
00000000: 8032 40bd 72ae 38be c4d9 ecbd 8287 893d
00000010: 678d 3dbd ae27 72be ebeb 0f3e faa4 46be
00000020: d8eb 30be 45b7 29be 1042 373e 9eb8 1cbd
00000030: db8e 86be f933 4cbc 9d8b d0bd c513 8b3d
00000040: 50bb cd3c dd9b 7fbd f4e9 f13c 8855 37be
00000050: 6f0f 2abe 43fb 0bbe b19c 08bd c52f 1f3d
00000060: e98e 01bc a7e0 3bbd 2a34 3abe 8ab7 403e
00000070: 4786 f93d 4884 a43d 86d4 243e 1c6e 15bc
00000080: d40c 5ebe 1d79 f8bd c18b 01bd 48c7 303e
00000090: 27cb e93d d74b 523b 56cb 253e 5037 a1bd
000000a0: 660c 0e3e 3a74 af3d 8290 663e 3fea dabc
000000b0: b248 143d 9c38 393e b87b 29be 172f 303e
000000c0: ff15 ce3d 60e9 35be 878a 373e 2ad3 babd
000000d0: f033 08bc fc30 2bbe f402 24be a0de 5abb
000000e0: 79df 263e 1141 0cbd 172a 213e 623d 383e
000000f0: c60b 15be 5e9f 213e b504 f93d e36e 33be
00000100: 372e ddbd fde5 9dbd acd3 01be 5b8c 753b
00000110: f8bf 283c 3dda e63d a9df 47be 741d d33d
00000120: 00b7 c2bd 6b35 50be 0cc9 0abe b67a e2bc
00000130: d27a 283d 9ed3 5b3d 852c 233e a636 00be
00000140: bceb 9f3d 07fa c53d 814f 8f3d 7269 98bd
00000150: 2b91 483e 5659 08bd 05c7 f3bc e441 b93d
00000160: ab93 7fbd a9ab 553c 7563 dbba 3d5a fc3d
00000170: 9324 623c 0e2b e8bd 9fee 333e 1e4f fd3b
00000180: 5019 533d 16ff 2b3e 4a70 98bd fbc1 0d3e
00000190: e72a 3b3d 63e1 d4bd 3eb9 533d de94 313e
000001a0: 4a61 3ebe 50ab e7bc 6c23 be3d c8d4 3e3e
000001b0: cb95 3f3e 2156 983c b4ff aebd 8adf 66bd
000001c0: 2d05 37bc 5b76 34be 189b 43be 866f 10be
000001d0: 00c7 45bd 51d1 b7bd 3926 d1bd d8e7 b53d
000001e0: d964 3d3e e08a f93d cca2 ab3d 161a 16bd
000001f0: 8689 b63c 2c15 233d 2381 33be 1da5 313e
00000200: 569f 27be b7a4 4fbe 42c8 36be d800 7ebd
00000210: ed91 f13d 7cba 4e3b 9e50 d53c 37ad 2dbc
00000220: e6d6 653d 047a a63d b6fe cdbd a62d ba3a
00000230: 918e 163e 176d 27be 5b6f 2bbd 90e0 163e
00000240: 882c a8bd 9335 9fbd 8488 083e 572e 923a
00000250: 410b f3bc c798 fa3d fe0e 25be 525d 35be
00000260: c2a1 d13c 46fd 36be d79b 91bd f50e 1ebe
00000270: f05b 1dbe 3ffd e63a e29a 12be 888a e2bc
00000280: 0f73 21be fd82 42be 51f6 323e da62 5e3e
00000290: 298b 0ebe 2bf1 44be 9630 bfbd d6b0 823d
000002a0: 1b66 8abd 50e5 41be 88f3 f8bd 9222 9bbe
000002b0: f894 2e3e 6e76 b93e 5646 d53d e33d d63d
000002c0: 9c46 703e aea5 eebd 7504 aabd ba04 0cbd
000002d0: 9dbe 6a3f 4bca 8f3e bbbc b83e 811f 04bf
000002e0: 34d2 df3d 4c63 2abd 1918 0f3e 0764 16be
000002f0: 6407 5cbd 7335 8abd 4e5f 2abc 9330 24be
-0.04692316 -0.18035296 -0.11564973 0.06715299 -0.04627743 -0.23647949 0.1405484 -0.19398871
-0.17277467 -0.16573818 0.17896295 -0.038262002 -0.26280865 -0.012463563 -0.10182879 0.0679088
0.025113732 -0.062404502 0.029530503 -0.17903721 -0.1660745 -0.13670067 -0.033352558 0.038863916
-0.007907608 -0.045868542 -0.18183962 0.18820015 0.121838145 0.08033043 0.16096696 -0.00912049
-0.21684581 -0.121324755 -0.03162742 0.1726352 0.11415701 0.003208866 0.16190848 -0.07871878
0.13871917 0.0856709 0.22516063 -0.026723025 0.03620214 0.18088001 -0.16551101 0.17205463
0.10062789 -0.17764807 0.17923938 -0.091223076 -0.008313164 -0.16717905 -0.16016752 -0.0033396855
0.16296186 -0.03424174 0.15738712 0.17992166 -0.14555272 0.1578345 0.12159101 -0.17522769
-0.107998304 -0.077098824 -0.12678403 0.0037467692 0.010299675 0.112720944 -0.19518913 0.10308352
-0.09507561 -0.20332877 -0.13553256 -0.027646404 0.041132756 0.05366861 0.15934952 -0.12520847
0.07808635 0.096668296 0.06997586 -0.07441987 0.19586627 -0.033288322 -0.029757986 0.09045771
-0.062396687 0.013041415 -0.0016738015 0.12321899 0.013802665 -0.11336337 0.17571495 0.007730379
0.05153781 0.16796526 -0.074432924 0.13843529 0.04569521 -0.103945516 0.051690333 0.17341945
-0.185918 -0.02827993 0.092841 0.18635857 0.18709485 0.018595757 -0.08544865 -0.056365527
-0.011170668 -0.17623274 -0.19102132 -0.14105043 -0.048285484 -0.08975471 -0.102123685 0.08882111
0.18495502 0.121846914 0.083806604 -0.03664597 0.022282373 0.039815113 -0.1752973 0.17348142
-0.16369376 -0.20277677 -0.1784983 -0.062012523 0.11795411 0.0031544259 0.026039418 -0.01060038
0.056113146 0.081287414 -0.10058348 0.0014204278 0.14702822 -0.16350208 -0.041854244 0.14734101
-0.08211619 -0.0777389 0.13333327 0.0011152726 -0.029668452 0.12236171 -0.16119 -0.1771138
0.025589827 -0.17870054 -0.07109802 -0.15435393 -0.15367103 0.0017623081 -0.14316896 -0.027653947
-0.15766548 -0.1899528 0.17476775 0.21717396 -0.13920273 -0.19232623 -0.09335439 0.06381385
-0.06757756 -0.18935132 -0.12155825 -0.30299813 0.17049015 0.36223167 0.10413806 0.10461023
0.23464435 -0.11652695 -0.08301631 -0.034184195 0.916971 0.28084025 0.3608149 -0.5161057
0.10928765 -0.041598603 0.13974036 -0.14686595 -0.053717986 -0.06748476 -0.010398699 -0.16034155

bias f4 [8]
00000000: d93e 5b3e de6d 78be 45dd dcba 9d80 31be
00000010: 3785 5fbe 99bb 3ebe a146 a0bd 9519 20be
0.21410693 -0.24260661 -0.0016850611 -0.17334218 -0.21828161 -0.1862625 -0.078259714 -0.15634759

weight f4 [8, 24, 1]
00000000: 10ee 88bd 1880 97be 7ab0 083f 0f68 933e
00000010: 5203 383e a598 bb3e 7919 033e ffb4 5a3d
00000020: 0d67 693c cd11 e93b 18a8 19bd 188b 8d3d
00000030: e60e db3c 0ad7 69be 9289 283e 16c0 cabc
00000040: cadb a93d 406e 523e f6a1 0a3d 249e d73d
00000050: e8a1 08be 42a5 abbd 3269 2f3e b808 15be
00000060: a036 07bd 6c3f 543e 2c59 e3bd 262b 613e
00000070: b863 ec3d ddfc 29be be81 2c3e 710f 4dbc
00000080: d2e5 09bc 2df6 ed3d fd3e 61be 8b11 5a3d
00000090: 2978 72be e1a1 43bf a04e 303e 5d43 733d
000000a0: 1d80 9b3d e872 f1bb 3c39 413e e731 aebc
000000b0: 328d f73c 1b27 3cbe 28ba 9ebd 61f3 14be
000000c0: 35ce ac3c d642 1bbc 86b2 fcbc 8723 a93b
000000d0: 93e7 bc3c 46b0 293c f710 8f3c d4ce 943c
000000e0: dd53 3d3e 5f8b 4d3d e706 0b3d 3dab f7bd
000000f0: 45bc 36bb b0f7 b139 c22e a33c 35cf a03d
00000100: 8184 033e 9a94 04bc 0b1e 593c cd95 05be
00000110: 4cb7 ccbd 048a 303e 752c 013e bb63 093d
00000120: 75f2 953c 7256 b73c 5ab2 2b3d 8a18 c9bb
00000130: 1553 093d 1d8f 49bd 0077 653b c5cc de3b
00000140: 06a2 25bc aaf5 773c 9fed 1f3d cca3 8bbd
00000150: b589 a93c c45f d83b 7a96 b5bc 1178 a2bc
00000160: 9180 00be 2462 1fbe dd22 acbd 0df1 ae3d
00000170: 3a1c 2b3d 4514 9cbd 9299 a3bc 0964 bebc
00000180: 54b8 543c 3ec8 64bd 4ef3 33be 3d3a 593b
00000190: 26bd 85bd 64b1 913d 0e02 873c 7e8b 87bb
000001a0: ca6a 153e 74bf 0f3d 1aa7 76bd 12f1 f43d
000001b0: 544d 7abd 6ce6 b2bd 7f58 6dbd eb8b 41bb
000001c0: 1f62 963d 7ed9 073d 0d4d 213e 6239 d53d
000001d0: 397a 503c 3a74 aa3d 0948 42bd 77b6 d53c
000001e0: 872e f63d 8fd8 433d f893 94bd d483 ca3d
000001f0: a464 2d3d 411e abbc d737 bc3c 89d5 983d
00000200: 6e20 dd3d 69ed aa3e 9f26 723d 2e5c c0bd
00000210: 0d48 b5be bd10 bebc a2d3 423b 090e 3dbe
00000220: 3f77 9e3e 4e38 ee3d bccc fd3d 3f55 1cbe
00000230: 915a 1dbe 0d05 923d bc28 5cbd b512 8ebf
00000240: be0a 363d cf73 fabd 9bea e63d 15d2 963e
00000250: 895a fb3d b982 00bf c12b 493e 6dff fa3d
00000260: 701b dc3d fb73 a43e 2342 f8be 03ba ee3d
00000270: ff70 e23d ef4b 1ebd 9f5d 273d 769c 863d
00000280: 1b49 d43d 4f6d bbbd b393 3fbe 9443 26be
00000290: 59c6 03be 6b69 27be 770e 4dbe 52c2 a6bb
000002a0: 11a5 e83d d065 6cbd 616d 70bd 408d 773d
000002b0: 9dbb 263d f8c4 1cbd 7429 68bd 003a da3c
000002c0: 48c4 143e 87d2 4e3e e2cb 953d e69c 933e
000002d0: c9c9 17bd b409 07be 1027 253f 0ecc 88be
000002e0: 6569 debd a45a 4fbe 485b 77bd 1715 98bd
000002f0: 3903 d5bc 25a7 b43d 0076 35be 1f6e f3ba
-0.06686032 -0.29589915 0.5339428 0.28790328 0.17970017 0.36639896 0.12802686 0.053395268
0.014245761 0.0071127177 -0.037513822 0.06911296 0.026740503 -0.22835937 0.16458729 -0.024749797
0.082938746 0.2054987 0.033845864 0.1052821 -0.13343012 -0.0838113 0.17129973 -0.14554107
-0.03301108 0.20727319 -0.111009926 0.21989116 0.11542457 -0.16600366 0.16846368 -0.012515889
-0.00841661 0.1161922 -0.21996684 0.053239387 -0.2367865 -0.7641888 0.17217493 0.059390415
0.07592795 -0.007368434 0.1886949 -0.02126403 0.030218694 -0.18374293 -0.0775035 -0.14545967
0.02109442 -0.009476384 -0.030846845 0.005161706 0.023059642 0.010356968 0.017464144 0.01816503
0.18489023 0.050181743 0.03394213 -0.12093208 -0.0027883213 0.00033944612 0.019919757 0.078520216
0.12843515 -0.00809207 0.013251792 -0.13045426 -0.099958986 0.17240149 0.12614615 0.033542376
0.01830409 0.022380088 0.041918136 -0.0061369585 0.0335265 -0.04920875 0.0035013556 0.006799313
-0.01010943 0.0151342545 0.039044973 -0.06818351 0.020695547 0.006603213 -0.02216648 -0.019832643
-0.12549044 -0.15564781 -0.08405087 0.085420705 0.041774966 -0.076210536 -0.019970689 -0.02324106
0.0129834 -0.05585503 -0.17573282 0.0033146285 -0.06530218 0.07113913 0.016480472 -0.004136502
0.14591518 0.035094693 -0.060217954 0.11960043 -0.061108902 -0.08735356 -0.057945725 -0.002953286
0.07342934 0.0331664 0.15752049 0.104113355 0.012724453 0.0832295 -0.04743198 0.026087983
0.12020593 0.04781395 -0.07254785 0.098884255 0.042332307 -0.02088845 0.022975845 0.074626036
0.10797201 0.33384255 0.059118863 -0.09392582 -0.35406533 -0.02320134 0.0029728194 -0.18462385
0.30950353 0.11631833 0.123925656 -0.15266894 -0.1536658 0.071298696 -0.053749785 -1.1099459
0.04444384 -0.1222912 0.11275216 0.29457155 0.122731276 -0.50199467 0.19645597 0.1225575
0.10747421 0.32119736 -0.48487958 0.11656573 0.110567085 -0.038646635 0.04086077 0.06572811
0.10365506 -0.09151708 -0.18708687 -0.16236717 -0.12868632 -0.16348808 -0.20025049 -0.0050890828
0.11359609 -0.057714283 -0.05869806 0.06043744 0.040706266 -0.03827378 -0.056680158 0.026638985
0.14528 0.20197497 0.07314278 0.28830642 -0.03705767 -0.13187295 0.6451273 -0.2671818
-0.10859946 -0.2024942 -0.060389787 -0.074258976 -0.026002513 0.08820943 -0.17720795 -0.0018572247

bias f4 [8]
00000000: d333 9b3c c41f 033f 5c50 19bd f98e 393b
00000010: 49aa 0d3d 7aa1 4c3f 0ec5 473f b67e bc3d
0.01894561 0.51220345 -0.037430152 0.0028313978 0.034586225 0.79933894 0.78035057 0.09203856
