Masterarbeit_YorickLALY/Code_and_Neural_Network/CNN_window_size_33_booleanScaler.pt (torch, 10191 bytes, 12 tensors)

weight f4 [8, 8, 3]
-0.09315667 -0.32532465 -0.36951432 -0.04107917 0.15025459 0.204953 0.10221723 0.18049255
-0.12630737 0.14374343 0.002286017 -0.16123515 0.27927667 0.20438106 0.24421573 0.15053964
0.32593566 0.020780522 -0.0918681 -0.084296934 -0.14917244 0.41141713 0.32283863 0.47363898
-0.03436999 0.084310286 0.0025645357 0.2658884 0.18459252 0.120297454 -0.031106621 -0.19762759
-0.15982911 0.025512204 -0.043742985 -0.18331853 0.06822967 0.40238792 0.11921085 -0.2633275
-0.0707203 -0.29951915 0.03903367 -0.049995627 -0.011669387 -0.1127894 -0.16376683 -0.22446266
0.10788186 0.084137164 -0.0935549 0.17035487 -0.325809 -0.3346765 -0.17945836 0.15131396
-0.084264584 0.10674089 -0.0010598749 -0.07671076 -0.0434275 0.00642571 -0.118459575 -0.016433388
-0.24195851 0.12879722 -0.011917275 0.2616764 0.11679599 -0.20476931 -0.07353271 -0.40153986
0.13430129 0.032833926 -0.122473575 -0.15515625 0.16925888 0.1139678 -0.09555214 0.06983873
-0.008735269 0.10056442 0.13527888 -0.17355289 -0.008580206 -0.14735708 -0.043563765 0.034078512
0.07588911 -0.16119765 -0.05559048 -0.052254423 -0.11715953 0.033846892 -0.062125836 0.17457461
-0.0342669 -0.0059491033 0.053013515 -0.10535575 -0.24435914 -0.22810464 0.006679356 -0.18357943
0.07878822 0.10151869 0.16615939 -0.058495685 -0.08619053 0.0012766011 0.12053849 -0.1481351
-0.0296176 0.119603224 0.14812922 0.12506938 -0.17586063 -0.2159885 -0.07254323 -0.34825644
-0.07316988 0.048053667 0.00091827667 -0.02342184 -0.06571691 -0.2975347 -0.10468084 0.11731106
0.1258755 0.033706143 -0.13860042 -0.039031535 -0.22244588 0.041103873 0.088713445 0.21050166
0.22569178 0.06318454 -0.11510895 0.10598081 -0.15890619 0.08592474 -0.16563945 -0.09727239
-0.27690917 -0.022740493 -0.17230555 -0.17877632 -0.07693268 0.10544272 0.035713926 -0.024606109
-0.18583342 -0.011347115 -0.14025474 -0.013935477 -0.10323026 -0.10797688 -0.031012584 0.12554209
0.18083818 -0.18716168 0.020968378 -0.032085568 -0.1160232 0.32079437 0.22687897 0.5061357
-0.13158184 -0.24275619 -0.06395785 0.20093949 0.029144343 0.31557712 0.035009474 0.108727634
0.021700606 -0.1367091 0.0297523 0.005038038 0.38210875 0.18778007 0.2988707 -0.28399277
-0.5731056 -0.05533264 0.14272518 0.28294867 0.08271269 0.2921091 0.15793212 0.038053278
00000000: edc8 bebd f490 a6be fb30 bdbe a242 28bd
00000010: 57dc 193e 33df 513e 4457 d13d 0ad3 383e
00000020: b856 01be 7a31 133e 00d1 153b d41a 25be
00000030: 5afd 8e3e 4549 513e b013 7a3e 1027 1a3e
00000040: 0ae1 a63e ea3b aa3c 5825 bcbd dfa3 acbd
00000050: a9c0 18be 44a5 d23e 1b4b a53e cf80 f23e
00000060: 8cc7 0cbd dfaa ac3d c511 283b 8622 883e
00000070: d205 3d3e 835e f63d 50d3 febc e35e 4abe
00000080: 3eaa 23be f8fe d03c d82b 33bd dab7 3bbe
00000090: ffbb 8b3d ca05 ce3e d124 f43d ddd2 86be
000000a0: ced5 90bd 935a 99be c5e1 1f3d 37c8 4cbd
000000b0: f530 3fbc 21fe e6bd 7eb2 27be 8ad9 65be
000000c0: 2af1 dc3d 1b50 ac3d b699 bfbd 8271 2e3e
000000d0: 70d0 a6be b85a abbe efc3 37be 0cf2 1a3e
000000e0: e992 acbd f89a da3d 80eb 8aba 881a 9dbd
000000f0: 09e1 31bd c38e d23b ef9a f2bd 509f 86bc
00000100: f9c3 77be 6be3 033e ad40 43bc 73fa 853e
00000110: bc32 ef3d 0caf 51be 5198 96bd a296 cdbe
00000120: 4786 093e de7c 063d 6dd3 fabd 48e1 1ebe
00000130: 3352 2d3e f367 e93d d7b0 c3bd 9c07 8f3d
00000140: 601e 0fbc b8f4 cd3d 8c86 0a3e d9b7 31be
00000150: fe93 0cbc c6e4 16be eb6f 32bd e995 0b3d
00000160: c06b 9b3d ff10 25be d8b2 63bd bc08 56bd
00000170: 56f1 efbd 0aa3 0a3d a977 7ebd b0c3 323e
00000180: 735b 0cbd b2f0 c2bb b324 593d c1c4 d7bd
00000190: 4839 7abe 4394 69be 80de da3b 3ffc 3bbe
000001a0: b85b a13d 08e9 cf3d b025 2a3e 2c99 6fbd
000001b0: a984 b0bd a053 a73a e2dc f63d bab0 17be
000001c0: 9ca0 f2bc 89f2 f43d 30af 173e 3012 003e
000001d0: cf14 34be 172c 5dbe 8c91 94bd ab4e b2be
000001e0: 17da 95bd ecd3 443d 81b8 703a 29df bfbc
000001f0: 9696 86bd 7856 98be e962 d6bd c840 f03d
00000200: 82e5 003e 740f 0a3d 45ed 0dbe 88df 1fbd
00000210: dac8 63be 895c 283d 65af b53d bf8d 573e
00000220: bf1b 673e e566 813d 3ebe ebbd 780c d93d
00000230: 4eb8 22be 4ff9 af3d 639d 29be bf36 c7bd
00000240: 0ac7 8dbe 454a babc de70 30be 2411 37be
00000250: e28e 9dbd 5af2 d73d c448 123d c092 c9bc
00000260: 1e4b 3ebe 40e9 39bc f09e 0fbe a051 64bc
00000270: 636a d3bd fc22 ddbd 1a0e febc 1b8e 003e
00000280: a52d 393e 50a7 3fbe e0c5 ab3c 286c 03bd
00000290: 929d edbd 293f a43e f652 683e 1c92 013f
000002a0: 64bd 06be 1495 78be 55fc 82bd 15c3 4d3e
000002b0: 1ec0 ee3c 5393 a13e 1866 0f3d 98ac de3d
000002c0: 78c5 b13c 78fd 0bbe 18bb f33c 2016 a53b
000002d0: c2a3 c33e 6b49 403e 9505 993e 8067 91be
000002e0: 0cb7 12bf 7aa4 62bd 8d26 123e a6de 903e
000002f0: 4565 a93d 538f 953e f5b8 213e c1dd 1b3d

bias f4 [8]
0.24152762 0.018245524 0.15659995 -0.19131228 0.44839457 0.05753468 0.2208546 0.31299007
00000000: 0453 773e a377 953c bd5b 203e 5ee7 43be
00000010: f993 e53e 7ca9 6b3d b527 623e 3c40 a03e

weight f4 [8, 8, 3]
-0.19007653 -0.12832798 -0.17644307 0.12891096 0.10739778 0.106574364 0.03318525 -0.0032384496
0.041920092 -0.005297616 0.062270205 -0.11958551 -0.08131485 0.0032071709 0.0046821777 0.10109737
0.03887275 0.040165283 -0.22944385 -0.116909534 -0.089110695 -0.056654613 -0.092476144 0.21419165
-0.24900982 0.1461402 0.19990298 0.0072931442 0.18656717 0.08697069 -0.13012372 -0.043013684
0.03879041 0.081726335 0.057585396 0.085561365 0.07062831 -0.13264976 -0.058477655 0.015313261
0.14146103 0.19491078 -0.11855862 0.13000353 -0.16796988 -0.005241675 0.18298422 0.122995906
-0.27968425 -0.40916038 -0.19920397 0.10876579 0.018182334 -0.0120788375 0.13249531 0.2627754
-0.029860113 -0.07189173 0.1830815 0.070779756 -0.060753874 0.34531572 0.097969584 -0.25018716
-0.24110802 0.02118718 -0.1087892 -0.14122683 -0.26214087 0.23849733 0.38350785 -0.1917121
-0.14214112 -0.071518704 -0.097205676 -0.17276154 0.08075419 -0.13357261 -0.08095664 -0.17083654
-0.01073693 0.067937255 -0.012020797 -0.05986984 -0.0058725527 -0.18140276 0.17732736 0.01896295
0.013069461 0.064872675 -0.1543742 0.041036654 0.054357596 0.015149777 -0.12913707 0.069441505
0.1426428 -0.26826233 -0.23253813 0.1390404 0.02481422 0.085239395 -0.15627322 0.023038521
0.14639756 0.13621294 0.19132262 0.049380165 -0.21097085 0.013576099 0.103759214 0.02429737
-0.10614777 0.14153013 0.20698099 0.13128443 0.15900025 -0.003057912 0.3285924 0.017882215
-0.035185836 0.102408305 0.08697901 -0.19074586 -0.0754019 -0.38301432 0.21479057 0.1551668
0.14092451 0.0026969407 -0.15463847 -0.10319306 0.19822906 0.20779398 0.25844368 -0.007339473
0.1598127 0.056891806 0.021574723 -0.0061743925 0.31757882 -0.15741417 -0.30164245 0.039608005
0.14779533 -0.197847 -0.10959415 0.012721803 0.007918445 -0.14023003 -0.009217784 -0.1775037
0.20399357 -0.022936702 0.16986665 0.08848466 0.19350953 0.14484695 0.030887611 0.15059969
0.12001638 0.14761135 -0.094761305 -0.20734249 0.13179456 0.050410878 -0.10663498 -0.19845934
-0.08666317 0.19913472 0.22554813 -0.056735545 -0.08384828 0.084300496 -0.1426194 -0.24027053
-0.44824576 0.08372336 0.15122879 -0.17740671 -0.16145086 -0.35016835 -0.20893036 -0.10808573
0.00044805487 -0.095281884 0.044575647 0.17080021 0.116119616 0.24089167 0.10969253 0.058474854
00000000: 6ca3 42be 6968 03be 7ead 34be 3c01 043e
00000010: 5ef3 db3d a943 da3d 42ed 073d 2b3c 54bb
00000020: 67b4 2b3d a097 adbb 0b0f 7f3d 3fe9 f4bd
00000030: 6688 a6bd 662f 523b f46c 993b 230c cf3d
00000040: 0839 1f3d 5a84 243d 54f3 6abe 446e efbd
00000050: ab7f b6bd ab0e 68bd 2264 bdbd 0e55 5b3e
00000060: 6efc 7ebe c7a5 153e 5eb3 4c3e 54fb ee3b
00000070: 770b 3f3e b01d b23d 273f 05be 1e2f 30bd
00000080: b1e2 1e3d 2360 a73d aade 6b3d cc3a af3d
00000090: 93a5 903d 57d5 07be 4486 6fbd 79e4 7a3c
000000a0: 29db 103e b196 473e ddce f2bd a51f 053e
000000b0: 4c00 2cbe 5bc2 abbb 3760 3b3e 47e5 fb3d
000000c0: c632 8fbe 787d d1be 20fc 4bbe 99c0 de3d
000000d0: 1ef3 943c 51e6 45bc daac 073e 7f8a 863e
000000e0: 329d f4bc f93b 93bd b779 3b3e faf4 903d
000000f0: 0ed9 78bd 39cd b03e 47a4 c83d 8818 80be
00000100: 05e5 76be bd90 ad3c dfcc debd c49d 10be
00000110: 5437 86be a538 743e 245b c43e 2d50 44be
00000120: 718d 11be 6678 92bd c513 c7bd 67e8 30be
00000130: 7462 a53d 42c7 08be 98cc a5bd c6ef 2ebe
00000140: f3e9 2fbc b022 8b3d e0f2 44bc 143a 75bd
00000150: 8b6e c0bb a5c1 39be 4e95 353e 3058 9b3c
00000160: 4b21 563c f7db 843d 4514 1ebe 0d16 283d
00000170: 12a6 5e3d c536 783c 823c 04be 5937 8e3d
00000180: f410 123e ae59 89be 7a1e 6ebe 9b60 0e3e
00000190: 3147 cb3c fe91 ae3d 1606 20be 48bb bc3c
000001a0: 3ee9 153e 687b 0b3e 14ea 433e db42 4a3d
000001b0: be08 58be 496e 5e3c b67f d43d 470b c73c
000001c0: 0164 d9bd 46ed 103e d3f2 533e 6d6f 063e
000001d0: f6d0 223e 4067 48bb 433d a83e b97d 923c
000001e0: 061f 10bd 72bb d13d 0d22 b23d e252 43be
000001f0: 506c 9abd 741a c4be 0ff2 5b3e 0ce4 1e3e
00000200: 844e 103e 28bf 303b 8c59 1ebe e256 d3bd
00000210: 8ffc 4a3e f2c7 543e bb52 843e f67f f0bb
00000220: f1a5 233e 6207 693d 79bd b03c 8f52 cabb
00000230: b199 a23e 2e31 21be e170 9abe 013c 223d
00000240: a957 173e 6798 4abe e672 e0bd 1c6f 503c
00000250: 5ebc 013c 7698 0fbe 3006 17bc 88c3 35be
00000260: b1e3 503e c0e5 bbbc 86f1 2d3e 7237 b53d
00000270: 5d27 463e c252 143e 0408 fd3c ce36 1a3e
00000280: 26cb f53d 6e27 173e 3712 c2bd 9751 54be
00000290: 27f5 063e a37b 4e3d 7163 dabd ed38 4bbe
000002a0: 767c b1bd f9e9 4b3e 17f6 663e 8863 68bd
000002b0: a6b8 abbd bda5 ac3d d20a 12be 7a09 76be
000002c0: 7880 e5be 2777 ab3d b8db 1a3e 1baa 35be
000002d0: 6053 25be 4449 b3be d7f1 55be 0d5c ddbd
000002e0: e8e8 ea39 2623 c3bd f494 363d 40e6 2e3e
000002f0: 1fd0 ed3d 4eac 763e 7aa6 e03d 5483 6f3d

bias f4 [8]
-0.05823755 -0.15139705 -0.08838379 -0.047913935 -0.014458772 -0.06807198 -0.19161786 0.31513998
00000000: 7f8a 6ebd d407 1bbe 8f02 b5bd 6741 44bd
00000010: 7ce4 6cbc 5269 8bbd 7937 44be 075a a13e

weight f4 [8, 8, 3]
0.0799485 0.23023352 0.06805486 -0.0933605 0.08386075 0.14803024 -0.124571405 0.38728786
0.13585822 -0.12260677 -0.08928851 0.024387455 0.031003367 0.20792235 0.011551495 -0.03345583
-0.29537305 -0.11152886 0.09566796 0.07175111 -0.18879186 -0.1681181 -0.24928252 -0.2237763
0.06871237 0.10313098 -0.18781912 0.15636873 -0.19805928 0.058638383 -0.016435102 0.13896292
0.020926094 0.1436336 0.017300025 0.1453366 -0.10815216 0.111145355 -0.1179044 -0.0322752
-0.16632192 0.18220995 0.10698354 -0.038657993 0.08368962 -0.011277276 0.12621607 -0.037903015
0.16247776 0.12002397 0.16852422 -0.078576125 0.17705467 0.16646355 -0.0134787345 0.28427854
0.13046788 -0.20136946 0.031031176 -0.0864017 0.15620156 0.22778833 -0.23280884 0.083971724
-0.059767652 -0.08643191 -0.06964651 0.12239946 0.14768492 -0.14981592 -0.15570542 -0.015575766
-0.09619173 -0.066751085 -0.030607473 0.016804636 0.22510627 -0.026558341 0.050586645 -0.22752428
-0.07777958 -0.10377215 0.10106399 0.00272554 0.2860606 -0.021429088 -0.2580841 -0.12409303
-0.09057468 -0.02319818 -0.17753133 0.056624204 -0.12344817 0.01999066 0.26445216 0.26307765
0.12457797 -0.027557792 0.13231742 0.26352555 0.13109851 -0.0073501044 -0.10381201 -0.2707975
-0.30598873 0.008395249 0.08699345 0.13081537 0.1539357 0.07956357 -0.1826145 -0.26318818
-0.4240557 -0.5218371 -0.025930952 0.20246467 -0.10959019 0.1568028 0.22755621 0.095408194
-0.036463093 0.17414741 0.052587084 -0.14000136 -0.044759326 0.067241736 0.124628134 0.020017222
-0.08702083 -0.09086514 -0.043533593 -0.15216367 -0.018954804 -0.19768359 -0.12925105 -0.0007602665
0.043053295 -0.116945565 -0.11684089 -0.16788578 0.07279915 -0.054553166 -0.11726884 -0.044485297
-0.14581338 0.15343615 0.18941338 -0.056533698 0.009290787 -0.12851402 0.072970845 -0.17834532
-0.13369438 0.1395643 0.17258908 0.1625396 -0.19876969 0.11183363 0.051450796 0.15856011
-0.02303061 0.12398827 0.1491748 0.14522702 0.13674285 -0.39993453 -0.2100849 -0.34450856
-0.09390275 -0.09736799 -0.06179457 -0.016838664 -0.15638751 0.14268027 -0.11349834 -0.3088223
-0.25018752 0.19193105 0.01412128 0.07182261 -0.1632472 -0.18568158 0.12822713 0.011088228
0.18300611 -0.14812009 -0.1162295 0.15603594 0.17113806 -0.26905534 -0.16409081 -0.2908561
00000000: 0abc a33d 56c2 6b3e 5960 8b3d ca33 bfbd
00000010: 2fbf ab3d 3d95 173e 4b1f ffbd 984a c63e
00000020: 6b1e 0b3e 4219 fbbd e5dc b6bd 33c8 c73c
00000030: c6fa fd3c 99e9 543e 7b42 3d3c fb08 09bd
00000040: 233b 97be 3e69 e4bd 90ed c33d 3ff2 923d
00000050: a752 41be 2727 2cbe eb43 7fbe 9d25 65be
00000060: 12b9 8c3d 5636 d33d a853 40be 201f 203e
00000070: 0dd0 4abe cd2e 703d e8a2 86bc 4c4c 0e3e
00000080: 336d ab3c b014 133e c8b8 8d3c 1ed3 143e
00000090: e17e ddbd 2da0 e33d dd77 f1bd 0033 04bd
000000a0: 4b50 2abe 3f95 3a3e 301a db3d d857 1ebd
000000b0: 7765 ab3d 53c4 38bc c93e 013e 3140 1bbd
000000c0: 9260 263e 21cf f53d 9d91 2c3e 85ec a0bd
000000d0: d24d 353e 6c75 2a3e e9d5 5cbc f58c 913e
000000e0: 5f99 053e cc33 4ebe 1835 fe3c 60f3 b0bd
000000f0: 4df3 1f3e 5841 693e 7165 6ebe 5ef9 ab3d
00000100: edce 74bd 3703 b1bd d4a2 8ebd 91ac fa3d
00000110: b73a 173e 5869 19be 3e71 1fbe 7f31 7fbc
00000120: 2b00 c5bd cbb4 88bd 86bc fabc e0a9 893c
00000130: 4282 663e e190 d9bc f133 4f3d 20fc 68be
00000140: e74a 9fbd 7e86 d4bd a3fa ce3d f99e 323b
00000150: 8976 923e 0e8c afbc 9923 84be 7d24 febd
00000160: 387f b9bd 1c0a bebc c6ca 35be c8ee 673d
00000170: 65d2 fcbd 74c3 a33c 4666 873e 1db2 863e
00000180: bc22 ff3d e1c0 e1bc 387e 073e d2ec 863e
00000190: b03e 063e 25d9 f0bb 649b d4bd f8a5 8abe
000001a0: 8eaa 9cbe 3a8c 093c 9f29 b23d 77f4 053e
000001b0: 52a1 1d3e 3af2 a23d 4cff 3abe 9ac0 86be
000001c0: d41d d9be 1e97 05bf 266d d4bc e652 4f3e
000001d0: d270 e0bd ea90 203e 7f04 693e 5f65 c33d
000001e0: 535a 15bd b353 323e 8e65 573d 845c 0fbe
000001f0: 8e55 37bd 09b6 893d 093d ff3d 28fb a33c
00000200: fa37 b2bd 8117 babd 4850 32bd cbd0 1bbe
00000210: 1b47 9bbc 916d 4abe 635a 04be 9f4c 47ba
00000220: a758 303d 2881 efbd 474a efbd 40ea 2bbe
00000230: b917 953d 2473 5fbd a52a f0bd 3736 36bd
00000240: 1a50 15be 5e1e 1d3e 95f5 413e e18f 67bd
00000250: 6338 183c 2e99 03be bd71 953d 28a0 36be
00000260: 2ee7 08be f2e9 0e3e 31bb 303e c870 263e
00000270: 488a 4bbe 0809 e53d 12be 523d 955d 223e
00000280: b1aa bcbc 90ed fd3d 47c1 183e 64b6 143e
00000290: 5106 0c3e 38c4 ccbe 7f20 57be 6d63 b0be
000002a0: 1650 c0bd de68 c7bd 4e1c 7dbd 3df1 89bc
000002b0: 0c24 20be c71a 123e d171 e8bd f51d 9ebe
000002c0: 9418 80be 9389 443e f15c 673c bc17 933d
000002d0: 462a 27be 5023 3ebe f94d 033e 66ab 353c
000002e0: f465 3b3e cbac 17be bb09 eebd e3c7 1f3e
000002f0: d13e 2f3e 9fc1 89be 6c07 28be 17eb 94be

bias f4 [8]
0.16805597 -0.16959508 0.082422964 0.025001824 0.3643155 0.053190317 0.2927124 0.40539157
00000000: dd16 2c3e 55aa 2dbe 5fcd a83d a0d0 cc3c
00000010: 9087 ba3e 17de 593d 66de 953e 7c8f cf3e

weight f4 [8, 8, 3]
0.028275734 -0.16051577 -0.011206816 0.058393594 -0.13607018 -0.1623237 -0.04583529 -0.055725154
-0.15145478 0.21401307 0.20103656 0.045869645 -0.36748868 -0.19229352 -0.088347435 0.07200463
0.07529596 -0.1269893 -0.21798491 -0.18904154 -0.09363134 0.06473812 0.13995294 0.10594967
-0.27874538 -0.11779922 -0.1646872 -0.164904 0.2034272 0.13963428 -0.19322559 -0.0092807785
-0.18233967 -0.3035799 -0.20820437 -0.07488161 0.08239636 0.1140468 0.2925656 0.19057654
0.10601503 -0.045513086 -0.056155976 -0.118411124 0.05802576 -0.038393565 -0.25602472 -0.15924649
0.03416542 -0.041239776 -0.15666606 0.022507802 0.062274396 0.023978276 -0.05500252 -0.08314455
0.020173917 0.036738582 -0.15714206 -0.16582966 -0.106617816 0.12883678 0.1962346 -0.11000614
-0.015387345 -0.18978457 0.106386766 -0.15450038 -0.021232443 0.13546467 0.1483758 -0.05615296
-0.020943098 -0.017553551 -0.09480746 -0.07783322 -0.13302706 0.059225548 0.1871065 -0.07010421
0.19548562 0.07260413 0.34699497 0.16813229 0.014575111 -0.0013672459 0.029208697 -0.02286796
0.1252962 -0.17164299 0.068435945 -0.18848374 -0.2371372 0.10852179 0.13415796 0.19185354
0.159224 0.19523041 0.09524252 0.094746865 -0.09970503 -0.04072025 -0.14888448 0.21482298
0.059583172 0.2269383 0.21420205 0.08967316 0.17445803 0.22479168 0.21314235 -0.17744812
0.08337146 0.11715159 -0.019952703 -0.055448335 -0.1855837 -0.0728672 -0.23681478 -0.06426673
-0.15870994 -0.09818841 -0.06883007 -0.011172014 -0.025015965 -0.13471699 0.17998418 0.025161404
0.051675204 -0.08238189 -0.027111057 -0.15291451 0.1971516 -0.03132126 0.031580947 -0.046222363
-0.114552304 0.14516547 -0.07303278 0.024480809 0.2122227 -0.079287425 0.1850773 0.022911716
-0.09933496 -0.072235994 -0.07568487 0.079094924 0.121162534 -0.018884305 -0.06422638 0.13221727
0.09434483 0.21405417 0.31487325 0.09268572 0.19173914 0.23419768 -0.0006436252 0.19955137
0.022660442 -0.13658407 -0.18971477 0.08740393 -0.07023831 0.24822472 0.2225033 0.17508057
0.1234296 -0.050978094 -0.010093346 0.03799537 0.19423163 -0.034866735 -0.012698382 -0.031365335
0.056191355 -0.18280098 -0.096239 0.09530103 -0.20008956 -0.07016863 0.082404256 -0.09678592
0.18124065 -0.10005079 -0.17837194 0.17663956 -0.19803987 0.157128 -0.05456443 -0.07878679
00000000: 83a2 e73c 3f5e 24be cb9c 37bc 1f2e 6f3d
00000010: fb55 0bbe 2f38 26be c9bd 3bbd 0f40 64bd
00000020: f616 1bbe 3e26 5b3e 87dc 4d3e cfe1 3b3d
00000030: 7a27 bcbe 98e8 44be 80ef b4bd 2a77 933d
00000040: c534 9a3d 7c09 02be 7037 5fbe 1b94 41be
00000050: cac1 bfbd 6b95 843d d34f 0f3e 24fc d83d
00000060: b7b7 8ebe b840 f1bd c3a3 28be 98dc 28be
00000070: 384f 503e 4afc 0e3e eedc 45be 680e 18bc
00000080: 40b7 3abe d36e 9bbe 8733 55be 885b 99bd
00000090: 6cbf a83d 5e91 e93d 29cb 953e 7f26 433e
000000a0: 681e d93d ee6b 3abd cf03 66bd 8881 f2bd
000000b0: 6bac 6d3d 9242 1dbd ac15 83be 8311 23be
000000c0: 0af1 0b3d 0aeb 28bd 116d 20be 4862 b83c
000000d0: 7013 7f3d 176e c43c 534a 61bd b147 aabd
000000e0: c543 a53c 327b 163d d9e9 20be 40cf 29be
000000f0: 715a dabd caed 033e b9f1 483e e64a e1bd
00000100: 341b 7cbc e356 42be 4ee1 d93d 5935 1ebe
00000110: a9ef adbc 40b7 0a3e d3ef 173e a500 66bd
00000120: dc90 abbc 77cc 8fbc 6a2a c2bd 0667 9fbd
00000130: 3f38 08be 7d96 723d d998 3f3e cc92 8fbd
00000140: 622d 483e 79b1 943d 53a9 b13e df2a 2c3e
00000150: 72cc 6e3c 2935 b3ba 1447 ef3c 9755 bbbc
00000160: a64d 003e 2ec3 2fbe 2528 8c3d e201 41be
00000170: 18d4 72be ac40 de3d b460 093e 4175 443e
00000180: 9e0b 233e 7bea 473e 830e c33d a50a c23d
00000190: 2732 ccbd 47ca 26bd 2c75 18be 8efa 5b3e
000001a0: 7c0d 743d 8462 683e c857 5b3e 90a6 b73d
000001b0: 20a5 323e ca2f 663e fd41 5a3e f6b4 35be
000001c0: a8be aa3d 2ced ef3d da73 a3bc cb1d 63bd
000001d0: a709 3ebe 663b 95bd 937f 72be 469e 83bd
000001e0: dc84 22be 0117 c9bd c8f6 8cbd d30a 37bc
000001f0: 48ee ccbc 40f3 09be c64d 383e 4a1f ce3c
00000200: 61a9 533d d6b7 a8bd 0218 debc 9f95 1cbe
00000210: 1ce2 493e b94a 00bd 065b 013d a953 3dbd
00000220: 669a eabd 42a6 143e 3692 95bd fa8b c83c
00000230: e850 593e 7261 a2bd e784 3d3e 5ab1 bb3c
00000240: 2170 cbbd 77f0 93bd ab00 9bbd 85fc a13d
00000250: 1024 f83d 42b3 9abc 1f89 83bd f763 073e
00000260: dd37 c13d 0431 5b3e 1137 a13e 03d2 bd3d
00000270: 4457 443e 84d1 6f3e f5b8 28ba 3257 4c3e
00000280: 64a2 b93c b2dc 0bbe 9744 42be d500 b33d
00000290: 1ad9 8fbd 9f2e 7e3e e8d7 633e 5248 333e
000002a0: a8c8 fc3d 68ce 50bd 905e 25bc 08a1 1b3d
000002b0: a8e4 463e 6cd0 0ebd e00c 50bc f078 00bd
000002c0: e828 663d 2e30 3bbe f418 c5bd 302d c33d
000002d0: 47e4 4cbe 92b4 8fbd 90c3 a83d b237 c6bd
000002e0: 2697 393e 6ee7 ccbd 22a7 36be 00e1 343e
000002f0: f7ca 4abe 2ae6 203e f47e 5fbd f85a a1bd

bias f4 [8]
0.04165026 0.14388196 -0.1600715 -0.18324356 -0.30136728 -0.09277942 -0.3924126 -0.18952206
00000000: 7799 2a3d cb55 133e c9e9 23be 33a4 3bbe
00000010: d04c 9abe 2303 bebd 4eea c8be 1212 42be

weight f4 [8, 8, 3]
0.121024735 0.07638034 0.10572874 0.011248064 -0.1495969 -0.16421512 -0.16658144 0.08142655
0.10977961 0.040809963 0.07933361 -0.07107618 -0.15746829 -0.040449195 -0.077121735 -0.15189753
0.07301944 0.05307502 0.17408383 0.052142013 0.0960677 -0.09363916 -0.09654243 -0.09925506
0.14160836 0.09781843 0.20664187 -0.18666749 -0.16500291 0.112617835 -0.036459 0.11227983
0.016029939 -0.20022945 -0.0007875572 0.0014255127 -0.08359159 -0.02775547 -0.16595204 -0.14995955
-0.100459985 0.11592722 -0.17752297 -0.16303638 0.17593287 -0.10865618 0.17621231 -0.08173341
0.015520051 -0.18888254 -0.0237436 0.10507056 -0.15066132 0.13640869 -0.098794356 0.12918338
-0.059966296 0.08196342 -0.096618794 0.09197736 0.0416411 -0.16440919 -0.052946746 0.19569123
-0.07488038 -0.1332463 -0.09119087 0.069315314 -0.20279948 -0.13168207 0.0075785667 -0.11359929
0.38255674 0.08782741 0.14630307 -0.23014624 0.090637185 -0.0051541887 -0.07205191 -0.16140048
0.11227576 0.20364733 0.21027039 0.10701918 -0.067612015 -0.0124329915 -0.124378234 0.07294447
-0.16962822 0.17165095 0.10126405 0.13480231 0.25665665 -0.16990378 0.13672021 -0.19338024
-0.11594691 -0.1415393 -0.045819 -0.16467217 -0.059570223 -0.106549054 0.18332931 -0.003975019
0.014589757 -0.021093875 -0.1793886 0.06118995 0.16570398 -0.1262863 -0.0067720413 -0.117752366
0.04382971 -0.15670131 -0.13875279 0.03978719 0.123627216 0.066607386 0.053085297 0.15391374
0.17534013 0.07892448 0.13935137 -0.19291668 -0.033236817 -0.049326055 0.20408092 -0.022053225
0.101194106 -0.081741035 0.06141811 0.08012716 0.065712295 0.07375212 -0.098635726 0.032187745
0.11029881 -0.1385584 0.13117786 0.04605136 -0.04469154 0.12654349 -0.07974045 0.051565707
0.08060735 -0.093923084 -0.015224967 0.2152438 0.24872166 -0.06960447 -0.11618439 -0.101540044
-0.02193924 0.20950788 0.15569355 0.113405555 -0.12204045 -0.085160546 0.05614782 -0.09947314
0.18616596 0.19115849 0.1863407 0.08902939 -0.007953142 -0.10712011 -0.028039917 0.019125938
-0.08970395 0.24432911 0.25558147 0.031842344 -0.054348215 -0.07205451 0.0033821317 0.11663436
-0.15627529 0.027442522 0.18105976 0.09421451 -0.0742617 -0.10564398 -0.0026246717 -0.16374354
0.001273321 0.11915375 0.1844877 -0.14829522 -0.009279583 0.10747564 -0.027274653 0.049147546
00000000: d1db f73d 4c6d 9c3d 4f88 d83d cd49 383c
00000010: ee2f 19be 0228 28be 5394 2abe f7c2 a63d
00000020: 22d4 e03d 5928 273d a979 a23d 6390 91bd
00000030: 5e3f 21be 0eae 25bd 00f2 9dbd 078b 1bbe
00000040: 378b 953d 3165 593d 0843 323e dd92 553d
00000050: 24bf c43d e3c5 bfbd 0ab8 c5bd 3d46 cbbd
00000060: c801 113e 0755 c83d ed99 533e c325 3fbe
00000070: 86f6 28be 2ea4 e63d 0856 15bd f8f2 e53d
00000080: 3851 833c f308 4dbe 1274 4eba 45d8 ba3a
00000090: 1132 abbd 705f e3bc 55ef 29be ff8e 19be
000000a0: f7bd cdbd 406b ed3d 95c8 35be 02f3 26be
000000b0: bf27 343e 2287 debd 0071 343e d963 a7bd
000000c0: d047 7e3c 6d6a 41be f081 c2bc 3c2f d73d
000000d0: f646 1abe b8ae 0b3e b254 cabd a648 043e
000000e0: 389f 75bd 70dc a73d 13e0 c5bd a05e bc3d
000000f0: dc8f 2a3d e25a 28be b0de 58bd 4863 483e
00000100: e25a 99bd b871 08be 47c2 babd 30f5 8d3d
00000110: abaa 4fbe aad7 06be a055 f83b bfa6 e8bd
00000120: 7ade c33e dbde b33d 79d0 153e 75ab 6bbe
00000130: fd9f b93d 78e4 a8bb f48f 93bd 2b46 25be
00000140: d5f0 e53d ed88 503e 1f51 573e df2c db3d
00000150: 2b78 8abd bfb3 4bbc 04ba febd e963 953d
00000160: 05b3 2dbe 44c5 2f3e 8763 cf3d 9e09 0a3e
00000170: 8068 833e 42fb 2dbe 6200 0c3e 7805 46be
00000180: 9375 edbd aeef 10be b4ac 3bbd d29f 28be
00000190: e8ff 73bd 6436 dabd aeba 3b3e e040 82bb
000001a0: e009 6f3c 10cd acbc a5b1 37be 50a2 7a3d
000001b0: 4eae 293e 3251 01be 00e8 ddbb 2728 f1bd
000001c0: c886 333d 4f76 20be 3615 0ebe e4f7 223d
000001d0: 4430 fd3d 7469 883d f86f 593d 909b 1d3e
000001e0: 5d8c 333e 28a3 a13d 20b2 0e3e f38b 45be
000001f0: 5423 08bd 1e0a 4abd 97fa 503e f7a8 b4bc
00000200: db3e cf3d d867 a7bd 8e91 7b3d b519 a43d
00000210: 2b94 863d 5a0b 973d 8701 cabd 4cd7 033d
00000220: 58e4 e13d 41e2 0dbe 7d53 063e 5aa0 3c3d
00000230: 7a0e 37bd 9e94 013e f64e a3bd 9036 533d
00000240: 7715 a53d bf5a c0bd 2472 79bc df68 5c3e
00000250: e4b0 7e3e ca8c 8ebd 15f2 edbd 3af4 cfbd
00000260: ecb9 b3bc 3c89 563e 216e 1f3e 2c41 e83d
00000270: 58f0 f9bd a768 aebd 42fb 653d 93b8 cbbd
00000280: 4aa2 3e3e 0dbf 433e 19d0 3e3e 0a55 b63d
00000290: e54d 02bc ca61 dbbd f8b3 e5bc 00ae 9c3c
000002a0: b4b6 b7bd 6931 7a3e 93db 823e 1e6d 023d
000002b0: 3c9c 5ebd 5191 93bd c1a6 5d3b ffdd ee3d
000002c0: a106 20be 24cf e03c bb67 393e 89f3 c03d
000002d0: 8516 98bd df5b d8bd af02 2cbb 63ac 27be
000002e0: 90e5 a63a e206 f43d 58ea 3c3e b4da 17be
000002f0: 6409 18bc 301c dc3d 186f dfbc f04e 493d

bias f4 [8]
-0.085944936 -0.16698563 -0.20373082 -0.13995689 -0.13251168 -0.08127122 -0.1416501 -0.11616976
00000000: e603 b0bd 48fe 2abe d09e 50be dc50 0fbe
00000010: 24b1 07be 8771 a6bd b90c 11be 69ea edbd

weight f4 [8, 24, 1]
-0.10495621 0.106022626 -0.22821933 -0.318853 0.12859559 -0.03461353 -0.48126614 0.014301934
0.09721983 0.52673095 -0.054290444 -0.04746306 -0.21862869 -0.041553035 -0.21691372 -0.119964935
0.2925316 0.19239502 0.1305108 0.08472344 0.10242128 0.042818267 0.006275053 0.031321935
-0.0350075 -0.09983629 0.082970016 0.4292194 0.62243694 -0.15255111 0.008213897 -0.013721557
-0.23594598 0.033819627 -0.085214555 0.02507288 -0.32906526 0.02699325 -0.23201668 0.08112672
0.04953097 -0.2028062 -0.01829876 0.32764158 0.09146926 -0.08389457 -0.20884196 0.20339529
-0.060732864 0.025225954 0.08618335 0.050458364 -0.00015223256 -0.025651231 -0.028167563 0.012713685
-0.07249985 -0.017175494 -0.038998004 -0.06478598 -0.00095904793 0.14704487 -0.055585507 -0.017394722
0.11525349 0.027961904 0.10371837 0.12551299 -0.20269611 0.0002559742 0.030603413 -0.17262797
0.017177515 -0.07028115 -0.027640754 0.057879247 -0.0033910505 -0.1094362 0.0333591 -0.032330103
-0.09219946 0.0016864216 0.005978442 -0.1432363 -0.01458844 -0.0012763729 -0.023455666 -0.18592578
-0.11103583 0.061089374 0.13127902 0.07516478 -0.015928492 0.07068151 0.022688575 0.07998658
-0.018787693 -0.1281171 0.022760175 0.012535846 0.0147138 0.13760445 0.020946719 -0.004166305
0.050354455 -0.07010935 -0.10533708 -0.12603042 0.08280253 -0.12970108 -0.017727248 0.059568375
-0.06290438 0.104086146 0.078927785 -0.0035787853 -0.18595065 0.19324398 0.1390888 -0.078345194
-0.508831 0.0085511105 -0.37805074 0.26433066 -0.025789097 0.0060130088 0.1836817 0.7373627
-0.26967028 0.04732229 0.18915002 -0.18587036 0.31182134 -0.03320768 -0.25230178 -0.13992453
-0.0877871 0.17748399 -0.19130757 0.026482223 0.18599394 0.06871141 -0.03252035 0.085703604
0.11343918 0.029168334 0.19844523 -0.4102033 0.18131948 0.16305932 0.44255632 -0.0019432246
-0.2545637 0.30917063 -0.0896412 0.11274312 0.29610488 0.17847362 0.06169331 0.012519658
0.006663579 0.16152042 -0.03337562 0.3852578 -0.18449147 0.174266 -0.054212376 0.22575021
0.053125147 0.003500163 0.06812866 -0.09235827 -0.06686927 0.12889813 0.058940217 0.054702275
0.03608551 -0.0028138193 0.19719477 -0.09073474 0.101805985 0.19416116 0.12147564 0.039037615
-0.10093273 -0.062491685 0.14461526 -0.073289216 -0.13766193 0.13650349 0.049375925 -0.11408319
00000000: 48f3 d6bd 6422 d93d 54b2 69be b340 a3be
00000010: 90ae 033e ebc6 0dbd 8468 f6be a952 6a3c
00000020: 311b c73d d7d7 063f a85f 5ebd a068 42bd
00000030: 33e0 5fbe 8433 2abd a11e 5ebe 2db0 f5bd
00000040: b4c6 953e 3303 453e a0a4 053e 7c83 ad3d
00000050: 40c2 d13d 3562 2f3d f69e cd3b 6e4b 003d
00000060: 0664 0fbd f876 ccbd 2fec a93d a5c2 db3e
00000070: 0758 1f3f 5c36 1cbe 9593 063c 62d0 60bc
00000080: d39b 71be 7386 0a3d f884 aebd a465 cd3c
00000090: 3e7b a8be f320 dd3c c895 6dbe c425 a63d
000000a0: fde0 4a3d 6eac 4fbe 48e7 95bc a3c0 a73e
000000b0: 3c54 bb3d ebd0 abbd abda 55be db46 503e
000000c0: 06c3 78bd a9a6 ce3c e580 b03d 6ead 4e3d
000000d0: 9ea0 1fb9 8822 d2bc a9bf e6bc 0f4d 503c
000000e0: cd7a 94bd 9fb3 8cbc 5fbc 1fbd 83ae 84bd
000000f0: 9e68 7bba ee92 163e a1ad 63bd 607f 8ebc
00000100: 060a ec3d 5d10 e53c 4c6a d43d 7a86 003e
00000110: 928f 4fbe 4734 8639 02b4 fa3c 63c5 30be
00000120: dcb7 8c3c 90ef 8fbd dd6e e2bc ca12 6d3d
00000130: 633c 5ebb 1620 e0bd 8da3 083d 926c 04bd
00000140: 12d3 bcbd eb0a dd3a cee6 c33b 89ac 12be
00000150: 5a04 6fbc f84b a7ba 1926 c0bc 5463 3ebe
00000160: c166 e3bd da38 7a3d 026e 063e feef 993d
00000170: 787c 82bc 78c1 903d 64dd b93c 01d0 a33d
00000180: a6e8 99bc 2131 03be 8c73 ba3c 2663 4d3c
00000190: 2612 713c 2ee8 0c3e 7498 ab3c 8085 88bb
000001a0: 7940 4e3d 7e95 8fbd f8ba d7bd 1e0e 01be
000001b0: 5f94 a93d 5cd0 04be bc38 91bc f8fd 733d
000001c0: 03d4 80bd 1e2b d53d e4a4 a13d 0e8a 6abb
000001d0: d969 3ebe c0e1 453e 4b6d 0e3e 7273 a0bd
000001e0: c042 02bf f519 0c3c de8f c1be 5956 873e
000001f0: a843 d3bc c608 c53b 0e17 3c3e cdc3 3c3f
00000200: 3912 8abe 04d5 413d 8bb0 413e cd54 3ebe
00000210: 0ca7 9f3e c704 08bd b32d 81be 6048 0fbe
00000220: b9c9 b3bd 5dbe 353e 22e6 43be 3ff1 d83c
00000230: 3275 3e3e 91b8 8c3d 0f34 05bd 5f85 af3d
00000240: cd52 e83d 6ef2 ee3c 3a35 4b3e 2b06 d2be
00000250: d0ab 393e 06f9 263e be96 e23e ccb3 feba
00000260: 2c56 82be 9d4b 9e3e ce95 b7bd dde5 e63d
00000270: 0f9b 973e cac1 363e 20b2 7c3d 401f 4d3c
00000280: 275a da3b 9c65 253e e0b4 08bd 8340 c53e
00000290: 55eb 3cbe c972 323e cc0d 5ebd 102b 673e
000002a0: c199 593d fe62 653b 0a87 8b3d 5526 bdbd
000002b0: c1f2 88bd dffd 033e 4c6b 713d 7e0f 603d
000002c0: 66ce 133d 0e68 38bb 6ded 493e 23d3 b9bd
000002d0: a87f d03d 2fd2 463e 38c8 f83d e8e5 1f3d
000002e0: d2b5 cebd 48f7 7fbd 0616 143e a818 96bd
000002f0: 40f7 0cbe 92c7 0b3e 693e 4a3d 73a4 e9bd

bias f4 [8]
0.15941823 0.21394646 -0.002366821 0.0030837536 -0.017942648 0.67845213 0.80031246 0.08318534
00000000: 883e 233e c814 5b3e ab1c 1bbb cd18 4a3b
00000010: 76fc 92bc 0aaf 2d3f 47e1 4c3f 135d aa3d
