Masterarbeit_YorickLALY/Code_and_Neural_Network/CNN_window_size_33.pt (torch, 10191 bytes, 12 tensors)

weight f4 [8, 8, 3]
0	0xbc4083a0	-0.011750132
1	0xbe3fe99f	-0.18741463
2	0xbd945dba	-0.072444394
3	0x3bc525e0	0.006016478
4	0xbd412c08	-0.047161132
5	0x3c54e1d7	0.012993298
6	0x3d088638	0.033331126
7	0x3d8c8c34	0.06862679
8	0x3d6a7f03	0.057250034
9	0xbd41c350	-0.047305405
10	0xbd91d212	-0.07120146
11	0xbdf45432	-0.119301215
12	0xbe4d2d57	-0.20036827
13	0x3e08e2e6	0.13367805
14	0xbd0bbc6a	-0.034115233
15	0xbe4a1359	-0.19733943
16	0xbe48b9ad	-0.1960208
17	0x3e5ee1eb	0.21765868
18	0x3dad01ce	0.0844761
19	0xbdca49a6	-0.098773286
20	0xbe598055	-0.21240361
21	0xbe3c0990	-0.18363023
22	0xbd10546c	-0.03523676
23	0x3dcb1cc7	0.09917598
24	0x3f3dabdd	0.7409037
25	0x3cd924bf	0.02650678
26	0xbd85e321	-0.06537462
27	0xbce785e1	-0.02826208
28	0x3dfc9373	0.12332811
29	0xbcda0a6a	-0.026616294
30	0xbd2d0d8a	-0.04224924
31	0xbe485b45	-0.19566067
32	0x3b1c5f7c	0.0023860624
33	0x3e284213	0.16431455
34	0xbe17af12	-0.14812878
35	0x3d59da0b	0.053186458
36	0xbdacb997	-0.08433836
37	0xbda31166	-0.07962303
38	0xbd9824ff	-0.074289314
39	0xbe630c04	-0.22172552
40	0xbf91c2d6	-1.1387584
41	0xbda71731	-0.0815872
42	0xbd4c2e97	-0.04984912
43	0x3ea34ce7	0.3189461
44	0xbeb85488	-0.36001992
45	0x3bb876d4	0.0056294
46	0x3de5dfa9	0.112243004
47	0xbe68a114	-0.22717696
48	0xbdcd9694	-0.10038486
49	0x3e1fef6e	0.15618679
50	0x3ec07e7b	0.37596497
51	0xbd69ef9e	-0.057113282
52	0x3e77fe2e	0.24218056
53	0x3f04c107	0.51857036
54	0xbd4a3af3	-0.049372625
55	0x3ce926d3	0.028460896
56	0x3e0da53e	0.13832566
57	0xbe35d7f5	-0.17758162
58	0x3e42466e	0.1897218
59	0xbe3ab848	-0.1823436
60	0xbe31df1f	-0.1737027
61	0x3d0e4d61	0.034741763
62	0x3e0cc653	0.1374753
63	0xbdf3dbb3	-0.11907139
64	0xbe8dff7d	-0.27733985
65	0x3e67edbc	0.22649282
66	0xbe38e3d2	-0.18055657
67	0x3eb68a40	0.3565235
68	0xbf04141e	-0.51593196
69	0xbe64b1fa	-0.22333518
70	0xbf00b8fc	-0.50282264
71	0x3e22e66e	0.15908214
72	0xbcf5d440	-0.030008435
73	0x3e2745cc	0.16335219
74	0x3c7ebe4b	0.015548299
75	0xbd328498	-0.043583483
76	0x3e2395a2	0.15975049
77	0xbe06f8ad	-0.131808
78	0x3dc78c10	0.09743512
79	0xbdd6f23c	-0.10495421
80	0xb9bb3800	-0.00035709143
81	0xbcac5d10	-0.02104047
82	0x3e19129c	0.14948505
83	0xbe14c06a	-0.14526525
84	0xbe442ea5	-0.19158418
85	0xbe0f54b5	-0.13997157
86	0x3dcf4910	0.101213574
87	0xbe3357c3	-0.17513947
88	0xbe17d843	-0.14828591
89	0xbe229972	-0.15878847
90	0xbd9461ce	-0.07245217
91	0xbe08818a	-0.13330665
92	0xbdcb3a01	-0.09923173
93	0x3df76092	0.12078966
94	0xbccd379b	-0.025050929
95	0xbe494b2a	-0.19657579
96	0xbe2ca0f1	-0.1685827
97	0xbe6aee0d	-0.22942372
98	0x3d21c741	0.039496664
99	0xbe41222a	-0.18860689
100	0xbe67499f	-0.22586678
101	0x3f053801	0.5203858
102	0x3e1cc7cf	0.15310596
103	0xbe31b604	-0.1735459
104	0x3e26f0b5	0.1630276
105	0xbdbbe30e	-0.091741666
106	0x3da6e3cd	0.08148918
107	0x3df683af	0.120368354
108	0x3ef630e1	0.48084167
109	0x3ea64d84	0.32481015
110	0x3e22f4f2	0.15913752
111	0x3ea93acf	0.3305268
112	0x3eecb200	0.46229553
113	0xbb166ce4	-0.0022953087
114	0xbeb2db07	-0.3493273
115	0xbdfabe1f	-0.12243294
116	0xbe0203ba	-0.12696734
117	0x3edec23a	0.43507558
118	0x3ef71df3	0.48265037
119	0x3f8aae7c	1.0834498
120	0xbe1f0afc	-0.15531534
121	0xbd19bd0f	-0.037533816
122	0xbd2a2b2a	-0.04154507
123	0x3e05b516	0.1305736
124	0xbdfb1819	-0.12260456
125	0x3da5c055	0.08093325
126	0xbe100f6b	-0.14068381
127	0xbde362ee	-0.11102854
128	0xbe17479d	-0.14773412
129	0x3e11f432	0.1425331
130	0x3e39b865	0.18136747
131	0xbe4d193d	-0.20029159
132	0x3d152a19	0.0364171
133	0x3d507c1c	0.05089961
134	0x3d353f6f	0.044249948
135	0x3dddcb3e	0.10829781
136	0xbbd9d6ed	-0.0066479356
137	0x3c38717b	0.011257525
138	0xbdd1bf3b	-0.102415524
139	0xbe750efc	-0.23931497
140	0xbe0c607a	-0.13708678
141	0xbda0e961	-0.078570135
142	0x3dfd3414	0.12363449
143	0x3db53d4d	0.08849583
144	0x3d06f6bb	0.032950144
145	0x3e8f3428	0.2796948
146	0xbeb3ba14	-0.35102904
147	0x3eae048a	0.33987838
148	0x3f61f53d	0.8826483
149	0x3f23db92	0.6400691
150	0xbc821bf1	-0.015882464
151	0xbe1c9538	-0.15291297
152	0xbd8da2f2	-0.06915845
153	0x3c94c92b	0.01816233
154	0xbbfe9402	-0.0077691087
155	0xbe099abc	-0.13437933
156	0x3ed35783	0.41277704
157	0x3e958823	0.29205427
158	0xbde62271	-0.11237038
159	0xbe015306	-0.12629327
160	0x3e8c279b	0.27373967
161	0xbece01b0	-0.40235662
162	0xbe85752d	-0.2606596
163	0xbd9f9904	-0.07792857
164	0xbf4cfe43	-0.8007547
165	0x3e3e549c	0.18586963
166	0x3e34738a	0.176222
167	0xbe5af692	-0.21383122
168	0x3d55f154	0.0522321
169	0x3d612404	0.054965988
170	0x3e3d6d08	0.18498623
171	0xbeafa76f	-0.3430743
172	0xbe1d5b0f	-0.15366767
173	0x3d10d37d	0.03535794
174	0x3e3e0ed6	0.18560347
175	0xbe076c85	-0.1322499
176	0xbdb2b4c7	-0.08725887
177	0xbde2ef18	-0.1108076
178	0x3c8dcf0b	0.01731064
179	0x3bdf21e1	0.0068094586
180	0x3d1f8666	0.03894653
181	0xbdcd4aa6	-0.10024004
182	0xbe02ac35	-0.12761004
183	0xbe4b6961	-0.19864418
184	0xbdb07a37	-0.08617061
185	0x3d004c65	0.031322856
186	0xbe819381	-0.2530785
187	0xbea664ef	-0.3249888
188	0xbd948e7b	-0.072537385
189	0xbdf09d1c	-0.11748716
190	0xbe460c54	-0.1934064
191	0xbe156d7a	-0.14592543

bias f4 [8]
0	0xbe146676	-0.14492211
1	0xbd2a82fd	-0.041628826
2	0x3e710b98	0.23539579
3	0xbe34d00c	-0.17657489
4	0x3eb7616e	0.3581652
5	0xbe54f41e	-0.20796248
6	0xbdc9cfc3	-0.098540805
7	0x3f09266d	0.5357426

weight f4 [8, 8, 3]
0	0x3e154206	0.14575967
1	0xbd950ba0	-0.07277608
2	0x3d3094b2	0.043110557
3	0xbe38a529	-0.18031754
4	0xbdf75f61	-0.12078739
5	0xbddbde04	-0.107357055
6	0x3e25198e	0.1612303
7	0x3e5dfc11	0.21678187
8	0xbd461023	-0.048355233
9	0xbcb6b7b7	-0.022304399
10	0xbe3cb47e	-0.18428227
11	0x3cf8f4cd	0.030390168
12	0xbeba1a24	-0.3634807
13	0xbe93414e	-0.2876076
14	0x3c9f5e60	0.019454181
15	0x3df39ef4	0.11895552
16	0x3bfc9b21	0.0077089225
17	0x3d8f42e1	0.06995178
18	0xbd57a276	-0.05264517
19	0xbc59885f	-0.013277142
20	0xbcae2c6d	-0.021261418
21	0x3e9bcdf1	0.30430558
22	0x3e983770	0.29729795
23	0x3e8cb1a6	0.27479285
24	0xbd64a350	-0.05581981
25	0x3e4d3c3b	0.20042507
26	0xbe4e64cf	-0.20155643
27	0xbef0c88c	-0.47028005
28	0xbe221234	-0.15827256
29	0xbda2edc7	-0.07955509
30	0xbeffbc95	-0.49948564
31	0x3ec0d2fe	0.37660974
32	0x3e4697d0	0.1939385
33	0xbb62aa87	-0.0034586505
34	0x3ca4f3e3	0.020135825
35	0xbe3df97b	-0.185522
36	0xbf4c8b38	-0.7989993
37	0xbf4be85a	-0.79651415
38	0xbef7826e	-0.48341697
39	0xbe493069	-0.19647373
40	0xbce31892	-0.027721677
41	0x3e218d98	0.1577667
42	0xbe41d7b9	-0.18929948
43	0x3c76ab31	0.015055464
44	0x3e4180ea	0.18896833
45	0xbe2c7500	-0.16841507
46	0xbe10285c	-0.14077896
47	0xbde2361f	-0.11045479
48	0xbe13d1d7	-0.14435516
49	0xbd642541	-0.05569959
50	0x3e1fd36a	0.15607992
51	0x3e96c72b	0.29448828
52	0x3f147a67	0.5799927
53	0xbdc648a4	-0.09681824
54	0xbdad7d58	-0.08471173
55	0x3f133958	0.57509375
56	0xbec53c8c	-0.38522756
57	0x3d07c74e	0.033149056
58	0x3e0f6c7b	0.14006226
59	0x3d7d7943	0.061883222
60	0xbde49ac1	-0.111623295
61	0xbec3e017	-0.38256904
62	0xbe104f82	-0.1409283
63	0xbe4f9531	-0.20271756
64	0x3dd8b0cc	0.10580596
65	0x3dbb7d46	0.091547534
66	0x3f484704	0.7823336
67	0xbf09c19c	-0.5381105
68	0xbf017054	-0.50562024
69	0xbe60ead0	-0.21964574
70	0xbe64c8f6	-0.22342286
71	0x3c22dc04	0.009940151
72	0x3e1ed558	0.15511072
73	0x3e080c7b	0.13286011
74	0x3dedf0d9	0.11618204
75	0xbe36ce0c	-0.17852038
76	0xbe9dd518	-0.3082664
77	0xbe0ba088	-0.13635457
78	0xbd18a699	-0.037268255
79	0xbcd3b622	-0.025843684
80	0xbe4ae49f	-0.19813775
81	0x3e36d3f5	0.17854293
82	0x3e48e46f	0.1961839
83	0x3b1da894	0.002405678
84	0xbea2c548	-0.3179114
85	0xbdb5c6cc	-0.08875808
86	0xbe86b8b9	-0.26312807
87	0xbe5739a6	-0.21018085
88	0xbdfd61b6	-0.123721525
89	0x3d29dbff	0.04146957
90	0xbe2f3124	-0.1710859
91	0x3d3525e7	0.0442256
92	0xbd8a1736	-0.067427084
93	0x3c72a717	0.014810345
94	0xbe09e394	-0.1346572
95	0xbdaf6a0e	-0.0856515
96	0xbe16a37c	-0.14710802
97	0xbd18ff8e	-0.03735309
98	0x3e291218	0.16510808
99	0xbe0d1e05	-0.13780983
100	0xbd210c26	-0.039318226
101	0xbdf3cc46	-0.119041964
102	0xbd601afd	-0.054713238
103	0xbd50c0c9	-0.050965104
104	0x3dc08173	0.093996905
105	0xbdb97352	-0.09055199
106	0xbe509ea0	-0.2037301
107	0x3daee15c	0.08539078
108	0xbe5d2b0d	-0.21598454
109	0xbea8afe4	-0.32946694
110	0xbed8fc00	-0.4237976
111	0xbdb27ade	-0.08714841
112	0x3d7c6cc4	0.061627164
113	0xbdb38efb	-0.08767506
114	0xbdca8ee2	-0.09890534
115	0xbbe689d4	-0.0070354734
116	0xbdb9aa02	-0.090656295
117	0x3d08a46d	0.033359934
118	0xbdf0eb0a	-0.1176358
119	0xbe538d90	-0.2065947
120	0xbddb08f9	-0.10695071
121	0x3e4a676b	0.19766013
122	0xbe115626	-0.1419302
123	0x3c31f5f3	0.0108618615
124	0x3b2daaaf	0.002649944
125	0xbe13993b	-0.14413922
126	0x3cbe4202	0.023224834
127	0x3e36f4be	0.17866799
128	0x3e262476	0.16224846
129	0xbda8a758	-0.08235043
130	0xbb762c72	-0.0037563113
131	0xbdb56f6f	-0.08859145
132	0xbf007d01	-0.5019074
133	0xbf06195d	-0.5238245
134	0xbd87f328	-0.06638175
135	0x3dc4e431	0.096138366
136	0x3e27d428	0.16389525
137	0x3df2fbe8	0.118644536
138	0x3e004de8	0.12529719
139	0x3cc827e6	0.024433088
140	0x3eb5000c	0.35351598
141	0x3d89a3c0	0.06720686
142	0xbe3bfdde	-0.18358561
143	0x3d9282ec	0.071538776
144	0x3ddc73fc	0.1076431
145	0x3c08ef79	0.008357876
146	0x3de2e51a	0.11078854
147	0xbdbb5c07	-0.09148412
148	0xbe95eb32	-0.29281002
149	0xbe94c8f7	-0.29059574
150	0xbdb85502	-0.09000589
151	0x3d544dc6	0.051831983
152	0xbd29ad22	-0.041424878
153	0xbe13b448	-0.1442424
154	0x3e37f7ba	0.17965594
155	0xbba221e5	-0.004947888
156	0xbeb99660	-0.3624754
157	0xbec93839	-0.39300707
158	0xbe150cfa	-0.14555731
159	0x3de4b5cf	0.1116749
160	0x3c1a9b73	0.009436476
161	0x3de5185f	0.11186289
162	0xbdeebb3d	-0.116568066
163	0xbd7a42fb	-0.061099034
164	0x3a12583f	0.00055826077
165	0xbc870e49	-0.016486304
166	0x3d6c3477	0.057667222
167	0xbe37f6a4	-0.1796518
168	0x3ddf16d1	0.10893024
169	0x3e3ed795	0.18636926
170	0x3cde8496	0.027162831
171	0xbf231ad2	-0.637128
172	0xbed9e020	-0.42553806
173	0x3e4b90d3	0.19879465
174	0x3e9a2f6a	0.301143
175	0x3e3bc424	0.1833654
176	0xbeb58fd1	-0.35461286
177	0x3dd8c189	0.10583789
178	0xbe43a76b	-0.19106834
179	0x3cec1484	0.028818376
180	0xbe2c3f4c	-0.16821021
181	0x3ee05b91	0.4381986
182	0xbeaa247c	-0.3323096
183	0xbe22b7e8	-0.15890467
184	0x3df06f0f	0.11739933
185	0x3dbdc728	0.09266502
186	0x3e050695	0.12990792
187	0xbee27305	-0.44228378
188	0xbf0e8a41	-0.5567971
189	0x3e9cd649	0.30632237
190	0x3e7f77de	0.2494807
191	0x3e8f8880	0.2803383

bias f4 [8]
0	0xbe07cd1b	-0.13261835
1	0x3ececf31	0.4039245
2	0x3efd1d1b	0.49436268
3	0x3e1220b2	0.14270285
4	0xbd5bdf90	-0.053680003
5	0xbda7b77d	-0.081892945
6	0x3e3c6f9f	0.18401955
7	0x3ef5ebbf	0.48031422

weight f4 [8, 8, 3]
0	0x3d315d26	0.043301724
1	0xbe1ae052	-0.15124634
2	0xbe169b33	-0.14707641
3	0x3dab971d	0.08378432
4	0xbde92918	-0.11384791
5	0xbdfc3048	-0.123138964
6	0xbed98352	-0.42483002
7	0xbedc440d	-0.4302067
8	0xbf00f210	-0.5036936
9	0xbd59f96f	-0.053216394
10	0x3e24d7bd	0.16097923
11	0xbdb122fb	-0.0864925
12	0x3df225e1	0.11823631
13	0x3cfd8c8f	0.030950813
14	0x3d8bdf93	0.06829753
15	0x3e15cf84	0.14629942
16	0xbdb2ceee	-0.08730875
17	0x3e1327e1	0.14370681
18	0x3e8c75ab	0.27433524
19	0x3e14b9fc	0.14524072
20	0x3cd87c96	0.026426595
21	0xbee475fe	-0.4462127
22	0xbf1e6ab6	-0.6188158
23	0xbef98328	-0.48732877
24	0xbe125d7b	-0.14293472
25	0xbe512ccc	-0.20427245
26	0x3e42a1ac	0.19006985
27	0xbe13bf65	-0.1442848
28	0x3de70f6b	0.112822376
29	0x3db4e29f	0.08832287
30	0xbd1ada1e	-0.03780567
31	0xbd2e90af	-0.04261845
32	0x3dc4e84e	0.09614621
33	0xbe280d03	-0.16411214
34	0x3d9c3c9c	0.07628748
35	0xbc040bcc	-0.008059453
36	0x3ca15f51	0.01969877
37	0xbd5b6788	-0.053565532
38	0xbd38be1e	-0.045103185
39	0xbde98e3e	-0.11404084
40	0x3cd49d47	0.025953902
41	0xbe4a7742	-0.19772056
42	0x3e0e6a49	0.13907732
43	0xbdfaf3f4	-0.122535616
44	0x3cef254a	0.029192585
45	0x3e178cce	0.14799806
46	0x3ced8182	0.028992418
47	0xbd93b4ee	-0.07212244
48	0xbdc3ae3f	-0.09554719
49	0xbdd81e98	-0.1055271
50	0xbcc19c40	-0.023634076
51	0xbd9507d8	-0.07276887
52	0x3ce38057	0.027771158
53	0x3c19b401	0.009381295
54	0xbe4d546b	-0.20051734
55	0x3b407968	0.0029369239
56	0xbec9f3e3	-0.39443883
57	0xbe1575c0	-0.145957
58	0x3e968b76	0.29403275
59	0xbdfd5377	-0.12369435
60	0xbe4db124	-0.20087105
61	0xbd3b9046	-0.045791887
62	0x3dc05dd1	0.09392894
63	0x3d9bafbd	0.07601879
64	0x3e11b7c9	0.14230265
65	0xbe5bbe0a	-0.21459213
66	0xbde54a64	-0.111958295
67	0x3d875e72	0.06609811
68	0xbdff42aa	-0.12463887
69	0xbe46254e	-0.19350168
70	0xbe18dc77	-0.1492785
71	0x3dd9acea	0.10628684
72	0xbe182daf	-0.14861177
73	0xbdea0088	-0.114258826
74	0xbd09e923	-0.033669602
75	0xbf0b553a	-0.5442692
76	0xbf8a14e5	-1.0787627
77	0xbf511f3f	-0.816883
78	0x3e29a691	0.16567446
79	0xbddd0244	-0.10791448
80	0xbd45e425	-0.04831328
81	0xbe1658c6	-0.14682302
82	0xbdc30944	-0.09523252
83	0xbea30d08	-0.3184588
84	0xbe999558	-0.29996753
85	0xbe60c074	-0.21948415
86	0xbe94bb50	-0.29049158
87	0xbdbc677c	-0.091994256
88	0xbd270a7b	-0.04078148
89	0xbd865e15	-0.065609135
90	0xbe8b7a71	-0.27241853
91	0xbe8b1534	-0.27164614
92	0xbef33797	-0.4750335
93	0x3ce517b8	0.027965412
94	0x3f0a556e	0.54036605
95	0x3e938f4e	0.2882027
96	0xbdd3ecf6	-0.10347931
97	0x3da62920	0.08113313
98	0x3c71ee88	0.014766343
99	0x3d804731	0.06263579
100	0xbe23fc7f	-0.16014288
101	0x3da05545	0.07828764
102	0xbdbaab68	-0.091147244
103	0x3ccb9f6b	0.02485629
104	0xbda7565d	-0.08170769
105	0x3c8d0443	0.017213946
106	0xbd1cbd5b	-0.03826652
107	0x3e30c6a5	0.17263277
108	0x3c20aa47	0.009806222
109	0xbd3ab906	-0.04558661
110	0xbe00fe93	-0.12597112
111	0x3e347992	0.176245
112	0xbe394bf7	-0.18095385
113	0xbdf0d2f7	-0.11758988
114	0xbe038934	-0.12845308
115	0xbc90cbb3	-0.017675256
116	0xbd8ea25a	-0.0696456
117	0x3b874eb6	0.004129256
118	0xbcfb7a6f	-0.03069803
119	0xba673b7b	-0.0008820814
120	0x3dd3b5c6	0.10337405
121	0x3de2554a	0.11051424
122	0x3e61f404	0.22065741
123	0x3eaff18c	0.34363973
124	0x3ef20c60	0.47275066
125	0x3cf88418	0.030336425
126	0xbea990fc	-0.33118427
127	0xbd9d6438	-0.07685131
128	0xbe6df679	-0.23238553
129	0xbe0f8be3	-0.14018206
130	0xbe3dcf9d	-0.1853623
131	0xbe308815	-0.17239411
132	0x3dc190dc	0.09451458
133	0xbbf601fc	-0.007507561
134	0xbc87a322	-0.01655728
135	0xbe9a3b92	-0.30123574
136	0xbecd4ec7	-0.40099165
137	0xbe15b0c8	-0.14618218
138	0xbe902ae7	-0.28157732
139	0xbe76ac9b	-0.24089281
140	0xbd566edb	-0.052351814
141	0xbebc5146	-0.36780757
142	0xbeb70e2b	-0.35752997
143	0xbe604ee1	-0.2190509
144	0x3dcb2029	0.099182434
145	0x3d678ca4	0.05653061
146	0xbe2e0151	-0.1699269
147	0xbe404323	-0.1877561
148	0x3e37a4dc	0.17933983
149	0xbca76c05	-0.02043725
150	0x3be279b2	0.00691148
151	0x3daa8bbd	0.08327434
152	0xbd62c83e	-0.055366747
153	0x3e217d1b	0.1577038
154	0x3c59e58b	0.013299356
155	0xbe1b775a	-0.15182248
156	0xbe28ee97	-0.16497265
157	0xbd7bb672	-0.06145329
158	0xbe2189b9	-0.15775193
159	0xbd33de33	-0.043913078
160	0xbb80da95	-0.003932307
161	0x3db8f39a	0.09030838
162	0x3e69f8d3	0.22848825
163	0xbe22471a	-0.15847436
164	0xbccfea82	-0.025380377
165	0xbd79769f	-0.06090414
166	0xbb9b6155	-0.0047418275
167	0xbe2046ee	-0.15652058
168	0xbbcd5634	-0.0062663797
169	0xbe86c3c1	-0.26321223
170	0xbec0dd96	-0.37669057
171	0xbe294a8a	-0.1653234
172	0x3e20f8fd	0.15719981
173	0x3e156bd7	0.14591919
174	0x3e3e42c5	0.18580158
175	0x3f096f8f	0.5368585
176	0x3e4eff0f	0.20214485
177	0x3d987740	0.0744462
178	0xbe0021d1	-0.125129
179	0xbdf09456	-0.11747043
180	0xbd779786	-0.06044724
181	0xbe34cccf	-0.17656253
182	0xbdba72f5	-0.091039576
183	0x3e95c9dd	0.29255572
184	0x3ea6fae2	0.32613283
185	0x3e3dc3af	0.18531679
186	0xbe2ee6b6	-0.17080197
187	0xbddd5d6c	-0.108088344
188	0x3e28d2d7	0.16486679
189	0xbe8edc86	-0.2790262
190	0x3e97fb31	0.2968383
191	0x3d26d054	0.04072602

bias f4 [8]
0	0xbea1f627	-0.31633112
1	0xbe9a4ae4	-0.30135262
2	0xbe1d85be	-0.1538305
3	0x3e874506	0.26419848
4	0xbe674eba	-0.22588626
5	0xbd2fa8ac	-0.042885467
6	0xbe85b2a4	-0.26112854
7	0x3f3d356c	0.7390964

weight f4 [8, 8, 3]
0	0x3ec37a3b	0.38179192
1	0x3eda2c3e	0.4261188
2	0x3e8b9bcf	0.2726731
3	0xbd46e712	-0.04856021
4	0xbd9fe460	-0.07807231
5	0xbe088718	-0.13332784
6	0xbe394db2	-0.18096045
7	0xbe455269	-0.19269718
8	0xbc8c8fe0	-0.017158449
9	0xbeaa3b5c	-0.33248413
10	0xbd064545	-0.032780904
11	0xbe23ab5a	-0.15983334
12	0xbe2f2fe1	-0.17108108
13	0x3d76ac90	0.060223162
14	0xbda56c53	-0.08077302
15	0xbce3ca93	-0.027806556
16	0xbd051afb	-0.032496434
17	0x3e172666	0.14760742
18	0xbe105e1a	-0.14098397
19	0xbe4d7d52	-0.20067337
20	0x3e09c2ac	0.13453168
21	0xbedcdcc3	-0.43137178
22	0xbe4fc246	-0.20288953
23	0xbdfc41a7	-0.1231721
24	0xbe278ea1	-0.16363002
25	0x3e19a454	0.15004092
26	0x3d11a730	0.035559833
27	0x3e01d63e	0.12679383
28	0xbd5d083e	-0.05396294
29	0xbda38fb4	-0.079863936
30	0xbd55cbfe	-0.052196495
31	0xbd38f01f	-0.045150872
32	0xbe0e86db	-0.13918631
33	0xbe076ee4	-0.13225895
34	0xbdd8a5ec	-0.10578522
35	0xbe2d508a	-0.16925254
36	0x3e1197da	0.14218083
37	0xbc4d3f2c	-0.012527268
38	0x3e33c5ab	0.17555873
39	0x3cfd7c1d	0.03094297
40	0x3cdff54a	0.027338643
41	0x3e04b02c	0.12957829
42	0xbe47c545	-0.19508846
43	0x3e425cf2	0.18980768
44	0xbdfabbf6	-0.12242882
45	0xbe4b1c84	-0.19835097
46	0x3ca0264e	0.019549515
47	0xbdf3e53b	-0.119089566
48	0x3e860cdd	0.2618169
49	0x3e952169	0.29127052
50	0x3ec52077	0.3850133
51	0xbe36bd07	-0.17845546
52	0xbdfe1f26	-0.12408285
53	0xbe146147	-0.14490233
54	0x3e53d90a	0.20688263
55	0x3defe0fb	0.117128335
56	0x3d328f8e	0.043593936
57	0xbe8ed971	-0.2790027
58	0xbe1dc3ae	-0.15406677
59	0xbe846d0e	-0.25864452
60	0x3d8b9621	0.06815744
61	0xbe0aae03	-0.13542943
62	0xbe31ab8e	-0.17350599
63	0x3e342e5b	0.17595808
64	0x3ec3e54e	0.38260883
65	0x3b5d2130	0.0033741705
66	0x3e2190e5	0.15777929
67	0x3e7c120e	0.24616262
68	0x3cbd3e3d	0.023100967
69	0xbe6dce9c	-0.23223346
70	0x3d0557b4	0.032554343
71	0x3ccb8ccc	0.02484741
72	0x3d86b18b	0.065768324
73	0xbde7c711	-0.11317266
74	0x3dde9695	0.10868565
75	0xbe034260	-0.12818289
76	0x3e40aa29	0.18814911
77	0xbdca68d9	-0.09883279
78	0x3ebd0b4e	0.36922687
79	0x3e9bac74	0.3040501
80	0x3eb85be3	0.36007604
81	0xbce92ea4	-0.028464623
82	0x3e7ac422	0.24488881
83	0x3bc2f69a	0.0059498074
84	0x3e0a4f15	0.1350673
85	0xbe36564a	-0.17806354
86	0x3debe831	0.11518896
87	0x3e1d113f	0.1533861
88	0x3f06c22b	0.52640027
89	0x3e2d51e2	0.16925767
90	0xbd0829a6	-0.033242844
91	0x3de06e1c	0.10958502
92	0x3d7eb1ca	0.06218127
93	0xbdd78b6c	-0.105246395
94	0x3cdefa81	0.027219059
95	0xbdc2bd91	-0.09508813
96	0x3c593192	0.013256447
97	0xbe23a9d1	-0.15982749
98	0x3d078b51	0.033091847
99	0x3cf36798	0.029712483
100	0xbe2d1303	-0.16901784
101	0xbd2f8e96	-0.04286059
102	0xbdd24aaf	-0.10268151
103	0xbd87ff1f	-0.06640457
104	0xbe53d525	-0.20686777
105	0xbe40a0bc	-0.18811315
106	0x3df299b1	0.118457206
107	0xbddaeafc	-0.10689351
108	0x3d5f8282	0.05456782
109	0xbd2a0b52	-0.041514702
110	0xbdc9c546	-0.0985208
111	0x3d811619	0.06303043
112	0x3e12d3b1	0.14338566
113	0x3ded8e6b	0.1159943
114	0x3d8c40c6	0.06848292
115	0x3e2bdf18	0.16784322
116	0xbe12f048	-0.14349473
117	0xbe268005	-0.16259773
118	0xbe235a04	-0.15952307
119	0x3daef2c9	0.08542401
120	0xb936abfd	-0.00017420943
121	0xbe2b58c4	-0.1673308
122	0x3e097967	0.13425218
123	0x3e19f298	0.15033948
124	0xbddb0347	-0.106939845
125	0x3e20f5d1	0.15718772
126	0xbde820bf	-0.11334371
127	0x3e697512	0.22798565
128	0x3cbde3bf	0.023179887
129	0x3daedaf3	0.08537855
130	0x3cda0616	0.02661423
131	0xbe234fb8	-0.15948379
132	0x3dc28bea	0.09499343
133	0x3e2461e9	0.16052975
134	0xbd9f606e	-0.077820644
135	0xbe42a698	-0.19008863
136	0xbe0959b4	-0.13413125
137	0xbdf49da7	-0.11944132
138	0x3dc825cc	0.09772834
139	0x3e1e3c59	0.15452708
140	0x3dd15b3c	0.1022248
141	0xbdfff496	-0.12497823
142	0xbe81f981	-0.2538567
143	0xbea89924	-0.32929337
144	0x3e86a304	0.26296246
145	0x3e8c3889	0.27386883
146	0x3d77d4dc	0.060505733
147	0xbe27e215	-0.16394837
148	0x3c7a5b82	0.015280606
149	0x3df0079f	0.117202036
150	0x3ddfdfa8	0.10931331
151	0x3e284a19	0.16434516
152	0x3e10990a	0.1412088
153	0xbeab3c7b	-0.3344458
154	0xbddcdcc8	-0.10784298
155	0xbea0b71a	-0.31389695
156	0x3d9389b1	0.07203997
157	0x3ddfa2d3	0.10919728
158	0x3d913998	0.07091063
159	0x3d3fad37	0.04679605
160	0xbdb6ee3f	-0.089321606
161	0xbe126c19	-0.14299048
162	0x3bec8f1c	0.0072192084
163	0x3de5a6ba	0.11213441
164	0xbdf8f1a5	-0.12155465
165	0xbf118c2f	-0.5685453
166	0xbe98d5de	-0.29850668
167	0xbdc4ab5b	-0.09602996
168	0x3e086050	0.1331799
169	0x3e45ba6a	0.19309393
170	0x3e8248df	0.2544622
171	0xbdbe7fbc	-0.09301707
172	0x3e161472	0.14656237
173	0xbb57f9c2	-0.0032955264
174	0xbd1febfd	-0.039043415
175	0xbe093fb5	-0.13403209
176	0xbde5b8f1	-0.112169154
177	0x3f28dcae	0.6596173
178	0x3f896ae4	1.0735745
179	0x3f0c9d43	0.5492746
180	0x3d1b1625	0.037862916
181	0xbcfa4540	-0.0305506
182	0x3c568d9f	0.013095289
183	0xbd08c87c	-0.03339432
184	0xbd122507	-0.035679843
185	0xbd6fa4b9	-0.0585067
186	0x3e3fb183	0.18720059
187	0xbe4cf8e6	-0.20016822
188	0xbd224f48	-0.03962639
189	0xbf270964	-0.65248704
190	0xbf337d67	-0.70113224
191	0xbed43725	-0.41448322

bias f4 [8]
0	0xbeeb15ba	-0.45915014
1	0xbe567782	-0.20944026
2	0xbf42d172	-0.7610084
3	0xbf919235	-1.1372744
4	0xbecf6b37	-0.40511486
5	0xbe0925cd	-0.13393326
6	0xbe17b8f8	-0.14816654
7	0xbe83e5c1	-0.25761226

weight f4 [8, 8, 3]
0	0x3d0e93fe	0.034809105
1	0x3e8cc977	0.27497455
2	0x3e930b8b	0.28719744
3	0xbd350350	-0.044192612
4	0xbe3315e4	-0.1748882
5	0xba19d53c	-0.0005868261
6	0x3e39e6b3	0.18154411
7	0x3da4775e	0.0803058
8	0x3e29119e	0.16510627
9	0x3e059bc8	0.13047707
10	0xbc55996b	-0.013037066
11	0xbcbf8027	-0.023376537
12	0xbc504059	-0.012710654
13	0x3e1d391c	0.15353817
14	0x3e315289	0.17316641
15	0xbda08ba3	-0.078391336
16	0x3e80b298	0.25136256
17	0x3e0e1533	0.13875274
18	0x3e004147	0.12524901
19	0x3e7cadec	0.24675721
20	0x3e25cbea	0.16191068
21	0x3d1046a0	0.035223603
22	0xbe8995c3	-0.26872072
23	0xbd3eb324	-0.04655756
24	0x3dd0782a	0.101791695
25	0x3db9347f	0.09043216
26	0x3d50c8e5	0.050972838
27	0xbd9bb15a	-0.076021865
28	0xbcdc84fe	-0.026918884
29	0x3d892e6b	0.06698307
30	0x3d1191b0	0.03553933
31	0xbd7dc1c2	-0.06195236
32	0xbd025bd6	-0.031825863
33	0xbd10692a	-0.035256542
34	0xbcdc9238	-0.026925191
35	0xbd231bb3	-0.039821338
36	0x3e500935	0.20316012
37	0x3dc0f556	0.09421794
38	0x3ddaefda	0.10690279
39	0xbdb949eb	-0.09047302
40	0xbd53377e	-0.051566593
41	0x3de8dc28	0.113701165
42	0x3d13e224	0.036104336
43	0xbd2539fb	-0.040338498
44	0xbe8fda35	-0.28096166
45	0x3d828287	0.06372552
46	0x3d9834fd	0.07431982
47	0xbd567610	-0.052358687
48	0x3d8e6f2d	0.06954799
49	0x3e075e00	0.13219452
50	0xbd3205d3	-0.043462586
51	0x3e5563ce	0.20838854
52	0xbdb27706	-0.08714108
53	0xbcf284fd	-0.02960443
54	0x3deb7a3e	0.11497925
55	0xbe85bc45	-0.261202
56	0xbbd5ec4c	-0.006528413
57	0xbdf92e46	-0.12167029
58	0xbde916ca	-0.113813
59	0x3d377161	0.04478586
60	0xbd7f822d	-0.062380005
61	0x3c64a673	0.0139557
62	0x3e5ae8f6	0.2137793
63	0xbba2a4c8	-0.004963491
64	0x3daa5044	0.08316091
65	0x3c578618	0.013154529
66	0x3d390ff5	0.045181233
67	0x3dee79e2	0.11644341
68	0x3e046d0f	0.12932228
69	0x3d856262	0.06512906
70	0xbe3364f3	-0.17518978
71	0xbdd98864	-0.106217176
72	0x3c6ba845	0.01438338
73	0xbb495a19	-0.0030723868
74	0x3e0ba8b8	0.1363858
75	0x3d76c250	0.060243905
76	0xbcf6ecd0	-0.030142218
77	0x3df81ded	0.12115083
78	0xbe04542c	-0.12922734
79	0xbe132b75	-0.14372046
80	0xbdddddce	-0.108333215
81	0x3e41d4e6	0.1892887
82	0xbd417158	-0.047227234
83	0xbd846c5c	-0.064659804
84	0xbe1c66c1	-0.15273573
85	0xbe29a171	-0.16565491
86	0xbd1f4f95	-0.038894255
87	0xbe082342	-0.132947
88	0xbdc1821a	-0.09448643
89	0x3e006fd8	0.12542665
90	0xbcc37866	-0.023861121
91	0xbdb4a775	-0.088210024
92	0xbe308162	-0.17236856
93	0x3e3f5998	0.18686521
94	0x3e9092de	0.2823705
95	0x3ded07e6	0.11573772
96	0x3e3ddff5	0.18542464
97	0xbd84be73	-0.06481638
98	0x3e57188a	0.21005455
99	0xbd75c41b	-0.060001474
100	0x3c36c364	0.011154983
101	0x3dc5d087	0.09658914
102	0x3d29bed1	0.041441742
103	0x3d61919b	0.0550705
104	0xbe6c16dd	-0.23055597
105	0x3e0b1251	0.13581206
106	0xbcb1edea	-0.021719892
107	0xbddf6f25	-0.10909871
108	0xbd9d8c64	-0.07692793
109	0x3d9c332e	0.07626949
110	0x3b74f14f	0.0037375276
111	0x3e290da8	0.16509116
112	0xbd7a3951	-0.061089817
113	0x3e5337e4	0.2062679
114	0xbe5085ed	-0.20363589
115	0x3c464251	0.012100772
116	0x3e1fd0e2	0.15607026
117	0xbe5bf4ed	-0.2148015
118	0xbe4bf5c2	-0.19917968
119	0xbe1d8b5a	-0.1538519
120	0xbdae5f9c	-0.0851433
121	0xbd8e011c	-0.06933805
122	0xbd5d69b3	-0.05405588
123	0x3dcce0bb	0.100038014
124	0xbe0d8bae	-0.13822815
125	0x3c223a60	0.009901613
126	0x3e4d3d85	0.20042999
127	0xbd20d22e	-0.039262943
128	0xbdca677a	-0.09883018
129	0xbe2e6413	-0.17030363
130	0x3ca78923	0.020451134
131	0xbe1db06d	-0.15399332
132	0xbdba1457	-0.09085911
133	0xbe1e7186	-0.15472993
134	0x3d49370c	0.049124762
135	0x3c04aa0a	0.008097181
136	0xbdb3d7ef	-0.087814204
137	0xbe0d6e1d	-0.13811536
138	0x3e452f10	0.19256234
139	0x3bbecc5e	0.0058227023
140	0x3e0905a6	0.13381061
141	0x3e060113	0.13086347
142	0xbe4b6b3f	-0.1986513
143	0x3d9de0a3	0.07708862
144	0x3d005a81	0.03133631
145	0xbdfede82	-0.12444784
146	0xbdc7843f	-0.09742021
147	0x3e3d8dcf	0.18511127
148	0x3dc6b8c1	0.09703208
149	0x3dd35063	0.10318067
150	0xbe4fd6db	-0.20296805
151	0x3e0eb463	0.13936
152	0xbd947f3e	-0.07250832
153	0x3db64b10	0.08901036
154	0x3d83032b	0.063970886
155	0xbe0338e7	-0.12814675
156	0x3e04cb3e	0.12968156
157	0x3d125ef5	0.03573509
158	0xbe2a1257	-0.16608559
159	0x3d904ecd	0.0704628
160	0x3e688eb2	0.22710684
161	0xbe1a7367	-0.15083085
162	0xbe61c445	-0.22047527
163	0xbe4c6198	-0.19959104
164	0x3db8aada	0.09016962
165	0x3ddd27b8	0.107985914
166	0x3e230be6	0.15922508
167	0xbe7c38a3	-0.2463098
168	0xbe310152	-0.1728566
169	0xbd9b1472	-0.07572259
170	0xbd7b3484	-0.06132938
171	0xbd57e938	-0.05271265
172	0xbdc6a3d1	-0.09699214
173	0xbe0b6035	-0.13610919
174	0xbe1b8897	-0.15188824
175	0xbd7e12bb	-0.06202958
176	0xbd3df59c	-0.04637681
177	0x3b9d788a	0.004805629
178	0xbe3a57cf	-0.18197559
179	0xbe2689a4	-0.16263443
180	0x3ddeea4c	0.10884532
181	0x3d5c5dff	0.05380058
182	0xbe0b89b9	-0.13626756
183	0xbe392b10	-0.18082833
184	0xbd74a451	-0.059727017
185	0x3da3b38d	0.07993231
186	0xbe0bef75	-0.13665564
187	0xbd1b5528	-0.03792301
188	0x3df4f915	0.11961571
189	0x3e32ccbe	0.17460915
190	0xbc85f88d	-0.01635387
191	0xbe561b63	-0.20908885

bias f4 [8]
0	0xbd4377bb	-0.047721606
1	0xbe7a4493	-0.24440221
2	0xbdd3efde	-0.103484854
3	0xbda6a142	-0.08136226
4	0xbd1d1638	-0.038351268
5	0xbe821214	-0.25404418
6	0x3d5a7b52	0.053340264
7	0xbbc4df73	-0.0060080825

weight f4 [8, 24, 1]
0	0x3fa52e60	1.2904778
1	0x3d05f70e	0.032706313
2	0x3f6fa75f	0.93614763
3	0xbe8b4783	-0.27202997
4	0xbe2b6e31	-0.16741253
5	0x3f7ca8ad	0.9869488
6	0x3bdb1540	0.006685883
7	0xbf3910ef	-0.72291464
8	0xbe0181cc	-0.1264717
9	0xbe37f48f	-0.17964385
10	0xbee85afe	-0.45381922
11	0xbf005a80	-0.5013809
12	0xbea28ece	-0.31749576
13	0xbe712bbb	-0.23551838
14	0xbe89cdad	-0.2691473
15	0xbf19cf03	-0.600815
16	0xbf4021b8	-0.7505145
17	0xbe0b3248	-0.135934
18	0xbe1f66ae	-0.15566513
19	0x3eaaa3c0	0.33328056
20	0xbec2c205	-0.3803865
21	0x3e2d0ea1	0.16900112
22	0xbe172b26	-0.14762554
23	0xbd973d82	-0.073847786
24	0x3ec663eb	0.38748106
25	0xbd7e217b	-0.06204365
26	0x3f634f6f	0.8879308
27	0xbe57be2c	-0.21068639
28	0xbd89b34e	-0.06723653
29	0xbe241777	-0.16024576
30	0x3e2a6dea	0.16643491
31	0xbf4449f6	-0.76675355
32	0xbe7a548f	-0.24446319
33	0x3e12e8df	0.14346646
34	0xbecb1c19	-0.39669874
35	0xbe7392ef	-0.2378652
36	0xbd2a7ef6	-0.041624986
37	0xbe34c44b	-0.17653005
38	0xbd914148	-0.070925295
39	0xbf2a7320	-0.66581917
40	0xbce147a1	-0.027499976
41	0xbd772da7	-0.06034627
42	0x3d269435	0.040668685
43	0xbebd79c4	-0.37006962
44	0xb9c4f15b	-0.00037563857
45	0xbe668f0a	-0.22515503
46	0xbdcd6f36	-0.100309774
47	0xbe40b810	-0.18820214
48	0xbcc668a7	-0.024219824
49	0xbda7b11a	-0.08188076
50	0xbcf16d01	-0.029470922
51	0x36ba3889	5.5498135e-06
52	0xbe2a8ce0	-0.16655302
53	0xbc5d28bc	-0.013498481
54	0x3bea8a06	0.007157567
55	0xbb3a4ce9	-0.002842719
56	0x3c89e5c0	0.016833186
57	0x3e26ddc6	0.16295537
58	0x3dc172f6	0.09445755
59	0x3ceaeeb6	0.02867828
60	0xbe0c1250	-0.1367886
61	0x3dbe96b6	0.093060896
62	0x3de0a111	0.10968221
63	0xbd12098c	-0.035653636
64	0xbd93faa5	-0.07225541
65	0xbe0a4b3d	-0.13505264
66	0xbd3cccda	-0.0460938
67	0x3d5d56c4	0.054037824
68	0x3d5c9671	0.05385441
69	0x3e06c337	0.13160406
70	0x3dbd6b79	0.092490144
71	0x3ccc385a	0.024929214
72	0xbcb2ed74	-0.021841742
73	0xbdf025f8	-0.11725992
74	0x3cb25a5c	0.021771602
75	0xbb006d8a	-0.001959654
76	0x3cc4f55d	0.02404278
77	0x3b1854d8	0.002324393
78	0xbe2c3d9e	-0.1682038
79	0xbb181c12	-0.002321009
80	0xbd4ad5a8	-0.049520165
81	0xbda29483	-0.079384826
82	0x3c91f0e1	0.017815055
83	0xbd57ba0f	-0.052667674
84	0x3cb0c1aa	0.021576721
85	0x3d97fb8f	0.07421028
86	0xbd3cf9fa	-0.046136834
87	0x3b245c25	0.0025079336
88	0x3d4bd1fb	0.0497608
89	0x3cd702e3	0.026246494
90	0xbd132747	-0.03592613
91	0xbbabfcc5	-0.0052486383
92	0xbe29f830	-0.16598582
93	0x3e2281eb	0.15869872
94	0x3d9db856	0.07701175
95	0xbd1d1396	-0.038348757
96	0xbdaecb96	-0.08534925
97	0x3de6cadf	0.11269163
98	0xbba4beaa	-0.0050276117
99	0xbc8f26f8	-0.017474636
100	0xbda06041	-0.07830859
101	0xbd8b7097	-0.06808584
102	0x3e27aadb	0.1637377
103	0xbd112008	-0.035430938
104	0x3dedc08a	0.116089895
105	0x3d09dd0a	0.033658065
106	0xbbd77e87	-0.0065763625
107	0x3d775960	0.06038797
108	0xbe15b968	-0.14621508
109	0x3d95ea6e	0.073201045
110	0x3bb30072	0.0054626996
111	0xbcdf204b	-0.027237078
112	0x3dad3700	0.08457756
113	0x3e405674	0.18782979
114	0xbd58c72f	-0.05292433
115	0x3cab5d54	0.020918526
116	0xbd121523	-0.03566469
117	0x3db315fc	0.087444276
118	0x3d872435	0.06598703
119	0x3e1cbca9	0.15306343
120	0x3d733e13	0.05938537
121	0x3d7cc5ca	0.061712064
122	0x3da98e94	0.08279148
123	0x3fc1f6b4	1.5153413
124	0xbe057369	-0.13032307
125	0x3d9e062e	0.077160224
126	0x3d3979c2	0.045282133
127	0xbf13e0eb	-0.5776507
128	0xbd5614d6	-0.052265964
129	0xbda2c6ae	-0.079480514
130	0x3c38d415	0.011281033
131	0xbea2dd1e	-0.31809324
132	0x3a1916fe	0.0005839913
133	0xbdbea0f0	-0.0930804
134	0x3e02cdfc	0.1277389
135	0xbf6ffe01	-0.93746954
136	0xbdaa2c8a	-0.083092764
137	0xbc153f8b	-0.009109388
138	0xbd5a7568	-0.053334624
139	0xbb8da24b	-0.0043223253
140	0x3de4d730	0.11173856
141	0x3cdc6ef3	0.026908373
142	0xbc91bf3d	-0.017791385
143	0x3c9c15b0	0.01905331
144	0x3a2d1040	0.00066018477
145	0xbe0e480c	-0.13894671
146	0x3aaed932	0.0013339876
147	0x3cc13d8b	0.023588916
148	0xbdc57eb2	-0.09643306
149	0x3e0b545b	0.13606398
150	0x3d8b2d11	0.06795705
151	0x3e28f606	0.165001
152	0x3cefffe0	0.029296815
153	0xbe3f7b95	-0.18699487
154	0xbd7b2036	-0.061310016
155	0x3d8c772e	0.06858669
156	0xbdfc6852	-0.12324585
157	0xbde1925b	-0.11014243
158	0x3e822037	0.25415203
159	0x3e50738a	0.20356575
160	0xbc2a9d82	-0.010413529
161	0xbddd849f	-0.10816311
162	0x3e09c126	0.13452587
163	0x3e141f66	0.14465103
164	0x3dd87454	0.10569063
165	0x3e1f87af	0.15579103
166	0x3e0431a8	0.12909567
167	0xbcefc62f	-0.029269306
168	0xbe458b41	-0.19291402
169	0x3d791c52	0.060818024
170	0xbdb995ed	-0.09061799
171	0x3df9ffc7	0.12206989
172	0x3d8967fd	0.06709287
173	0x3d585f1a	0.05282507
174	0xbdf6056a	-0.120127514
175	0x3ec10049	0.3769553
176	0xbc41029a	-0.011780405
177	0x3d2f7ba9	0.04284254
178	0x3d36fd3d	0.0446751
179	0x3bd2b496	0.006430219
180	0xbd8dca99	-0.06923408
181	0xbd5f420f	-0.054506358
182	0x3db9ab5a	0.09065886
183	0xbe3d7368	-0.18501055
184	0xbdae7e9c	-0.085202426
185	0x3d558a1d	0.05213367
186	0x3e23e158	0.1600393
187	0x3d9b6acb	0.075887285
188	0xbd9afe98	-0.07568091
189	0xbdc0326b	-0.093846165
190	0xbdd842df	-0.1055963
191	0x3dacf1e0	0.084445715

bias f4 [8]
0	0x3f50323d	0.8132666
1	0x402d2e0c	2.7059355
2	0xba55128f	-0.00081280706
3	0xb90ebe17	-0.0001361299
4	0x3d4a3ae0	0.049372554
5	0x3fec3940	1.8454971
6	0x40000d4c	2.0008116
7	0xbd8e6629	-0.06953079
