Masterarbeit_YorickLALY/Code_and_Neural_Network/CNN_window_size_66_booleanScaler.pt (torch, 10191 bytes, 12 tensors)

weight f4 [8, 8, 3]
0	0xbe2573a0	-0.16157389
1	0x3e0da437	0.13832174
2	0x3d2de92a	0.04245869
3	0x3e0ecda1	0.13945629
4	0x3e13ad43	0.14421563
5	0xbd5e4316	-0.054263197
6	0x3e0c4c30	0.13700938
7	0x3e220544	0.15822321
8	0xbe1fee2d	-0.156182
9	0x3d85c788	0.06532198
10	0xbe3e1ca7	-0.18565618
11	0x3db1f61c	0.0868952
12	0xbdc3ea5a	-0.095661834
13	0x3da597c1	0.080855854
14	0xba36afcb	-0.0006968944
15	0xbe4bcb1f	-0.19901703
16	0xbd66ba88	-0.056330234
17	0x3d5c2e8f	0.05375534
18	0xbba1cd45	-0.0049378
19	0xbda78d49	-0.08181245
20	0xbc851d94	-0.016249456
21	0xbdf4e11b	-0.11956998
22	0x3dda1d20	0.106500864
23	0x3dbe40b0	0.09289682
24	0xbd13ac91	-0.036053244
25	0x3d217291	0.0394159
26	0x3d23fbac	0.040034935
27	0x3d5d91bc	0.05409406
28	0xbd9ccb19	-0.07655925
29	0xbe3f4b3c	-0.18681043
30	0xbce495b0	-0.027903408
31	0xbd1b0ce4	-0.03785409
32	0x3cc50ad8	0.024053022
33	0x3d9902b0	0.07471216
34	0x3d62d910	0.05538279
35	0x3e04dec4	0.12975603
36	0x3d93fbbd	0.0722575
37	0xbcaebe6a	-0.02133103
38	0xbcec7900	-0.028866291
39	0xbe0398c1	-0.1285124
40	0xbd6c5ebb	-0.05770753
41	0xbcc665d9	-0.024218487
42	0x3e0997cd	0.13436814
43	0x3d352862	0.044227965
44	0xbd64e977	-0.055886712
45	0xbe2abe41	-0.16674139
46	0x3d49495e	0.049142234
47	0x3d721e75	0.059111077
48	0xbd8cc2be	-0.068730816
49	0xbd69c8e1	-0.05707634
50	0x3c9c85a6	0.019106697
51	0xbe16a9e2	-0.14713243
52	0x3dee7886	0.11644082
53	0xbe206265	-0.15662535
54	0x3df4f660	0.11961055
55	0xbd58dfa0	-0.05294764
56	0xbce04db8	-0.02738081
57	0x3e380f4a	0.17974582
58	0x3e14e5e0	0.14540815
59	0x3c9067c0	0.017627597
60	0x3bc627c0	0.006047219
61	0x3d9301a8	0.0717805
62	0x3dd18748	0.10230881
63	0x3dcf1a5d	0.1011245
64	0xbdfd9084	-0.1238108
65	0xbd9d8561	-0.07691456
66	0xbe25a3bd	-0.16175742
67	0xbe066d33	-0.13127594
68	0x3e0baeff	0.13640974
69	0x3de2fad4	0.11082998
70	0xbdaab06c	-0.08334431
71	0x3d05ebb3	0.032695483
72	0xbef5dfaf	-0.4802222
73	0xbe3223e8	-0.1739651
74	0xbe494001	-0.19653322
75	0xbe9fca38	-0.31208968
76	0xbd1c7c3d	-0.03820442
77	0xbe02a392	-0.1275771
78	0x3e423434	0.18965226
79	0xbe04f820	-0.12985277
80	0x3e29744c	0.1654827
81	0x3d83b6bc	0.06431338
82	0xbe0f6156	-0.14001974
83	0x3e4f80ee	0.20264027
84	0x3f473867	0.7782044
85	0x3f224a14	0.63394284
86	0x3e8ac6d6	0.27104825
87	0x3ec11c48	0.3771689
88	0x3f24dcdf	0.6439952
89	0xbe8b06e9	-0.2715371
90	0x3e2c1fa4	0.16808945
91	0x3ef058b0	0.46942663
92	0x3e8c1423	0.27359113
93	0x3eb52290	0.35377932
94	0x3f1c5b43	0.61076754
95	0x3f13eb31	0.5778075
96	0x3c3e72a7	0.011624015
97	0x3cb728e6	0.02235837
98	0x3b3359a8	0.0027366672
99	0x3d4a428e	0.049379878
100	0x3e0bdcf3	0.13658504
101	0xbc820fe1	-0.015876712
102	0xbe4e1d78	-0.20128429
103	0xbe24ef75	-0.1610697
104	0xbd657f44	-0.056029573
105	0x3c211230	0.009830996
106	0x3d976d4c	0.073938936
107	0xbdaae1dc	-0.083438605
108	0x3e19f438	0.15034568
109	0x3cd47710	0.02593568
110	0xbc9e9348	-0.019357339
111	0xbb8fd008	-0.004388813
112	0xbe4d72f1	-0.20063378
113	0xbc45f5c1	-0.012082518
114	0xbe0aaa4a	-0.13541523
115	0xbe04388a	-0.12912193
116	0xbe407bdf	-0.18797253
117	0xbc086130	-0.008323953
118	0x3e177484	0.14790541
119	0x3d95be24	0.07311657
120	0xbdd4a4fe	-0.10383032
121	0xbe8effc1	-0.279295
122	0xbe84c338	-0.2593019
123	0x3e5ddcf0	0.21666312
124	0x3e417b11	0.18894602
125	0x3f055d6e	0.5209569
126	0x3e408cd6	0.18803725
127	0x3e225216	0.15851626
128	0x3ddd7678	0.10813612
129	0x3d7fe438	0.062473506
130	0xbab4b900	-0.0013788044
131	0x3e22747c	0.15864748
132	0x3e52173d	0.20516677
133	0xbe1aecde	-0.1512942
134	0x3c966c8a	0.018362302
135	0xbed7cc75	-0.42148176
136	0xbe851e49	-0.25999668
137	0xbda2f83a	-0.07957502
138	0x3e88c313	0.2671133
139	0x3ea6efed	0.32604924
140	0x3de111ec	0.109897465
141	0x3df2e151	0.11859382
142	0x3d4b099e	0.04956972
143	0x3d9cfbad	0.07665191
144	0xbec686b4	-0.38774645
145	0xbe8f0a88	-0.27937722
146	0xbdcf72e2	-0.10129334
147	0x3e880304	0.265648
148	0x3edd75d5	0.4325396
149	0x3f1390d9	0.57642895
150	0x3d0d0bac	0.03443496
151	0x3e2239fc	0.15842432
152	0xbdcbe57e	-0.099558815
153	0x3e40e6fa	0.1883811
154	0xbd8f3320	-0.06992173
155	0x3c40b860	0.011762708
156	0x3f347a75	0.70499355
157	0x3ea1ffd9	0.3164051
158	0x3ecd4efe	0.4009933
159	0x3c53d62c	0.0129294805
160	0x3e61bf37	0.22045599
161	0x3e8f40cb	0.2797912
162	0xbef92849	-0.48663548
163	0xbe1cfc7c	-0.1533069
164	0xbc7ee99f	-0.015558629
165	0xbdf12e69	-0.1177643
166	0x3dfbde56	0.122982666
167	0x3daa145b	0.08304664
168	0x3e457e86	0.19286546
169	0x3deab7ce	0.11460839
170	0xbb303b74	-0.0026890906
171	0x3d9370e9	0.0719927
172	0xbe0c3f1b	-0.13695948
173	0x3e4545fd	0.1926498
174	0xbe491163	-0.19635539
175	0xbe325131	-0.17413785
176	0xbe44e2c7	-0.19227134
177	0xbe0a3a3c	-0.13498777
178	0xbd8e99ae	-0.06962906
179	0x3dbedcc8	0.093194544
180	0xbdd40a63	-0.103535436
181	0xbe024743	-0.12722497
182	0xbdc45028	-0.09585601
183	0xbe480c4d	-0.19535942
184	0xbd2215e1	-0.039571647
185	0xbd0828f1	-0.03324217
186	0xbdb26e43	-0.08712437
187	0x3dd0d130	0.10196149
188	0x3d993a83	0.07481863
189	0xbd98a254	-0.07452837
190	0xbd812626	-0.06306104
191	0xbe38faec	-0.18064469

bias f4 [8]
0	0xbe2e0519	-0.16994132
1	0xbe44d666	-0.19222412
2	0xbd2288f9	-0.03968141
3	0xbebb8f28	-0.36632657
4	0xba99a4de	-0.0011722108
5	0xbe072a0a	-0.1319963
6	0xbd86bbca	-0.06578787
7	0xbdbc5eda	-0.09197779

weight f4 [8, 8, 3]
0	0x3d5594f0	0.05214399
1	0x3e0cfc79	0.13768186
2	0x3cfcd6ae	0.030864086
3	0x3e0c14ca	0.13679805
4	0xbdcd8630	-0.1003536
5	0x3e20b9e2	0.15695909
6	0xbce7b9e4	-0.028286882
7	0xbe3b91e3	-0.1831737
8	0xbda8faa3	-0.0825093
9	0x3e4f4f51	0.202451
10	0x3eb1259f	0.34599015
11	0x3c13dee5	0.00902531
12	0x3e3e0662	0.18557122
13	0xbdfe1d5e	-0.12407945
14	0x3db089ed	0.08620057
15	0xbec3f295	-0.38271013
16	0xbe874972	-0.26423222
17	0x3e30f80d	0.17282124
18	0x3e4952b4	0.19660455
19	0xbc83c220	-0.016083777
20	0x3e8c0e7f	0.2735481
21	0xbe2ccdfe	-0.16875455
22	0xbe19d762	-0.15023568
23	0x3d264a11	0.04059798
24	0x3e114ba3	0.1418901
25	0xbd4cd884	-0.050011173
26	0x3d1c550b	0.03816704
27	0xbe35d6b2	-0.17757681
28	0x3d9ecdca	0.07754095
29	0xbd9eb392	-0.07749094
30	0x3de53bf0	0.11193073
31	0xbe01e62a	-0.12685457
32	0xbde2af82	-0.11068632
33	0x3c7d7f9a	0.015472317
34	0xbe60c091	-0.21948458
35	0xbd185ee6	-0.037199877
36	0xbe11d072	-0.14239672
37	0x3e1f0e1d	0.15532728
38	0x3e2b8ef4	0.16753751
39	0x3cf9a516	0.030474227
40	0x3e4030c1	0.18768598
41	0xbd0a5e63	-0.03378142
42	0xbe9df8cd	-0.30853882
43	0xbe66afe9	-0.22528042
44	0xbe3b0f2f	-0.18267511
45	0xbdf54539	-0.11976094
46	0x3e2e52c1	0.17023756
47	0x3cddcd64	0.027075477
48	0xbdd80d3b	-0.105493985
49	0x3dce45d9	0.10071916
50	0xbe32d554	-0.1746419
51	0xbdd98272	-0.106205836
52	0xbe173788	-0.14767277
53	0xbb12f9a7	-0.0022426636
54	0xbde53d22	-0.11193301
55	0xbd3871ac	-0.04503028
56	0xbe0b4b6b	-0.13602988
57	0x3f1c038c	0.6094291
58	0x3ed1a830	0.4094863
59	0x3d50aec6	0.050947927
60	0xbdca0c91	-0.09865678
61	0xbbcce2f3	-0.0062526404
62	0x3d84afcd	0.06478844
63	0xbd899472	-0.06717767
64	0xbca20267	-0.019776536
65	0x3e8565f3	0.26054344
66	0xbb4eac09	-0.0031535646
67	0xbcb0f16d	-0.021599496
68	0xbe2735a3	-0.16329055
69	0xbe0218d7	-0.12704788
70	0xbd62e443	-0.05539347
71	0xbddc3239	-0.10751767
72	0xbdb7b766	-0.08970527
73	0x3d6d8757	0.0579904
74	0xbe1a1e95	-0.15050729
75	0x3d8847c4	0.06654313
76	0x3c84f608	0.016230598
77	0x3db7b809	0.08970649
78	0x3d5e6a31	0.05430049
79	0x3c9e806c	0.019348346
80	0xbe24fcb0	-0.16112018
81	0x3d6632ef	0.056200918
82	0x3d6a9e36	0.057279788
83	0x3d5efa83	0.054438125
84	0xbd8b2c16	-0.06795518
85	0xbdf03a09	-0.11729819
86	0xbdeec4fb	-0.11658665
87	0xbc455208	-0.012043484
88	0x3e0580dd	0.13037439
89	0x3e210a78	0.1572665
90	0x3e5acf48	0.21368134
91	0x3e49c80e	0.19705221
92	0x3e631667	0.22176515
93	0x3dc61d34	0.09673539
94	0xbe20a8b3	-0.15689354
95	0xbe169585	-0.14705475
96	0x3d7241b1	0.05914468
97	0xbbb56ebb	-0.0055368817
98	0x3dc45617	0.09586733
99	0xbce108b8	-0.027469978
100	0x3c810399	0.015748786
101	0x3e0f3710	0.13985848
102	0xbd389bc0	-0.04507041
103	0xbaea6b0c	-0.0017884686
104	0x3e0bd105	0.13653953
105	0xbd44b922	-0.04802812
106	0xbd309ff1	-0.043121282
107	0xbe5116d8	-0.2041887
108	0x3dd4270d	0.10359011
109	0xbe4468cc	-0.19180602
110	0xbd937b49	-0.07201249
111	0xbe89b518	-0.26895976
112	0x3c0ffdfa	0.00878858
113	0xbdede102	-0.116151825
114	0x3e8ae4eb	0.27127776
115	0x3e0d5725	0.13802774
116	0x3debaf86	0.11508088
117	0xbdf6f2c4	-0.120580226
118	0xbe068749	-0.13137545
119	0x3d9f7fc4	0.07788041
120	0xbdf67990	-0.12034905
121	0x3c181404	0.009282116
122	0xbd48ecd2	-0.049053974
123	0xbe23f671	-0.16011979
124	0xbca468ae	-0.020069446
125	0x3cc2d0bb	0.023781171
126	0xbe13b38c	-0.1442396
127	0x3d185585	0.037190933
128	0xbe3fb131	-0.18719937
129	0xbea5019f	-0.322278
130	0x3e3d53bb	0.18488972
131	0x3e0a8913	0.13528852
132	0x3d6e93a7	0.05824628
133	0x3dd51a0c	0.10405359
134	0xbdaa0cab	-0.083031975
135	0x3d747846	0.059685014
136	0x3e2e2cca	0.17009273
137	0x3e756ac4	0.23966509
138	0xbdcc6b65	-0.099814214
139	0x3e0f6b99	0.14005889
140	0x3e1dfa6c	0.1542756
141	0x3d831c1b	0.06401845
142	0x3e3cafd1	0.18426444
143	0x3cd2e73c	0.025745027
144	0x3d5fe45e	0.054661147
145	0xbe089a07	-0.13340007
146	0x3e3549cd	0.17703934
147	0x3e44d98a	0.1922361
148	0xbdf7395b	-0.120714866
149	0xbd45780e	-0.048210196
150	0xbe0f9603	-0.14022069
151	0xbc42def8	-0.01189398
152	0x3dc4a60d	0.09601984
153	0xbe1aac4b	-0.15104787
154	0x3e3f5fe4	0.18688923
155	0x3dbf9ab7	0.093556814
156	0x3de7f5af	0.11326157
157	0xbe4a40c7	-0.19751273
158	0x3d148f6c	0.03626959
159	0xbc6bc29a	-0.014389658
160	0x3df098e3	0.11747911
161	0x3e843b8d	0.25826684
162	0x3ba90a01	0.0051586633
163	0x3e39680b	0.18106095
164	0xbdfec35d	-0.12439606
165	0xbde973cf	-0.11399042
166	0xbd9b3ee9	-0.075803585
167	0x3d8c7681	0.0685854
168	0xbe3dcb49	-0.18534578
169	0x3cbebce9	0.023283439
170	0xbdceabf2	-0.1009139
171	0x3dbd1d4d	0.09234104
172	0xbc1b27c3	-0.009469929
173	0x3d05747c	0.03258179
174	0x3e18bce4	0.14915806
175	0xbe04f3c0	-0.12983608
176	0x3d4221f2	0.047395654
177	0x3e4f4056	0.20239386
178	0x3d168ca9	0.036755238
179	0x3d049b18	0.03237447
180	0x3b81b3f2	0.0039582187
181	0x3e01fac4	0.12693316
182	0xbd06c5be	-0.032903425
183	0x3dabf514	0.08396354
184	0x3cfb167a	0.030650366
185	0x3e5d2c4a	0.21598926
186	0x3eaea9a5	0.34113804
187	0x3c6d1cff	0.014472245
188	0xbe75dd27	-0.24010144
189	0x3e2e8ee7	0.170467
190	0x3dad1ecd	0.084531404
191	0x3cd6a649	0.026202338

bias f4 [8]
0	0xbd557165	-0.052110095
1	0x3e873964	0.26410973
2	0x3d0bf028	0.034164578
3	0xbe99a6fc	-0.3001021
4	0xbdecbc24	-0.115593225
5	0xbdebd9ce	-0.11516152
6	0xbe5dcd1d	-0.21660276
7	0xbeb93d3e	-0.36179537

weight f4 [8, 8, 3]
0	0xbccfa708	-0.025348201
1	0xbede400f	-0.43408248
2	0xbe5fcff7	-0.21856676
3	0x3e4c8414	0.19972259
4	0x3d803c3f	0.06261491
5	0x3d613894	0.054985598
6	0x3e137c77	0.14402948
7	0xbeed0927	-0.46296045
8	0xbe788eba	-0.24273196
9	0x3e444962	0.19168618
10	0x3dd3145a	0.10306616
11	0x3d353a23	0.044244897
12	0xbd7ff664	-0.062490836
13	0xbe34edaf	-0.17668794
14	0xbd452b0e	-0.048136763
15	0xbe453a02	-0.1926041
16	0x3df2959e	0.118449435
17	0x3e5eab7a	0.217451
18	0xbd08c72f	-0.03339308
19	0x3e62aeef	0.22137044
20	0xbdb75ab8	-0.0895285
21	0x3e6e5d02	0.23277667
22	0x3d89993d	0.06718681
23	0xbd52efa7	-0.05149808
24	0xbe44c212	-0.19214657
25	0xbd8b822a	-0.06811936
26	0xbdaa33b9	-0.083106466
27	0xbd915549	-0.07096345
28	0xbe2ea84a	-0.17056385
29	0xbe644ca6	-0.22294864
30	0xbe9fb89f	-0.31195542
31	0xbdd5ed92	-0.104457036
32	0xbe838bae	-0.25692505
33	0x3de5689b	0.112015925
34	0x3e628956	0.22122702
35	0x3e0328c0	0.12808514
36	0xbe527043	-0.20550637
37	0x3dcd469d	0.10023234
38	0x3db68c8c	0.08913526
39	0x3e11f86d	0.14254923
40	0x3e33ddf7	0.17565142
41	0xbda68c54	-0.08132234
42	0x3dc42d3d	0.09578941
43	0x3dbd7125	0.09250096
44	0x3e058921	0.13040592
45	0x3e350c8c	0.17680568
46	0x3d16d27e	0.036821835
47	0x3e38356f	0.17989133
48	0xbe81bb77	-0.25338337
49	0xbd3e0227	-0.04638877
50	0x3d42a117	0.04751691
51	0xbcfdf9f3	-0.031002974
52	0x3dc1208e	0.094300374
53	0xbd54f509	-0.051991496
54	0xbe4c48c0	-0.19949627
55	0xbca5f421	-0.020258011
56	0xbe2fc027	-0.17163144
57	0xbdb4a539	-0.08820576
58	0x3ca8e634	0.020617582
59	0x3cb0f470	0.021600932
60	0x3deda5fe	0.11603926
61	0xbd67b3e8	-0.056568056
62	0x3d8a142c	0.06742129
63	0xbd94ef8d	-0.07272253
64	0xbdd2606c	-0.10272297
65	0xbe14ec32	-0.14543226
66	0x3e2917e3	0.16513018
67	0x3e36343b	0.17793362
68	0xbdfabd37	-0.12243121
69	0xbda9b192	-0.08285822
70	0x3e24133e	0.16022965
71	0x3d49ce16	0.049268804
72	0x3e00f2d5	0.12592633
73	0x3d7405b8	0.059575766
74	0x3be79205	0.0070669674
75	0x3dc8b05b	0.09799262
76	0xbdc713ba	-0.097205594
77	0x3e164d5c	0.14677948
78	0xbcbb4701	-0.022861006
79	0x3e4f67dd	0.20254464
80	0xbe631629	-0.22176422
81	0x3d3e5402	0.046466835
82	0xbe372ca2	-0.1788812
83	0x3e416dd5	0.18889554
84	0xbccf1962	-0.025280658
85	0x3d8a2a62	0.06746365
86	0x3db5658d	0.0885726
87	0x3e37eff1	0.17962624
88	0xbdd3e0b5	-0.10345594
89	0xbd1cd54a	-0.038289346
90	0x3dada0cc	0.08477935
91	0xbdfe9992	-0.12431635
92	0x3dea62ce	0.11444627
93	0x3e57c136	0.21069798
94	0x3e21dded	0.15807314
95	0x3da97696	0.082745716
96	0xbdf181d1	-0.11792339
97	0x3e41ec10	0.18937707
98	0x3e2da731	0.1695831
99	0xbe3696ec	-0.1783101
100	0xbe9732c2	-0.29530913
101	0xbe806d35	-0.25083318
102	0x3ddb86ae	0.107190475
103	0x3e3c7548	0.18404114
104	0x3d6c7e6b	0.05773775
105	0x3e0ebf5a	0.13940182
106	0xbdc8536f	-0.09781539
107	0x3e8dfc42	0.2773152
108	0x3d01abd5	0.031658012
109	0x3e3c48e1	0.18387176
110	0x3d1b40d3	0.037903618
111	0xbcaaad04	-0.020834453
112	0x3e65f00b	0.2245485
113	0x3d93f2c0	0.07224035
114	0x3d4453a4	0.04793133
115	0x3de4c41b	0.11170217
116	0x3d45be51	0.048277203
117	0x3e65f474	0.22456533
118	0xbe0757fd	-0.13217159
119	0x3cc919eb	0.024548491
120	0x3a7557bd	0.00093590823
121	0x3d40f501	0.047108654
122	0x3e4578ab	0.19284312
123	0x3c79dd1e	0.015250472
124	0x3d579a84	0.052637592
125	0xbe7748d0	-0.2414887
126	0xbe1094c5	-0.14119251
127	0xbe7efe60	-0.24901724
128	0xbe996eb5	-0.29967275
129	0x3d2ec52a	0.0426685
130	0x3e9d35f3	0.30705222
131	0x3ddf9516	0.10917108
132	0x3e8bc386	0.2729761
133	0x3e93c049	0.2885764
134	0x3e5c576c	0.21517724
135	0xbe829815	-0.25506654
136	0xbe4d984a	-0.20077625
137	0x3db80db6	0.0898699
138	0x3c9b858b	0.018984577
139	0xbd8c02e7	-0.06836491
140	0x3d634a20	0.055490613
141	0xbe91dd99	-0.28489378
142	0x3d8554d0	0.06510317
143	0xbd206d74	-0.039166883
144	0x3d4a60d5	0.049408752
145	0x3e4ad50c	0.19807833
146	0x3e7787a8	0.24172843
147	0xbe150448	-0.14552414
148	0xbda6cf4a	-0.08145006
149	0xbdd9364c	-0.106060594
150	0x3c542c2d	0.012949985
151	0xbeb0a322	-0.3449946
152	0xbe767991	-0.24069811
153	0xbd83c547	-0.06434112
154	0x3dc12c90	0.09432328
155	0x3d88a045	0.06671194
156	0x3cf2885b	0.029606035
157	0x3e3038a7	0.17209111
158	0x3d43eeaa	0.04783503
159	0x3cddab3b	0.027059188
160	0xbe4286b2	-0.18996695
161	0xbd9ac4b2	-0.07557048
162	0xbe219e9e	-0.15783164
163	0x3dfb9ad7	0.12285393
164	0xbe1acfa6	-0.15118274
165	0x3e0334cb	0.12813108
166	0x3d119e3d	0.0355513
167	0xbe0f466d	-0.13991709
168	0x3e048383	0.12940793
169	0x3e31573e	0.17318437
170	0xbd87a6e6	-0.0662363
171	0xbd334772	-0.043769307
172	0x3d97836c	0.073981136
173	0x3d7a931e	0.061175458
174	0x3def0c0e	0.11672221
175	0xbdf3e2cd	-0.11908493
176	0xbd9f7761	-0.077864416
177	0xbe29221c	-0.16516918
178	0x3dd614da	0.10453196
179	0x3cb11caf	0.021620123
180	0xbe463d08	-0.19359219
181	0x3e10daeb	0.1414601
182	0xbd210385	-0.039309997
183	0xbe0b1d58	-0.13585413
184	0xbe4667d0	-0.19375539
185	0x3d027ca7	0.03185716
186	0x3d75f837	0.06005117
187	0xbd32f2c0	-0.043688536
188	0xbe0ff11c	-0.1405682
189	0xbd7a99b4	-0.06118174
190	0xbdc30a0e	-0.09523402
191	0x3baed91d	0.0053359405

bias f4 [8]
0	0x3f059add	0.5218943
1	0x3de48f33	0.111601256
2	0x3e3ea837	0.18618856
3	0xbe1f9b36	-0.15586552
4	0xbe7143bb	-0.23560993
5	0xbeb12da4	-0.34605134
6	0x3e89ea91	0.26936772
7	0xbe2f86eb	-0.17141311

weight f4 [8, 8, 3]
0	0x3e45dd70	0.19322753
1	0x3ea4a192	0.32154518
2	0x3df6cbcc	0.1205059
3	0xbe89cb31	-0.26912835
4	0xbde3e797	-0.11128157
5	0xbdc56f14	-0.09640327
6	0xbe2af0b0	-0.16693377
7	0xbe01a6ab	-0.12661235
8	0xbe01381c	-0.1261906
9	0x3df8908b	0.121369444
10	0xbe766ddf	-0.2406535
11	0xbd8ec6bb	-0.069714986
12	0xbeb2403e	-0.34814638
13	0xbe3fca74	-0.18729573
14	0xbdf174cb	-0.117898546
15	0xbe55219b	-0.208136
16	0x3d81e6b3	0.063428305
17	0xbe0684ea	-0.1313664
18	0x3d0c3dfb	0.034238797
19	0xbe4e26bc	-0.20131963
20	0xbd574bcb	-0.052562516
21	0x3c8dc9f8	0.01730822
22	0x3df3596d	0.11882291
23	0x3daf1871	0.08549584
24	0x3e85b880	0.26117325
25	0x3edb9f2b	0.42894873
26	0x3e8e6b35	0.27816167
27	0x3e3d4043	0.18481545
28	0x3e6bc604	0.23024756
29	0x3da44ff8	0.08023065
30	0xbd241879	-0.0400624
31	0x3e8e1335	0.2774903
32	0xbd7b9879	-0.061424706
33	0xbde30959	-0.11085767
34	0xbe24745f	-0.16060017
35	0x3d88f392	0.06687082
36	0xbe47e322	-0.19520238
37	0xbea92332	-0.33034664
38	0xbd5340be	-0.051575415
39	0xbe3a220a	-0.18177047
40	0xbbf4be3a	-0.007468966
41	0xbdd34425	-0.10315732
42	0xbd17a9f6	-0.03702732
43	0xbd4f4ffa	-0.05061338
44	0xbe317439	-0.17329492
45	0xbcadfc68	-0.02123852
46	0x3d69ea10	0.057107985
47	0xbddedeec	-0.10882363
48	0x3d82f48b	0.06394299
49	0x3e97284f	0.2952294
50	0xbc0495f4	-0.008092392
51	0xbe0a17bd	-0.13485618
52	0xbc47ab61	-0.012186856
53	0xbe29406f	-0.16528486
54	0x3d59f51b	0.053212266
55	0x3e342dd2	0.17595604
56	0x3d479b1d	0.048731912
57	0x3e15809b	0.1459984
58	0x3e5e7307	0.21723567
59	0x396b39a3	0.00022432818
60	0x3e39c566	0.18141708
61	0x3d4e4152	0.050355263
62	0x3e7b8108	0.2456094
63	0xbd999ba1	-0.07500387
64	0xbc7fe420	-0.015618354
65	0xbd89ceab	-0.06728872
66	0xbe45d0f9	-0.19317998
67	0x3d9a0f22	0.075224176
68	0x3db49297	0.08817022
69	0x3cf38a01	0.029728891
70	0x3da46b4d	0.080282785
71	0xbb8ea1bd	-0.004352777
72	0xbd8470fa	-0.06466861
73	0xbe0fb317	-0.14033161
74	0x3d125616	0.03572663
75	0xbe25eec2	-0.1620436
76	0xbdbecc7a	-0.093163446
77	0xbe4eb1b2	-0.20184973
78	0xbe0e6913	-0.1390727
79	0xbce61d2a	-0.028090078
80	0xbddac0db	-0.106813155
81	0xbe0c8cf1	-0.1372564
82	0x3dd4c592	0.10389246
83	0x3e337b10	0.17527413
84	0x3e132cf8	0.14372623
85	0x3e05b20c	0.130562
86	0xbe03d7f2	-0.12875345
87	0xbdba674f	-0.09101736
88	0x3dcd1686	0.10014062
89	0x3db3a6f6	0.0877208
90	0x3dd969c8	0.10615879
91	0xbe1a7bad	-0.15086241
92	0xbe0d9bb0	-0.13828921
93	0xbd88e593	-0.06684413
94	0xbd89a7eb	-0.06721481
95	0x3dbf0ae1	0.09328247
96	0xbdd51ce2	-0.104058996
97	0xbe3b019d	-0.18262334
98	0xbdbdcb86	-0.09267335
99	0x3dde088a	0.108414724
100	0x3dc1839e	0.09448932
101	0x3cec2c0a	0.028829593
102	0x3d8b210e	0.06793414
103	0xbbc75362	-0.006082938
104	0xbdea1582	-0.114298835
105	0xbe257be3	-0.1616054
106	0x3db9140b	0.09037026
107	0x3d3f31a0	0.046678185
108	0xbe447c59	-0.1918806
109	0xbdb3f87e	-0.087876305
110	0xbe23c320	-0.15992403
111	0x3db5362b	0.08848222
112	0xbdda6e7e	-0.10665606
113	0xbdbe77ad	-0.0930017
114	0x3c2e5eef	0.010642751
115	0xbe025c9a	-0.12730637
116	0xbe0664ce	-0.13124391
117	0xbdb96ad0	-0.09053576
118	0x3e085c24	0.13316399
119	0x3d0c4681	0.034246925
120	0xbdaa8bdb	-0.083274566
121	0x3d904803	0.07044985
122	0x3e3a88af	0.18216203
123	0xbd713cc6	-0.05889585
124	0xbb8873ce	-0.0041641956
125	0xbdd96bc5	-0.106162585
126	0xbb976e9f	-0.0046213414
127	0x3c3d9248	0.011570521
128	0x3e3b85d0	0.18312764
129	0x3e198764	0.14993054
130	0x3c06bdd2	0.008223968
131	0xbe0d8180	-0.13818932
132	0x3c1bedb1	0.009517119
133	0x3d4e09ef	0.050302442
134	0xbd5e28b3	-0.054238033
135	0xbe2eb7e5	-0.17062338
136	0xbe389300	-0.18024826
137	0x3b8dea74	0.0043309275
138	0xbdc55c57	-0.09636753
139	0x3d5a9ed4	0.053374127
140	0x3dbb8cf3	0.09157743
141	0xbd2836f8	-0.041068047
142	0x3d3225c8	0.043493062
143	0xbb2c3800	-0.0026278496
144	0xbdc1688e	-0.0944377
145	0xbe4aa198	-0.19788206
146	0xbe1bad94	-0.15202934
147	0x3e310489	0.17286886
148	0x3e341fea	0.17590299
149	0x3d265e35	0.040617187
150	0xbcc92aab	-0.024556478
151	0xbe331d88	-0.17491734
152	0xbe1a9b75	-0.15098365
153	0xbddbd249	-0.10733468
154	0x3cda1c37	0.026624782
155	0xbde8219d	-0.11334536
156	0x3d265da0	0.04061663
157	0xbcdaf6cf	-0.026729016
158	0xbd9a3afe	-0.07530783
159	0xbdd634a0	-0.10459256
160	0xbba3f520	-0.0050035864
161	0x3e3c207e	0.1837177
162	0xbde40baa	-0.11135037
163	0xbcca8252	-0.024720345
164	0x3dc63edf	0.096799605
165	0xbe277a3e	-0.16355225
166	0x3e403508	0.1877023
167	0xbe30bca9	-0.17259468
168	0x3e8079f4	0.25093043
169	0x3db33613	0.08750548
170	0x3d5409ea	0.051767267
171	0xbe111dfe	-0.14171597
172	0x3a86f7b6	0.0010297212
173	0xbe1bc787	-0.15212832
174	0xbda959bf	-0.08269071
175	0xbda98e46	-0.0827909
176	0x3e40a0fd	0.18811412
177	0x3d32ddc6	0.04366853
178	0x3d336983	0.043801796
179	0xbd36985c	-0.044578895
180	0xbe59a483	-0.21254162
181	0xbed93dea	-0.4243005
182	0x3d366ce0	0.044537425
183	0xbdec32ec	-0.1153315
184	0x3dfbd757	0.12296932
185	0x3c6cde1f	0.014457255
186	0x3e0d1f9a	0.13781586
187	0x3cbf26b7	0.02333389
188	0x3e6df14f	0.23236583
189	0xbe141aa9	-0.14463295
190	0x3deaa288	0.114567816
191	0x3db16229	0.08661301

bias f4 [8]
0	0xbd5af81d	-0.053459276
1	0xbe814835	-0.25250402
2	0xbe9eba13	-0.31001338
3	0xbe17f2a5	-0.14838655
4	0x3e8a4a63	0.27009878
5	0xbe4b020f	-0.19825004
6	0xbe3bcc1b	-0.18339579
7	0xbd5350e3	-0.05159081

weight f4 [8, 8, 3]
0	0xbe41acc7	-0.18913566
1	0xbcee9098	-0.029121682
2	0x3dc36b58	0.095419586
3	0x3d582368	0.05276814
4	0x3df29f7c	0.118468255
5	0xbc050019	-0.008117699
6	0x3d49647b	0.04916809
7	0xbd18f1bb	-0.037339907
8	0xbddfcdce	-0.10927926
9	0xbc492d76	-0.012278905
10	0xbd9f9ab8	-0.07793182
11	0x3e25949c	0.16169971
12	0x3e29a6b1	0.16567494
13	0x3e0faea5	0.14031465
14	0x3cfa8e23	0.030585354
15	0xbdc01823	-0.09379604
16	0xbd870dd3	-0.06594434
17	0x3d7685e7	0.060186293
18	0xbd7465bc	-0.059667334
19	0x3e10c274	0.14136678
20	0xbe3847aa	-0.17996088
21	0x3daa3e29	0.08312637
22	0xbe3202c3	-0.17383866
23	0x3e4230d7	0.18963943
24	0x3c8f465c	0.017489605
25	0x3dbd18ae	0.09233223
26	0xbba9b18a	-0.005178635
27	0x3e139608	0.14412701
28	0x3e2048a2	0.15652707
29	0x3e0656d6	0.13119063
30	0xbdd3ece1	-0.103479154
31	0xbdb284d9	-0.08716745
32	0x3e27d4ea	0.16389814
33	0xbdb0a89b	-0.08625909
34	0x3e3ed354	0.18635303
35	0xbe46188e	-0.19345304
36	0x3e04e071	0.12976243
37	0xbda1d22b	-0.079014145
38	0x3e0b5595	0.13606866
39	0xbd26bb86	-0.04070618
40	0x3e0b51cf	0.13605426
41	0xbcb25ee0	-0.021773756
42	0x3d9dd66c	0.07706913
43	0xbdb94364	-0.09046057
44	0xbe18ab58	-0.14909112
45	0x3cc98dfc	0.024603836
46	0xbbea1c93	-0.0071445196
47	0x3e2726f8	0.16323459
48	0x3d431a3e	0.04763245
49	0x3e3f27d8	0.18667543
50	0xbdeccc8c	-0.11562452
51	0x3e1f0933	0.15530853
52	0x3e394fb3	0.18096809
53	0x3e5a0d2b	0.21294086
54	0x3e18fbef	0.14939855
55	0x3e6b1a73	0.22959308
56	0x3d0699bc	0.032861456
57	0x3e083297	0.13300548
58	0x3e24c65d	0.16091295
59	0xbd9f03d4	-0.07764402
60	0x3df477da	0.11936922
61	0xbe1e6f59	-0.15472163
62	0x3ddc78f4	0.107652575
63	0xbe27ecba	-0.16398898
64	0xbdb750b5	-0.089509405
65	0xbd96d588	-0.073649466
66	0xbe29eb92	-0.16593769
67	0xbdfe5d26	-0.124201104
68	0xbe143064	-0.14471585
69	0x3e8795b8	0.26481414
70	0xbdd92735	-0.10603181
71	0xbdcb2838	-0.099197805
72	0x3db520ae	0.08844124
73	0xbce37b59	-0.027768778
74	0xbe80f04c	-0.25183332
75	0xbe937afb	-0.28804764
76	0xbe85e8bb	-0.26154122
77	0x3cfaba1e	0.030606326
78	0xbbf69168	-0.007524658
79	0x3de407e3	0.11134317
80	0x3e28cd06	0.1648446
81	0x3e557341	0.20844747
82	0xbe25bccd	-0.16185303
83	0xbe3abb5d	-0.18235536
84	0x3dce77da	0.100814536
85	0x3cd05c36	0.025434595
86	0x3cc87534	0.02446995
87	0x3db20d7d	0.08693979
88	0x3dd44553	0.10364785
89	0xbd9aae69	-0.07552797
90	0xbda04a67	-0.07826691
91	0x3e2c5f6d	0.16833277
92	0x3dba9037	0.09109538
93	0x3da0c384	0.07849792
94	0x3d3d794b	0.046258252
95	0xbd422648	-0.04739979
96	0xbe06c2f7	-0.1316031
97	0xbd962c32	-0.07332648
98	0xbe1ace6e	-0.15117809
99	0x3d92581c	0.07145712
100	0xbe037f58	-0.12841547
101	0x3d835da0	0.06414342
102	0xbdbc3d46	-0.091913745
103	0x3d7b8748	0.06140831
104	0x3cd316b8	0.02576767
105	0x3da92f44	0.08260968
106	0xbde3c676	-0.11121838
107	0x3baac960	0.005211994
108	0xbe393ad3	-0.18088846
109	0x3d037204	0.032091156
110	0xbe2cbbed	-0.16868563
111	0x3dd47cc8	0.10375363
112	0xbc7585f0	-0.0149855465
113	0xbe07d13d	-0.13263412
114	0xbe2f96a8	-0.17147315
115	0xbda4e6fe	-0.08051871
116	0x3d893738	0.06699985
117	0xbdcbaacb	-0.099446855
118	0x3e44be44	0.19213206
119	0x3e331b86	0.17490968
120	0xbe432dbf	-0.1906042
121	0x3e0e2c2c	0.13884038
122	0xbb0a0905	-0.0021062505
123	0xbd9bc2f6	-0.07605545
124	0xbe1280ed	-0.14306994
125	0x3d85734b	0.06516131
126	0x3dce29f5	0.100665964
127	0xbdf5d50a	-0.120035246
128	0xbd8cabd3	-0.0686871
129	0x3d382f18	0.044966787
130	0x3d022446	0.031772874
131	0xbd9be0be	-0.076112255
132	0xbe113ff2	-0.1418455
133	0x3de37a82	0.11107351
134	0x3e0ffdd3	0.1406167
135	0xbdbcc504	-0.09217265
136	0xbe4e7eca	-0.20165554
137	0xbe373591	-0.17891528
138	0x3d920d76	0.07131474
139	0xb9bc1a08	-0.0003587755
140	0x3c467343	0.0121124415
141	0xbe0c37ec	-0.13693208
142	0x3d646e67	0.05576935
143	0x3e5f29ff	0.21793364
144	0x3dfcf0bd	0.12350605
145	0xbcfaffa2	-0.030639473
146	0x3d9525b0	0.07282579
147	0x3e1b0d04	0.15141684
148	0x3e3c0cec	0.18364304
149	0x3e356e49	0.17717852
150	0xbc6a5951	-0.014303521
151	0x3e5a6142	0.21326163
152	0x3d6eb0ad	0.05827396
153	0x3d5e88d4	0.05432971
154	0x3e060246	0.13086805
155	0xbd26dab9	-0.040735934
156	0x3d2230d2	0.03959734
157	0x3b6d0c48	0.003617065
158	0xbdc25d19	-0.09490413
159	0x3ddf327c	0.10898301
160	0x3dbae506	0.09125714
161	0x3d01c16c	0.031678602
162	0xbe278d28	-0.1636244
163	0x3e0dfbaa	0.13865533
164	0x3e01deae	0.12682602
165	0xbd3c841e	-0.046024434
166	0x3e13c86a	0.1443192
167	0xbdba798f	-0.09105217
168	0xbde2c9b1	-0.11073626
169	0x3daccc6b	0.08437427
170	0x3c41d4d0	0.011830524
171	0x3e4a444e	0.19752619
172	0xbe0b7d98	-0.13622129
173	0x3d8b789c	0.06810114
174	0xbe4f3a14	-0.20236999
175	0xbb3d90a6	-0.0028925329
176	0x3cc28cad	0.02374872
177	0x3d209bd0	0.039211094
178	0x3d623bf0	0.055232942
179	0xbd93b5d6	-0.07212417
180	0x3d0d5ddb	0.034513336
181	0xbcd58e7c	-0.026068918
182	0xbe405331	-0.18781735
183	0x3df5a906	0.11995129
184	0x3dbdbd77	0.09264653
185	0xbd12d550	-0.035847962
186	0x3c50f3e0	0.012753457
187	0x3de0ebc0	0.10982466
188	0xbdcfd7e2	-0.10148598
189	0x3e28af6f	0.16473173
190	0xbd7b369b	-0.061331373
191	0x3e4d246e	0.20033428

bias f4 [8]
0	0xbd98aa20	-0.07454324
1	0xbdd99b77	-0.10625356
2	0xbe5fb1ae	-0.21845123
3	0x3e4a9417	0.19783054
4	0xbe26bfbb	-0.16284077
5	0x3d88ed8c	0.066859335
6	0xbdf08d64	-0.11745718
7	0xbde02b11	-0.10945714

weight f4 [8, 24, 1]
0	0x3e10c9bb	0.14139454
1	0xbe849d27	-0.25901148
2	0x3e02857e	0.12746236
3	0xbe03c6a8	-0.1286875
4	0x3df86fe7	0.12130719
5	0xbeaf50d8	-0.34241366
6	0x3e921f9f	0.2853975
7	0x3dff4a57	0.12465351
8	0xbd092999	-0.033486936
9	0xbde90431	-0.113777526
10	0x3e8c97ee	0.27459663
11	0xbe377207	-0.17914592
12	0x3d451219	0.048112962
13	0x3d3cb7a7	0.046073582
14	0x3cd012e1	0.025399627
15	0x3dca7aee	0.09886728
16	0xbe5157f7	-0.20443712
17	0xbe16868a	-0.1469976
18	0xbe9b1802	-0.30291754
19	0x3c8ff806	0.017574321
20	0x3dd1abd0	0.10237849
21	0xbe0205a5	-0.12697466
22	0xbc17c091	-0.00926222
23	0xbd568098	-0.05236873
24	0x3ea7e47d	0.3279151
25	0x3e7c1dee	0.24620792
26	0xbdd98bb8	-0.10622352
27	0x3e5029c8	0.20328438
28	0x3ebfc91a	0.37458116
29	0xbec914e4	-0.3927375
30	0xbe944af2	-0.2896343
31	0xbcf42816	-0.02980427
32	0x3e6a7a93	0.22898321
33	0xbeb90010	-0.3613286
34	0xbcf498cf	-0.029858021
35	0x3c94ea2b	0.018178066
36	0x3e0b6d9f	0.13616036
37	0x3d8f7a33	0.070057295
38	0x3e4f2b28	0.20231307
39	0x3e2e8b2b	0.17045276
40	0xbc869b61	-0.016431512
41	0xbd885018	-0.06655902
42	0xbe21f7df	-0.15817212
43	0x3e234157	0.15942894
44	0xbe065d7c	-0.13121599
45	0x3db2a269	0.087223835
46	0xbe948027	-0.29004022
47	0x3e0b7d0b	0.13621919
48	0x3c9dcc83	0.019262558
49	0x3d6d22e4	0.057894602
50	0x399dfd4d	0.00030134097
51	0xbd3117d9	-0.043235634
52	0xba2002ed	-0.00061039516
53	0xbc95f7a2	-0.018306557
54	0x3bdb761a	0.0066974284
55	0x3e01b3c1	0.12666227
56	0x3c85f2c8	0.016351119
57	0xbd8cd09f	-0.06875729
58	0x3c77808d	0.0151063325
59	0x3da4a096	0.08038442
60	0x3d9b3bc9	0.075797625
61	0x3cdca02d	0.026931847
62	0x3e0457fc	0.12924188
63	0xbd1eaaa5	-0.038736958
64	0x3cd0a4c9	0.0254692
65	0xbda6ed5b	-0.08150741
66	0xbcf7b5e9	-0.030238109
67	0xbd53d7c5	-0.051719446
68	0x3e397c88	0.18113911
69	0xbe0ecc77	-0.13945185
70	0x3e2f95ae	0.17146942
71	0x3b80edbf	0.0039345915
72	0xbbaac3a0	-0.0052113086
73	0x3d4d1963	0.05007304
74	0x3baa13f2	0.005190366
75	0xbb447f8a	-0.0029983246
76	0xbb7fe146	-0.0039044186
77	0xbcdca0a1	-0.026932063
78	0x3c6ec928	0.014574327
79	0xbe39b71f	-0.18136261
80	0x3de82844	0.11335805
81	0xbd99fa9e	-0.075185046
82	0xbd298054	-0.04138215
83	0x3dfd5393	0.12369456
84	0x3c044f25	0.00807551
85	0x3e2c19de	0.16806743
86	0xbe008374	-0.12550145
87	0xbcdebf98	-0.027190968
88	0x3ddf7378	0.10910696
89	0xbde310ff	-0.11087226
90	0x3d3e6f70	0.046492994
91	0x3d75f4e1	0.060047988
92	0x3e3a8ba8	0.18217337
93	0x3df7bff4	0.12097159
94	0x3e0b4a4d	0.13602562
95	0x3b7ba329	0.0038396812
96	0xbce9ea18	-0.028554007
97	0xbd2187e3	-0.039436232
98	0x3c563c14	0.013075847
99	0x3d2933a9	0.041309033
100	0x3b89b64a	0.0042026388
101	0xbadeb8f2	-0.0016992374
102	0xbca6057c	-0.020266287
103	0x3c6d9bce	0.014502479
104	0xbc09d827	-0.008413351
105	0x3d3b66b7	0.045752253
106	0xbc22d24c	-0.009937834
107	0xbd82052b	-0.06348642
108	0x392d4dcb	0.00016527546
109	0xbdf87286	-0.121312186
110	0xbd640d4d	-0.055676747
111	0xbd0853c2	-0.033283003
112	0xbd77a0dd	-0.060456146
113	0x3e013887	0.1261922
114	0xbd8f48fb	-0.06996342
115	0xbcbca8d8	-0.02302973
116	0xbd97bf4e	-0.07409535
117	0xbdd33348	-0.103125155
118	0xbd9231e6	-0.071384236
119	0xbdb079b3	-0.08616962
120	0xbf1579d4	-0.5838902
121	0x3e4a89e2	0.1977916
122	0xbe608296	-0.21924815
123	0xbdd09934	-0.10185471
124	0xbe2da6ad	-0.16958113
125	0xbd98dd4d	-0.07464085
126	0xbd5bb01e	-0.053634755
127	0xbda77a0e	-0.08177577
128	0xbf2726b0	-0.6529341
129	0xbd3ba7b2	-0.045814224
130	0x3e821d07	0.2541277
131	0x3dd610aa	0.10452397
132	0x3e88bb16	0.26705235
133	0x3d24d89e	0.040245645
134	0x3dccb2ae	0.09995018
135	0xbef3b41e	-0.47598356
136	0x3ddcbea7	0.107785515
137	0x3d85ba63	0.06529691
138	0x3de49d9d	0.11162875
139	0x3e6b714e	0.22992441
140	0x3e1a5772	0.1507242
141	0xbe06ee85	-0.13176925
142	0x3e4124b4	0.18861657
143	0x3acd3e1f	0.0015658772
144	0x3d83c511	0.06434072
145	0x3bc7f655	0.006102363
146	0xbe3a9f5b	-0.18224852
147	0xbd024e11	-0.03181273
148	0xbcb31f42	-0.02186549
149	0xbf002e10	-0.50070286
150	0xbeb7e8fc	-0.3591994
151	0xbe2ceb68	-0.16886675
152	0x3dc5c67d	0.09656999
153	0xbdae3678	-0.08506483
154	0x3ccb5ae6	0.024823617
155	0xbdc667c9	-0.09687764
156	0x3d99949d	0.07499049
157	0xbe03f136	-0.12884983
158	0x3dde8e49	0.108669825
159	0x3e26a520	0.16273928
160	0xbd8481de	-0.06470083
161	0xbd5e10db	-0.054215293
162	0x3e657e87	0.22411548
163	0x3e946158	0.28980517
164	0x3e3d0a72	0.18461016
165	0x3e406906	0.18790063
166	0xbdfd95c4	-0.12382081
167	0x3da3f16a	0.080050305
168	0xbd841f7d	-0.064513184
169	0x3d5e9008	0.054336578
170	0xbe147676	-0.14498314
171	0x3c33f492	0.010983603
172	0xbd02eb2d	-0.031962562
173	0xbb72089c	-0.00369314
174	0xbd920658	-0.07130116
175	0x3e176b59	0.14787044
176	0xbe0a98bd	-0.13534828
177	0x3c0ed101	0.008716823
178	0x3d7ae08b	0.061249297
179	0xbe0d3983	-0.1379147
180	0xbcc700bb	-0.02429234
181	0x3d0d349a	0.034473993
182	0x3e3dc26d	0.18531199
183	0xbc11aaab	-0.008890788
184	0xbe38c76e	-0.18044826
185	0x3e145290	0.1448462
186	0x3da87cd3	0.08226933
187	0xbe837e46	-0.25682276
188	0xbe506490	-0.20350862
189	0x3de6ca2c	0.1126903
190	0x3e46fcc9	0.19432367
191	0xbe4239e8	-0.18967402

bias f4 [8]
0	0xbd882662	-0.06647946
1	0x3e853b80	0.26021957
2	0x3bc53095	0.0060177543
3	0xbcaf6de3	-0.021414703
4	0x3c895fce	0.016769316
5	0x3f814fd4	1.0102487
6	0x3f6c9097	0.92408127
7	0x3e25e8a0	0.1620202
