Masterarbeit_YorickLALY/Code_and_Neural_Network/CNN_30_MinMaxScaler.pt (torch, 10191 bytes, 12 tensors)

weight f4 [8, 8, 3]
-0.079347566 -0.064873226 0.009212796 0.19590244 -0.26023716 -0.14511389 -0.018366259 -0.17369616
-0.055690303 0.027381033 0.09049278 0.10908509 -0.13045742 -0.21010308 0.02181241 0.13713239
0.21673548 0.03691912 0.053549122 0.04415953 0.054031428 -0.100873776 -0.400979 -0.4211951
-0.19881828 0.08984428 -0.046540245 -0.19317803 -0.02774167 -0.109808154 0.038285196 0.10321656
-0.1397197 -0.1005003 0.19243392 0.16081578 0.11012892 0.12075177 0.024842769 0.033707645
-0.12403151 -0.12103215 -0.01440007 -0.11939123 0.20508817 -0.17256744 -0.16783443 -0.18575121
0.082122095 -0.12999131 0.06098761 -0.17418338 -0.19346783 0.0486331 -0.15784065 0.14929263
-0.19079618 -0.01955832 -0.14853701 0.026752844 -0.0058215307 0.0004319112 -0.14182885 -0.059432846
0.422399 -0.2750344 0.14084567 0.08311301 -0.27011922 -0.17424253 -0.09393631 0.04867084
0.038912646 -0.07085353 0.4136881 0.11725163 -0.43290955 -0.756225 -0.16849115 0.17356826
0.09458401 -0.0837783 0.07879493 -0.019565038 -0.050996583 -0.040768653 -0.029347671 0.0767741
-0.03447763 0.16343166 -0.038103312 0.11740243 0.23281212 0.07111978 -0.19491814 -0.77848154
0.08603169 -0.18984203 0.08943601 0.093040034 0.2007606 -0.1456455 -0.122672595 -0.011390996
0.051317632 -0.069195 -0.014796201 -0.13279137 0.054234326 0.10726826 0.15978459 -0.12681015
-0.12680869 0.2034617 -0.018439647 -0.13950074 -0.0086834775 -0.093390934 0.11664479 -0.1964737
-0.1574394 -0.2524996 0.053004637 0.10569745 -0.11001852 0.17068829 0.05338292 0.18204021
0.10156741 -0.0025404647 0.037379783 0.17862011 0.2124063 0.32213923 0.17270944 -0.014922792
0.38400176 0.3999681 -0.04333454 0.13756417 -0.62377894 0.19733566 0.33885673 0.11483621
0.14267896 0.27798727 0.1801062 -0.077337086 -0.008605092 0.0126140285 -0.18524468 0.07466049
-0.11385799 0.031019017 -0.081970796 -0.028066147 0.33580303 0.23511297 0.5382155 -0.0479566
0.26707938 0.49640408 0.17443392 0.023026848 -0.36715996 -0.34105352 -0.20606537 -0.25032514
-0.20154744 -0.1358807 -0.051933326 0.02447612 0.012245297 -0.14708652 -0.08754227 0.14040467
-0.17765507 0.08849513 -0.11120075 -0.086376265 0.1987155 0.24475764 0.070945606 -0.29768357
0.15083702 0.61414415 0.21459438 0.3026654 -0.08101737 0.18065055 0.072001986 0.38189504
00000000: fa80 a2bd 41dc 84bd 44f1 163c a69a 483e
00000010: ce3d 85be bc98 14be d674 96bc 68dd 31be
00000020: 841b 64bd 304e e03c 4754 b93d 0168 df3d
00000030: a196 05be 4325 57be f0af b23c 6f6c 0c3e
00000040: e8ef 5d3e 8138 173d 5356 5b3d a0e0 343d
00000050: 0f50 5d3d e996 cebd 1f4d cdbe e2a6 d7be
00000060: 0597 4bbe 4700 b83d fca0 3ebd 76d0 45be
00000070: 8042 e3bc 19e3 e0bd f0d0 1c3d 3463 d33d
00000080: ae12 0fbe 1ad3 cdbd 660d 453e e4ac 243e
00000090: 458b e13d b44c f73d 1083 cb3c 0711 0a3d
000000a0: 3b04 febd b4df f7bd 45ee 6bbc 6483 f4bd
000000b0: a202 523e 85b5 30be cadc 2bbe 9135 3ebe
000000c0: a12f a83d 711c 05be 25ce 793d 215d 32be
000000d0: 6e1c 46be 8033 473d fba0 21be 2be0 183e
000000e0: 1360 43be c538 a0bc 161a 18be c828 db3c
000000f0: 8ac2 bebb 2472 e239 953b 11be db6f 73bd
00000100: af44 d83e 4fd1 8cbe d939 103e 2737 aa3d
00000110: 114d 8abe a26c 32be ae61 c0bd 135b 473d
00000120: de62 1f3d a81b 91bd edce d33e 9f21 f03d
00000130: 52a6 ddbe f697 41bf f288 2cbe e1bb 313e
00000140: 43b5 c13d f593 abbd 3c5f a13d dc46 a0bc
00000150: cbe1 50bd 08fd 26bd 876a f0bc bd3b 9d3d
00000160: 6a38 0dbd a15a 273e 3812 1cbd af70 f03d
00000170: 4d66 6e3e 3fa7 913d 9f98 47be 914a 47bf
00000180: 6231 b03d f365 42be 3a2a b73d c68b be3d
00000190: 3094 4d3e 1824 15be c53b fbbd 4da1 3abc
000001a0: 7032 523d 1cb6 8dbd c46b 72bc 76fa 07be
000001b0: d024 5e3d 76af db3d 929e 233e 85da 01be
000001c0: 23da 01be 4458 503e be0e 97bc 48d9 0ebe
000001d0: 2545 0ebc bf43 bfbd 77e3 ee3d 6730 49be
000001e0: cb37 21be a147 81be 641b 593d e877 d83d
000001f0: 6451 e1bd e9c8 2e3e 0ca8 5a3d c068 3a3e
00000200: 9302 d03d ed7d 26bb 8b1b 193d 31e8 363e
00000210: 0981 593e 6fef a43e beda 303e ba7e 74bc
00000220: e19b c43e 9ec8 cc3e 8f7f 31bd 9fdd 0c3e
00000230: faaf 1fbf 5c12 4a3e a17e ad3e 3f2f eb3d
00000240: 6f1a 123e 5954 8e3e c26d 383e e862 9ebd
00000250: 5ffc 0cbc 12ab 4e3c c8b0 3dbe 99e7 983d
00000260: 612e e9bd 981b fe3c 4ee0 a7bd faea e5bc
00000270: 60ee ab3e 74c1 703e 7ec8 093f 246e 44bd
00000280: a1be 883e ad28 fe3e ce9e 323e cda2 bc3c
00000290: 64fc bbbe 919e aebe cd02 53be 9e2a 80be
000002a0: 7462 4ebe 4f24 0bbe 0ab8 54bd 2582 c83c
000002b0: 80a0 483c d99d 16be 5d49 b3bd 3ec6 0f3e
000002c0: 36eb 35be ef3c b53d 38bd e3bd 0ae6 b0bd
000002d0: 137c 4b3e bfa1 7a3e ee4b 913d fb69 98be
000002e0: 0575 1a3e 8d38 1d3f a1be 5b3e f6f6 9a3e
000002f0: 6fec a5bd 75fc 383e c775 933d bf87 c33e

bias f4 [8]
0.19406155 -0.11734035 -0.070571974 0.25118026 -0.19656831 -0.13044082 -0.21472284 -0.21703942
00000000: 12b8 463e 2350 f0bd 0a88 90bd b39a 803e
00000010: 3449 49be 4792 05be 4ee0 5bbe 953f 5ebe

weight f4 [8, 8, 3]
-0.12313707 -0.19149241 -0.11957396 -0.07836276 0.13440442 0.1481578 0.17106164 -0.031125635
0.0956555 0.0041648387 -0.051115893 -0.052414186 0.12665117 0.012549746 -0.0035199453 0.13323367
-0.0781135 -0.024429748 0.088322744 -0.006927279 -0.06892406 0.068583354 -0.029593915 -0.017624866
-0.1731456 0.009740085 -0.1798375 0.064142376 0.035810295 0.052332178 -0.11894159 0.016049214
0.10030102 0.091847636 -0.3358935 -0.1393864 -0.13291669 -0.056889243 -0.048938584 0.4037034
0.19371581 0.36925042 0.030612864 0.014544246 -0.2345485 -0.013022531 0.018062862 0.17895581
0.04116458 0.16210045 0.016275644 -0.109478116 0.032318663 0.10142676 -0.02778059 0.19399822
0.14969732 -0.17754199 -0.13177991 -0.4422904 0.11549773 0.07134365 -0.038273938 -0.06976486
0.015591749 0.118921556 -0.0001544135 0.22223288 0.117663026 0.11549198 0.16074546 0.16607338
-0.018471178 0.087596305 -0.10729269 0.035407674 -0.04148961 -0.082826555 -0.19923876 0.057492107
0.058074906 -0.064809576 0.089893915 0.2261599 0.18229523 0.13769974 0.18073829 0.111330956
-0.17772825 -0.14312647 -0.14845015 0.09623143 0.036946457 -0.07976766 -0.01914521 0.042965528
-0.050769377 0.06694337 0.32697782 -0.20229794 0.17490572 -0.022548603 0.040489968 -0.26678815
-0.1312113 -0.036542904 0.28234652 0.08106524 0.15280777 -0.15377079 0.058421817 0.23774473
-0.28371242 -0.4916298 0.18617335 -0.20973526 -0.5410837 -0.15299933 0.09072855 -0.5884366
-0.2581243 0.08538689 0.39291656 -0.060244646 0.12024673 0.19556409 -0.18845288 0.23124707
0.2864755 0.095820874 0.45727023 0.8538071 -0.11000936 -0.19555043 -0.006133731 0.029629903
0.2263716 0.03667511 -0.03135849 -0.25505504 -0.17674567 -0.00095588475 -0.12719855 0.04124333
-0.23515712 0.06775896 0.17009547 0.17005481 -0.16847962 -0.09690424 0.047505915 -0.0474133
-0.10026352 -0.2238269 -0.151916 -0.12958963 0.13002118 0.08414815 0.054436773 0.27255955
-0.08088805 -0.034149777 -0.21691567 -0.13188848 -0.069659546 0.16163084 0.27276343 0.09586705
0.15746473 -0.09573003 -0.009364677 0.1742435 -0.017779803 0.119757056 -0.17707758 -0.087155655
-0.074500285 0.10786484 -0.28395188 -0.23832056 0.0060692066 -0.057978388 0.00018978603 -0.18700525
0.081569515 0.178178 -0.14662386 -0.26156816 -0.19411674 0.06637329 0.28889707 0.28893045
00000000: 4a2f fcbd 9616 44be 31e3 f4bd a87c a0bd
00000010: 50a1 093e aeb6 173e c82a 2f3e 30fb febc
00000020: 08e7 c33d 3379 883b e65e 51bd 42b0 56bd
00000030: d8b0 013e 739d 4d3c e2ae 66bb 686e 083e
00000040: f8f9 9fbd e520 c8bc 8ee2 b43d 3afe e2bb
00000050: 0f28 8dbd 6e75 8c3d f06e f2bc 0662 90bc
00000060: 154d 31be e194 1f3c 5227 38be 145d 833d
00000070: d1ad 123d 445a 563d a697 f3bd a479 833c
00000080: 9f6a cd3d 9d1a bc3d 3cfa abbe 4fbb 0ebe
00000090: 501b 08be b204 69bd d373 48bd 36b2 ce3e
000000a0: 705d 463e 640e bd3e d4c7 fa3c fd4a 6e3c
000000b0: 7b2d 70be 745c 55bc 91f8 933c 3140 373e
000000c0: 319c 283d a9fd 253e 8054 853c 1036 e0bd
000000d0: 9360 043d d5b8 cf3d 1f94 e3bc 78a7 463e
000000e0: 414a 193e 91cd 35be 50f1 06be e373 e2be
000000f0: 138a ec3d 9f1c 923d 22c5 1cbd e1e0 8ebd
00000100: 8974 7f3c 258d f33d 0fea 21b9 0491 633e
00000110: 50f9 f03d 0f87 ec3d 759a 243e 240f 2a3e
00000120: de50 97bc b165 b33d 45bc dbbd a307 113d
00000130: 02f1 29bd f8a0 a9bd 3f05 4cbe d87c 6b3d
00000140: f4df 6d3d e2ba 84bd 4d1a b83d 7696 673e
00000150: 9aab 3a3e 2901 0d3e 7513 393e 7c01 e43d
00000160: 65fe 35be bf8f 12be 5103 18be fc14 c53d
00000170: 2b55 173d 3a5d a3bd 6ad6 9cbc 9ffc 2f3d
00000180: 8df3 4fbd 9b19 893d a369 a73e 3127 4fbe
00000190: 7c1a 333e d9b7 b8bc cfd8 253d 7598 88be
000001a0: 415c 06be 03ae 15bd b98f 903e 8805 a63d
000001b0: a479 1c3e 1776 1dbe b74b 6f3d 5b73 733e
000001c0: c142 91be e7b6 fbbe 3aa4 3e3e d7c4 56be
000001d0: 7684 0abf dbab 1cbe e4cf b93d c8a3 16bf
000001e0: de28 84be 52df ae3d 5c2c c93e 17c3 76bd
000001f0: eb43 f63d f441 483e cbf9 40be 08cc 6c3e
00000200: ebac 923e bc3d c43d 531f ea3e 1a93 5a3f
00000210: 964c e1bd 5f3e 48be 77fd c8bb 69ba f23c
00000220: f5cd 673e a438 163d c371 00bd 9396 82be
00000230: d1fc 34be 5794 7aba 5640 02be c4ee 283d
00000240: 07cd 70be 36c5 8a3d 822d 2e3e d922 2e3e
00000250: ec85 2cbe bb75 c6bd 9095 423d 7334 42bd
00000260: f656 cdbd e132 65be de8f 1bbe 25b3 04be
00000270: 4624 053e de55 ac3d 18f9 5e3d ed8c 8b3e
00000280: a2a8 a5bd a3e0 0bbd 241f 5ebe c60d 07be
00000290: aaa9 8ebd 8e82 253e a6a7 8b3e f255 c43d
000002a0: 6f3e 213e 1b0e c4bd 4d6e 19bc e36c 323e
000002b0: f3a6 91bc 3043 f53d d353 35be aa7e b2bd
000002c0: 9b93 98bd 3ee8 dc3d 2462 91be 4e0a 74be
000002d0: 32e0 c63b bf7a 6dbd 4d01 4739 4e7e 3fbe
000002e0: eb0d a73d 4b74 363e 9124 16be 43ec 85be
000002f0: 8ac6 46be b8ee 873d 51ea 933e b1ee 933e

bias f4 [8]
-0.1273922 0.2361438 -0.009565197 0.021076748 0.30380738 0.24169198 0.050568607 0.26155117
00000000: 1a73 02be aecf 713e 58b7 1cbc 25a9 ac3c
00000010: a48c 9b3e 1a7e 773e 0721 4f3d 09ea 853e

weight f4 [8, 8, 3]
0.13601208 -0.10713601 -0.09829091 -0.26107672 -0.20462625 -0.18668167 -0.3279871 -0.31305772
-0.50986767 0.08588466 -0.07705671 -0.13578296 0.05202903 -0.015117012 0.7767735 -0.06438252
-0.09403649 -0.06652204 -0.07667664 0.17991985 -0.10545447 -0.028367003 0.17743583 -0.038770765
0.0869415 -0.13406795 -0.06540275 0.12618107 0.17279609 -0.22287244 0.030662766 -0.045011643
-0.22467835 0.13227503 0.031509884 -0.10524514 0.03374565 0.11611808 -0.2249372 -0.14105621
-0.22856408 -0.13122639 0.15107276 -0.09046087 -0.04519358 0.109709226 -0.16764951 -0.05518365
0.08246054 0.11879973 0.18073218 -0.14260773 -0.046261057 -0.1969209 -0.027273541 -0.07374123
0.06406445 0.0031639738 -0.058210738 0.19082698 -0.02520322 -0.2289076 -0.48540235 -0.1557273
-0.0017695621 0.48301423 0.16590191 -0.041649528 0.22639701 -0.0061593684 -0.05177424 0.072840564
0.16530478 -0.08633284 -0.0797378 0.09889087 0.15262136 0.246369 -0.005933933 -0.22646993
0.10844395 0.16716054 -0.1502452 -0.17403525 -0.22758734 0.107799366 0.10234799 -0.32191402
-0.21445285 -0.5686906 0.21317652 0.05894522 -0.2080038 0.10190819 0.25968346 0.45942444
0.07187632 -0.062074304 0.108217 -0.06076825 0.18279317 -0.18392189 0.028733416 -0.1850227
-0.15142883 -0.0048771673 0.15612492 -0.05652783 -0.02417879 0.09756299 -0.108979404 0.02009597
0.07319235 -0.17867953 -0.18053281 0.025913114 0.14282289 -0.1469814 -0.080323264 0.1267205
-0.028882205 -0.105356194 0.1775192 0.25844 0.036840368 0.4100284 -0.24737394 -0.15727575
0.017681222 0.0031767092 0.10055788 0.19563247 0.23456658 0.2408592 -0.06878693 -0.12635064
-0.34984502 0.07201577 -0.17211409 -0.29280052 -0.006009318 -0.0067527886 -0.12210575 0.08915424
-0.087308265 0.06221114 -0.066973925 -0.10751708 -0.06252265 0.09740633 0.10783101 0.2647491
0.2995918 0.0058451286 0.15310255 -0.07384325 -0.1886613 0.19518164 0.0048962305 -0.4180008
-0.5101759 -0.4514631 -0.15063244 -0.110824965 -0.2228008 -0.08675226 -0.106039524 -0.25088784
-0.08506665 -0.073145114 0.06460783 0.16770379 -0.17131454 -0.09210115 -0.11928084 -0.011002291
0.03329911 0.17665303 0.06469079 -0.011655393 0.058796518 0.13797703 -0.12228584 -0.17888497
-0.098576926 0.16984582 0.091701046 0.029605782 -0.16068909 -0.044253446 -0.1327712 -0.17195517
00000000: c046 0b3e 206a dbbd bf4c c9bd d9ab 85be
00000010: 8b89 51be 7b29 3fbe eded a7be 1a49 a0be
00000020: b086 02bf 4ce4 af3d e9cf 9dbd b00a 0bbe
00000030: 641c 553d 58ad 77bc a1da 463f fcda 83bd
00000040: 3496 c0bd b53c 88bd a408 9dbd e93c 383e
00000050: 83f8 d7bd eb61 e8bc bdb1 353e 18ce 1ebd
00000060: 630e b23d 1c49 09be e1f1 85bd 9c35 013e
00000070: 75f1 303e ac38 64be 7b30 fb3c 215e 38bd
00000080: 1512 66be 1b73 073e 8210 013d c48a d7bd
00000090: e138 0a3d 51cf ed3d f055 66be 0a71 10be
000000a0: b40c 6abe 3660 06be d1b2 1a3e 8c43 b9bd
000000b0: e71c 39bd 3baf e03d 50ac 2bbe 4008 62bd
000000c0: 12e1 a83d 464d f33d db11 393e c307 12be
000000d0: 3c7c 3dbd a2a5 49be c36c dfbc a405 97bd
000000e0: 3934 833d ac5a 4f3b 626e 6ebd 2668 433e
000000f0: fc76 cebc c166 6abe a886 f8be fa76 1fbe
00000100: a7f0 e7ba a44d f73e 31e2 293e b298 2abd
00000110: 9ed4 673e 87d4 c9bb 3a11 54bd 6f2d 953d
00000120: a845 293e 46cf b0bd 924d a3bd 4c87 ca3d
00000130: c648 1c3e 2848 7c3e 7071 c2bb bce7 67be
00000140: dd17 de3d 222c 2b3e e1d9 19be 4c36 32be
00000150: a80c 69be eac5 dc3d d39b d13d ead1 a4be
00000160: 8799 5bbe b595 11bf f24a 5a3e 8b70 713d
00000170: f3fe 54be 3eb5 d03d 3bf5 843e ae39 eb3e
00000180: e433 933d a041 7ebd e0a0 dd3d 21e8 78bd
00000190: 222e 3b3e 0556 3cbe 5762 eb3c 9776 3dbe
000001a0: 2910 1bbe a5d0 9fbb 36df 1f3e ba89 67bd
000001b0: 9912 c6bc 1bcf c73d 9830 dfbd 4ea0 a43c
000001c0: dfe5 953d c4f7 36be 98dd 38be bd47 d43c
000001d0: 2a40 123e 4b82 16be 8680 a4bd 05c3 013e
000001e0: 609a ecbc fdc4 d7bd 98c7 353e 3f52 843e
000001f0: ede5 163d 3eef d13e 984f 7dbe e50c 21be
00000200: 36d8 903c 5630 503b 4af1 cd3d e153 483e
00000210: 3932 703e cba3 763e 29e0 8cbd 1062 01be
00000220: e31e b3be 017d 933d ad3e 30be f3e9 95be
00000230: d0e9 c4bb 7f46 ddbb 9412 fabd 8096 b63d
00000240: adce b2bd 1cd1 7e3d a029 89bd ea31 dcbd
00000250: e00b 80bd f87c c73d 81d6 dc3d 328d 873e
00000260: 1964 993e 7e88 bf3b eac6 1c3e 213b 97bd
00000270: 6e30 41be b2dd 473e 8f70 a03b 3304 d6be
00000280: e39a 02bf 2c26 e7be 643f 1abe 33f8 e2bd
00000290: e525 64be 2bab b1bd 402b d9bd 5f74 80be
000002a0: 6c37 aebd 1bcd 95bd 1c51 843d 8bba 2b3e
000002b0: 146d 2fbe 879f bcbd 8349 f4bd f442 34bc
000002c0: a664 083d 88e4 343e 9b7c 843d 43f6 3ebc
000002d0: 9ed4 703d da49 0d3e 0071 fabd 9f2d 37be
000002e0: b3e2 c9bd 10ec 2d3e c2cd bb3d d387 f23c
000002f0: ae8b 24be 1a43 35bd 2cf5 07be 0415 30be

bias f4 [8]
0.31195125 0.117255315 -0.064936705 0.33319172 -0.10411605 0.06605051 0.39617106 -0.107789524
00000000: 13b8 9f3e 8e23 f03d 89fd 84bd 1b98 aa3e
00000010: cc3a d5bd 7d45 873d efd6 ca3e c1c0 dcbd

weight f4 [8, 8, 3]
0.061839003 0.19645534 0.2979341 -0.0003075209 -0.20660238 -0.02111104 -0.019782655 -0.14806773
-0.12453599 -0.23101574 -0.13593279 -0.21666057 0.0035364719 -0.12676272 -0.113481 -0.13872093
-0.21377769 -0.27459863 0.08087347 0.121917024 0.2015101 0.13674237 0.17186967 0.016934663
-0.10938473 -0.29347154 -0.03559933 0.039837953 -0.11675293 0.013894757 -0.09214302 0.05510705
0.19553342 -0.18156782 -0.19006537 -0.60778564 0.0889093 -0.125744 -0.06087625 0.06641973
0.15578316 -0.31835327 0.0837264 -0.06301519 -0.23228987 -0.108134665 0.0765605 -0.17857063
0.11817038 0.012272166 0.35331485 0.0603614 -0.1975046 0.08364949 0.105472185 0.061915822
0.16277991 -0.009540568 -0.06422414 0.11876835 0.18210396 -0.027631355 -0.11629445 -0.116198204
0.054389797 -0.17897272 -0.06096689 -0.13598801 0.05366345 0.10366567 0.011103109 0.026234714
-0.126202 -0.17613335 -0.19290215 0.14036413 0.026310228 -0.18722606 0.07522031 -0.06884778
0.120818004 0.3176297 0.2763342 0.13718696 -0.18864626 0.10627069 -0.023707509 0.07998097
-0.07821838 -0.22317666 -0.063679785 -0.20095836 -0.031609245 0.07035017 0.12058413 0.09939726
-0.21051979 -0.059211202 -0.13594475 -0.01890624 0.020601222 0.17045528 0.0096998075 -0.21746606
0.05595395 -0.20572118 -0.046275347 -0.20422293 0.12820427 0.08208668 0.0012220119 0.24348538
0.28433454 -0.05024882 0.18894188 -0.061193578 0.31197816 -0.05245436 0.14591093 -0.16706422
0.010454742 -0.114331245 -0.17367783 -0.18256249 -0.09187832 0.06399134 -0.107835375 -0.0238655
0.13683917 -0.041075017 0.011294368 -0.042768165 0.04836279 0.1494503 -0.2021018 -0.13059065
0.083714284 -0.12967613 -0.2010376 -0.0033548116 -0.071355924 -0.027555848 -0.17381817 0.046836313
0.059077594 0.5297374 0.41217053 0.18773873 -0.006209129 0.17599365 0.08843744 0.016866846
-0.08804088 -0.09694421 -0.077149786 0.07956774 -0.0836833 0.025953788 0.10725384 0.010809381
-0.21333499 -0.08688187 -0.12594321 -0.056836754 -0.042102344 -0.045665447 0.09883187 -0.008233387
-0.040763464 -0.11760704 0.18944888 -0.14084294 0.19360347 -0.113715224 -0.13000281 0.18503742
-0.1516662 0.004472885 0.09792654 -0.10639411 0.038570702 -0.14966413 -0.025977924 -0.14361168
-0.10314797 0.15397233 0.39323905 0.24580243 0.3215665 -0.13981673 -0.014073819 -0.1468493
00000000: e54a 7d3d 972b 493e d18a 983e c23a a1b9
00000010: 938f 53be 0ff1 acbc 3c0f a2bc 119f 17be
00000020: ba0c ffbd 648f 6cbe f731 0bbe 45dc 5dbe
00000030: 27c4 673b 16ce 01be ba68 e8bd dc0c 0ebe
00000040: 8ae8 5abe 3198 8cbe fda0 a53d a2af f93d
00000050: aa58 4e3e 3106 0c3e 9afe 2f3e 90ba 8a3c
00000060: 1a05 e0bd e741 96be 9ad0 11bd 1f2d 233d
00000070: 291c efbd d6a6 633c 7bb5 bcbd eeb7 613d
00000080: ea39 483e eaec 39be 7fa0 42be d797 1bbf
00000090: 1416 b63d 09c3 00be 6059 79bd 1107 883d
000000a0: 9f85 1f3e 33ff a2be bf78 ab3d 1c0e 81bd
000000b0: 65dd 6dbe b575 ddbd c0cb 9c3d 38db 36be
000000c0: 5003 f23d 3211 493c afe5 b43e 843d 773d
000000d0: a53e 4abe 6c50 ab3d cd01 d83d 729b 7d3d
000000e0: c7af 263e 0b50 1cbc f287 83bd d23c f33d
000000f0: 7679 3a3e 275b e2bc c92b eebd 53f9 edbd
00000100: d6c7 5e3d a044 37be 6bb8 79bd 7140 0bbe
00000110: 35ce 5b3d ab4e d43d d1e9 353c 2fea d63c
00000120: 193b 01be 4d5c 34be 2488 45be 9dbb 0f3e
00000130: 8c88 d73c 30b8 3fbe 1b0d 9a3d 1100 8dbd
00000140: 6e6f f73d 5ca0 a23e ad7b 8d3e bd7a 0c3e
00000150: 7c2c 41be 73a4 d93d 4036 c2bc 10cd a33d
00000160: f530 a0bd 6c88 64be 8c6a 82bd 07c8 4dbe
00000170: b278 01bd c013 903d d0f4 f63d ca90 cb3d
00000180: 8092 57be 7287 72bd 1a35 0bbe 42e1 9abc
00000190: e5c3 a83c d48b 2e3e f1eb 1e3c 6caf 5ebe
000001a0: f82f 653d 93a8 52be 388b 3dbd d11f 51be
000001b0: fb47 033e 101d a83d ea2b a03a 3b54 793e
000001c0: 4c94 913e b5d1 4dbd fb79 413e 1ea6 7abd
000001d0: 9abb 9f3e 62da 56bd ad69 153e e212 2bbe
000001e0: 5e4a 2b3c 8026 eabd 9ad8 31be a9f1 3abe
000001f0: b32a bcbd e40d 833d cbd8 dcbd 9581 c3bc
00000200: 911f 0c3e 473e 28bd 030c 393c ac2d 2fbd
00000210: 1018 463d 8009 193e c6f3 4ebe 8eb9 05be
00000220: 6572 ab3d d2c9 04be cddc 4dbe 66dc 5bbb
00000230: 0e23 92bd cdbc e1bc 64fd 31be 6fd7 3f3d
00000240: 59fb 713d df9c 073f 0408 d33e 953e 403e
00000250: f375 cbbb ae37 343e b01e b53d 572c 8a3c
00000260: c74e b4bd b08a c6bd b500 9ebd 69f4 a23d
00000270: 2662 abbd 0a9d d43c e7a7 db3d d419 313c
00000280: 7d74 5abe 1fef b1bd 42f7 00be a8cd 68bd
00000290: 8273 2cbd b10b 3bbd 5d68 ca3d 54e5 06bc
000002a0: 97f7 26bd f6db f0bd e3fe 413e 2239 10be
000002b0: fd3f 463e 87e3 e8bd 751f 05be 737a 3d3e
000002c0: 624e 1bbe 4791 923b b68d c83d 28e5 d9bd
000002d0: 50fc 1d3d 8e41 19be a8cf d4bc f10e 13be
000002e0: 3e3f d3bd ecaa 1d3e a156 c93e a2b3 7b3e
000002f0: 5da4 a43e 1e2c 0fbe e095 66bc aa5f 16be

bias f4 [8]
0.27361238 0.39162734 -0.06593901 -0.10572 0.13184714 -0.04792284 -0.0143682435 -0.5636716
00000000: ec16 8c3e 6183 c83e 080b 87bd ba83 d8bd
00000010: f002 073e bd4a 44bd c868 6bbc c84c 10bf

weight f4 [8, 8, 3]
-0.18117258 -0.41053963 -0.27742732 0.0007627348 -0.09538672 -0.31005874 -0.09174419 -0.16075517
-0.0690016 -0.21626143 -0.04106063 0.0071109487 -0.03845882 -0.30112544 0.03890093 0.1452397
-0.05731586 -0.057745643 0.10068415 0.1623034 0.0024721206 -0.2822869 -0.13869329 -0.0132309
-0.24612938 -0.15133643 0.21547656 -0.2009337 -0.06486727 -0.25506902 0.18286614 -0.056277834
0.031351395 -0.026148101 0.010653742 -0.28985444 -0.06331909 -0.23622759 -0.15293656 -0.19508141
0.11153338 -0.08851113 0.21556385 0.2022044 -0.07735446 -0.30433866 -0.17271629 -0.1768595
0.18359461 0.12795126 -0.022107959 0.018712992 -0.015074633 -0.26206756 0.13880986 0.18467617
-0.101190396 -0.16433719 -0.04750999 -0.12599982 -0.097220756 -0.08089471 -0.031832833 -0.15594614
0.20354314 0.190306 -0.0665105 -0.04205778 0.19702397 0.026054071 0.15375236 -0.19342312
-0.19312838 0.11458215 -0.00109275 0.19220397 0.19403763 0.073885314 -0.07079465 0.090591244
-0.1182946 -0.136475 -0.07856795 -0.17475474 0.08461088 -0.01783031 0.018475415 0.0032433555
-0.11537165 -0.017795078 -0.019554248 -0.21972963 -0.26668614 -0.14455682 -0.006118763 0.008836226
0.015520062 -0.136357 0.013243764 -0.25304243 0.046992067 0.03928458 0.15996769 -0.010675323
0.06088708 -0.07830835 -0.19267015 -0.22982354 -0.105870344 0.13735038 0.15246587 0.17688842
0.15070586 0.0508576 -0.15935606 0.2058057 0.16413675 -0.11796095 -0.10034354 0.0149961505
0.19054773 0.19879901 -0.19940268 -0.040358804 -0.057918053 -0.1798682 -0.09070117 0.12456685
-0.07572019 -0.035513815 0.0037919285 -0.015157699 -0.18405332 -0.017647458 0.123616606 0.050093446
-0.109440885 -0.02378955 -0.1007875 0.0013902962 -0.17420489 -0.2264834 -0.098177426 0.12748279
0.17360845 0.004657675 -0.22047618 0.087367766 0.010743866 0.025084045 -0.16744794 0.10965396
-0.08401033 0.19366741 -0.15950274 0.08479679 -0.0742794 0.16310583 0.08888574 -0.16122791
0.19997174 0.03613187 0.060411178 -0.058951948 0.025190128 -0.13867562 -0.18279636 -0.12963039
-0.15338758 0.15488806 -0.07450181 0.116556965 -0.019975297 -0.23503008 -0.036110252 -0.12440294
0.08691299 -0.1732812 0.10758516 0.03808144 -0.04780975 -0.19980355 0.1787246 -0.03528992
-0.11526173 0.17435639 0.0869784 0.071402214 -0.12056902 0.071968965 0.06161573 0.069266506
00000000: 4e85 39be 4032 d2be f40a 8ebe 44f2 473a
00000010: 1d5a c3bd 05c0 9ebe 61e4 bbbd 019d 24be
00000020: b650 8dbd a373 5dbe 312f 28bd f602 e93b
00000030: ff86 1dbd 1d2d 9abe 9556 1f3d b7b9 143e
00000040: 09c4 6abd b286 6cbd 7e33 ce3d dd32 263e
00000050: 4d03 223b e987 90be 9d05 0ebe 6bc6 58bc
00000060: 5709 7cbe f0f7 1abe e3a5 5c3e 90c1 4dbe
00000070: 22d9 84bd 6898 82be 4341 3b3e 9683 66bd
00000080: 526a 003d 8b34 d6bc 088d 2e3c cd67 94be
00000090: 70ad 81bd a5e5 71be 679b 1cbe 6cc3 47be
000000a0: 9d6b e43d 5345 b5bd c5bc 5c3e ac0e 4f3e
000000b0: 046c 9ebd 47d2 9bbe 8adc 30be a81a 35be
000000c0: 3a00 3c3e a805 033e c01b b5bc fd4b 993c
000000d0: 98fb 76bc b82d 86be 2c24 0e3e c01b 3d3e
000000e0: e93c cfbd 0248 28be d699 42bd 1906 01be
000000f0: ad1b c7bd 20ac a5bd 2563 02bd 58b0 1fbe
00000100: 9d6d 503e 93df 423e a836 88bd c744 2cbd
00000110: a7c0 493e 596f d53c 4271 1d3e b610 46be
00000120: 72c3 45be 0caa ea3d 9b3a 8fba 1ed1 443e
00000130: cdb1 463e 2f51 973d c9fc 90bd e787 b93d
00000140: 7044 f2bd 1ac0 0bbe 3ce8 a0bd e8f2 32be
00000150: 7848 ad3d df10 92bc c159 973c 7a8e 543b
00000160: f947 ecbd fcc6 91bc 3b30 a0bc ce00 61be
00000170: 168b 88be b406 14be e77f c8bb d1c5 103c
00000180: dc47 7e3c 2ba1 0bbe 5ffc 583c c78e 81be
00000190: c17a 403d dee8 203d 92ce 233e 8de7 2ebc
000001a0: bb64 793d 2160 a0bd 534b 45be dd56 6bbe
000001b0: 8dd2 d8bd 94a5 0c3e 0320 1c3e 3d22 353e
000001c0: a352 1a3e 0f50 503d 3c2e 23be bbbe 523e
000001d0: 7713 283e 8395 f1bd ea80 cdbd 6ab2 753c
000001e0: f21e 433e f891 4b3e 3730 4cbe 464f 25bd
000001f0: 7b3b 6dbd 5f2f 38be 89c1 b9bd e81c ff3d
00000200: 3013 9bbd ef76 11bd 0182 783b ff57 78bc
00000210: 7978 3cbe 6791 90bc b42a fd3d c92e 4d3d
00000220: 8b22 e0bd 4de2 c2bc ad69 cebd 993a b63a
00000230: c462 32be 44eb 67be 3f11 c9bd d98a 023e
00000240: 6ac6 313e 699f 983b 82c4 61be dfed b23d
00000250: 0a07 303c 0e7d cd3c 7977 2bbe 4192 e03d
00000260: 9c0d acbd c050 463e b054 23be f0a9 ad3d
00000270: cc1f 98bd 3705 273e ba09 b63d ee18 25be
00000280: 64c5 4c3e 03ff 133d b671 773d 9977 71bd
00000290: 875b ce3c fb00 0ebe f82e 3bbe d4bd 04be
000002a0: a211 1dbe fa9a 1e3e 6894 98bd 6bb5 ee3d
000002b0: 3ca3 a3bc baab 70be 58e8 13bd f8c6 febd
000002c0: 70ff b13d a070 31be 9c55 dc3d 49fb 1b3d
000002d0: 28d4 43bd 4d99 4cbe 9503 373e 2a8c 10bd
000002e0: 580e ecbd 7b8a 323e bb21 b23d 533b 923d
000002f0: e4ec f6bd 7764 933d c760 7c3d 99db 8d3d

bias f4 [8]
0.35935494 0.2578983 0.0653933 0.0027846023 0.10667618 -0.02577943 0.06841406 -0.0043191086
00000000: 5ffd b73e 3f0b 843e ecec 853d e07d 363b
00000010: 0b79 da3d 622f d3bc ac1c 8c3d 4f87 8dbb

weight f4 [8, 24, 1]
-0.08703226 0.16154489 -0.03599275 0.022426164 -0.084677696 -0.1195186 0.8446586 0.079025425
-0.108605675 -0.1465867 0.034771655 -0.16254212 0.14089538 -0.0025772408 -0.062257614 -0.31658152
0.005704059 0.18603368 0.0806196 0.021483663 0.18007816 -0.10240715 0.0706439 0.022129444
-0.40695584 0.32773283 0.13301942 0.44707996 -0.1003874 -0.25359815 0.42765132 -0.10400189
-0.051380794 -0.5731418 0.08015461 -0.0694845 -0.21641017 0.184987 0.114001855 -0.097051665
0.4521899 0.123699166 -0.11771693 -0.16091837 -0.11745201 -0.23696455 0.101430126 0.026809676
0.0107880235 0.11500731 -0.039462104 -0.01824737 -0.020752184 0.004882699 0.003663196 0.04115368
0.064136624 -0.031170141 0.06420282 0.03259477 -0.07231194 0.06642428 -0.042643785 -0.013797062
0.033547614 -0.050388336 -0.09835337 0.10595784 0.019600544 0.042589515 -0.17589772 0.02636017
-0.005505297 -0.09781813 0.04184067 -0.05296249 0.07391792 0.02626481 0.028872814 -0.062070765
0.073361635 0.068939336 -0.08017521 0.08420356 0.040636133 -0.026920715 -0.02477561 0.00947103
0.034683295 0.13503076 -0.08839845 -0.1462967 -0.10419671 -0.12403325 0.13597772 0.0715608
0.04551748 -0.004006326 -0.033527937 -0.09213141 -0.17155832 -0.035919916 0.0024849286 0.18747774
-0.15074475 -0.07822103 0.2174151 0.07511964 0.04078094 0.10633715 -0.08023332 -0.058197312
0.06661055 -0.022136262 0.11161245 0.050904043 0.049802925 -0.09505514 -0.13501698 0.14283465
0.5186479 0.1723396 -0.43314677 0.29901728 0.08126665 0.007826557 0.027218219 0.13357738
0.115840636 -0.27060083 0.12537028 -0.13159458 0.30794725 -0.0028429483 0.5946284 0.06000218
0.38500828 0.48489377 0.34785426 -0.3069316 0.21602221 0.019674195 -0.1000679 0.179489
0.052670296 0.0046575526 0.14572817 0.09193048 0.17709512 -0.45614156 -0.203243 -0.060272884
0.45539036 0.12864935 -0.14189756 0.10723997 0.06540838 -0.08495349 -0.12873636 0.06776198
-0.13678426 -0.15330265 0.043910425 0.03677303 0.060646284 0.16841862 0.11931697 0.25043428
0.07366098 0.052791003 0.09402142 0.025692256 0.14407067 0.07605017 -0.08018204 -0.13480873
0.10115103 -0.0065364037 -0.12516552 -0.11611715 -0.082325414 0.14544147 0.006701753 0.0980313
0.10432763 -0.18522418 0.2173406 0.09624689 -0.11487633 0.018289104 -0.008782005 -0.043747667
00000000: f83d b2bd 066c 253e 226d 13bd 13b7 b73c
00000010: 806b adbd 2bc6 f4bd 8c3b 583f 15d8 a13d
00000020: a76c debd d31a 16be b96c 0e3d 7171 26be
00000030: e146 103e ede6 28bb d701 7fbd f916 a2be
00000040: 1de9 ba3b 9d7f 3e3e e41b a53d 82fe af3c
00000050: 6966 383e d7ba d1bd c0ad 903d cf48 b53c
00000060: 845c d0be 99cc a73e 3e36 083e aae7 e43e
00000070: e997 cdbd 9ed7 81be 1df5 da3e f1fe d4bd
00000080: ab74 52bd 6cb9 12bf 1a28 a43d e44d 8ebd
00000090: a19a 5dbe 3b6d 3d3e ce79 e93d 06c3 c6bd
000000a0: 6f85 e73e fd55 fd3d 9315 f1bd c9c7 24be
000000b0: ae8a f0bd d6a6 72be 99ba cf3d f79f db3c
000000c0: 40c0 303c f488 eb3d 04a3 21bd 827b 95bc
000000d0: 7c00 aabc 0cff 9f3b 3b12 703b c390 283d
000000e0: 105a 833d 8658 ffbc c57c 833d 1882 053d
000000f0: 4818 94bd 7409 883d 40ab 2ebd 130d 62bc
00000100: 3969 093d 0064 4ebd 7e6d c9bd 6d00 d93d
00000110: 5291 a03c 5872 2e3d 881e 34be 49f1 d73c
00000120: c765 b4bb df54 c8bd 1f61 2b3d 32ef 58bd
00000130: 4762 973d 4c29 d73c ae86 ec3c ea3d 7ebd
00000140: a03e 963d 1130 8d3d e732 a4bd eb72 ac3d
00000150: 1372 263d d588 dcbc 38f6 cabc 612c 1b3c
00000160: 1210 0e3d 8145 0a3e 3f0a b5bd cdce 15be
00000170: 1665 d5bd 2505 febd be3d 0b3e 788e 923d
00000180: 8970 3a3d 8047 83bb 9754 09bd 65af bcbd
00000190: fcac 2fbe c320 13bd 2fda 223b 2afa 3f3e
000001a0: d55c 1abe 5932 a0bd 10a2 5e3e 53d8 993d
000001b0: ea09 273d 4bc7 d93d 5e51 a4bd 4e60 6ebd
000001c0: 1d6b 883d 1b57 b5bc 1195 e43d c280 503d
000001d0: 27fe 4b3d 45ac c2bd e441 0abe 3f43 123e
000001e0: 1cc6 043f cb79 303e 6ac5 ddbe cb18 993e
000001f0: 216f a63d f63a 003c bef8 de3c 82c8 083e
00000200: db3d ed3d 318c 8abe 1161 003e bbc0 06be
00000210: 43ab 9d3e c250 3abb 9139 183f d9c4 753d
00000220: ce1f c53e ff43 f83e f419 b23e 2426 9dbe
00000230: ed34 5d3e c72b a13c 66f0 ccbd f7cb 373e
00000240: cfbc 573d 629e 983b c439 153e 0c46 bc3d
00000250: 6c58 353e 638b e9be ef1e 50be b3e0 76bd
00000260: ed28 e93e a8bc 033e 984d 11be a1a0 db3d
00000270: d4f4 853d 18fc adbd 77d3 03be cbc6 8a3d
00000280: 2c11 0cbe 5ffb 1cbe 6bdb 333d 519f 163d
00000290: 3d68 783d ee75 2c3e 755c f43d ec38 803e
000002a0: 91db 963d 613b 583d 4d8e c03d 9178 d23c
000002b0: 4387 133e 31c0 9b3d 7b36 a4bd 4d0b 0abe
000002c0: 4528 cf3d 542f d6bb 642b 00be d4ce edbd
000002d0: 3a9a a8bd 9cee 143e 619a db3b a2c4 c83d
000002e0: b9a9 d53d 68ab 3dbe 898e 5e3e 171d c53d
000002f0: 4844 ebbd 08d3 953c 66e2 0fbc c130 33bd

bias f4 [8]
0.031128747 0.44603047 0.018936846 -0.03926042 0.055551276 0.4481347 0.7566271 0.065034255
00000000: b701 ff3c 1b5e e43e 7221 9b3c 89cf 20bd
00000010: bc89 633d e971 e53e 50b2 413f ae30 853d
