Masterarbeit_YorickLALY/Code_and_Neural_Network/CNN_window_size_5.pt (torch, 10191 bytes, 12 tensors)

weight f4 [8, 8, 3]
0	0xbd891db9	-0.06695122
1	0x3ec2d797	0.38055107
2	0x3e566af6	0.2093924
3	0xbd6ff401	-0.05858231
4	0xbae0f03e	-0.0017161442
5	0xbe520dca	-0.20513073
6	0xbdd45ffa	-0.103698686
7	0xbd28b3fe	-0.04118728
8	0x3df22d13	0.118250035
9	0x3e3679f3	0.17819957
10	0x3cb9f12f	0.022698013
11	0x3d16e840	0.036842585
12	0x3dfa4c8d	0.12221632
13	0x3f55e857	0.8355765
14	0x3f575b77	0.8412394
15	0x3e91a917	0.28449318
16	0xbe86f9f8	-0.26362586
17	0xbd7a1234	-0.061052516
18	0xbddd428a	-0.10803707
19	0x3e7e7410	0.24848962
20	0x3e8ee630	0.27909994
21	0xbe46d247	-0.19416152
22	0xbe856834	-0.26056063
23	0xbe249d90	-0.1607573
24	0xbe04223c	-0.12903684
25	0x3ccf1740	0.025279641
26	0xbe31073c	-0.17287916
27	0xbe1f5677	-0.15560327
28	0xbe1e904c	-0.15484732
29	0x3ef48487	0.4775736
30	0x3e20bfcc	0.15698165
31	0xbe13a3a1	-0.14417888
32	0xbb9d1e01	-0.0047948365
33	0xbdf07865	-0.117417134
34	0xbdaec552	-0.085337296
35	0x3da1eca6	0.07906465
36	0xbd7b64ff	-0.061375614
37	0x3e1adf86	0.1512433
38	0x3d1e5c2a	0.038662113
39	0x3f82757a	1.0192101
40	0xbf52506d	-0.8215397
41	0xbf806555	-1.0030924
42	0x3e134614	0.14382201
43	0x3d868af0	0.06569469
44	0x3ddf331f	0.108984224
45	0x3e1cd816	0.15316805
46	0xbf3a2c04	-0.7272341
47	0xbf156ced	-0.5836933
48	0xbeb8fc59	-0.36130026
49	0xbba3db2c	-0.0050004926
50	0xbf3fa43b	-0.7485997
51	0x3e646233	0.22303085
52	0x3ec4e646	0.38456935
53	0xbe11dc19	-0.14244117
54	0x3e005cfd	0.12535472
55	0x3db63cfc	0.088983506
56	0x3e4bd1d3	0.1990426
57	0xbe49bd1f	-0.1970105
58	0xbe145d61	-0.14488746
59	0xbe2da203	-0.16956334
60	0x3e17ba56	0.14817175
61	0x3f190d05	0.5978549
62	0x3f38752f	0.7205381
63	0xbca4f0e4	-0.020134397
64	0x3df53a16	0.1197397
65	0xbea79753	-0.3273264
66	0xbdecac92	-0.11556353
67	0x3d0b34f4	0.033986047
68	0xbee84be3	-0.45370397
69	0xbe211b55	-0.15733083
70	0xbf0e63bf	-0.5562095
71	0xbe13351f	-0.14375733
72	0xba291301	-0.000644967
73	0xbd2332ca	-0.039843358
74	0x3c4f476b	0.012651305
75	0xbd64fc86	-0.055904888
76	0xbe8a2c5f	-0.26986977
77	0xbf7bd80c	-0.98376536
78	0x3df924bf	0.12165212
79	0xbe208335	-0.15675052
80	0xbe434690	-0.19069886
81	0x3d8abbc0	0.06774092
82	0x3dd5e1f2	0.10443486
83	0xbdf9ca20	-0.121967554
84	0xbdfd6d03	-0.12374308
85	0xbe74b3a6	-0.23896655
86	0x3dcb951d	0.099405505
87	0x3d06f374	0.03294702
88	0xbec7430a	-0.38918334
89	0x3c10654b	0.008813213
90	0x3df41fa8	0.119201005
91	0x3ee2a9c3	0.44270143
92	0x3f32028f	0.69535154
93	0xbd953579	-0.0728559
94	0xbf2cc28b	-0.6748435
95	0xbfa9eaee	-1.327482
96	0x3d53a672	0.051672406
97	0xbc830b12	-0.01599649
98	0x3e0e2448	0.13881028
99	0xbe42a06c	-0.19006509
100	0xbdab82f5	-0.083745874
101	0xbcd4af78	-0.025962576
102	0x3d8e378c	0.069441885
103	0x3cf9a614	0.0304747
104	0xbce16551	-0.027514132
105	0xbcada5b0	-0.02119717
106	0x3d81b763	0.06333806
107	0xbdd1ee78	-0.102505624
108	0x3e4130a3	0.1886621
109	0xbe398bcb	-0.18119733
110	0xbdc57f92	-0.09643473
111	0xbe5622ab	-0.20911662
112	0xbdb2e31b	-0.08734723
113	0xbd3678c6	-0.044548772
114	0x3d03d1d0	0.032182515
115	0xbe11e384	-0.14246947
116	0xbd051d3c	-0.032498583
117	0xbe463a4a	-0.19358173
118	0xbd1c213c	-0.038117632
119	0x3e267cea	0.16258588
120	0xbecf3af3	-0.40474662
121	0x3cc41c3c	0.023939244
122	0x3e3bce85	0.183405
123	0xbd8186ab	-0.06324514
124	0xbc3ffd2b	-0.011718075
125	0x3e825f5a	0.25463372
126	0xbe2c2c53	-0.16813783
127	0x3daf63be	0.08563946
128	0x3d7660de	0.060150973
129	0xbdc0215e	-0.09381364
130	0xbd447a75	-0.047968347
131	0xbc588066	-0.013214206
132	0x3dd971e3	0.10617425
133	0x3e7687e4	0.24075276
134	0x3f20e158	0.6284385
135	0xbec0fe4d	-0.37694016
136	0x3da3307c	0.07968232
137	0x3e5fcc65	0.21855314
138	0x3d2ec864	0.042671576
139	0x3da44d04	0.08022502
140	0x3e8cb32d	0.2748045
141	0x3da1f5a2	0.07908179
142	0xbe37e8b1	-0.17959858
143	0xbf059f33	-0.52196044
144	0xbe1dd7bf	-0.15414332
145	0xbadf3306	-0.0017028756
146	0xbe2e5d3b	-0.17027752
147	0xbdf891a7	-0.12137156
148	0xbee6967d	-0.45036688
149	0x3e98a481	0.29813007
150	0xbdba8a9e	-0.091084704
151	0x3e03fb85	0.12888916
152	0x3d661fdf	0.05618274
153	0x3e0cf3ab	0.13764827
154	0xbd2390d0	-0.039933026
155	0xbde5fb85	-0.11229614
156	0xbbc658ff	-0.0060530896
157	0x3e8e91d6	0.2784564
158	0x3e02e4db	0.12782614
159	0xbe5f9ad9	-0.21836413
160	0xbf01a10b	-0.5063636
161	0x3f21b57c	0.6316755
162	0x3e6f6f60	0.2338233
163	0xbe1fa137	-0.15588842
164	0x3f746830	0.9547148
165	0xbec5aa78	-0.3860662
166	0xbdf20ee9	-0.1181925
167	0x3fc25b64	1.518414
168	0x3e7ca003	0.24670415
169	0x3e6dcb4a	0.2322208
170	0xbe217885	-0.15768631
171	0x3e013019	0.12616004
172	0x3d394910	0.045235693
173	0xbf256a72	-0.6461555
174	0x3da38c9c	0.079858035
175	0x3e2801e7	0.16406976
176	0x3e4734a1	0.1945367
177	0x3df08d90	0.11745751
178	0x3e365dd1	0.17809226
179	0x3da040dc	0.07824871
180	0x3c66fd50	0.01409848
181	0xbdb63e42	-0.088985935
182	0xbd9d75e4	-0.076885015
183	0xbc4652d0	-0.012104705
184	0x3e42223d	0.18958373
185	0x3e91ab1a	0.28450853
186	0xbee57aec	-0.44820344
187	0xbea5f1d3	-0.3241106
188	0xbdcb5fb7	-0.099303655
189	0xbe3f8ec5	-0.18706806
190	0xbe0a5716	-0.13509783
191	0x3cba0e43	0.022711879

bias f4 [8]
0	0xbe2d460a	-0.16921249
1	0x3f0f56db	0.55991906
2	0x3df43231	0.11923636
3	0x3e01b324	0.12665993
4	0xbde93b0e	-0.11388217
5	0xbd304d2c	-0.043042347
6	0xbe6e6aca	-0.23282924
7	0x3e8bc163	0.2729598

weight f4 [8, 8, 3]
0	0xbed5c699	-0.4175308
1	0xbf2300be	-0.6367301
2	0xbf122f66	-0.57103574
3	0x3e95d941	0.29267314
4	0x3d6e20dd	0.05813681
5	0x3e159a41	0.14609624
6	0x3e4db2cc	0.20087737
7	0x3ec2bdb2	0.3803535
8	0x3e821b9d	0.25411692
9	0xbe051018	-0.1299442
10	0xbdfbbb57	-0.122915916
11	0xbe2616d1	-0.16219641
12	0xbdb268ee	-0.0871142
13	0x3d3b3463	0.045704257
14	0xbe471eb4	-0.19445306
15	0x3db1cf4f	0.08682119
16	0x3e3b4671	0.1828859
17	0xbd87e4a7	-0.06635409
18	0xbee3548b	-0.4440044
19	0x3ce74878	0.028232798
20	0x3e306f48	0.1722995
21	0xbd68de7e	-0.05685281
22	0xbd47b3fc	-0.04875563
23	0x3d75eff3	0.060043287
24	0x3d1c990c	0.038231894
25	0xbe8e0be5	-0.2774345
26	0xbe82ee84	-0.25572598
27	0xbcfeab62	-0.031087581
28	0x3d90040e	0.07032023
29	0x3c23c72e	0.009996219
30	0xbdc5beb4	-0.09655514
31	0xbe0c248b	-0.13685815
32	0xba9efe50	-0.0012130234
33	0xbd4691b4	-0.048478797
34	0xbf013441	-0.5047036
35	0xbe680621	-0.22658588
36	0xbe1cf5f8	-0.15328205
37	0xbdaadb67	-0.08342629
38	0xbd8efb71	-0.069815524
39	0xbd89829c	-0.06714365
40	0xbd07c66d	-0.033148218
41	0xbe7d84bc	-0.24757665
42	0x3ec26080	0.3796425
43	0x3ea9c5be	0.33158678
44	0xbf269522	-0.6507131
45	0xbdec45a6	-0.11536722
46	0xbeb69e65	-0.3566772
47	0xbe7aa1d6	-0.24475798
48	0xbeba3200	-0.36366272
49	0x3c80d974	0.01572869
50	0x3e2e0e64	0.16997677
51	0x3e102d61	0.1407981
52	0x3f2a283d	0.6646765
53	0x3f04a34d	0.5181168
54	0x3e4ec384	0.20191771
55	0xbf03b0ff	-0.5144195
56	0xbe509ae2	-0.20371583
57	0x3e5acaff	0.213665
58	0x3e8bd516	0.2731101
59	0x3f3d2aa0	0.73893166
60	0x3d0d958b	0.034566443
61	0x3e0f8337	0.14014898
62	0x3e458b87	0.19291507
63	0x3d215347	0.03938606
64	0xbe145b29	-0.144879
65	0x3c2dbcd5	0.010604103
66	0xbd524173	-0.05133195
67	0xbe60eb43	-0.21964745
68	0xbf3d2177	-0.7387919
69	0x3efb3af4	0.49068415
70	0xbd0392c0	-0.032122374
71	0xbe632a10	-0.22184014
72	0x3e9a096e	0.3008532
73	0xbe7d2059	-0.24719371
74	0xbe8970a5	-0.26843753
75	0x3dcacf97	0.09902876
76	0x3ce1f99f	0.027584849
77	0xbede9a73	-0.4347721
78	0xbdf18dc1	-0.117946155
79	0x3debc30a	0.1151181
80	0xbeb7d300	-0.35903168
81	0x3dd5d6c1	0.10441352
82	0x3d6b2292	0.057406016
83	0xbf3f3be2	-0.7470075
84	0xbe07f4e8	-0.13277018
85	0x3e4ef32e	0.20209953
86	0xbe500a5c	-0.20316452
87	0xbe04f2e8	-0.12983286
88	0x3df3a159	0.11896009
89	0xbed063f2	-0.40701252
90	0x3e20ea9f	0.15714501
91	0x3e0d6a85	0.13810165
92	0x3f304880	0.68860626
93	0xbe8f9bbc	-0.28048503
94	0xbe14176f	-0.14462064
95	0xbe438757	-0.19094597
96	0x3d6e15a0	0.058126092
97	0xbd037342	-0.03209234
98	0xbeab35db	-0.33439526
99	0x3ef2d1af	0.474256
100	0x3f33298a	0.6998526
101	0x3e41d00d	0.18927021
102	0x3aa357e0	0.0012462102
103	0x3e701da3	0.23448806
104	0xbea20648	-0.31645417
105	0xbc83af73	-0.016074872
106	0x3e999500	0.2999649
107	0xbec3979f	-0.38201615
108	0xbd91419b	-0.070925914
109	0x3dfae625	0.12250928
110	0x3c91852c	0.017763697
111	0xbe3d29fb	-0.18473046
112	0xbe841e8e	-0.2580456
113	0xbd872b15	-0.06600014
114	0xbeb1902d	-0.3468031
115	0xbd8e7bb7	-0.069571905
116	0xbeab1536	-0.3341462
117	0xbe884324	-0.26613724
118	0xbc7ac317	-0.015305302
119	0xbe986cc8	-0.29770494
120	0x3e4bc825	0.19900568
121	0xbd79414a	-0.06085328
122	0xbd1c583d	-0.038170088
123	0xbe009cd4	-0.12559825
124	0x3b37a886	0.0028024032
125	0x3ea0a362	0.3137465
126	0x3cf33bc0	0.029691577
127	0x3e51e82a	0.2049872
128	0xbe08d10e	-0.13360998
129	0xbee48e44	-0.4463979
130	0xbef5ae8d	-0.47984734
131	0xbebcf7f7	-0.36907932
132	0x3e48d8c2	0.19613937
133	0x3e2fdd65	0.17174299
134	0xbceaf556	-0.028681438
135	0x3de7cc86	0.113183066
136	0x3d0cf8ce	0.034416966
137	0xbe568c0d	-0.20951863
138	0xbea1c868	-0.3159821
139	0x3ad0eeac	0.001594027
140	0xbeac83d3	-0.33694324
141	0xbebe219c	-0.37135017
142	0x3e0e4723	0.13894324
143	0xbe13b96b	-0.144262
144	0xbe11219e	-0.1417298
145	0xbd00be5f	-0.031431552
146	0xbd91e868	-0.07124406
147	0x3e34480c	0.17605609
148	0xbc94f0e5	-0.018181274
149	0x3dbdef5d	0.092741705
150	0x3d55c89e	0.052193277
151	0x3cb73836	0.02236567
152	0x3d8376dd	0.06419156
153	0xbde8d93d	-0.1136956
154	0xbca14fde	-0.019691404
155	0xbd2c3661	-0.042044047
156	0x3c936688	0.017993227
157	0xbe0756ce	-0.13216707
158	0xbe2861e1	-0.16443588
159	0xbda50397	-0.08057325
160	0xbda953bd	-0.08267925
161	0x3e2cf75b	0.16891234
162	0xbe06c436	-0.13160786
163	0xbdfc8683	-0.123303436
164	0xbdd2b872	-0.102890864
165	0xbe1d0343	-0.15333275
166	0xbe441c9d	-0.1915154
167	0x3e33e0d9	0.17566241
168	0xbd5509f5	-0.05201145
169	0xbd512808	-0.051063567
170	0x3e5b238c	0.21400279
171	0x3dbde454	0.09272066
172	0x3e87c127	0.2651455
173	0x3e35dd66	0.17760238
174	0x3ccb772b	0.024837097
175	0x3ea4ca87	0.32185766
176	0x3f066139	0.524921
177	0x3dda3a33	0.10655632
178	0xbe5a69ee	-0.21329471
179	0xbef35535	-0.47525945
180	0xbe49064f	-0.19631313
181	0x3d2edc92	0.04269082
182	0x3d4b5492	0.0496412
183	0x3db98ef8	0.09060472
184	0xbda4d548	-0.08048493
185	0x3f0fbe1f	0.56149477
186	0x3db9690e	0.09053241
187	0xbc8e6055	-0.017379919
188	0x3d03f6d1	0.032217804
189	0xbe8a838c	-0.27053487
190	0xbd2dd160	-0.042436004
191	0xbefeee8b	-0.4979137

bias f4 [8]
0	0x3f22d02c	0.63598895
1	0x3e969880	0.29413223
2	0x3e719a12	0.2359393
3	0x3e8e44e3	0.2778693
4	0x3eb49667	0.35270998
5	0x3f530cbe	0.8244132
6	0xbe2f1103	-0.17096333
7	0x3e2b685e	0.16739032

weight f4 [8, 8, 3]
0	0x3cfad108	0.030617252
1	0xbdd6dff4	-0.104919344
2	0xbdc8262c	-0.09772906
3	0x3e294c85	0.16533096
4	0x3dbda4c7	0.092599444
5	0xbdfa4c15	-0.12221543
6	0xbefdd404	-0.49575818
7	0x3e27b70b	0.16378419
8	0x3ec8596a	0.39130718
9	0x3f17b8ab	0.59266156
10	0xbebb4b5d	-0.36580935
11	0xbe4e9465	-0.20173796
12	0x3c2dcf3b	0.01060849
13	0xbd26dbd4	-0.04073699
14	0xbe84396c	-0.2582506
15	0x3de06be8	0.109580815
16	0x3ca3d6e4	0.019999929
17	0x3d5c97b4	0.053855613
18	0x3dd3f857	0.103501014
19	0x3e43bc61	0.1911483
20	0xbe261096	-0.16217265
21	0x3da592e0	0.08084655
22	0x3d665661	0.05623472
23	0x3cb37704	0.021907337
24	0xbcf17e40	-0.029479146
25	0xbdc2e9b8	-0.095172346
26	0xbe3d4bb3	-0.18485908
27	0x3e8d4c66	0.2759735
28	0x3c5e6d55	0.0135758715
29	0xbe0a3183	-0.1349545
30	0xbdd4b37f	-0.10385799
31	0xbd8c94dc	-0.0686433
32	0x3f13ec95	0.5778287
33	0xbe03c3a9	-0.12867607
34	0xbe91d039	-0.28479174
35	0xbe8a36ae	-0.26994842
36	0x3f175575	0.5911477
37	0x3f3b8d27	0.73262256
38	0xbccb0fdb	-0.024787834
39	0x3c1addf5	0.009452333
40	0x3e8a756e	0.27042717
41	0x3eab58a9	0.3346608
42	0x3de0a987	0.10969835
43	0x3d4b1113	0.04957683
44	0x3e3f0a48	0.18656266
45	0xbe0b4047	-0.13598739
46	0xbca0326f	-0.019555299
47	0x3e2ace38	0.16680229
48	0xbe64a898	-0.22329938
49	0x3d2c9f83	0.04214431
50	0xbd672a73	-0.056436967
51	0xbd7ccec3	-0.06172062
52	0x3a802482	0.0009776505
53	0xbe2c98fa	-0.16855231
54	0xbcf9191e	-0.030407485
55	0xbe239e2b	-0.15978305
56	0xbdfc186c	-0.123093456
57	0x3ddc9046	0.107697055
58	0x3d1ca350	0.038241684
59	0x3db1127a	0.08646102
60	0x3e0b52eb	0.1360585
61	0x3dae5a07	0.08513265
62	0xbcf7046f	-0.030153481
63	0xbe424da9	-0.18974937
64	0xbd2b0a06	-0.041757606
65	0xbd3618b8	-0.044457167
66	0xbe209070	-0.15680099
67	0x3d14631b	0.036227327
68	0xbe0a80d2	-0.13525704
69	0xbdffa75b	-0.124830924
70	0xbdfd2fc0	-0.12362623
71	0x3cee0ed1	0.0290598
72	0xbf198eaf	-0.5998334
73	0xbde2c90c	-0.11073503
74	0xbf182432	-0.5943023
75	0x3ead0aad	0.33797207
76	0x3e8d604e	0.27612537
77	0x3e112689	0.14174856
78	0xbcf42465	-0.02980251
79	0xbdf4dff4	-0.11956778
80	0xbeb2cd72	-0.34922367
81	0x3df3b38d	0.11899481
82	0x3dec54c1	0.11539603
83	0x3f3a5e9b	0.72800606
84	0x3dd182b3	0.10230007
85	0xbdf8ace7	-0.121423535
86	0xbe3bf084	-0.18353468
87	0xbe20a83f	-0.15689181
88	0xbeafde4e	-0.34349293
89	0xbe912243	-0.28346452
90	0x3c430430	0.011902854
91	0xbe012233	-0.12610702
92	0xbe40396a	-0.18771902
93	0x3ea11afa	0.31465894
94	0xbc729700	-0.014806509
95	0xbed3530a	-0.4127429
96	0x3d960eea	0.073270634
97	0xbe80b2b5	-0.25136343
98	0xbe17028c	-0.14747065
99	0x3e473a6e	0.19455883
100	0x3e443a32	0.19162825
101	0xbe9e964f	-0.3097405
102	0xbe447b65	-0.19187696
103	0x3e02844b	0.12745778
104	0xbe16a758	-0.14712274
105	0xbe80c2ed	-0.25148717
106	0x3dda4f48	0.10659653
107	0xbd8453c3	-0.06461289
108	0xbe0fb67c	-0.14034456
109	0xbc6e4adb	-0.014544214
110	0x3e04f7b3	0.12985115
111	0xbe890a38	-0.2676561
112	0x3cabd176	0.020973902
113	0xbe6d1e63	-0.23156123
114	0x3d723588	0.059133083
115	0xbc285fc0	-0.010276735
116	0xbce4ea7f	-0.027943848
117	0x3dde3a06	0.10850911
118	0xbe405df7	-0.18785845
119	0xb987ad07	-0.00025878122
120	0xbe4656cb	-0.19369046
121	0xbf1b59a2	-0.60683644
122	0xbf216c92	-0.6305629
123	0xbef32ed4	-0.47496665
124	0xbeab9231	-0.33509973
125	0xbeec8b21	-0.46199897
126	0xbef5082a	-0.4785779
127	0xbee9b5cf	-0.4564652
128	0xbea01cf9	-0.31272104
129	0x3d8d2fb4	0.06893864
130	0xbc85dcf5	-0.016340712
131	0xbed5ea38	-0.41780257
132	0x3c93334a	0.017968792
133	0x3e83b104	0.2572099
134	0xbca69e50	-0.020339161
135	0x3c9c09eb	0.019047698
136	0x3eb8a2e4	0.36061776
137	0x3ea20669	0.31645516
138	0x3dadae8f	0.0848056
139	0x3adf836a	0.0017052714
140	0x3e0ab32d	0.13544913
141	0xbcb4b392	-0.022058282
142	0x3ce736be	0.028224345
143	0x3eaa443e	0.3325519
144	0x3e307018	0.1723026
145	0x3f166cb9	0.5875965
146	0x3e9373c8	0.28799272
147	0xbe728b7b	-0.2368602
148	0xbde7cbca	-0.113181666
149	0xbeb906c7	-0.36137983
150	0xbdb6520c	-0.08902368
151	0x3da3e190	0.08002007
152	0xbe7086e2	-0.23488954
153	0xbd89485b	-0.06703254
154	0xbf02920b	-0.51004094
155	0xbec7e6dd	-0.39043322
156	0xbd063777	-0.03276774
157	0x3e1919ac	0.149512
158	0xbe591f41	-0.21203329
159	0xbcb26a0c	-0.021779083
160	0x3ee0630f	0.43825576
161	0x3e90ee5d	0.28306857
162	0x3e4e8d34	0.20171052
163	0xbe4c7f34	-0.19970399
164	0x3e26efb8	0.16302383
165	0xbee30b91	-0.44344762
166	0xbec824d6	-0.39090604
167	0xbe7373a4	-0.23774582
168	0x3c983c67	0.01858349
169	0xbe089e05	-0.1334153
170	0xbe6843c2	-0.22682098
171	0x3e246d4b	0.16057317
172	0xbcbcf47b	-0.023065796
173	0x3d4c046f	0.049808916
174	0xbdc8aaa7	-0.09798174
175	0xbf39c361	-0.7256375
176	0xbf91332c	-1.1343741
177	0xbd6fda2d	-0.058557678
178	0xbd838344	-0.06421521
179	0x3dc360cf	0.09539949
180	0xbec62c68	-0.38705754
181	0x3e57b7f9	0.21066274
182	0x3ded08fd	0.1157398
183	0xbba8667c	-0.00513917
184	0x3e1f6e06	0.15569314
185	0xbe6f99fb	-0.23398583
186	0x3de451d3	0.11148419
187	0x3dc7ce58	0.09756154
188	0x3e2e6d53	0.17033891
189	0x3d97c378	0.074103296
190	0x3ddfb58b	0.109232984
191	0x3f029bc6	0.5101894

bias f4 [8]
0	0xbe861b47	-0.26192686
1	0xbe6e9907	-0.23300563
2	0xbe4e1cd6	-0.20128188
3	0xbe0b37eb	-0.1359555
4	0xbd08bfa6	-0.033385895
5	0x3f202624	0.625582
6	0x3dc829d6	0.097736046
7	0x3ef7fbf5	0.48434415

weight f4 [8, 8, 3]
0	0xbc832188	-0.0160072
1	0xbcec1b3d	-0.028821582
2	0x3ef17c14	0.47164977
3	0x3f155e35	0.58346874
4	0x3eabb4e7	0.33536455
5	0x3f2db847	0.6785931
6	0x3e28e86c	0.16494912
7	0xbba11d66	-0.0049168346
8	0xbc91969b	-0.01777201
9	0x3d436d6f	0.047711786
10	0xbdd4dd9b	-0.103938304
11	0xbc8ac402	-0.016939167
12	0xbd0f7682	-0.035025127
13	0xbda1f8ad	-0.07908759
14	0xbc93097a	-0.017948855
15	0xbcaa6e80	-0.020804644
16	0x3dbe7fb3	0.093017004
17	0x3cdf6c56	0.027273338
18	0x3e4846c3	0.19558243
19	0x3c0650fc	0.008198019
20	0xbd03ab1a	-0.032145597
21	0x3cbb3d11	0.022856267
22	0xbcaf6aa9	-0.021413164
23	0xbe9a1307	-0.30092642
24	0xbe1d4821	-0.15359546
25	0xbd3e8a79	-0.046518777
26	0x3e0ae716	0.13564715
27	0xbee4aece	-0.44664615
28	0xbe4048f5	-0.18777831
29	0x3ea47c23	0.3212596
30	0x3d468071	0.048462335
31	0x3e4c4d2c	0.19951314
32	0xbda9a03d	-0.08282516
33	0xbda2e797	-0.079543285
34	0x3c97fb00	0.018552303
35	0x3d24440f	0.04010397
36	0xbd28d326	-0.04121699
37	0x3d9a85e2	0.07545067
38	0x3d14ee15	0.036359865
39	0x3c8a9d1e	0.016920622
40	0xbdb70f8d	-0.08938513
41	0xbd8310d1	-0.06399692
42	0xbc83c255	-0.016083876
43	0x3dd96f47	0.106169276
44	0xbdf1ace2	-0.11800553
45	0xbdac5db6	-0.084163114
46	0xbe3ba393	-0.18324117
47	0xbd2896eb	-0.04115955
48	0x3cf3679d	0.029712493
49	0xbc2093b1	-0.009800837
50	0xbdab779d	-0.08372424
51	0xbe6d8516	-0.231953
52	0xbbcce371	-0.006252699
53	0xbe306fcc	-0.17230147
54	0xbe2b77a9	-0.16744865
55	0xbd5f9592	-0.054586
56	0x3e09ea33	0.13468246
57	0x3ae8424f	0.0017719957
58	0x3ccb88f3	0.024845576
59	0x3dd65764	0.10465887
60	0x3dd03261	0.10165859
61	0xbd09a7c8	-0.033607274
62	0x3de686be	0.11256169
63	0xbcaad4b8	-0.020853385
64	0x3d30a797	0.043128576
65	0x3cb2d5a4	0.021830387
66	0x3d947f3e	0.07250832
67	0xbd176981	-0.03696585
68	0x3a86e245	0.0010290822
69	0x3e17686d	0.14785929
70	0x3f5b1555	0.85579425
71	0x3d247783	0.040153038
72	0x3c8fd3ef	0.017557113
73	0x3bcbf6f8	0.0062245093
74	0x3d3d4086	0.046204112
75	0xbd9d6b69	-0.076865025
76	0xbe82844f	-0.25491568
77	0xbd077a16	-0.033075415
78	0xbe164055	-0.14672978
79	0xbdc391c3	-0.09549286
80	0x3e04eb31	0.12980343
81	0xbe133992	-0.1437743
82	0xbd45b385	-0.048266906
83	0xbe823d80	-0.25437546
84	0xbdce3912	-0.10069479
85	0x3ca214d3	0.01978532
86	0x3e50cf61	0.20391609
87	0xbd842683	-0.06452658
88	0x3e37dd14	0.17955428
89	0xba924f43	-0.0011162538
90	0xbaa5d840	-0.0012652948
91	0x3b69cb7b	0.0035674262
92	0x3d246b1e	0.040141217
93	0xbed6e629	-0.41972473
94	0xbee2c231	-0.4428878
95	0xbf483fdb	-0.78222436
96	0xbf3efa05	-0.7460025
97	0xbed597df	-0.4171743
98	0xbd6810cc	-0.056656644
99	0x3ea4f6bf	0.32219502
100	0x3e4d6f01	0.20061876
101	0xbee8566e	-0.4537844
102	0xbe4fb6d2	-0.20284584
103	0x3e469592	0.19392994
104	0x3db1ef35	0.08688203
105	0xbe6bf669	-0.23043217
106	0xbf0c9a97	-0.54923385
107	0xbeda21a1	-0.42603782
108	0x3bb83e4b	0.0056226603
109	0x3dd9110d	0.10598955
110	0x3d636cb6	0.055523597
111	0x3d731ad0	0.059351742
112	0xbe175acb	-0.14780729
113	0xbea442a7	-0.32082102
114	0x3d8055ee	0.0626639
115	0xbda97ccc	-0.08275756
116	0x3d88da18	0.06682223
117	0xbdb87fd2	-0.09008755
118	0xbe970629	-0.29496887
119	0xbe71335d	-0.2355475
120	0x3eca4e34	0.3951279
121	0xbc9e8a2c	-0.019352995
122	0xbd57288a	-0.052528895
123	0x3e7503d1	0.23927237
124	0xbdf24148	-0.11828858
125	0xbe7686e9	-0.24074902
126	0x3dbd8fa7	0.09255915
127	0x3da8c197	0.08240049
128	0xbe30aafb	-0.17252724
129	0xbdc90756	-0.09815852
130	0x3d417cd6	0.047238193
131	0x3cf23c5f	0.029569803
132	0x3ccc0038	0.024902448
133	0x3e4aa4c8	0.19789422
134	0xbe10314d	-0.14081307
135	0xbdaa5d8e	-0.083186254
136	0xbe179323	-0.14802222
137	0xbd8bf0a8	-0.06833011
138	0x3cc8a35b	0.024491956
139	0xbddb23c9	-0.10700185
140	0x3e4640d0	0.19360662
141	0xbe3f1405	-0.1865998
142	0x3b5273a3	0.0032112382
143	0xbe851ce8	-0.25998616
144	0xbdf0bb6b	-0.11754497
145	0xbd890946	-0.06691222
146	0xbe44952b	-0.19197528
147	0x3d391322	0.045184262
148	0xbe549e3c	-0.20763487
149	0xbe3bbbc1	-0.18333341
150	0x3e471526	0.19441661
151	0xbd9b8208	-0.07593161
152	0x3cf33678	0.029689059
153	0xbdd67615	-0.10471741
154	0xbd9ed218	-0.07754916
155	0xbe5ba40b	-0.21449296
156	0x3e33b0a2	0.17547849
157	0x3e07b3b7	0.1325215
158	0x3dd68408	0.10474402
159	0x3dc0e00b	0.09417733
160	0x3d7c9242	0.06166292
161	0xbc250598	-0.010072134
162	0x3e44dcce	0.19224855
163	0x3f13b3ec	0.57696414
164	0x3d268ef6	0.040663682
165	0xbe63a389	-0.22230352
166	0x3d31fc8b	0.043453734
167	0xbdc4ef2b	-0.0961593
168	0x3e1a9e1e	0.1509938
169	0x3d8334f5	0.06406585
170	0x3d82d98b	0.06389149
171	0x3d1b466c	0.037908956
172	0x3cfc6d83	0.030813938
173	0xbd478aac	-0.048716232
174	0xbcad5ab0	-0.021161407
175	0xbe1f45f8	-0.15554035
176	0x3d996b96	0.074912235
177	0xbe107ae6	-0.14109382
178	0xbca11034	-0.019661047
179	0x3d632ff5	0.055465657
180	0xbe4236e5	-0.18966253
181	0xbde49143	-0.11160519
182	0x3daff626	0.08591871
183	0x3c8b5090	0.017006189
184	0xbe1f3731	-0.15548398
185	0x3dd0e4f7	0.101999216
186	0x3cf9beb3	0.03048644
187	0xbd657796	-0.05602225
188	0x3e1b6e78	0.15178859
189	0x3dae2d31	0.08504713
190	0xbe008134	-0.12549287
191	0xbdb263c9	-0.08710439

bias f4 [8]
0	0xbf687c6b	-0.90814847
1	0x3d46bf35	0.048522193
2	0xbf6e0ec2	-0.9299127
3	0x3f515741	0.81773764
4	0x3e6d1953	0.23154192
5	0xbdd95830	-0.106125236
6	0x3c03ddcb	0.008048485
7	0xbe8dbebc	-0.2768458

weight f4 [8, 8, 3]
0	0xbe05ea08	-0.13077557
1	0x3d9ed57d	0.077555634
2	0x3de5f9fa	0.1122932
3	0x3de41bd4	0.1113812
4	0xbd14c65b	-0.03632198
5	0x3dee6231	0.11639822
6	0xbe40f251	-0.18842436
7	0x3e0a38e2	0.13498262
8	0x3d839e61	0.06426693
9	0x3b52890c	0.0032125143
10	0xbd3229d4	-0.04349692
11	0xbdb642b5	-0.08899442
12	0x3e511395	0.20417626
13	0xbe12da6c	-0.14341134
14	0x3c5c1959	0.013433778
15	0xbda1e825	-0.07905606
16	0xbe4bfd98	-0.19920957
17	0xbcc328f3	-0.023823237
18	0x3e1681b9	0.14697923
19	0xbd8ace31	-0.06777609
20	0x3b580e09	0.003296735
21	0xbe134662	-0.14382318
22	0x3d3908b8	0.04517433
23	0x3d305fe5	0.043060202
24	0x3eeb35ed	0.4593958
25	0xbdd6dd0f	-0.10491382
26	0xbe49ffa9	-0.19726433
27	0x3de44a90	0.11147034
28	0x3cf4bed7	0.029876156
29	0x3e3e0b2f	0.18558954
30	0x3e346b01	0.17618944
31	0x3debba4b	0.11510142
32	0x3c5a20c0	0.013313472
33	0xbe6bfd6e	-0.23045895
34	0xbe3d70e1	-0.18500091
35	0xbd667930	-0.056267917
36	0x3e90fd46	0.28318232
37	0x3e6a7634	0.22896653
38	0xbdb1eaa3	-0.086873315
39	0x3e270c07	0.16313182
40	0xbe17b782	-0.14816096
41	0xbdace39e	-0.08441852
42	0xbe0c1f0f	-0.13683723
43	0x3d94b966	0.072619244
44	0xbe363f38	-0.17797554
45	0xbc0a151a	-0.008427883
46	0xbe1b4e68	-0.15166628
47	0x3e2ada08	0.16684735
48	0x3cfe0604	0.031008728
49	0x3e3054ba	0.1721982
50	0x3da7df8f	0.08196937
51	0xbd3d8c9b	-0.04627667
52	0xbc9393d2	-0.018014822
53	0xbe2ef2da	-0.17084828
54	0x3da93fa7	0.08264094
55	0x3ee5f0e2	0.44910342
56	0x3eb247ab	0.34820303
57	0xbdd2432d	-0.10266719
58	0xbe2688de	-0.16263148
59	0x3db0cd46	0.08632903
60	0xbc01ee6e	-0.007930381
61	0x3e897a0d	0.2685093
62	0x3df22010	0.11822522
63	0xbccb9a9a	-0.024853993
64	0x3dd40758	0.10352963
65	0xbe7695c3	-0.24080567
66	0x3c4b206f	0.0123978695
67	0x3e3afcb7	0.18260466
68	0xbc7a5790	-0.015279666
69	0x3d8b4dd4	0.06801954
70	0xbe0041b4	-0.12525064
71	0x3e0d72d1	0.1381333
72	0xbee4747f	-0.4462013
73	0xbe9885ca	-0.29789573
74	0xbedade1d	-0.42747584
75	0x3e2454aa	0.16047922
76	0x3e2fb44c	0.17158622
77	0x3d2b4cc7	0.041821267
78	0x3e3400f8	0.17578495
79	0xbe6ab315	-0.22919877
80	0x3d83a901	0.06428719
81	0xbda790f5	-0.08181945
82	0xbe179a61	-0.14804985
83	0xbdd91dbb	-0.10601374
84	0xbdcd6cbc	-0.10030505
85	0xbe2ec1b0	-0.17066073
86	0x3d882a8c	0.0664874
87	0x3da4b1af	0.08041703
88	0x3de40f69	0.11135752
89	0x3dbc38db	0.09190532
90	0x3e6c9728	0.23104537
91	0x3e952fec	0.29138124
92	0x3e6bc3ab	0.2302386
93	0x3dde5ca1	0.10857511
94	0x3cf482c0	0.029847503
95	0x3e5a5310	0.21320748
96	0xbd5486a1	-0.051886205
97	0xbe5c97f6	-0.21542343
98	0x3d9c21f1	0.07623661
99	0x3c416c4f	0.011805608
100	0x3e32301b	0.17401163
101	0x3d8e8737	0.06959384
102	0x3cf97228	0.030449942
103	0x3e71ebbc	0.23625082
104	0x3e7e14c9	0.24812616
105	0x3e954ffc	0.29162586
106	0x3da01bc2	0.078177944
107	0xbe7300f0	-0.23730826
108	0x3d03d19e	0.03218233
109	0xbe04ca5f	-0.12967823
110	0x3d994570	0.07483947
111	0xbd8993b9	-0.06717629
112	0xbe0b4dca	-0.13603893
113	0x3e0e7775	0.13912757
114	0xbd22ff8c	-0.03979449
115	0x3e36e69c	0.17861408
116	0xbe38d375	-0.18049414
117	0x3e2db934	0.1696518
118	0xbe0d86eb	-0.13820998
119	0xbd064a13	-0.032785486
120	0xbf323b5f	-0.69621843
121	0xbeaf4c3b	-0.34237847
122	0xbf582f87	-0.8444752
123	0x3ea75d51	0.32688382
124	0x3ebd826a	0.3701356
125	0xbd62e0d0	-0.05539018
126	0xbd8aa072	-0.06768884
127	0xbe4d260a	-0.20034042
128	0xbdecf464	-0.11570051
129	0xbd0ca0bb	-0.034332972
130	0xbe080892	-0.1328452
131	0x3c9d5792	0.019206796
132	0xbef71deb	-0.48265013
133	0xbee782ab	-0.4521688
134	0xbe7367d9	-0.23770083
135	0x3e735e55	0.23766454
136	0x3e8818d3	0.2658144
137	0x3e609918	0.219334
138	0xbe58f80f	-0.21188377
139	0xbe63d4b9	-0.22249116
140	0xbe2c5354	-0.16828662
141	0x3e1d7f30	0.1538055
142	0x3da2daf9	0.07951922
143	0x3df933a8	0.12168056
144	0xbe564584	-0.20924956
145	0xbdaac8f1	-0.08339108
146	0xbedf6d3a	-0.4363802
147	0x3dd584e9	0.10425741
148	0x3e149419	0.1450962
149	0xbdf9dac2	-0.12199928
150	0x3b7b3edd	0.003833703
151	0x3da3c071	0.0799569
152	0x3de2870b	0.11060914
153	0xbd9993d8	-0.07498902
154	0x3ec15b6b	0.3776506
155	0x3ebcf9f5	0.36909452
156	0xbeeeeee8	-0.46666646
157	0xbe4716fa	-0.19442359
158	0xbe5591cf	-0.20856403
159	0x3e77d495	0.24202187
160	0x3e11b041	0.14227392
161	0x3e89a354	0.26882422
162	0x3e47b391	0.19502093
163	0x3e8e89c8	0.27839494
164	0x3bb5f519	0.0055528996
165	0x3c9fc4fb	0.019503107
166	0x3e494e8e	0.19658872
167	0xbdbadcb2	-0.091241255
168	0xbdb27208	-0.08713156
169	0xbcf10338	-0.02942048
170	0xbdfe5872	-0.12419213
171	0xbe09fdca	-0.13475719
172	0xbd2a9f30	-0.04165572
173	0x3e540c2d	0.2070777
174	0xbd5b8e0d	-0.053602267
175	0x3ca674c8	0.020319358
176	0xbcde58e0	-0.027141988
177	0x3e38bde0	0.18041182
178	0x3e6c5e4f	0.23082851
179	0xbc55f00e	-0.013057722
180	0xbe6e585c	-0.23275894
181	0xbe0bcbc3	-0.13651948
182	0xbe6ee29a	-0.23328629
183	0xbd82fc1f	-0.063957445
184	0x3d94dcb5	0.07268659
185	0x3cf9d4f9	0.030497061
186	0xbdf260c3	-0.11834862
187	0x3dee6161	0.11639667
188	0xbe14efa6	-0.14544544
189	0x3d5c043f	0.053714987
190	0xbcdbab88	-0.02681519
191	0xbd99cbc6	-0.0750957

bias f4 [8]
0	0xbe6a120e	-0.2285845
1	0xbef62b04	-0.48079693
2	0xbe008c2e	-0.12553474
3	0x3efcdbdc	0.4938649
4	0xbe0e8bae	-0.13920471
5	0x3f6a4153	0.91505927
6	0x3adf0c7e	0.0017017273
7	0xbc1b37d7	-0.0094737625

weight f4 [8, 24, 1]
0	0xbb04bf2b	-0.0020255547
1	0x3d199c43	0.03750254
2	0x3d495614	0.049154356
3	0x3a877942	0.001033582
4	0xbdc03277	-0.093846254
5	0x3feac1e8	1.8340425
6	0x3cf2c9ef	0.029637305
7	0x3dcd6edb	0.1003091
8	0x3cba85c6	0.022768866
9	0x3d0c8262	0.03430403
10	0xbe2c103d	-0.1680307
11	0x3da6e2f8	0.081487596
12	0x3d795069	0.0608677
13	0x3cefb559	0.029261278
14	0xbd0fd697	-0.03511676
15	0xbd1fe64e	-0.039037995
16	0xbd6c963a	-0.057760455
17	0xbd899874	-0.06718531
18	0xbd65c679	-0.05609748
19	0x3d864062	0.06555249
20	0x3cab2e00	0.020895958
21	0x3cfe7b6e	0.031064715
22	0xbd3e680a	-0.046485938
23	0x3d2100b5	0.039307315
24	0x3d34c4a7	0.044132855
25	0xbe901dbc	-0.28147686
26	0xbce2e216	-0.027695697
27	0x3de5f09e	0.11227535
28	0xbe2b50da	-0.16730061
29	0xbce731d5	-0.028222004
30	0x3e15c90e	0.14627478
31	0x3f690764	0.910269
32	0x3db09eb1	0.08624018
33	0x3e2d9063	0.1694961
34	0xbe4676e0	-0.19381285
35	0xbfc5a2cf	-1.544031
36	0x3dc895e9	0.09794218
37	0x3df7566e	0.12077032
38	0xbe3caa78	-0.18424404
39	0xbde8fbe5	-0.1137617
40	0x3d1e7e30	0.03869456
41	0xbdc8cf2e	-0.098051414
42	0xbebaed03	-0.3650895
43	0x3efdea16	0.49592656
44	0xbed0a16e	-0.4074816
45	0x3ec12014	0.37719786
46	0xbef52ad9	-0.47884253
47	0xbe662e4d	-0.224786
48	0xbb7884e1	-0.0037921
49	0xbba89b42	-0.0051454613
50	0xbc3bbc62	-0.011458488
51	0xbb40986d	-0.0029387728
52	0x3d5bb882	0.053642757
53	0x3ae38154	0.0017357268
54	0x3cbf6727	0.023364617
55	0xbc972333	-0.018449401
56	0x3ca2a053	0.01985184
57	0x3c29db2a	0.010367194
58	0x3d1a1456	0.03761705
59	0xbda52080	-0.080628395
60	0x3c86ce1c	0.016455702
61	0xbca8690d	-0.020557905
62	0xbd2e31df	-0.04252803
63	0x3e235c37	0.15953146
64	0xbdcacd49	-0.09902436
65	0x3b554265	0.0032540795
66	0xbdca70ad	-0.098847724
67	0xbc034770	-0.0080126375
68	0x3dde7999	0.10863037
69	0xbccdef6f	-0.025138585
70	0x3d0ccd58	0.03437552
71	0x3dda8609	0.106700964
72	0xbbdc5f0e	-0.0067251986
73	0x3bc8a465	0.006123113
74	0xbd327249	-0.043566022
75	0x3aa11807	0.0012290486
76	0x3c4baf6a	0.012431959
77	0xba8c85b6	-0.0010721001
78	0x3c8d5d11	0.017256292
79	0xbc8d5328	-0.017251566
80	0xba9d0c30	-0.0011981782
81	0xbbabfec1	-0.005248875
82	0x3c12ee87	0.008968002
83	0x3b0baa18	0.00213111
84	0xbbee332a	-0.007269283
85	0xbbc26d1a	-0.005933416
86	0xbd29a18e	-0.041413836
87	0x3db77de8	0.089595616
88	0x3dc6cde1	0.09707237
89	0x3c70657c	0.014672633
90	0xbca0d863	-0.019634431
91	0x3ce4bb39	0.027921306
92	0x3da61e1c	0.08111212
93	0x3bb4449d	0.0055013434
94	0xbbf1e007	-0.0073814425
95	0xbd39f373	-0.045398187
96	0x3ccc9c33	0.024976825
97	0xbc90bd03	-0.017668253
98	0x3d0669b0	0.032815635
99	0xbcdbb1cd	-0.02681818
100	0x3d7151be	0.058915846
101	0xbd8a2c61	-0.06746746
102	0xbd6ff003	-0.058578502
103	0x3deb0683	0.114758514
104	0xbdd5e93f	-0.10444879
105	0x3c086b67	0.008326388
106	0x3e974563	0.29545125
107	0x3d242d3c	0.0400822
108	0xbda31932	-0.0796379
109	0x3d0592f3	0.032610845
110	0x3bed2b98	0.007237863
111	0xbdbe7450	-0.092995286
112	0xbd08e135	-0.0334179
113	0xbce30070	-0.02771017
114	0x3ee31369	0.44350746
115	0xbd876082	-0.06610204
116	0x3e78fbc3	0.2431479
117	0xbe009633	-0.12557296
118	0x3ddfbd5d	0.1092479
119	0xbdc61cbb	-0.09673449
120	0xbde0bbb6	-0.10973303
121	0xbd5cc7c7	-0.05390146
122	0xbda1a399	-0.07892532
123	0x3ce7899d	0.028263861
124	0xbc26a316	-0.010170719
125	0xba8ccaed	-0.0010741629
126	0xbdf4ec4d	-0.11959133
127	0x3ccd59e9	0.025067287
128	0xbd98670e	-0.07441531
129	0xbeb7d853	-0.3590723
130	0x3e953c56	0.29147595
131	0xbe349000	-0.17633057
132	0x3ec42323	0.38308057
133	0xbdc77a78	-0.09740156
134	0x3e21628b	0.15760247
135	0x3db39bad	0.08769927
136	0x3dfd5e9f	0.12371563
137	0xbf449a33	-0.7679779
138	0x3ce2317e	0.02761149
139	0x3f1a86ac	0.6036174
140	0x3e699279	0.22809781
141	0x3f985479	1.1900779
142	0x3f1a122d	0.60183984
143	0x3e9291c5	0.28626838
144	0x3b254823	0.0025219999
145	0x3d9ba424	0.07599667
146	0xbe3b6ec8	-0.18303978
147	0x3cf15cdb	0.029463222
148	0xbdc603a2	-0.09668662
149	0xbbcd0456	-0.0062566204
150	0xbf92178b	-1.1413435
151	0x3e3eb0ac	0.18622082
152	0x3c3fc9cc	0.011705827
153	0x3c3679e0	0.011137456
154	0xbe265957	-0.16245018
155	0x3e8b2d8b	0.27183184
156	0x3db52eb9	0.08846802
157	0x3d3d57a6	0.046226166
158	0xbea0db5f	-0.31417367
159	0xbb0ff00b	-0.0021963145
160	0xbd90d4a1	-0.07071806
161	0xbdf130b5	-0.11776868
162	0x3cc05f1b	0.02348285
163	0x3c573d14	0.013137121
164	0x3df8815c	0.12134048
165	0x3da066f2	0.07832135
166	0xbd1deff5	-0.03855892
167	0x3cb042ac	0.021516167
168	0x3ca2a991	0.019856246
169	0x3d1196bf	0.035544153
170	0xbe595ff3	-0.21228008
171	0x3f3172fe	0.6931609
172	0x3f076646	0.5289043
173	0x3c16c735	0.009202768
174	0xbdda447c	-0.106575936
175	0xbe34432d	-0.1760375
176	0xbca72bb2	-0.020406578
177	0x3cc4a93f	0.024006484
178	0x3d84a769	0.064772435
179	0xbdba8287	-0.09106927
180	0x3ceca4b4	0.02888713
181	0x3d7a5582	0.061116703
182	0x3de0e046	0.10980277
183	0x3c7ee4c3	0.015557471
184	0x3c608383	0.01370323
185	0xbdb7d8d8	-0.089769065
186	0x3e062fd0	0.13104177
187	0x3d8bdda0	0.06829381
188	0x3db5053a	0.088388875
189	0x3da18fb3	0.078887366
190	0xbd95e403	-0.073188804
191	0xbe16786b	-0.14694373

bias f4 [8]
0	0xbe0c2e31	-0.13689496
1	0x3f965126	1.1743515
2	0x3d2fd93b	0.042931776
3	0xbad1a3bc	-0.0015994231
4	0x3d1aa910	0.037758887
5	0x3f489d74	0.78365254
6	0x3ff582b6	1.9180515
7	0x3de8b809	0.11363227
