Masterarbeit_YorickLALY/Code_and_Neural_Network/CNN_window_size_5_MinMaxScaler.pt (torch, 10191 bytes, 12 tensors)

weight f4 [8, 8, 3]
000000 80 81 de bc 08 49 9d 3d d5 3e ad bd 49 63 45 be
       -0.02716136 0.07679945 -0.0845925 -0.19276156
000010 a7 4a 40 be ba 8f 06 be 90 c5 07 be 74 00 1f bd
       -0.18778478 -0.13140765 -0.13258958 -0.03881879
000020 e4 43 1e bd 58 b6 4c be 2c cb c8 3d 46 6a 36 be
       -0.038638964 -0.19991434 0.09804377 -0.17813978
000030 e1 57 95 bd bc c4 ed 3d a3 29 c0 3c 2f e9 ba bd
       -0.07292152 0.1160979 0.023457354 -0.091265075
000040 cf 57 57 bd 21 cb 0e 3d 37 70 ea bd 4f 42 45 bd
       -0.052573975 0.034861688 -0.114471845 -0.04815894
000050 c5 67 25 be e8 47 bc bc e0 b5 2d 3e ad b5 02 3e
       -0.16152866 -0.022983506 0.16963911 0.12764616
000060 14 47 24 3e 6f 0e 1a 3d 0e d2 40 3c cb 19 47 be
       0.16042739 0.03761142 0.011768831 -0.19443433
000070 5d 7e 1d 3d 9e 5e 47 bc e3 fe f2 bd d4 92 8d bc
       0.038450588 -0.012168555 -0.11865022 -0.017281927
000080 47 19 90 bd f6 9a 33 3d 67 a1 ca bd f4 04 26 bd
       -0.07036071 0.043848954 -0.09894066 -0.040532067
000090 9a 1d 4b be 7c 04 41 3b fc e1 22 3e 2d d8 b8 3d
       -0.19835511 0.0029452136 0.15906519 0.09025607
0000a0 0f b0 28 3e 92 51 40 3d 91 60 c5 3e 17 c1 c8 3e
       0.16473411 0.04695279 0.38550237 0.39209816
0000b0 64 42 d5 be 33 b6 1f 3e 30 33 09 3f 89 d0 0e 3f
       -0.41652215 0.15596847 0.5359373 0.5578695
0000c0 4a 39 8b 3e 43 0e a1 3e a5 6f 20 bc 31 5b ed 3b
       0.27192146 0.31456193 -0.009792243 0.007243537
0000d0 0b 6c b9 3e d0 15 20 be b8 09 1d 3e 71 9b c5 bd
       0.36215243 -0.15633321 0.15335739 -0.09648789
0000e0 24 cf c5 bd 61 de 13 3e 47 82 f0 3d 16 ac 66 bc
       -0.096586496 0.144403 0.117435984 -0.014079114
0000f0 fe 87 03 3e b3 e6 90 3e 39 7d a3 3e 7b 7c aa bb
       0.12844846 0.2830101 0.31931475 -0.0052028275
000100 0d d5 2c 3f 54 2f 2b be 29 d9 98 3c a0 52 90 bb
       0.6751259 -0.16717273 0.018658238 -0.004404381
000110 56 3f f7 be ce b0 57 3d 65 a6 0c bd 6c 19 da be
       -0.4829051 0.05265885 -0.034338374 -0.4259752
000120 e3 6d f6 bc 63 d3 8d 3d 35 43 d5 3d 2a 01 2c 3d
       -0.030081695 0.069250844 0.10413209 0.041993298
000130 ed 36 0d be 9e 79 35 be 1a 41 c7 bd 1c c6 a1 3d
       -0.13790484 -0.17722175 -0.09729214 0.078991145
000140 14 ca 6e bd 04 10 54 bd c8 49 18 3d 34 6f 23 bd
       -0.058298185 -0.051773086 0.03717974 -0.039900973
000150 57 91 dc bd d6 c7 f1 bd 40 cc 14 3e 2d 02 0c be
       -0.10769909 -0.11805694 0.1453104 -0.13672705
000160 8f 31 e2 3d f1 6a 24 3d 79 a3 9c bd 82 fa 51 bd
       0.11044609 0.04014105 -0.076483674 -0.051264293
000170 9b 9f 3b bd 9c 4f f0 bc 20 ac 15 3e 24 77 4a be
       -0.04580651 -0.029334836 0.14616442 -0.19772011
000180 ac 42 bd 3e af 8f 2a 3d fa 9c 22 b8 5f 5b 86 3d
       0.3696493 0.041640934 -3.8770006e-05 0.065603964
000190 55 4a f4 bd e6 3a 17 bf 29 05 4d be 72 e2 c9 bd
       -0.1192824 -0.59074247 -0.200215 -0.09857644
0001a0 7e 7e 00 be c4 2b 17 bd 2e e2 89 3d 2b dc 1a be
       -0.12548253 -0.036906973 0.067325935 -0.1512305
0001b0 2a c4 7b 3c 56 8c 23 3d 29 33 24 3e ae b2 6c 3f
       0.015366593 0.039928757 0.16035141 0.92460144
0001c0 2e 8c 8d be 61 9f 79 bf b1 97 aa 3e 90 49 4c 3d
       -0.2764601 -0.9750882 0.33318856 0.049874842
0001d0 af 85 0d 3e 1b e4 a7 bd 8f ae 84 be ce 0b c9 be
       0.13820527 -0.081978045 -0.25914428 -0.3926682
0001e0 71 e5 0e bb 59 28 0a bd 31 93 08 be b1 d8 2e 3c
       -0.0021804238 -0.033729885 -0.13337399 0.01067178
0001f0 68 c3 19 be 21 bf 11 be a8 62 16 be 50 7f 55 bd
       -0.15015948 -0.14233066 -0.14686072 -0.052123368
000200 f7 1c 68 3d de 47 de bd 3e 02 4e 3e 58 c1 17 be
       0.056668248 -0.10853551 0.20118043 -0.14819849
000210 bc 46 03 bd 70 22 3d 3e cc 76 0f 3e a0 53 30 3d
       -0.03204988 0.18470168 0.14010161 0.0430485
000220 50 b2 d0 bd 14 ee 11 be a6 33 1d be 78 c9 3b be
       -0.101902604 -0.14250976 -0.15351734 -0.18338573
000230 cf dd b7 3c a6 70 11 be fd eb 5b 3d b1 26 68 3e
       0.022444634 -0.14203128 0.053691853 0.2267101
000240 d3 fa 12 3d 04 18 92 3d 6e 46 52 3e 64 68 59 be
       0.035883736 0.07133487 0.2053468 -0.21231228
000250 aa dd fb 3e 6b 69 e1 3e b8 df 09 be ca 0a 96 3d
       0.49192554 0.4402574 -0.13464248 0.073262766
000260 cb 79 3e 3d ae 0a 50 3e be df 06 bd 80 5f 48 3e
       0.04650287 0.20316574 -0.03292822 0.1956768
000270 17 57 8a bc 35 03 ad 3e d1 ae a0 3e a9 41 11 3e
       -0.01688723 0.3379151 0.31383374 0.14185204
000280 72 ee 3f 3e 8c 98 90 bd 43 7b 8f 3d f4 e5 cd 3c
       0.18743303 -0.07060346 0.07005932 0.025134064
000290 ae e6 a3 be ab 90 46 be 03 bd 09 3f 9f 76 57 be
       -0.32011932 -0.19391124 0.53804034 -0.21041344
0002a0 48 1d 89 bd d9 55 cd 3b 97 d7 d7 3d 64 f8 9e bd
       -0.06695038 0.0062663374 0.105391674 -0.077622205
0002b0 5a 34 76 3c b6 f1 85 bd 38 ef e7 3d a6 b9 47 3e
       0.01502713 -0.06540243 0.11324924 0.19504413
0002c0 5d e0 b3 bd 88 1f 28 3e 7f f9 35 3e 2e 50 b8 3c
       -0.08783028 0.16418278 0.17770956 0.02249917
0002d0 a1 a7 5d bc 78 73 ee 3d 75 49 a4 3d 54 cb 3e bd
       -0.013528735 0.11643118 0.08021823 -0.046580628
0002e0 87 84 16 3e 71 a6 3b be ba 07 ec bd fd 17 bc bd
       0.14698993 -0.18325211 -0.11524911 -0.09184263
0002f0 3b d5 46 be e2 3a bb 3d 18 f9 26 be 1b 78 5e bd
       -0.19417278 0.091420904 -0.16305959 -0.05431376

bias f4 [8]
000000 45 70 96 bd 2f 4d 51 bd 3f 60 83 bd b2 22 1f be
       -0.073456325 -0.051099 -0.06414842 -0.15540579
000010 06 9f a3 3e c6 27 03 3e 5d dd e1 bd 94 d5 e0 3c
       0.31957263 0.12808141 -0.1102855 0.027445592

weight f4 [8, 8, 3]
000000 c4 4f d2 3c 67 0b e9 bb 86 71 0e 3d d1 66 5a be
       0.0256728 -0.007111955 0.034776233 -0.21328284
000010 75 3e 4a bd ff 17 db be a3 30 6c bd f4 05 a2 3d
       -0.04937597 -0.42791745 -0.05766357 0.07911292
000020 5e 38 81 3e a7 36 dc bd 6e f4 8e 3c 9a d8 d5 bd
       0.25238317 -0.107526116 0.017450538 -0.10441704
000030 4c b0 6a be 5a b4 18 3d 90 a4 85 3d 41 bf 1e be
       -0.22918814 0.03728137 0.065255284 -0.15502645
000040 12 d1 2b 3d ef 60 07 3e a8 bf 96 be 07 3d f2 be
       0.04194743 0.13220571 -0.29443097 -0.47312185
000050 53 20 67 be a6 01 e4 bd b7 aa 8a bc 5f cc 10 be
       -0.22570924 -0.11133127 -0.016927106 -0.14140461
000060 2a 64 dc 3d 0e 44 a3 ba 47 1a a8 3c 24 cd 65 bd
       0.10761292 -0.0012456195 0.020520343 -0.05610384
000070 c5 39 59 3e bc 11 33 bf 27 02 c1 3e c8 9c 5f be
       0.21213444 -0.69948936 0.37696955 -0.21837151
000080 6a f3 8c be cf 1b 40 3e 04 66 24 bc c2 31 2f be
       -0.2752946 0.18760608 -0.010034088 -0.17108825
000090 71 49 f0 3e c1 59 6c 3e 2a 69 42 3f f4 ea e6 bd
       0.4693103 0.23081113 0.7594172 -0.112752825
0000a0 c9 3e ee bd c4 43 9d bd bb d8 f4 bc a8 af 49 be
       -0.11633069 -0.07678941 -0.029888501 -0.19695914
0000b0 91 9a b6 be 01 1a 03 bd e5 05 4e 3d 0c 25 44 be
       -0.356648 -0.03200722 0.05029859 -0.19154757
0000c0 43 7d e0 bd 64 bb 30 3e 57 a1 d8 3d 4a be 45 be
       -0.10961392 0.17258984 0.10577648 -0.19310871
0000d0 07 df 33 be 94 0d 07 3e f0 7a 4d be c9 db 0c 3f
       -0.17565547 0.13188773 -0.20066428 0.55022866
0000e0 34 0e 83 3e 70 f3 d7 bd 1f 26 14 3e d9 98 81 3d
       0.25596774 -0.10544479 0.14467667 0.063279815
0000f0 73 27 48 bd 66 29 e2 3d 9e 89 c9 be f0 5b d8 bd
       -0.048865747 0.110430524 -0.39362806 -0.10564411
000100 92 41 8a bd 65 fb 5d bd a5 cd 2a be f4 45 d9 3d
       -0.06750788 -0.054194827 -0.1668001 0.106090456
000110 3c 5d 8c 3e b2 32 2f 3e f8 37 e3 bd be 91 c9 3d
       0.27414882 0.17109182 -0.110946596 0.09842251
000120 af b7 b1 3d 9f e9 b2 bb 4f 01 31 3e 5b 34 16 be
       0.08677613 -0.0054599787 0.17285655 -0.1466841
000130 47 f8 19 3e ec 38 36 3e 93 39 00 3e 90 b0 9c bd
       0.15036117 0.17795151 0.12521963 -0.07650864
000140 04 94 2d be 24 0f e5 3d 45 7b cd 3c 70 05 34 3e
       -0.16950995 0.111845285 0.025083194 0.17580199
000150 86 40 3f 3c f7 e4 16 3e 41 dc 38 be c0 a6 89 3d
       0.011673098 0.1473578 -0.1805277 0.06721258
000160 12 cf 17 3d d8 5f 96 bb d7 3f 3c bd c4 de 5f bb
       0.037062712 -0.004589062 -0.04595932 -0.0034159878
000170 3f fd 0a 3e e1 60 35 3e 2a 92 a7 3d 29 e9 45 3e
       0.13573168 0.17712738 0.081821755 0.19327225
000180 f7 b6 35 be 12 fa 1d 3e 2b 20 c0 bd d3 29 63 3d
       -0.17745577 0.15427426 -0.093811356 0.05545981
000190 fd 4b 00 3e 1f 82 40 3e 9c 49 b3 bd 44 e5 93 bd
       0.12528987 0.18799637 -0.08754274 -0.07221463
0001a0 9a 76 e7 bd ab 6b 14 3e 81 5d 29 3e 01 10 aa bd
       -0.11301918 0.14494197 0.16539575 -0.08303834
0001b0 5c 3f 36 3d 3a 0f 6f bd 75 dc c1 bd c6 48 06 3e
       0.044494018 -0.05836413 -0.09465877 0.13113698
0001c0 72 20 24 be ab 81 e7 3d c3 48 1d 3d c2 6d 58 3d
       -0.16028002 0.11304029 0.03839947 0.05283905
0001d0 59 12 6e 3d b5 6d 0a 3e a3 f5 1f 3e 1c 6b dc 3d
       0.058122966 0.13518412 0.15621047 0.10762617
0001e0 e3 e9 40 3d 03 0a 42 3e 39 f5 e4 bd 29 0d 77 be
       0.04709805 0.18949132 -0.11179585 -0.24126114
0001f0 af bd a0 3c 26 e0 07 be a8 76 6f 3d fd b2 a1 be
       0.019621698 -0.132691 0.05846277 -0.3158187
000200 d8 fc df 3d 72 b6 28 be fe 0f 28 be 14 ec 10 3e
       0.10936898 -0.16475847 -0.1641235 0.14152557
000210 27 91 bb 3e ef d1 bc 3d 34 45 2b bd 6f 4c 4b bd
       0.3663418 0.09219729 -0.041814044 -0.04963344
000220 69 3e 41 bd cf 52 3f 3c ef 55 bc bd bb c3 3e be
       -0.04717866 0.011677458 -0.09196078 -0.18629353
000230 1a 56 2f 3e 32 2e 48 3e 66 37 5a be 93 77 1e 3d
       0.17122689 0.19548872 -0.21310195 0.038688254
000240 79 23 fc bd f8 73 1f be a1 90 14 3d bd 14 a2 3d
       -0.12311453 -0.15571582 0.03627074 0.07914112
000250 b3 db 03 be 76 16 92 3e f0 e8 b5 3e 2c ff 59 3e
       -0.12876777 0.2853276 0.3552928 0.21288747
000260 e5 0e b5 3e fc 88 af bd 95 6c f7 3d 7b e0 c7 3c
       0.35362926 -0.085710496 0.12081257 0.024399033
000270 32 13 64 3d 52 4d 46 be fc f2 d5 3d 77 c8 cd 3c
       0.05568237 -0.19365433 0.10446736 0.025120003
000280 35 29 3c 3e cf ef ac bd 64 3c 7f 3e 5b b9 17 3d
       0.18375094 -0.08444177 0.24925381 0.037042003
000290 17 12 26 3e ac f1 95 3c a5 2d 8b 3d e4 f1 05 be
       0.16217838 0.018303715 0.067958154 -0.13080555
0002a0 df dc 24 bd 2e eb 47 be 91 db 7d bd 63 ef 0f 3e
       -0.0402497 -0.19523308 -0.061976973 0.14056163
0002b0 0e cf a9 3e 7b 79 b4 3e ea 29 83 be d5 0b 8b bd
       0.33165783 0.35248932 -0.25617915 -0.06789366
0002c0 43 b7 d2 3d ab 79 9f 3d d0 76 8d bd ab f6 ee 3d
       0.10288861 0.07786878 -0.06907427 0.11668142
0002d0 ad e1 9e 3e ac df d9 bd 96 95 86 3d 0d 94 ff bd
       0.31031552 -0.10638365 0.065715 -0.1247941
0002e0 ae eb 10 3e f8 bf 17 3e 07 52 8b be 27 30 1a 3e
       0.14152405 0.14819324 -0.2721102 0.15057431
0002f0 cd 36 89 3e 9e 0d f5 bd 08 f2 54 bd 0b cc 4d be
       0.26799622 -0.11965488 -0.05198863 -0.20097367

bias f4 [8]
000000 ab 22 32 3f 11 b7 e9 bd 02 3b 75 3e 4d 83 44 be
       0.6958415 -0.1141187 0.23948291 -0.19190712
000010 b9 21 4e be 0f af b0 3e fe 79 82 be d9 cb 28 be
       -0.20130052 0.3450856 -0.25483698 -0.16484012

weight f4 [8, 8, 3]
000000 f4 33 5e bd 38 3a 0e be e9 9d 30 3e 6b 93 98 3c
       -0.054248765 -0.13889396 0.17247738 0.018624982
000010 09 df 16 be ff 0a 4e be e3 19 5b 3d 1b 80 f7 bd
       -0.14733519 -0.20121382 0.053491484 -0.12084981
000020 7a 88 3b be 9e 64 ed bd 64 c1 f1 bd 76 3c 00 be
       -0.1831378 -0.11591457 -0.118044645 -0.12523064
000030 5c e2 5a 3d c2 ee 66 3d 22 0e ad bd 57 f5 38 be
       0.05343853 0.05638004 -0.08449961 -0.1806234
000040 73 f6 01 3e ea e1 01 3d 33 77 53 bc 4a f5 ed 3d
       0.12691669 0.03170959 -0.012906837 0.11619051
000050 33 a3 ff bd a1 c8 3c 3c a4 01 9b bd 24 24 34 3e
       -0.124823 0.011522443 -0.07568672 0.17591912
000060 5b d0 e6 bc 03 13 f9 be 90 3b e4 be c6 d7 24 be
       -0.028175524 -0.48647317 -0.44576693 -0.16097936
000070 ca 0f aa be 42 af cb be 9a 32 9c bd 25 bd a0 3d
       -0.3321517 -0.3978215 -0.07626839 0.078485765
000080 ed 5b b9 3e 61 5b 5a 3d 06 7a ed bd f4 64 1a 3c
       0.36202946 0.053309802 -0.1159554 0.009423483
000090 f3 fa 3b 3e cc 04 76 be 92 ea f8 3d e6 7e 11 be
       0.18357448 -0.24025267 0.12154116 -0.14208564
0000a0 08 f9 87 bd e6 f5 e1 bd ef 14 94 3e 6c f2 0e be
       -0.06639296 -0.110332295 0.2892222 -0.13959664
0000b0 80 cb 5b be db 44 fc 3d e2 f9 30 3e 70 24 06 3f
       -0.21464348 0.12317821 0.17282823 0.5239935
0000c0 59 cf 3a 3e dd d8 f9 bd 63 ed 0f 3e ac 71 b2 bd
       0.1824316 -0.121995665 0.140554 -0.087130874
0000d0 f9 1c 2d be 82 cb 2f 3d 9a 8d af bd 51 f3 e9 3d
       -0.16905583 0.04291869 -0.0857193 0.11423362
0000e0 79 84 8c 3d 6f d9 25 3d 51 e9 85 bd e6 d6 44 3e
       0.06861205 0.040490564 -0.06538642 0.19222602
0000f0 26 ae 4b 3e cb 52 2c 3e 78 db 27 be 1f f7 b0 bd
       0.19890651 0.16828458 -0.16392314 -0.086408846
000100 49 09 01 bd e3 b7 02 3e 18 0a e6 bc 33 ba f3 bd
       -0.031502996 0.1276546 -0.028080985 -0.11900749
000110 a1 f0 2e bd ee 11 20 be e4 fa 88 3d a9 98 40 3e
       -0.04270995 -0.1563184 0.066884786 0.18808235
000120 16 19 5e bc be 38 95 be 75 b1 53 bb d5 f5 20 bd
       -0.013555786 -0.29144853 -0.0032301818 -0.039296944
000130 47 4f 35 bc f6 ce 4d 3d 74 aa b7 bd 98 26 96 3e
       -0.0110662645 0.0502462 -0.08968058 0.2932632
000140 a6 56 cf 3d 9f f5 28 be 65 d2 7a bd 33 f9 49 3e
       0.10123949 -0.16499947 -0.061235804 0.19723968
000150 6e ba 0a be 92 94 97 bd 27 e6 56 bd 46 bb 1d be
       -0.1354768 -0.074013844 -0.052465584 -0.1540347
000160 c8 d6 0f 3c 5e 3b 5d be 44 92 3e 3e ac 7f f2 3d
       0.008779235 -0.21604678 0.18610483 0.11840758
000170 92 d4 08 3d f4 0c 6e 3e 72 56 7f 3e 03 ef 6e 3d
       0.033405848 0.23247129 0.2493532 0.058333408
000180 b2 5a 05 be b7 6e c3 bd c8 8b ce 3d f8 1c 9d bc
       -0.13022879 -0.095426016 0.10085255 -0.019178852
000190 08 5d 3f be 48 70 d4 bc 04 0d 13 be 34 6a 23 3e
       -0.18687832 -0.025932446 -0.14360434 0.15958482
0001a0 06 4d 43 be f4 e6 3b 3e 28 8e a9 3d 72 f7 d3 bd
       -0.19072351 0.1834982 0.08279067 -0.10349931
0001b0 34 10 99 3d 18 32 8d 3d 22 dc 13 3e 70 59 00 bd
       0.074737936 0.0689432 0.14439443 -0.031335294
0001c0 40 4f 8d bb ba 96 2a 3e 18 0b 5f 3d 88 1c 09 bd
       -0.004312426 0.1665906 0.05445394 -0.033474475
0001d0 9a 16 eb bd da 57 2b be 80 1f 3a 3c d4 66 16 be
       -0.1147892 -0.16732731 0.011360049 -0.14687663
0001e0 77 fd 5f bd 88 c4 61 3e ba 02 5b 3e f8 37 bd 3d
       -0.054685082 0.22047627 0.21387759 0.09239191
0001f0 95 d0 39 3e 11 77 28 be 63 1e 74 3e 14 5a e9 bd
       0.18145974 -0.1645167 0.23839717 -0.11394134
000200 f0 3c 5e bd 35 a2 90 bd b9 08 85 bd 98 e1 bf 3d
       -0.054257333 -0.070621885 -0.06495804 0.093692005
000210 0f ed 96 bd 47 2e 0e 3e e4 8b 18 be 2d 0f c2 bd
       -0.07369434 0.13884841 -0.14897114 -0.09475551
000220 68 9c 34 be 6b a4 33 be 7b d1 c9 bd 2b b7 23 3e
       -0.17637789 -0.17543189 -0.09854408 0.15987842
000230 1c 17 75 bd cf a7 b8 bd 32 63 14 be 86 c5 9d 3a
       -0.059836492 -0.09016382 -0.14490965 0.0012037016
000240 af ea d8 3d 10 1b f5 be 77 d9 23 be 78 93 93 be
       0.10591637 -0.4787221 -0.16000925 -0.28823447
000250 8b 18 04 bf 2e 59 95 be 40 b1 3c 3d 48 b2 77 3e
       -0.5159995 -0.291696 0.046067476 0.24189103
000260 c6 37 c7 3e bf 76 28 be fa 62 27 be c9 14 48 3c
       0.3890974 -0.16451548 -0.1634635 0.012211987
000270 56 d3 c9 3d e6 c6 a6 3b 6e ed 94 be 52 8c 05 be
       0.09854762 0.0050896285 -0.29087394 -0.13041809
000280 88 64 f3 bd 6f f0 fc bd ce 27 c3 3e 9f 6e 1f be
       -0.11884409 -0.123505466 0.38116306 -0.15569542
000290 4d 1d e1 bb 8d 1d 95 be a1 d2 e3 bc 61 99 e7 bd
       -0.006869948 -0.29124108 -0.027810397 -0.113085516
0002a0 84 6b 02 bf 59 f8 9c bd 27 71 41 3d 0c 69 90 3e
       -0.50945306 -0.07664556 0.04722705 0.28205144
0002b0 6d 1d 93 3d 72 c8 28 3f a9 8e 66 3d 66 7b d2 bc
       0.07183347 0.65930855 0.056288395 -0.025693607
0002c0 21 10 f2 be b2 97 96 bd e2 b9 30 3e 2d b0 11 bd
       -0.4727793 -0.07353152 0.17258409 -0.035568405
0002d0 a6 fd 05 3e 5a 83 32 3e 24 d7 d2 bd ad c7 75 3d
       0.1308504 0.17432919 -0.10294941 0.06000488
0002e0 11 c6 c2 3e 20 94 d4 be b2 7c e9 be a7 40 b6 3d
       0.38041738 -0.4151926 -0.45602947 0.0889905
0002f0 a7 03 7e be f8 c2 94 3d 2d 1a e1 bd 11 93 ad bd
       -0.24806081 0.0726375 -0.10991321 -0.08475316

bias f4 [8]
000000 de e4 b2 bd 4a 00 76 3e 19 d5 22 be 33 50 90 be
       -0.08735059 0.24023548 -0.15901603 -0.28186187
000010 09 84 20 be dd e2 0b bd ca 7c 86 3e c1 1c 20 3f
       -0.15675367 -0.0341519 0.26267081 0.62543875

weight f4 [8, 8, 3]
000000 7b c2 33 3e 6f 9e 3f bd ed f9 f1 bd 3a 25 66 3c
       0.17554657 -0.046781953 -0.11815248 0.014046961
000010 7e 6f 58 3e e0 26 3e 3d 66 0e d9 bc 74 c5 68 bc
       0.21136281 0.046423793 -0.026496124 -0.014207233
000020 33 a4 1d 3e 17 df a5 be 16 b5 67 bd 16 02 71 bd
       0.15394668 -0.32396767 -0.05656918 -0.05883988
000030 f9 d3 08 be 02 e2 1f 3e f4 f2 e8 3d 7d 56 2c be
       -0.13362111 0.15613559 0.11374465 -0.16829868
000040 94 4c 20 be 9a d3 24 be 1a 13 23 3e 5d bd d9 3e
       -0.15654212 -0.16096345 0.15925255 0.42527285
000050 4d ed 1c 3e f7 a2 96 be d0 ec 04 bf dd 6f a2 be
       0.15324898 -0.29421207 -0.5192385 -0.3172597
000060 da c2 47 be 5a b4 ca bd 3c d3 ba bd e4 e6 3b bd
       -0.19507924 -0.098976806 -0.09122321 -0.04587449
000070 7d c6 48 be ac d3 9b be 7b 1a a6 bd 7b d8 48 be
       -0.19606967 -0.3043493 -0.081105195 -0.19613831
000080 f8 09 eb bd 8e 45 53 be 93 0d f1 3a 5d 2d 0d bd
       -0.11476511 -0.20632002 0.0018390886 -0.03446709
000090 44 2b ba 3d 7a 5d 0d 3e 17 b7 4e be 1c 42 27 3e
       0.090902835 0.1380519 -0.2018703 0.16333812
0000a0 fd 3b d9 bd 38 fe 5a 3b e1 20 b3 be 07 06 bc be
       -0.10607145 0.0033415686 -0.34986022 -0.36723348
0000b0 51 b9 8b be b1 1c 87 3d 05 4b c0 be 03 39 8e 3b
       -0.27289823 0.06597269 -0.37557235 0.0043402924
0000c0 82 db 42 be b4 d8 34 be f5 47 2a be d1 e7 1f be
       -0.19029048 -0.1766079 -0.16629012 -0.15615775
0000d0 41 26 e4 3e c8 e9 f3 bc d6 1d 20 bd 15 a3 42 be
       0.44560435 -0.029774562 -0.039090954 -0.19007523
0000e0 da 19 17 3e 12 e2 66 3e e5 b8 3c 3e b0 45 a1 3e
       0.14755955 0.22547176 0.18429907 0.3149848
0000f0 9c 98 25 3d d7 d1 ff bd 04 4f cd 3d c1 ca ff 3d
       0.040428743 -0.12491196 0.10024837 0.12489844
000100 83 fd 15 be 4d 20 4c be e1 dd b0 3d 09 05 86 3e
       -0.14647488 -0.19934197 0.0863607 0.26175717
000110 8c 7d 16 be cc 88 f8 be c2 3c f8 be fa a8 b4 be
       -0.1469633 -0.48541868 -0.48483855 -0.3528517
000120 d2 09 1a bd bc fb 0a 3e 25 97 3c be a0 45 04 3d
       -0.03760702 0.13572592 -0.18417032 0.032292962
000130 4b 6a f2 ba f9 31 0c be 72 c0 d5 3c 95 3d 23 3e
       -0.0018494813 -0.13690938 0.026092742 0.1594146
000140 3b 4d e3 bd b5 c6 ae 3d d4 a1 f6 3c 57 39 99 bd
       -0.11098715 0.08533994 0.030106463 -0.0748164
000150 24 ea 8e bd e8 2f 33 3e 60 42 a6 bd e6 87 67 3d
       -0.069782525 0.17498744 -0.08118129 0.056526087
000160 33 0d 40 be 60 10 bb 3d 50 f4 a5 3e 75 4b ed bd
       -0.18755035 0.09133983 0.32412958 -0.11586658
000170 ae dc 27 be e7 c6 97 bd 6f 85 49 bc 8b b0 b1 3c
       -0.16392776 -0.074109845 -0.012299879 0.021690628
000180 c2 1c 15 3d dd 06 eb bd 21 59 47 be 27 bb 0d 3d
       0.03640438 -0.114759184 -0.19467594 0.03460231
000190 b2 f1 98 3d a5 5d af 3e c8 c0 72 bd 6f 1a 9e 3d
       0.07467975 0.34251133 -0.05926588 0.077198856
0001a0 b3 d2 ef 3d e9 70 8c 3d b3 22 a0 bd 0f 2c 17 3e
       0.117101096 0.068574734 -0.07819118 0.14762901
0001b0 60 a4 e8 bc de 62 45 3e 9e 8b 41 be 79 0f fc bd
       -0.028398693 0.19275996 -0.18900916 -0.12307639
0001c0 b8 2c 31 be a8 39 18 be 46 d2 68 be da cb 71 3d
       -0.17302215 -0.14865744 -0.22736463 0.0590323
0001d0 63 03 7d 3d 2c f8 a0 3d b7 20 07 3f d3 fe 3c 3e
       0.061770808 0.07859835 0.52784294 0.18456583
0001e0 2d 57 1a be 66 f2 47 be ea 67 85 bd 7a e7 f8 bd
       -0.15072317 -0.19526061 -0.06513961 -0.12153526
0001f0 4c 21 93 be cf 74 a2 be 81 e7 84 3c 46 c6 42 3e
       -0.2873634 -0.31729743 0.01622367 0.19020948
000200 f7 44 cb bd f0 5d 71 3b 3c f2 3c be d1 29 30 be
       -0.099252634 0.0036829673 -0.1845178 -0.17203452
000210 b0 55 95 3d 54 21 72 bd d8 ef 15 3d 08 82 83 3c
       0.07291734 -0.059113815 0.036605686 0.016053215
000220 77 ae 32 3c 6d 86 41 3e de 24 2f be a3 5b 69 be
       0.0109058535 0.18898936 -0.17103907 -0.22788863
000230 1c 1b 0e be 4b 04 42 3d 7a a8 e0 3d 0c a7 fd bc
       -0.13877529 0.047367375 0.10969634 -0.030963443
000240 ea 42 7e bd 1f fd 37 3e 07 78 1a be db 8b 56 be
       -0.062075533 0.17967652 -0.1508485 -0.20951788
000250 0d 72 01 3e ef da f5 bd e7 d9 17 3e b4 5e de bd
       0.12641163 -0.12004649 0.14829217 -0.10857907
000260 95 23 1c 3e 44 f0 f1 bd c4 53 eb bc fb f2 99 3d
       0.15247948 -0.11813405 -0.028726466 0.07517048
000270 a6 ee b6 bd d8 3c d4 3c 08 28 e2 bc 31 c3 5e 3d
       -0.08932237 0.025907919 -0.027606979 0.054385368
000280 b5 b9 21 3e 38 4f 19 bd 8e 2c 57 be 3d e2 75 be
       0.15793498 -0.037429065 -0.2101309 -0.24012084
000290 cd 9e 2b be 1f 3f b2 bd 0f de b5 be f2 de 12 be
       -0.16759796 -0.08703446 -0.3552098 -0.1434286
0002a0 77 d6 07 bd 3c 01 0a be 0e f7 14 3d a7 75 8a 3d
       -0.033163514 -0.13477033 0.036368422 0.06760722
0002b0 53 35 53 bc 48 77 60 3e 83 2f 8b bd b5 1f 98 bc
       -0.012891131 0.21920502 -0.067961715 -0.018569807
0002c0 38 8c 0e be 5e 7d 53 bb e8 2d 6c 3d 83 e4 a7 bc
       -0.13920677 -0.003227077 0.057660967 -0.020494705
0002d0 13 69 28 be d0 74 84 bd 64 d4 17 be 83 27 31 be
       -0.16446333 -0.06467593 -0.14827114 -0.17300229
0002e0 32 93 c2 bd 26 01 3a 3e 7b b9 14 3d f0 0f 12 be
       -0.095007315 0.181645 0.0363097 -0.14263892
0002f0 94 3c 2f 3d 4b 79 17 3e f9 fd 05 bd 8e be 4f be
       0.04278238 0.14792363 -0.03271291 -0.20287535

bias f4 [8]
000000 18 cc 8f 3c 7e 2a bf 3e 91 f1 ff bd c8 94 fe 3c
       0.017553374 0.37337106 -0.12497247 0.031076804
000010 f1 eb c9 be 50 b2 a4 3e 27 c0 11 3f 04 b6 5c 3e
       -0.39437822 0.32167292 0.56933826 0.21553808

weight f4 [8, 8, 3]
000000 6e a2 3a be ea 81 da 3d 14 d1 b3 bd 98 8a d0 3b
       -0.18226025 0.106693104 -0.08780113 0.006364178
000010 ee df b0 3d 6a 5e 67 3e 86 19 6c 3d a2 72 16 3e
       0.08636461 0.2259461 0.05764153 0.14692166
000020 21 71 62 3b 19 67 39 3e 4d 3b 53 3e ff 7c 1e bd
       0.0034552293 0.18105735 0.2062809 -0.038693424
000030 51 17 1d be b2 32 a3 bd e3 32 9c bd 6c dc 22 be
       -0.15340926 -0.07968654 -0.07626893 -0.15904397
000040 d0 5a 00 3c 4c cf 91 bb 83 93 0c bd 83 11 98 bd
       0.007834151 -0.0044497605 -0.034320366 -0.07425215
000050 a2 5e bd bd cd 18 02 be 0b 22 d7 3d d3 a3 08 3e
       -0.092465654 -0.12704773 0.1050454 0.13343744
000060 38 ea f9 bc 60 f7 36 be a4 c3 23 3e 64 3b ae 3d
       -0.030507192 -0.17867804 0.159926 0.085074216
000070 66 c2 03 be 40 d2 84 bc e8 85 8a 3d 00 06 ed 3b
       -0.12867126 -0.016213536 0.06763822 0.0072333813
000080 08 a6 48 be 3a b1 3a be 00 3b e5 bc 50 b2 3d 3d
       -0.19594586 -0.18231669 -0.027982235 0.04631263
000090 c0 06 ac 3b 9f 62 fa bd 23 4d 08 be 04 9a 6e bd
       0.005249828 -0.12225842 -0.13310675 -0.05825235
0000a0 28 45 18 3e b4 00 2b 3d ec 26 fc 3d f4 de 11 bd
       0.14870131 0.041748717 0.12312111 -0.035613015
0000b0 79 ed 19 be ff ce ba bd f4 53 0e bd 2e 40 15 3e
       -0.15031995 -0.091215126 -0.034748033 0.14575264
0000c0 75 47 e8 bd 23 9d 1b be d9 86 eb 3d 78 95 9b 3d
       -0.11341754 -0.15196662 0.115003295 0.07596868
0000d0 3a f6 39 bd 73 27 8a 3e 2e ad 05 3e 8c 4f 80 3e
       -0.045400836 0.26983222 0.13054344 0.2506069
0000e0 7d 21 0e 3e 6f 97 b5 3d 43 01 b4 3d 89 4e 12 3d
       0.13879962 0.08866774 0.08789303 0.03571943
0000f0 a9 47 82 3c f5 0c bb be 81 d9 ad be fe 4e 5b bd
       0.01590331 -0.36533323 -0.33955005 -0.05354213
000100 04 4d 3a 3e 2d 1d 26 3e 33 db 88 bb 37 19 eb 3d
       0.18193442 0.16222067 -0.004176521 0.11479419
000110 ea ad 85 3e 66 4c ab 3d 49 e9 05 be 0a 9c 97 3c
       0.26109248 0.08364181 -0.13077272 0.018507022
000120 5a 24 67 bd aa ec f1 bd e9 09 57 bb 3d b4 4e 3e
       -0.056431152 -0.11812718 -0.0032812303 0.20185943
000130 b1 a9 d9 3d 05 c7 e6 3c d7 3f e6 3d 63 60 33 3e
       0.10628069 0.028171072 0.11242645 0.17517237
000140 4b 03 7b 3d 30 2b 07 be de bf 09 3e 34 8a d6 bd
       0.061282437 -0.13200068 0.13452098 -0.10475579
000150 5a 75 6f 3d af fd c2 bc 72 d3 a4 bc b2 6a 09 be
       0.058461525 -0.023802606 -0.020120356 -0.13419607
000160 6e 0d 0a be cf 2d 85 bd 2c 70 1d 3e 31 df 14 be
       -0.13481686 -0.06502878 0.15374821 -0.14538266
000170 52 b0 35 3e f4 31 6d bd 4e 83 9f bd 1a 0e ca bd
       0.17743042 -0.057908967 -0.07788716 -0.09865971
000180 9f 86 91 be 11 a2 c2 3d ec 46 93 3e 35 ce 2e 3e
       -0.2842302 0.09503568 0.28765047 0.17070849
000190 f0 59 f4 bd d2 88 74 be bf 45 bb bb 84 09 e5 bd
       -0.11931217 -0.23880318 -0.0057151015 -0.111834556
0001a0 93 ce f7 3d 5d 60 4c 3d ba da bc 3d 96 ca 03 3e
       0.12099948 0.049896587 0.09221406 0.12870249
0001b0 42 91 c8 bc eb 56 36 3e e2 66 68 3e 50 2d 3d be
       -0.024483327 0.17806594 0.22695497 -0.18474317
0001c0 02 3f 4b be ed 42 a5 3e 94 42 76 bc 62 a8 40 3e
       -0.19848254 0.32277623 -0.015030522 0.18814233
0001d0 20 5f 6d be 4b e7 21 be 2e 6d 51 be c2 18 a8 be
       -0.23180819 -0.15810888 -0.20451805 -0.3283139
0001e0 09 d2 9e 3d 86 99 06 3e da 06 88 3d c5 1d c0 bd
       0.07754905 0.13144502 0.06641932 -0.09380678
0001f0 90 09 2e be 14 00 28 bd 66 9f 1f 3e 28 7f 26 3e
       -0.16995835 -0.0410157 0.1558815 0.16259444
000200 31 c4 0e be 73 b3 14 be 97 7f 2e be 10 20 1a 3c
       -0.13942029 -0.1452158 -0.17040859 0.009407058
000210 06 ab 06 be a6 34 df 3d d6 2b 00 3e 37 a0 4c be
       -0.13151178 0.10898714 0.12516722 -0.19982992
000220 d8 78 38 be 7f a4 4d be d6 83 01 3e 9e e2 4d 3d
       -0.18014848 -0.20082282 0.12647948 0.050264947
000230 23 4e 50 3e da ec 9b 3c 05 15 4f 3d 95 aa 45 be
       0.20342307 0.019033838 0.050557155 -0.19303353
000240 d6 1c cf 3d 29 18 89 bd fd 2c 8b 3d 63 43 29 be
       0.10112922 -0.06694061 0.0679569 -0.16529612
000250 af 54 c1 bd 16 aa 9c 3e e5 f0 ef bd d1 89 b0 be
       -0.0943998 0.30598515 -0.11715869 -0.34480146
000260 2e c7 cb bd 2e 73 2b bb 59 90 4b be bf 8b 6b be
       -0.099501 -0.0026161182 -0.19879283 -0.23002528
000270 7e cc ba bc ec 40 30 be ea 19 8c be b4 d2 d5 bd
       -0.022802588 -0.17212266 -0.2736352 -0.10440579
000280 28 84 94 bd 4b 4c b1 bd 96 a8 f7 3d 56 ed b9 bc
       -0.07251769 -0.0865713 0.12092702 -0.022696178
000290 46 e7 84 3e 20 62 27 bd a7 ec 04 be 1b b1 92 3d
       0.25957698 -0.040865064 -0.129809 0.071626864
0002a0 64 8a 31 bd 16 42 4e 3e 80 bf 7a be b1 58 c1 3d
       -0.04334487 0.20142397 -0.24487114 0.09440745
0002b0 1a de 1a 3e 25 ee 01 3d 04 01 30 3e db 47 1d bb
       0.15123788 0.031721253 0.17187887 -0.0023999128
0002c0 5e 4b 89 bb 5f 4e 40 be 22 1f ae bc eb 33 4b 3e
       -0.0041898927 -0.18779896 -0.02125508 0.19844024
0002d0 cb 75 19 bd 7d 11 9f be 4d 69 d4 bd 6f 05 8a 3d
       -0.03746585 -0.3106803 -0.10371647 0.067393176
0002e0 83 31 8c 3e f1 2b 71 3e af 34 de bd 4d d1 2b 3d
       0.27381524 0.23551919 -0.10849892 0.04194765
0002f0 2b 1f a0 be f9 e8 79 bd ce b2 c3 b8 56 3b 0b 3e
       -0.3127378 -0.061013196 -9.3316296e-05 0.13596854

bias f4 [8]
000000 c2 5b 09 3e ee d6 32 be 23 a8 b8 3d c0 6d 91 bd
       0.13413909 -0.17464802 0.090164445 -0.07101011
000010 16 51 72 3d 73 33 cb bd 1e 92 6e 3e fd 80 27 3e
       0.05915936 -0.099219225 0.23297927 0.16357799

weight f4 [8, 24, 1]
000000 ac a6 ef 3d 1d 67 4c 3d 21 40 20 be 65 72 52 3e
       0.11701712 0.049903024 -0.15649463 0.2055145
000010 f7 cd 2c be c3 e7 20 3c f1 89 9b 3c 25 23 21 be
       -0.16875444 0.009820881 0.018986674 -0.15736063
000020 d6 3d 0f 3f 84 98 6a bc b7 b1 57 3f 15 c4 8e 3e
       0.5595373 -0.014318589 0.84255546 0.27883974
000030 f4 6b 0f 3e 81 53 7a 3e a8 7b b9 bd be 8f 49 3e
       0.14006025 0.24445917 -0.09056789 0.1968374
000040 c0 6d 53 3e 0d 67 af bd 16 f6 1a 3e 81 e6 6b 3d
       0.20647335 -0.08564577 0.15132937 0.057592873
000050 8e 53 5f 3e 99 51 6c 3d 59 4c 46 be d2 7c 3f 3e
       0.21809217 0.057695005 -0.19365062 0.18699959
000060 72 e8 ac 3d 9a dc 22 3f 2a 4f 32 be 92 0e 9d be
       0.08442773 0.6361786 -0.17413011 -0.3067518
000070 88 51 f3 3d 4a e7 82 3a 0b 55 29 3f 70 9e 04 be
       0.11880785 0.0009987142 0.6614539 -0.12951064
000080 bc c7 85 bd 22 31 02 bf ad eb 99 be e4 ff ac bd
       -0.06532237 -0.5085622 -0.3006262 -0.08447245
000090 bf 48 9d 3d b0 68 db be fa 36 24 be fe e1 28 3e
       0.07679891 -0.42853308 -0.16036597 0.16492459
0000a0 26 fe 96 3d 7c 2e 00 bd 3a ae 4a be d0 b1 17 3e
       0.07372694 -0.03129433 -0.19793025 0.14813924
0000b0 71 c1 22 be b8 0a 07 be 71 82 86 3e 0f a2 82 be
       -0.15894105 -0.13187683 0.26271394 -0.25514266
0000c0 91 75 3f be e4 c3 fd 3c a3 6c 1c 3e 8a c8 cd bd
       -0.18697192 0.030977197 0.15275817 -0.100480154
0000d0 68 09 82 3d cd 94 db 3d 4a 7b 9f 3c db c5 13 bd
       0.0634945 0.10721741 0.019467968 -0.03607736
0000e0 98 2a f2 bc 9b de ac bd 21 56 4f bd 9d d1 c8 bd
       -0.029561326 -0.08440896 -0.05061925 -0.098056056
0000f0 80 39 6b bc 0c 8d e0 3d 84 14 3c bd e2 19 5d bc
       -0.014356971 0.109644026 -0.045918003 -0.0134949405
000100 75 07 53 3e 5c f1 d6 3d c2 b6 8d 3d c9 8e 89 bd
       0.20608313 0.104952544 0.06919624 -0.06716687
000110 41 fe b4 bd e9 e1 17 bd d5 4a 46 be 0e c0 c8 bd
       -0.088375576 -0.03708068 -0.19364484 -0.098022565
000120 cd 33 41 3e 61 09 49 bd f9 50 ef 3c 84 3e ef 3d
       0.18867417 -0.04908121 0.029213415 0.11681846
000130 d0 5e 12 3d 42 45 0a 3d a7 01 a0 bc d6 7e 90 ba
       0.03573495 0.033757456 -0.019532038 -0.0011024128
000140 71 dd fe 3d d4 c2 81 3c f9 2a f0 bd 97 c8 96 3d
       0.1244458 0.015839972 -0.117269464 0.07362478
000150 d9 39 ca 3d e9 93 73 bd 5a e0 92 3d e8 c4 68 3d
       0.09874315 -0.05946723 0.07171698 0.05682841
000160 dd 15 40 bd b0 69 f7 3c 10 e8 9b bd 88 52 69 bd
       -0.04689585 0.030201763 -0.07612622 -0.056963474
000170 72 75 56 3a a3 fa dd 3d c0 24 0f 3e 79 b0 0b 3e
       0.0008180953 0.10838821 0.13978863 0.13641538
000180 52 6c 7c bd da 57 af bc c1 bf b8 bc 1d c9 91 3d
       -0.06162674 -0.021404196 -0.022552373 0.071184374
000190 a0 04 83 bb 9a a1 15 3e fc 24 05 bd 51 fb bb bc
       -0.003998354 0.14612427 -0.032505974 -0.022946985
0001a0 f2 f5 a8 3d d2 85 f5 bd 30 57 c8 bc 63 92 b7 3d
       0.08250035 -0.11988415 -0.024455637 0.08963468
0001b0 18 25 ec bc ff 4a 8e 3d be a3 84 3d 53 5f 07 bd
       -0.028826281 0.06947898 0.06476544 -0.033049893
0001c0 7f c2 01 be b4 2e 04 3e 2b a0 d6 bd d8 81 88 3d
       -0.1267185 0.12908441 -0.10479768 0.06665391
0001d0 f9 97 bf bb 74 00 ee 3d 3f f7 0a 3e 42 b0 a7 bd
       -0.005846974 0.1162118 0.1357088 -0.081879154
0001e0 02 f7 20 bd 39 a3 4d 3d 75 cd 0e bd 6b 8d 92 3d
       -0.039298065 0.05020449 -0.034863908 0.071558796
0001f0 f2 8c 1e be 0e ab 27 be 15 b9 fe bd fa 2f c4 be
       -0.15483454 -0.16373846 -0.12437645 -0.38317853
000200 70 8e e3 bd 4e 87 c9 3d 42 2e 16 3b 1a 4f 09 3c
       -0.11111152 0.098402604 0.0022915755 0.008380676
000210 34 69 c9 3c cb 8b f0 bd 32 a3 90 3e 9c 88 d6 3c
       0.024586298 -0.117454134 0.28249508 0.026188187
000220 3b 75 4d 3e d0 ca 76 3d 41 96 0d 3f e9 3f 9d 3d
       0.20064251 0.06025201 0.55307394 0.076782055
000230 cc ba 27 bf 61 2c 48 be f2 aa fa 3e c8 c7 8a bc
       -0.65519404 -0.19548179 0.48958546 -0.016940966
000240 23 c6 f0 bd 5a b2 c3 3e 43 98 c9 3d cb b7 97 bd
       -0.117565416 0.3822201 0.09843495 -0.074081026
000250 3c 1f 91 3d cf 3f 75 be 8d 93 c7 bc d3 42 df 3e
       0.070860356 -0.23950122 -0.02436235 0.4360567
000260 dd e6 91 be 34 ad 87 3e b0 de 35 3e ee c6 53 be
       -0.28496447 0.2649933 0.1776073 -0.20681354
000270 a1 30 d3 be 75 f4 83 3d 48 6c 64 be ff b2 db 3c
       -0.41248038 0.06443111 -0.22306931 0.02681875
000280 61 8f 6a 3e 64 a1 13 be 5b ab 49 3e b1 f7 3a be
       0.22906257 -0.14417034 0.19694273 -0.1825855
000290 e2 84 b1 3d 14 5c 99 3d 32 32 38 be 3b 70 00 3f
       0.086679235 0.07488266 -0.17987898 0.5017125
0002a0 1b c6 1b bc b5 28 e8 3e d6 f7 47 3d d8 e8 af 3e
       -0.009507681 0.45343557 0.04882034 0.34357333
0002b0 00 2a cf ba e7 07 f4 bd 72 9f b1 be e0 db 59 3d
       -0.0015805364 -0.1191557 -0.3469196 0.053188205
0002c0 58 b0 de be 6a 1d ff bd 02 f7 66 3d 98 ea 85 bd
       -0.43493915 -0.12456782 0.05638791 -0.06538886
0002d0 04 58 eb 3d c3 d4 ef bd be 59 14 3e df fe fb 3c
       0.11491397 -0.11710503 0.14487359 0.03076118
0002e0 4e 09 3f 3d 16 51 24 3e 51 e4 15 3e 06 ed 03 be
       0.046639733 0.16046557 0.14637877 -0.12883386
0002f0 1b 7e 65 be 54 27 71 bc 56 f2 16 be 51 b6 3d be
       -0.22411387 -0.014718849 -0.14740881 -0.1852658

bias f4 [8]
000000 11 24 f9 bd 69 ca e3 3e 0f 2c 02 3d 75 09 61 bd
       -0.12165082 0.44490364 0.0317803 -0.05494066
000010 5c ad 08 3d 7f f6 41 3f 93 7e 00 3f fa c2 81 3d
       0.033368453 0.7576675 0.50193137 0.06336017
