Masterarbeit_YorickLALY/Code_and_Neural_Network/CNN_window_size_20_MinMaxScaler.pt (torch, 10191 bytes, 12 tensors)

weight f4 [8, 8, 3]
000000 e4 ee b6 bd b8 1a 0a 3e a8 e2 47 be be 37 f7 3c
       -0.089322835 0.13486755 -0.19520056 0.030177947
000010 09 6b 69 3e d5 9e 11 3f 01 d9 2a 3e 9b d9 21 be
       0.22794737 0.56882983 0.16684343 -0.15805666
000020 5f 10 39 be 21 88 4a 3e 46 2a 4a 3e 0a c3 0b 3d
       -0.18072651 0.19778492 0.19742689 0.03412155
000030 b0 52 6b 3e fe f0 ac 3d 5c 5e cc bd 02 ab 15 be
       0.22980762 0.08444403 -0.09978935 -0.14616016
000040 cb a3 04 3e 6a e0 26 3e f6 0c 81 3e f9 1d 28 be
       0.12953107 0.16296545 0.252052 -0.16417684
000050 d1 70 ba be 32 a0 04 3d 90 2d 30 3e 99 9e 48 3f
       -0.36414197 0.032379337 0.1720488 0.78367
000060 6b 48 1a bc 44 61 73 be 2a 4d c3 bd f7 11 2e 3d
       -0.00941668 -0.23767573 -0.09536202 0.0424976
000070 c1 7b 8e be 09 7f 50 bc cb 83 b5 bd 2b d2 4b 3d
       -0.27828792 -0.0127256 -0.08863028 0.04976098
000080 06 ef 86 3d f7 3b 91 3c 6a 21 5c bc 21 6f 02 3e
       0.06588559 0.017728789 -0.013435701 0.12737705
000090 12 13 b0 3d 0a 6d 13 be 3c e2 3a be b1 bb dd 3d
       0.085973874 -0.14397064 -0.18250364 0.10826815
0000a0 af db 55 bd b1 fb 0b bf f0 d2 3a 3e d6 a3 e3 bc
       -0.05221146 -0.54680926 0.18244529 -0.027788084
0000b0 14 85 2d 3f d7 18 9e 3d 30 ea 33 be 3c 90 74 be
       0.67781186 0.077195816 -0.17569804 -0.23883146
0000c0 2d c3 79 3e a2 2f 3c 3e d9 96 cb 3c 83 ce f8 3d
       0.2439086 0.18377545 0.024852203 0.12148764
0000d0 8e 86 84 3e 72 63 98 bd 73 58 a6 bd 32 15 6d bd
       0.25883907 -0.07440843 -0.08122339 -0.05788154
0000e0 4b 58 50 bd 2f f9 0c bd 9d 12 0d bd 41 6a 23 3e
       -0.050865453 -0.034417327 -0.03444158 0.15958501
0000f0 8c 19 16 be 76 77 44 3e 3a 55 25 bd 9f 65 08 3e
       -0.14658183 0.19186196 -0.04036448 0.13320015
000100 b7 34 9e be 60 c6 56 be 00 01 2b be cc e0 a5 3d
       -0.30899593 -0.20974112 -0.166996 0.08099517
000110 3b 07 16 3e 1d 91 1f 3d 16 3e 97 be 20 dd 75 3b
       0.14651196 0.03895675 -0.29539555 0.0037515834
000120 88 54 8d bd ef 66 2a be b3 8c 03 3d 7b 0b 4d be
       -0.06900889 -0.16640829 0.032116603 -0.2002391
000130 85 57 41 3e 1d 42 14 be db a8 42 bd 1c b7 94 3d
       0.18881042 -0.14478345 -0.047524314 0.07261488
000140 71 11 93 3d 1e d2 1b bd 52 f8 a8 3d ef 9f 2d 3d
       0.07181061 -0.03804218 0.08250488 0.042388853
000150 c8 70 fd bd 8c 27 b8 3d a7 9e 4d 3e ae 55 f9 bd
       -0.12375027 0.08991918 0.20080052 -0.12174545
000160 d0 86 47 bd a2 f7 18 bd 66 d7 52 3e 9c ea ed 3d
       -0.04871255 -0.037345536 0.2058998 0.11617014
000170 f1 74 bd bd a7 a0 4d 3e 5c 24 5b bd 40 85 f0 bd
       -0.092508204 0.20080815 -0.053501472 -0.117441654
000180 52 17 0c be ac d2 0b 3d 07 4c 46 3c ef f3 30 3e
       -0.13680771 0.03413646 0.012103087 0.17280553
000190 81 b6 c0 bd a3 93 89 3e 63 41 78 3d 5f 8a c1 3d
       -0.0940981 0.2687045 0.060609233 0.0945022
0001a0 b5 2b de bd 29 d4 c5 bd c2 d0 f2 3d 35 5f 14 3e
       -0.1084818 -0.09659607 0.11856224 0.14489444
0001b0 24 94 93 bd b9 ce 6a 3b 4f f9 23 3e 3b e8 c7 39
       -0.0720599 0.0035828783 0.16013072 0.00038129263
0001c0 63 04 ca bc ad 99 3e 3e ec 43 8a 3e 79 74 3e bd
       -0.024660295 0.1861331 0.27004945 -0.046497796
0001d0 b0 e1 86 3e a0 14 29 3b 78 30 41 be bf 40 49 be
       0.2634406 0.0025799647 -0.18866146 -0.19653605
0001e0 54 7f b3 3d 9f 03 06 be 7a 43 1a be 5f b7 bf bd
       0.0876452 -0.13087319 -0.15064803 -0.09361147
0001f0 8d 0d 2b 3d d1 88 7b bd 8f 23 15 be cd 2d 1d 3e
       0.04176097 -0.061409775 -0.14564346 0.15349503
000200 fc a0 29 be b5 42 40 3e ea bf ea bd 66 10 04 3e
       -0.16565317 0.18775447 -0.11462386 0.1289688
000210 32 10 49 bd 42 3d d4 bc 11 3f 88 bd 9f fb b5 bc
       -0.04908771 -0.025908116 -0.06652654 -0.022214709
000220 55 15 af 3e af 2c d9 3b eb 61 4c be af f8 35 be
       0.34195963 0.006627641 -0.19959228 -0.17770647
000230 d8 4f 3f be 71 f3 1a 3e 90 4f 19 be a5 ee c2 bd
       -0.18682802 0.15131928 -0.14971757 -0.09518174
000240 7f 96 d6 3d 0e c2 94 bd 9e 72 ae be 99 91 31 3e
       0.104779236 -0.072635755 -0.3407182 0.17340697
000250 5d e7 97 3e c4 9f 62 3e 89 16 0f 3e 35 71 63 bd
       0.29668704 0.22131258 0.1397344 -0.055527885
000260 03 7c 18 be c5 39 28 be f8 02 3f 3e e6 c2 c3 bd
       -0.14891057 -0.16428287 0.18653476 -0.09558658
000270 4e a2 87 bc dc bd 15 be 01 5d 7a be 18 53 00 bd
       -0.016556885 -0.14623207 -0.2444954 -0.031329244
000280 79 75 2c 3e c6 23 26 be 5b 32 1c be 4c 91 95 3d
       0.16841687 -0.16224584 -0.15253584 0.07303104
000290 0f 81 bb be 24 18 8f 3e 9e 6c 09 3f ae df 08 3e
       -0.366219 0.27948105 0.5368136 0.13366577
0002a0 ab 19 48 3e 0d 3a 9d bd 0a 8e 75 be f7 d8 a7 3c
       0.19541042 -0.07677088 -0.23979965 0.0204892
0002b0 f0 4d 8d bd 48 97 33 be 73 a7 4c 3e 79 db 35 bd
       -0.06899631 -0.17538178 0.19985752 -0.04439876
0002c0 3b ee 8c bd 64 0f c3 3d d3 ed 2a be a4 81 ca 3d
       -0.06881376 0.0952442 -0.16692285 0.09888008
0002d0 83 de 48 bc 08 40 7f bd 91 f2 bf be f4 e4 a6 be
       -0.012260082 -0.062316924 -0.3748975 -0.32596552
0002e0 e3 1a 88 be 2c 72 68 3f 0c 82 1a 3d f5 87 a2 3b
       -0.26583013 0.9079921 0.03772168 0.004960055
0002f0 4f 4d 1a 3f 54 b9 43 3e 8f 1f 5a 3e e1 b9 64 3e
       0.60274214 0.19113666 0.21301101 0.22336532

bias f4 [8]
000000 f7 6d a5 bd db fd a9 3e c9 55 89 3e b3 03 ed bd
       -0.08077615 0.3320149 0.2682326 -0.11572971
000010 14 15 78 be 07 c7 53 3e 1c 81 c0 bc d3 d1 45 bd
       -0.2422679 0.20681392 -0.023499064 -0.048295807

weight f4 [8, 8, 3]
000000 6f 97 81 be 70 66 8a bd f2 b3 0d bf 37 16 00 3e
       -0.25310847 -0.0675782 -0.553527 0.12508474
000010 c1 c0 21 3e e5 03 97 bd 1a d3 dd 3d 2c 0c 5a bc
       0.15796186 -0.0737379 0.1083128 -0.013308566
000020 2d 17 99 3e 77 e9 3a be f6 b1 03 be 1a 71 b4 bd
       0.29900494 -0.18253122 -0.12860855 -0.08810635
000030 bb f6 0c be 7e 8e d0 bc 30 77 20 bd 41 46 81 3d
       -0.13765995 -0.02545857 -0.039176166 0.06312228
000040 cb 6e 2c 3e fc 39 0c 3e e2 54 e5 3c 8e bd cb be
       0.16839139 0.13693994 0.027994577 -0.39793056
000050 16 43 bb be c6 26 d5 bc c5 0b 74 be ef 3f d0 bd
       -0.3657462 -0.026019465 -0.23832615 -0.10168444
000060 97 e6 8e bc 91 05 a4 3d a1 14 0e 3f ba 03 9a 3d
       -0.017443938 0.08008874 0.5550023 0.07520242
000070 f9 46 b0 bb c8 8c 2e be 93 95 2c bd 4d 6a af bc
       -0.0053795543 -0.17045891 -0.042134833 -0.021412993
000080 be 16 be bd 42 ff 05 be 6f bb 48 be 58 5a 56 b9
       -0.092816815 -0.13085654 -0.1960275 -0.00020442286
000090 18 03 73 3e 92 71 8a be d2 03 e8 bd df 75 64 be
       0.23731649 -0.27039772 -0.11328854 -0.22310589
0000a0 77 e7 fc bd 8b 52 8f bc 2d 26 32 3d 7a 1c 8f 3e
       -0.12348836 -0.017495414 0.04349344 0.27951413
0000b0 fc 40 cf 3e d6 22 8d 3d 49 f1 a9 ba 2d 1d 86 3d
       0.40479267 0.0689141 -0.0012965585 0.065485336
0000c0 8f 7b 85 bd 07 32 0b bc ce a3 df 3d e9 ad 42 bd
       -0.065177076 -0.008495814 0.10919915 -0.047529135
0000d0 da 51 1f 3e ea 74 30 be 52 43 8d 3d b4 60 eb bd
       0.15558568 -0.17232099 0.06897606 -0.11493054
0000e0 49 6f 0a be cd 82 86 3c 81 f2 af 3d 06 9d 35 3d
       -0.13519014 0.016419793 0.08591176 0.044339202
0000f0 71 b0 2e be 37 1f 78 3b f2 dc a9 3d dd 84 a1 3d
       -0.17059495 0.0037860402 0.08294095 0.0788667
000100 4f 3f bf 3d 59 8b 1c 3e 4f 8c 48 be e7 05 a9 bd
       0.09338247 0.15287532 -0.19584773 -0.08253079
000110 da 32 1b 3e 67 d7 81 ba f3 ca ba 3d 82 60 5e be
       0.15156117 -0.0009906114 0.09120741 -0.21716502
000120 d1 72 42 3e 63 81 dd 3d 4b 7b 76 bb 4a 93 f3 3d
       0.18989111 0.10815694 -0.003761011 0.118933275
000130 15 43 87 3e 0e 52 00 3f 87 4b 0d 3d a6 bb 07 be
       0.26418367 0.50125206 0.034495857 -0.13255176
000140 9f 06 98 3e 95 45 bb 3d d5 89 cd 3d cb 24 96 bd
       0.29692551 0.09144131 0.10036055 -0.073312365
000150 f7 2b 9c be f6 64 73 be d0 d7 94 bd 18 6e 39 3e
       -0.30502293 -0.23768982 -0.072677255 0.18108404
000160 a2 66 67 be d8 3b 37 bc dd a2 58 3e d5 05 a2 3e
       -0.22597745 -0.011183701 0.21155877 0.31645074
000170 16 b9 8e 3d 9a 3b 37 be 17 f5 74 be 9e da 49 bf
       0.06968896 -0.1789383 -0.2392162 -0.7884921
000180 b8 16 22 3e 81 18 55 bd 23 c4 5e 3e 51 0e 90 be
       0.15828979 -0.052025322 0.21754508 -0.28135923
000190 0e 6e cc be 10 29 c7 be d7 dc 5c be 40 ea 47 3e
       -0.39927715 -0.38898516 -0.21568619 0.19522953
0001a0 62 15 33 be bd ff 11 3e 3e 3f b5 bd 4d 47 17 be
       -0.17488626 0.14257713 -0.08849953 -0.14773293
0001b0 d3 eb d2 3b 90 e1 bb bd ec 0b 04 3d a5 a0 28 3e
       0.006436804 -0.09173882 0.032237932 0.16467531
0001c0 99 3e 1b 3e 33 e2 1e 3e d3 da 4c be e9 0a ec 3d
       0.15160598 0.15515976 -0.2000535 0.115255184
0001d0 a8 a8 0e be 3d 9a 3b bd 93 ad bc bd 6a f4 85 be
       -0.13931525 -0.04580139 -0.09212794 -0.26163036
0001e0 a0 39 1d 3c b0 3f e8 3d b3 cb 90 bd f9 aa 2c 3d
       0.009596258 0.113402724 -0.070701025 0.04215524
0001f0 93 29 23 3e 61 af d6 bd 38 7a 2f 3e 29 77 2d be
       0.15933828 -0.104826696 0.17136467 -0.16939987
000200 eb 51 7c 3d 47 43 2b be c0 8e 43 3e ee d3 db bd
       0.06160156 -0.16724883 0.19097424 -0.10733782
000210 c0 c3 ee bd 75 06 c3 3d 52 e6 f7 3b 04 45 78 3d
       -0.1165843 0.09522716 0.007565298 0.060612693
000220 30 4e 8c bd d3 46 41 3e 79 62 67 3d 1c 66 ba bd
       -0.068508506 0.18874674 0.056490395 -0.09101507
000230 bb 1a 2b be ef 95 17 3d 5e ee 42 be 11 20 10 3e
       -0.16709416 0.037008222 -0.19036242 0.14074732
000240 cc 6b a3 3d f7 59 3c 3c d7 06 73 be 38 b9 39 be
       0.07979545 0.011496059 -0.23733078 -0.18137062
000250 8a c7 4e 3e c3 82 03 bf 62 04 c4 bd 87 55 68 be
       0.20193306 -0.513714 -0.095711485 -0.22688876
000260 ed 0b 64 be df bc 32 be 55 a2 ac bd 09 0e 4a bd
       -0.22270174 -0.17454861 -0.084294 -0.04932979
000270 58 96 03 be 59 49 39 be 11 a5 1f 3d e2 04 89 3d
       -0.1285032 -0.18094386 0.03897578 0.066903844
000280 84 80 8c 3d ce 1b ae 3d bc 02 5d 3c eb d9 34 3e
       0.0686045 0.08501397 0.013489421 0.17661254
000290 c7 ef f6 3c df c3 77 3e 8f 7b 85 3e e2 1c df 3e
       0.030143632 0.24195813 0.2607083 0.43576723
0002a0 12 1e 0e be 32 83 a5 bd f6 22 4e be de b3 da bd
       -0.13878658 -0.08081664 -0.20130524 -0.10678838
0002b0 eb d8 29 bd fc a3 92 3d 2b 32 4a 3e 89 5a 95 3d
       -0.041466635 0.07160184 0.197457 0.07292659
0002c0 a8 75 39 3d 96 c8 d2 3c 5a 00 3d bd 69 70 03 3e
       0.04527822 0.025730412 -0.046142913 0.1283585
0002d0 93 24 9b 3d e6 de 7f bd dc 44 00 be ad 36 4d be
       0.07575335 -0.062468432 -0.12526268 -0.20040388
0002e0 f0 90 1f 3e 63 15 c9 3c ba 78 4a be b8 65 36 be
       0.15582633 0.02454633 -0.19772616 -0.1781224
0002f0 cf 92 48 be a1 a7 29 be af 32 ff bd 9e 4a 32 be
       -0.19587253 -0.16567852 -0.12460839 -0.17411277

bias f4 [8]
000000 de a3 d7 3e 37 fa b8 bc 92 d4 0a 3e 3b 3d 02 3e
       0.42117208 -0.02258025 0.13557652 0.1271867
000010 1b 1f bf 3e 9d 5c ea bd 7d c6 d2 3d 54 74 b6 bd
       0.3732842 -0.11443446 0.10291765 -0.089089066

weight f4 [8, 8, 3]
000000 bd 81 c3 3d f5 74 32 3e 6f 44 c0 3d 90 23 74 bd
       0.0954623 0.17427428 0.09388053 -0.059604228
000010 c4 b3 7c be 5a 80 e3 3d f4 92 44 be fe 13 2b 3e
       -0.2467795 0.111084655 -0.19196683 0.16706845
000020 97 50 14 be 6b 7c 1c 3e df 76 09 be 1c 2d 01 3f
       -0.14483868 0.15281837 -0.13424252 0.50459456
000030 48 d9 97 bb eb 14 fc bd 8f 0f 69 3d f0 23 18 3e
       -0.0046340562 -0.12308677 0.056899603 0.14857459
000040 04 37 11 3e 8b ae 34 be 4a 2b 56 bd 31 7f 17 be
       0.14181143 -0.17644708 -0.052287377 -0.14794613
000050 40 80 23 bf c0 5e 3d 3e 1e 31 05 be 4c 5c 81 3d
       -0.6386757 0.18493176 -0.13007018 0.06316432
000060 65 de 02 be 34 b4 56 3e 25 56 96 3c 5f 17 51 3d
       -0.1278015 0.2096718 0.018351624 0.05104768
000070 f7 26 fe bd 0d c1 ff be ed 7b 47 bd 17 04 12 3e
       -0.12409776 -0.49951974 -0.04870217 0.14259373
000080 c8 f6 ae b9 41 a4 b0 be 7c 6a cd be d6 b3 36 bf
       -0.00033371733 -0.34500316 -0.40120304 -0.7136816
000090 86 9a 32 be ce 56 7e be 95 bb 71 be be 0c 0b be
       -0.17441759 -0.24837801 -0.23606713 -0.1357908
0000a0 02 01 e6 ba 47 78 56 3e c7 e1 b4 bd 76 51 cd 3d
       -0.0017547908 0.2094432 -0.08832126 0.10025303
0000b0 16 67 0e 3e bf 66 d6 3d c1 17 c5 3b a3 c0 d7 bd
       0.13906512 0.10468816 0.0060147946 -0.105347894
0000c0 7f 85 1d be 7f e8 d9 3d 1c d4 27 3e d6 86 8f bd
       -0.15382956 0.10640048 0.16389507 -0.0700814
0000d0 02 1e 55 be 72 09 17 be 32 f7 23 3c 37 f5 5c 3e
       -0.20812228 -0.14749697 0.010007666 0.21577917
0000e0 79 5d 90 bd 6a aa 75 3d f1 fb df bd 1c a5 81 3e
       -0.070490785 0.059976973 -0.10936726 0.2532128
0000f0 df ff 9d 3e d4 a7 75 3e e1 d0 5f 3e 34 6e 91 bd
       0.30859277 0.23989803 0.21857025 -0.07101098
000100 fe c1 29 3e fb e7 0a bd bf 00 0b 3d 7c a6 77 be
       0.16577908 -0.03391264 0.03393626 -0.24184602
000110 12 88 bd 3d 87 ee 79 bd 84 7f 26 3e 95 74 dd bd
       0.09254469 -0.061018493 0.16259581 -0.10813252
000120 df 6e b2 bc 06 4a 6e bc 14 4c 3c 3c aa 88 a3 3d
       -0.021781383 -0.014544016 0.011492748 0.07985051
000130 23 7f 19 bd 87 fe 91 3d b3 a2 01 3e 3f d9 95 3e
       -0.037474763 0.07128625 0.12659721 0.29267308
000140 d2 f5 1c 3e 56 89 b3 3e 04 58 44 3e d9 71 4f 3e
       0.15328148 0.35065717 0.191742 0.20258273
000150 96 e7 30 3d e4 c3 8d 3e cd d8 84 3e 55 b8 fb 3d
       0.043189608 0.27688515 0.25946656 0.12291018
000160 48 bf 87 3c bd 4d 58 bd 99 b5 45 be 92 e5 86 3d
       0.016570702 -0.052808512 -0.19307555 0.06586756
000170 ec 36 f4 3d 7c 07 2e be 13 78 05 be 14 8d c6 3d
       0.11924538 -0.16995043 -0.13034086 0.09694877
000180 2e 58 c4 3d fb e4 9d bd e3 d9 f6 bd 42 ad 77 3e
       0.095871314 -0.0770969 -0.12053277 0.24187186
000190 16 da b9 bd 34 17 0d 3d ce b6 d5 bd ed 9b 96 3d
       -0.090748 0.034445956 -0.10435258 0.07353959
0001a0 6b d5 27 bd 6e 01 c6 3d 55 30 40 3c c5 fb d8 bd
       -0.040975016 0.096682414 0.011730273 -0.10594896
0001b0 ec 33 3d be 23 d4 8f 3d ff 9f 99 bd 86 60 14 be
       -0.18476838 0.07022884 -0.0750122 -0.14489946
0001c0 bc b0 d2 bd 09 f5 bd 3d d5 af 91 bd 1d 4c 2a be
       -0.10287616 0.09275252 -0.071136154 -0.16630597
0001d0 47 c4 58 be 57 cd 5d bd 51 95 42 3d 78 f1 2b be
       -0.21168624 -0.054150905 0.04750568 -0.16791332
0001e0 d3 41 33 be 79 73 49 3c 14 b5 4d 3e 87 bc 2b 3e
       -0.17505579 0.012295597 0.20088607 0.16771136
0001f0 17 63 16 be 3a f7 e7 39 29 de c0 bd 5f 3d 6c 3d
       -0.14686237 0.00044243952 -0.09417374 0.057675716
000200 a1 50 3a 3e a9 2f 18 be 5d 61 f7 3c 47 75 25 be
       0.1819482 -0.14861931 0.030197794 -0.16158019
000210 df 55 d6 bd ac d5 ca 3d 48 f9 5f bd dc bc b8 3d
       -0.10465597 0.09904036 -0.054681093 0.09020397
000220 8f a0 b2 3d 66 b4 03 3e fd 66 ba 3c fb 61 f7 bd
       0.0872203 0.12861785 0.022754187 -0.12079235
000230 5d dd 68 3d 44 5b 9d 3d 50 d8 18 3e 90 f2 e1 bd
       0.056851733 0.07683423 0.14926267 -0.11032593
000240 28 4b 07 3e 11 1c a3 3e 28 50 ad 3e 62 e6 c7 bc
       0.13212264 0.3185735 0.33850217 -0.024401847
000250 29 57 8a be b4 5a 12 bf a4 ed 47 3e 5b 1d 4e 3e
       -0.27019623 -0.5716965 0.19524246 0.20128386
000260 58 cc 0e be df a2 05 be 01 c1 1d 3d fe 6c 1e 3d
       -0.13945138 -0.13050412 0.03851414 0.03867816
000270 f3 70 8b bc 69 d3 be be f6 e0 05 be b5 90 77 bd
       -0.017021632 -0.37270668 -0.13074097 -0.060440738
000280 ce a6 10 3e d6 b6 37 be 5a 82 69 bd 6a 4f 43 3e
       0.14126131 -0.1794084 -0.05700908 0.19073263
000290 19 83 89 bc 04 98 97 3d 88 8b fa 3d 53 63 e2 3c
       -0.016786145 0.074020416 0.12233645 0.027635252
0002a0 34 6d 62 be d0 dd 91 be f3 b8 04 bf 50 cb 2e bd
       -0.2211197 -0.28489542 -0.5184471 -0.042674363
0002b0 a4 29 8a be 80 c7 8c 3d 8e 38 ad 3d 88 f9 90 3d
       -0.26984894 0.06873989 0.084580526 0.07078844
0002c0 55 52 b1 bd 96 59 54 bd 96 7e a1 bb 7f c8 88 3b
       -0.08658282 -0.05184325 -0.0049284203 0.0041742916
0002d0 2c f7 12 3e 1b ec 2a 3e 72 ed 8e 3e 83 78 34 be
       0.14352101 0.1669163 0.2791553 -0.17624097
0002e0 a4 92 15 bd be b3 3b be 41 3e 81 be 1a 8e b0 be
       -0.0365168 -0.18330285 -0.25242808 -0.34483415
0002f0 72 a4 15 be 2f bd fd 3d 93 15 07 be df 42 36 3e
       -0.14613512 0.123895995 -0.13191824 0.17798947

bias f4 [8]
000000 15 be c5 3d cb d7 72 3e b2 cc 93 3d f8 0b 37 be
       0.09655396 0.23715131 0.07216777 -0.1787566
000010 e5 85 d0 3c a7 c0 eb bd 84 c0 87 3e bd 8c 24 3e
       0.02545447 -0.11511355 0.26514065 0.16069312

weight f4 [8, 8, 3]
000000 b9 6f 55 3d 9b b5 6a bd ef 6e 42 3e 1d 38 98 3d
       0.0521085 -0.0573021 0.1898763 0.07432578
000010 13 34 63 be 48 4f 20 bd f8 8a c2 bd a3 38 c8 bd
       -0.22187833 -0.03913811 -0.094991624 -0.097764276
000020 50 67 03 be 64 c4 ea 3d 17 48 58 bd 93 b1 35 be
       -0.1283238 0.1146324 -0.052803125 -0.1774352
000030 a1 77 11 bc 22 f6 11 3b 69 07 41 3d 94 dc e4 3d
       -0.008878619 0.002227195 0.047126208 0.111748844
000040 c1 16 a4 bd 55 f7 20 3e ae 1e c6 3c d8 78 9a bd
       -0.080121525 0.1571935 0.024184551 -0.0754258
000050 44 38 57 be 81 37 87 be fd f4 dd bd 8a de 26 be
       -0.21017557 -0.26409534 -0.108377434 -0.1629583
000060 96 81 7d 3c 5d e5 01 3e 16 58 cd 3e ba 49 b2 3c
       0.01547279 0.12685151 0.40106267 0.021763671
000070 d6 3f b5 be 95 b4 09 bf 23 00 35 bd 2c 2e 8a 3d
       -0.35400265 -0.5379117 -0.044189584 0.06747088
000080 14 e2 b3 3e 7b 67 be 3d a6 17 04 3e 40 e7 63 be
       0.3513342 0.09297081 0.12899646 -0.22256184
000090 ff 62 81 bc 89 4b 28 bd a9 62 d3 3b 61 c3 17 3d
       -0.015794275 -0.04108766 0.00645097 0.037051562
0000a0 7e 38 9f bc 14 1d 04 3d e5 75 c0 3d ce aa db 3b
       -0.019436117 0.032254294 0.093974866 0.006703711
0000b0 83 3f 82 be bc c7 3e 3d e1 69 f6 bb a2 52 05 bd
       -0.2543908 0.0465772 -0.007519946 -0.032549508
0000c0 3f 62 b0 bb 24 9a 12 3e 66 cc 90 3d c9 83 96 bd
       -0.0053828056 0.14316612 0.07070236 -0.07349355
0000d0 43 b5 0d 3d 8c f2 34 bb b6 13 96 bd 58 28 1b be
       0.034596693 -0.002761039 -0.07327978 -0.15152109
0000e0 c5 22 4f 3e 38 9d e3 3d c1 55 ff bd ac 86 89 bd
       0.20228107 0.111139715 -0.12467528 -0.0671514
0000f0 75 46 49 bd 90 26 21 be 32 b0 e6 3c 71 7c 93 3c
       -0.04913946 -0.15737367 0.028160188 0.018003674
000100 24 42 d6 bd 24 af 4a 3e 98 73 f5 bd f0 90 14 3d
       -0.10461834 0.19793373 -0.119849384 0.036271036
000110 f6 0d 20 3d 8d a3 15 be 2d ad 57 be 58 89 92 be
       0.039075814 -0.14613171 -0.21062155 -0.2862041
000120 7d b8 82 be 29 97 0e 3e ae 42 c0 bd 37 44 11 be
       -0.25531378 0.1392485 -0.09387718 -0.14186178
000130 a4 20 9a 3c 62 a9 74 bc e8 6c 48 bd 3a f2 54 be
       0.018814392 -0.014932962 -0.048931986 -0.20795527
000140 4a 3d 7e bd fb ec db bd e0 5b 00 be 2a 0b ba bd
       -0.06207017 -0.1073856 -0.12535048 -0.090841606
000150 53 ec 98 3c 76 30 22 3e 7a f2 a8 3d b9 b3 2c be
       0.018667376 0.15838799 0.08249374 -0.16865434
000160 b6 17 40 be 60 80 19 bd 5a d4 b6 3d dc 6f a9 bc
       -0.18759045 -0.037475944 0.089272216 -0.020683222
000170 a2 ef ac bd de 3f 3f be 49 9a 54 be 79 27 0b 3e
       -0.08444144 -0.18676707 -0.2076198 0.13589276
000180 2d 18 94 bd 20 fe 2d be 3b 44 22 be d4 b9 ef bc
       -0.07231174 -0.16991472 -0.1584634 -0.029263414
000190 89 86 e9 3d 60 cf 41 be ee 86 02 3c 68 35 d0 3d
       0.11402614 -0.18926764 0.00796674 0.101664364
0001a0 87 f4 cc 3d 4b f7 48 3d 05 30 95 3d 3e f9 c2 bd
       0.100075774 0.049063962 0.072845496 -0.095201954
0001b0 7b 27 34 be ab a3 35 3e 01 ec 97 3d e7 37 c1 bd
       -0.17593186 0.17738216 0.07418061 -0.09434491
0001c0 8c 2b a5 3d 95 fd 14 bd 78 3b 32 be b3 16 f5 3d
       0.080649465 -0.036374647 -0.17405498 0.1196722
0001d0 e9 21 8d 3d f6 b1 2d 3e 89 45 9a bd a1 87 3a be
       0.068912335 0.16962418 -0.07532794 -0.18215801
0001e0 da ca 2d be e8 8e de bd 37 84 6e be 75 ac 4e be
       -0.16971913 -0.10867101 -0.23292623 -0.20182975
0001f0 c6 9d 6a be 70 2a c4 be af c1 17 be d6 2a e6 3d
       -0.22911748 -0.38313627 -0.14819978 0.11238639
000200 38 04 b8 be 37 73 33 be 2c 8b bc 3d d0 72 07 be
       -0.3594072 -0.1752442 0.092062324 -0.13227391
000210 cc 1c 60 be 0e 6a cb 3d 86 7c 5e bd 00 8e fb 3d
       -0.21885985 0.09932338 -0.054317974 0.12282944
000220 02 6d e8 bd fe d3 c9 bc 72 fb 7d be 83 6c 1c bf
       -0.113489166 -0.024637219 -0.2480295 -0.61103076
000230 79 b3 27 bf 00 80 a9 bd 77 8a 91 3d fe b9 0b 3e
       -0.6550823 -0.08276367 0.07106488 0.13645169
000240 d3 28 76 3d fd 5e 30 3e 2d 0d 65 bd da 0a 35 be
       0.060097527 0.17223735 -0.05592077 -0.17679921
000250 5c 84 1d 3e 15 85 0d 3e ef b4 cc 3d 3c dd 26 be
       0.15382522 0.13820298 0.09995448 -0.16295332
000260 a9 45 0c 3d 4a 69 a4 3d 11 2d 0c 3e c4 95 e1 3d
       0.03424612 0.08027895 0.13689066 0.11014894
000270 f2 11 59 3d 4c 34 a4 bd 9a 7d 7a bd 5b 3a 1f be
       0.05299563 -0.08017787 -0.06115494 -0.15549605
000280 8e 93 10 be b8 f4 3d 3e b8 f9 8e 3d 97 17 3c bd
       -0.14118788 0.18550384 0.06981224 -0.045920935
000290 ce 18 de 3d 0b 98 d8 3c 37 12 8f bd d5 fc 2c be
       0.10844575 0.026439687 -0.06985896 -0.16893323
0002a0 6d 2c 1b be 60 e2 d2 be 2b f1 94 be d2 23 35 bd
       -0.15153666 -0.41188335 -0.29090247 -0.044223614
0002b0 e5 1d ff bd d1 10 a0 bd c1 90 97 be 93 0d 67 be
       -0.12456874 -0.078157075 -0.29602626 -0.22563772
0002c0 c3 ba 82 be d7 70 1d 3e c1 60 e3 3d 76 25 79 3e
       -0.25533113 0.15375076 0.11102439 0.24330696
0002d0 fd 7e e2 3c fa 62 99 3d 12 f9 16 3e a3 e4 30 bc
       0.027648443 0.074895814 0.1474345 -0.010796699
0002e0 19 a6 cd 3d 46 99 e3 3d cc 08 7a 3d df e2 91 be
       0.10041446 0.11113219 0.061043546 -0.284934
0002f0 49 01 38 be ef 35 db 3d b4 01 62 be b0 45 71 bd
       -0.1796924 0.107036464 -0.22070962 -0.05890435

bias f4 [8]
000000 91 4c 2e 3e f8 04 9e 3e 04 8a 46 3e 43 cf 81 3d
       0.17021395 0.30863166 0.19388586 0.0633836
000010 ea f9 d9 bd 0a b3 1a 3f 21 fc 22 be af ff 9b 3e
       -0.106433704 0.6042944 -0.15916492 0.3046851

weight f4 [8, 8, 3]
000000 4c c0 0b 3d ec 16 19 3e 06 59 12 3e 68 79 83 bd
       0.034118935 0.1495015 0.14291772 -0.06419641
000010 70 aa 5d 3c 82 d9 a9 bd 6b f8 ae bd 00 2c 84 b9
       0.013529405 -0.082934394 -0.08543476 -0.00025209785
000020 4b 9e 16 be 98 8f 30 3e f0 5f 60 3c c0 29 d3 3b
       -0.14708821 0.17242277 0.013694748 0.006444186
000030 72 8d 0b 3e 98 0a ee 3d 10 70 12 3e 6f 5c 40 be
       0.13628176 0.11623114 0.14300561 -0.1878526
000040 48 4f f1 3c f4 46 07 be b2 b8 3d 3e 94 9e 29 be
       0.02945675 -0.1321066 0.18527487 -0.16564399
000050 04 5d 36 3e a4 22 29 bd b8 19 2c be 28 fa ed bd
       0.1780892 -0.0412928 -0.16806686 -0.11619979
000060 04 cc 2e be be b9 e2 3c 20 45 91 bc 79 e0 3c 3e
       -0.17070013 0.02767646 -0.017733157 0.18445005
000070 fd 5c 0b 3e aa 6f 34 be 10 f5 55 be f4 12 29 be
       0.13609691 -0.17620721 -0.20894265 -0.16511136
000080 51 e6 b9 bd 8c e8 3e 3e c9 03 2c 3e ab 4c 49 be
       -0.090771325 0.18643397 0.16798319 -0.19658153
000090 94 41 29 3e 81 db 42 3e cf fd 4c be e6 84 38 bc
       0.16528922 0.19029047 -0.20018695 -0.011262154
0000a0 99 8b 9b be 3b 7f 85 be 62 3d 26 3e a3 08 37 3c
       -0.30379942 -0.26073632 0.16234353 0.011171493
0000b0 d9 5e 78 bd 00 6e fd bc d5 19 0d bd ea 77 a1 3d
       -0.06063733 -0.030936241 -0.034448463 0.078842
0000c0 e3 af f0 bd ca 02 f4 3d df e0 06 be 63 8a 1d be
       -0.11752298 0.119145945 -0.13171719 -0.15384822
0000d0 39 e9 02 bd 2a 3b 1d 3e f4 8a f7 bc 2e e5 cb 3c
       -0.0319607 0.153546 -0.030217625 0.024889555
0000e0 11 29 31 bc b3 74 f7 bd 9b 45 5a 3a b3 3b 02 be
       -0.010813014 -0.120828055 0.0008326412 -0.12718086
0000f0 6b ba 2f bc 4e 9d 2c bd e9 8c 46 be 93 db 75 3d
       -0.010725598 -0.042142205 -0.1938969 0.060023855
000100 f7 08 40 3e c3 c2 b6 3d 3b 9b 59 bc f1 0f 83 3c
       0.1875342 0.089238666 -0.013281639 0.015998812
000110 e8 57 ae bd c9 7d c7 3d c9 b9 0d 3e d3 45 f4 3b
       -0.085128605 0.097407885 0.13840403 0.0074546128
000120 49 ce db bc 85 0b b1 bd a5 0d d4 3d 07 c7 9c be
       -0.026831763 -0.08644775 0.10354165 -0.30620596
000130 dc 71 20 3c 67 b3 7f 3e d0 ac 31 be 21 68 e2 bd
       0.009792771 0.2497078 -0.17351079 -0.11055017
000140 d9 d5 df 3d bb 4a 71 3d aa 94 b2 3d 23 dd 4e be
       0.1092946 0.05890916 0.08719762 -0.20201544
000150 fd ef 00 3e 49 7b 79 3c 30 cf 09 3e dc 5a 4d be
       0.12591548 0.015227147 0.13457942 -0.20054191
000160 51 e1 de bd bc f6 8a bd 03 10 e7 3d d0 4b 9c 3d
       -0.108828194 -0.06785342 0.11282351 0.076316476
000170 c1 0b cf 3c 9f 1f 9b bd 4b 3f 86 3e 5f 7b 0f 3e
       0.02527416 -0.075743906 0.26220164 0.14011906
000180 fc 3c 05 3e 22 15 35 be 38 47 f7 3d e8 87 0f 3d
       0.13011545 -0.17683843 0.12074131 0.03504172
000190 aa ea 4a 3e ba d8 02 be 02 2e ba bd a4 a1 9c 3d
       0.1981608 -0.12777987 -0.090908065 0.07648018
0001a0 80 41 74 3d cc 1d 8f 3d 34 3c 39 bd b2 56 a2 bd
       0.05963278 0.06988105 -0.04522343 -0.07926692
0001b0 a0 7d b6 3d 42 cf 0c 3e 66 21 2a 3e 44 fa 97 bd
       0.0891068 0.13750938 0.16614303 -0.07420781
0001c0 84 cc e6 bd b0 12 33 3d 50 c0 40 3d 7b 1f 0d be
       -0.11269477 0.043718994 0.047058403 -0.1378154
0001d0 d0 5a bb 3c c0 dd b7 bc 85 3f 17 be 41 92 47 be
       0.022870451 -0.022444606 -0.14770325 -0.19489385
0001e0 59 d4 4d 3c 1d 8d 01 3e 1c 5a 3b 3d b3 47 e3 bd
       0.012562835 0.12651487 0.045740232 -0.1109766
0001f0 bf 94 ab bc 12 05 6d be fc d6 12 be 7a 9f 23 3e
       -0.020944951 -0.23146465 -0.14339823 0.15978804
000200 e9 4a 20 3e 98 07 bc 3d c1 85 69 bd 3d 08 f1 3c
       0.15653576 0.09181136 -0.057012323 0.029422874
000210 ba b7 f2 bd 85 65 09 be 0a 20 0b 3d a0 19 54 3d
       -0.11851449 -0.13417633 0.0339661 0.05178225
000220 87 12 5f 3e e9 0c 3b 3e 84 2d 83 bd 8a c1 42 bd
       0.21784411 0.18266644 -0.06405166 -0.047547854
000230 d5 b8 54 3d 26 c5 69 3e 2b d6 25 3e 08 17 8e 3e
       0.051934082 0.22829112 0.1619498 0.27751946
000240 99 3d 35 3e f8 a5 53 3e 46 a2 35 3e 44 9e c3 bd
       0.17699279 0.20668781 0.17737684 -0.09551671
000250 49 1c 87 3d 61 ea b2 3d a3 9b de 3d 14 09 85 bd
       0.06597192 0.087361105 0.10869529 -0.06495872
000260 8a 0f 9b 3d fd 63 c2 bd ec 63 b3 bc 7b 20 11 3e
       0.07571323 -0.094917275 -0.021898232 0.14172547
000270 5b fa 96 3d c6 6d 03 be 6e dc af bd 42 c3 f1 3c
       0.0737197 -0.12834844 -0.085869655 0.029512051
000280 06 f6 19 3c 2b 43 1f be 81 f9 c0 bd 89 39 b6 bd
       0.009397035 -0.15552966 -0.09422589 -0.08897693
000290 35 dc 46 3d b9 02 0a 3d 36 da 15 3d be 61 5b 3e
       0.04854985 0.033694003 0.036585055 0.21424004
0002a0 c8 25 0d 3e 4c 6e 23 be b7 97 14 3c 8d af 47 bd
       0.13783944 -0.15960044 0.009069375 -0.048751403
0002b0 12 87 f9 3d a2 9e 95 bd c7 6c df bd ec a3 2f 3e
       0.12183966 -0.073056474 -0.109094195 0.17152375
0002c0 b8 51 42 be 93 4b 36 be bc f5 39 3e e4 e9 20 bd
       -0.18976486 -0.17802267 0.18160146 -0.039285555
0002d0 dc b0 db bd 75 8c c9 3d c7 c0 2b be d9 ed 12 bc
       -0.107270926 0.09841243 -0.16772757 -0.00896784
0002e0 58 53 8d 3d 52 53 f4 3d 9b 21 b0 bd 0f 7f 49 3e
       0.06900662 0.119299546 -0.0860016 0.19677375
0002f0 65 0c ac bd e5 2c 5c be 92 5d ce 3d 13 91 9a bd
       -0.084008016 -0.21501501 0.10076441 -0.07547202

bias f4 [8]
000000 fb 5c 33 be 3c 59 51 3e d5 a8 f8 bc bd e5 7f 3d
       -0.17515938 0.20444196 -0.030353943 0.062474955
000010 e8 1e 42 be ee f2 93 bd 98 1d 10 3d c7 d5 41 3d
       -0.18957102 -0.072240695 0.035184473 0.047323015

weight f4 [8, 24, 1]
000000 d7 21 cb 3d 46 a7 3b 3c ce 10 c3 3d c0 c7 31 be
       0.09918564 0.011453455 0.095246896 -0.17361355
000010 45 f1 21 be 20 25 2d 3c 54 6a 92 be 13 41 1b 3f
       -0.15814693 0.010567933 -0.28596747 0.6064617
000020 77 42 8b be c0 da 59 3d 9a 53 b0 be 8d 5a 35 3b
       -0.27199146 0.053187132 -0.34438783 0.002767238
000030 ef f5 29 3c 81 96 d2 3e 28 fc 91 bc c8 a2 bf be
       0.010373577 0.4113045 -0.017820433 -0.3742888
000040 59 6d 19 be cd b1 82 bd 51 52 a4 bd 4e 15 0d be
       -0.14983119 -0.06381569 -0.08023513 -0.13777658
000050 1e c1 9f bd da 68 df be df 33 1d be fc 33 b7 bc
       -0.07800506 -0.43634683 -0.15351819 -0.022363655
000060 9c 1c db bc 84 13 91 be 68 54 62 be 92 74 89 bd
       -0.02674704 -0.28335202 -0.22102511 -0.06711687
000070 aa 6f 52 be 11 18 e0 bc 14 d4 df bd c3 63 d6 bc
       -0.20550409 -0.027355226 -0.109291226 -0.026170617
000080 cb da 22 be c9 fb b4 3c 35 fe 19 be b9 94 19 be
       -0.15903775 0.022092717 -0.15038379 -0.1499814
000090 c3 2f 2c 3d 79 f5 43 3f 2d a5 47 bc bf 17 88 3e
       0.042037737 0.76546437 -0.012185377 0.26580617
0000a0 24 e6 8e 3d ed b9 8d be 59 08 fc 3d 8f 60 13 be
       0.069774896 -0.27680913 0.1230628 -0.14392303
0000b0 60 a1 90 bc fa 24 1e 3d 2d 25 00 be f3 0f 70 3d
       -0.017655075 0.038609482 -0.12514181 0.05860896
0000c0 86 c0 4b bc 54 d4 40 3d e4 d6 f3 3c d8 3f a4 bc
       -0.012436038 0.047077492 0.029765554 -0.020049974
0000d0 b0 bc ef 3d 19 45 ad 3d b2 94 9b 3c b5 8c 01 bd
       0.11705911 0.08460445 0.018991802 -0.03162833
0000e0 d0 98 16 3d 22 83 56 bb 71 21 76 3d 67 be e6 bd
       0.036766827 -0.003273197 0.060090486 -0.11266785
0000f0 52 62 3b 3e 9c 0c f7 3d 0d 2b d8 3d 91 f8 ab 3d
       0.18299225 0.12062952 0.10555086 0.0839702
000100 7c 85 86 3d c8 3d c5 3d 03 98 99 3d 40 29 08 bc
       0.06568429 0.096309245 0.07499697 -0.008310616
000110 80 05 2a 3d 8a f1 39 be 11 bb b3 3a e8 d7 1d be
       0.04150915 -0.18158546 0.0013712366 -0.15414393
000120 a7 ae 87 3c 50 21 3a b9 5d a5 7e bc 07 47 0d 3d
       0.016562773 -0.00017750752 -0.015542355 0.034491565
000130 19 b5 11 be fd 4a 0d bd 24 6b d9 3c 17 13 b9 bd
       -0.1422924 -0.034495343 0.026540346 -0.09036844
000140 a6 0c 6f bd af 35 d1 3b 43 6c 4c bd ea bc e6 3d
       -0.058361672 0.0063845734 -0.049907934 0.11266501
000150 65 ff ed 3d 67 0b 8a 3d ce e6 01 be 67 eb a4 bd
       0.11620978 0.06740456 -0.12685701 -0.08052712
000160 e6 e3 38 3e 44 ae 90 bc b6 27 43 bd 50 61 d1 3c
       0.18055686 -0.017661221 -0.047645293 0.025559098
000170 70 2f ce 3d 8c e5 87 3d dd 33 61 bd f3 8e b7 3c
       0.10067642 0.066355795 -0.0549811 0.02240703
000180 61 24 2c 3d 52 dc f5 bc 21 04 b9 bc a0 ce 8a 3a
       0.04202688 -0.030012283 -0.022584977 0.0010590144
000190 b0 d1 d0 bd 48 e5 e0 bb 6c 6f 44 bd 3d 40 6b bd
       -0.10196245 -0.00686327 -0.047957823 -0.05743431
0001a0 4e 0a b2 3d 51 bf 07 bc 86 3c a9 bd 04 23 0e 3e
       0.08693372 -0.0082853595 -0.08263497 0.13880545
0001b0 63 ef 01 3e 24 39 28 bc 8c 7e 39 bd c7 03 58 bd
       0.12688975 -0.01026753 -0.0452867 -0.052737977
0001c0 9c 3f 05 be c2 72 3f 3c ea 1d 91 bd a7 20 04 3e
       -0.13012546 0.011685075 -0.07085784 0.12903081
0001d0 a0 79 63 3d 61 3a a6 3d 8f 55 e8 bd a5 74 87 bd
       0.055535913 0.08116604 -0.11344444 -0.06614045
0001e0 91 82 14 3f 6f 49 01 bf 59 a5 88 bd 1b af 4a be
       0.5801173 -0.50502676 -0.066721626 -0.1979336
0001f0 c2 f7 2a 3e 14 a2 81 3d cb d1 83 bd 3e 25 84 bd
       0.16696075 0.06329742 -0.06436499 -0.06452416
000200 ff a2 23 3e cd 7c 5b 3f f8 bc ea 3d a1 74 56 be
       0.15980147 0.85737306 0.11461824 -0.20942928
000210 fe be d8 bd df b9 c1 3d 94 43 84 be 4d 12 cd 3e
       -0.10583304 0.0945928 -0.25832808 0.40053025
000220 f8 c3 aa 3d 85 98 37 be 89 e2 ea 3d 53 84 c2 3e
       0.08338159 -0.17929275 0.114689894 0.3799158
000230 ab 53 cd bd e9 19 7d be cf 28 15 3e ca 38 7e 3d
       -0.10025724 -0.24716915 0.14566348 0.062065877
000240 eb e2 31 be ae c6 33 bd 95 ea a4 3b 28 b5 dc be
       -0.17371719 -0.043890648 0.005032847 -0.4310696
000250 07 8c 1b be 51 dd 88 bd 27 b8 b3 3e ca a4 c0 bd
       -0.15190135 -0.06682838 0.35101435 -0.09406431
000260 5e 1a 42 3e 35 fc bc 3b f0 af 3e 3e 67 22 e2 bc
       0.18955371 0.00576737 0.18621802 -0.027604295
000270 60 70 44 bd 23 7e de 3d 94 85 69 3e e1 07 55 be
       -0.04795873 0.108639024 0.22804862 -0.20803787
000280 54 e7 0f be b4 03 a8 3d d7 9d b3 3d a2 8e 0d be
       -0.14053088 0.08203831 0.0877034 -0.13823941
000290 30 00 d4 3d 8e 77 1f bd 79 06 0d 3b 0c 28 66 3e
       0.10351598 -0.038932376 0.002151875 0.22476214
0002a0 52 53 b1 bc 9a 8c 5d 3d 16 9c 18 3c 05 e3 4e bd
       -0.021646176 0.054089166 0.009314558 -0.05050947
0002b0 bc e1 66 be 03 d3 78 3d 80 02 17 3e f3 2a ae bd
       -0.22547048 0.06074811 0.14747047 -0.08504286
0002c0 43 ed 05 3e 79 ac 97 3d 6e 09 4b be 2c 92 b5 bd
       0.1307879 0.074059434 -0.19827816 -0.08865771
0002d0 1d 1c 30 be 70 ff 3b bd dc 22 17 3e 3d c4 fd 3d
       -0.17198224 -0.0458979 0.14759392 0.12390945
0002e0 f4 3c 8a 3d ad 3b c0 bd 47 2d 4f be 1a 6e a4 3c
       0.06749907 -0.09386382 -0.20232116 0.020072032
0002f0 eb bc c8 bd 79 ea a9 bc 09 a6 dd 3c d2 dc 50 3e
       -0.09801658 -0.020741688 0.02705671 0.20396736

bias f4 [8]
000000 40 d2 3d 3e e5 59 d2 3e cd 8d 58 bd 90 18 66 bb
       0.18537235 0.4108421 -0.052869607 -0.0035109855
000010 4c 9d 35 3d ba 78 a8 3e 05 ec 41 3f 11 57 8f 3d
       0.044339463 0.32904607 0.7575076 0.069990285
