Masterarbeit_YorickLALY/Code_and_Neural_Network/CNN_window_size_10.pt (torch, 10191 bytes, 12 tensors)

weight f4 [8, 8, 3]
00000000: bf2c dcbd 7489 38be 5478 1a3f b594 cc3e
00000010: b445 2dbf 35bd a2bf 037c bb3d f0e5 2ebe
00000020: 91e0 16be 2ac2 28be cc38 4b3e aae8 aa3d
00000030: 2821 4bbe 8265 09bd 2732 4fbc 0fa3 c73f
00000040: 35a3 b0bf f284 de3c df66 2dbe 729c 1c38
00000050: 1416 4a3e 9266 78be 9a30 28bf 6f33 5dbf
00000060: 90eb e3be 1d27 94be 53d0 ddbe b048 e93d
00000070: 26cf 0d3f 39e9 34bd 9701 6a3d fc33 89bd
00000080: 9c3a 2ebc 1742 bc3b 045d 473e c14c 2cbe
00000090: 20cb dabd 05de e4be 7e31 28bf ed83 46bf
000000a0: 508c b4be c244 243f e339 313f 967f a43c
000000b0: e0cb f3be 4100 0b3d 5388 cf3e 92cf 513f
000000c0: a8a8 c7be 7f5f 9ebe 3de6 35be cbbd bebd
000000d0: f069 953e 1255 213e f020 9d3d ee4a e0bd
000000e0: 97c2 08be 3cd4 1cbd c00c d83d d5ce 37bc
000000f0: f7a8 cbbd d7d4 dfbd fdaf 873f f8a6 2abe
00000100: 1f0c c73b 1666 87bd facc 55be 4704 17bb
00000110: 1731 173e 54d0 93be f353 bdbb 9f34 083d
00000120: a691 8dbc 831b 013c f8a2 68bd 0cd9 3cbe
00000130: 046a 28bd e241 d93e 1977 233d a540 6abd
00000140: 97c0 653d 532f 1dbe 0735 d4bd 0baa e1bd
00000150: 7c38 4fbe 31f8 70be 5388 923d ed5c 6d3e
00000160: 2d26 5dbe e5be 71bf 9ff6 fd3e f9ed b73d
00000170: c87a c63c 4536 d1bd cd09 afbe def1 23be
00000180: 2d94 c4bd 8120 153e bd9a ccbe 86f6 463e
00000190: fcc8 c43e e2ef 88be 5c56 bc3d d83d 39be
000001a0: 32da d0bd 690d e2bc 6dad 19be 4b2a 29be
000001b0: a875 3e3f 6036 2a3f dc01 023d 6b4a adbd
000001c0: c317 0f3e cb10 55bc ea00 86be 0bad 663e
000001d0: cade b5be a818 9a3e bd21 a23e 4707 393e
000001e0: d568 023d 4cb4 fd3d 7298 1cbe 8f4a 2bbe
000001f0: be5f cebd 18c8 14be 77e7 40be db1d 383e
00000200: f017 5bbc 8379 1fbe 3497 213e 1cca fd3d
00000210: d8b0 ddbd 895f bebc 70a8 d03c 14fd 0bbc
00000220: 3a84 903d f5eb 58be 7126 e13c 979a 0cbe
00000230: bda0 47be c8ac 043e 36cc 17bc e5a4 0b3e
00000240: 60b5 1dbe 6fe7 cabd 4bdf e33d 7417 9c3e
00000250: ea4d 6b3e b686 20be 06ed 1f3e a7de df3d
00000260: c9d4 9f3d b9f8 38bd ccc9 f63d 37b0 4c3e
00000270: ebe1 46be b553 55be 5945 563d c70f 133d
00000280: bb5c 803e fde8 b63c 2be6 f1be 14f7 d0be
00000290: 4f52 fcbe 8c8a d23c 4a06 42bd 05e7 60bd
000002a0: 80bd d9be 8b9d 29be 930b debe a33b 8cbf
000002b0: dfdf 4f3d 547a 11bf 9916 51bd 2077 adbd
000002c0: 9a23 9cbd f61a 98bd a9c8 2f3e 069d f23d
000002d0: 24b2 11bd e3d3 1abe 19b9 30bd 5c36 8c3e
000002e0: 20f7 543e 4690 82bd 7fc4 dbbe bd7a c43e
000002f0: ed76 5dbe 3476 cd3e b3af 363f f042 c23f
-0.10750722 -0.18021184 0.60339856 0.39957204 -0.67684484 -1.2713991 0.09154513 -0.17079902
-0.14734103 -0.16480318 0.19845885 0.083451584 -0.19836867 -0.03354407 -0.012646235 1.5596637
-1.3799807 0.027163003 -0.16933773 3.7339e-05 0.19734985 -0.24257877 -0.6569916 -0.86406606
-0.44515657 -0.2893609 -0.43323 0.11390817 0.5539421 -0.04416773 0.057130422 -0.06699368
-0.010634091 0.005745183 0.19469076 -0.16826154 -0.10683274 -0.44700637 -0.6570052 -0.7754505
-0.352633 0.64167416 0.69228953 0.020080369 -0.47616482 0.03393579 0.40533695 0.8195735
-0.38995862 -0.30932233 -0.1776361 -0.09313544 0.29182386 0.15755108 0.07672298 -0.10951792
-0.1335548 -0.03828834 0.10549307 -0.011218746 -0.09944337 -0.10929268 1.0600582 -0.16665256
0.006074443 -0.06611268 -0.20878974 -0.002304332 0.1476482 -0.2886988 -0.00577783 0.03325331
-0.017281365 0.007880094 -0.056796044 -0.18442172 -0.04111673 0.42433077 0.039908502 -0.057190556
0.05609187 -0.15350084 -0.10361677 -0.11018761 -0.20236391 -0.23532178 0.07154908 0.2317998
-0.21596594 -0.94431907 0.4960222 0.089809366 0.024228469 -0.10215429 -0.34187165 -0.16010234
-0.09598575 0.1456318 -0.39961806 0.19429979 0.3843459 -0.26745516 0.09196159 -0.18089998
-0.101978675 -0.027594285 -0.15007563 -0.1652004 0.7439828 0.6648922 0.031740054 -0.0846146
0.13973908 -0.013004492 -0.26172572 0.22526948 -0.35521537 0.30096936 0.31666365 0.18069182
0.031838257 0.123879045 -0.15292528 -0.1672766 -0.10076855 -0.14529455 -0.18838297 0.17980139
-0.013372406 -0.15573697 0.15780336 0.12392065 -0.10824746 -0.023238914 0.025470942 -0.008544225
0.0705647 -0.2118376 0.02748415 -0.13730846 -0.1949491 0.12956536 -0.009264996 0.13637121
-0.1540122 -0.09907424 0.11126574 0.30486643 0.2297894 -0.15676388 0.15617761 0.109311394
0.078042574 -0.045159075 0.120502084 0.19989096 -0.19422118 -0.20832713 0.05231223 0.03590372
0.25070748 0.022327894 -0.47245917 -0.40813506 -0.49281546 0.02570083 -0.04736928 -0.054907817
-0.4252739 -0.16564004 -0.43368205 -1.09557 0.05075061 -0.5682728 -0.05104694 -0.08469987
-0.07623978 -0.074270174 0.1716639 0.11846356 -0.03557028 -0.15119891 -0.043145273 0.27385223
0.20797396 -0.06375174 -0.42923352 0.38374892 -0.21627398 0.40129244 0.71361846 1.5176678

bias f4 [8]
00000000: 1773 5a3f 8011 843e 41e0 74be 9eb8 643c
00000010: 38a3 b0be e660 13be 5c7d e03e a742 6c3c
0.85331863 0.257946 -0.23913671 0.013960032 -0.34499526 -0.14392433 0.43845642 0.014420188

weight f4 [8, 8, 3]
00000000: 6bfb 163c ac36 be3d 676b 4d3d 4364 1fbe
00000010: 03fb 5a3d 74c5 a8bd 02a2 35bd 3f20 153d
00000020: 09a8 61bd 6a83 ebbc ec79 0ebe a066 babd
00000030: 094b 3cbe 9c3e 283d 19e9 90bd c320 c63b
00000040: 439b 8cbd 27ca 55bd 75b3 4b3e 3287 aa3e
00000050: 0ccb b33e 4c03 77be 00f3 edbd 0bde 57bb
00000060: 77e8 8d3e ddc7 a23e 2eee 96be 3f53 7cbe
00000070: 7f47 6fbe 5fe8 ec3e 4ed9 1cbc 4ded 8dbe
00000080: 9050 54bd bf33 773e 292b c23b a093 98be
00000090: 938f 2ebe d021 313e df1a 80be 01f4 b5bd
000000a0: 6e04 f63d 593a 803d ba6e febc 060b 22bc
000000b0: 6117 bebd 8f3f 39bf 5e96 bbbe 7154 753f
000000c0: 99f2 31bc b74c 193f 9372 fa3e 8661 623d
000000d0: f4d1 693e 1887 9bbe 2c67 14bd 3c73 debd
000000e0: a254 2fbe 82d5 7fbd 32af dc3c bc28 313f
000000f0: 70e7 5abe 77cd cdbe 9c91 eabe 86c7 ffbd
00000100: ddfb 3d3d 59fb 9f3d 3349 963d 8d33 073e
00000110: eda2 e6bd 40ac 3fbe 3810 c8ba e6f0 d3be
00000120: 8c91 2bbe 8c7f 1bbe 25c2 f2be 1b93 acbc
00000130: 5fb9 94be 5fc1 ddbe e806 3b3e c1e4 abbe
00000140: 69ef 183f fd0c e63d 0074 b7bd 047a 86bd
00000150: 97a4 bdbd e1de 11bc e82d d33c 1f0a 1c3e
00000160: 5aac 913d f34f c53d 8103 b1bb 4401 4ebe
00000170: 31c3 69be b7f4 4bbe e627 f4bd b26e 81be
00000180: c224 75bd 7604 c13e f567 f4bb 4004 f2be
00000190: 853b 79be 8abd 95bd bcfc 483e 5920 e83d
000001a0: b070 60be ea84 1d3e 68b1 50bd 7908 553e
000001b0: 45c8 9e3e 4dc5 963e ab29 12bd 1649 b2bd
000001c0: ea4b c63d 19e7 c13d ae34 78be 5320 753d
000001d0: cac3 6bbd 5a82 1d3e 5461 c9bc 92a3 96be
000001e0: a9c5 743c 7ab6 05be 86c3 25bf 82d7 6cbd
000001f0: aedf c3bd ab27 613e dce2 81be 8dd7 37be
00000200: 748c 91be b3e9 763e 8ee9 c2be 6648 71be
00000210: 9a21 b5be f10e 65bd 00ca d93d 78b3 d2bd
00000220: 2287 0bbe d127 fc3a e40c 44bb 69f5 3e3e
00000230: 4ea3 8b3d bcea 843e 3b9c 063f de55 0c3f
00000240: de14 a93c b2ac a23e dddd 09bf c6ed 3cbe
00000250: 2bf1 023e aac6 ec3b 9a42 33be 3891 f9bd
00000260: c1e9 6dbd bdb8 df3d 1387 b1be 86eb f6bd
00000270: c687 be3d a382 cdb9 fa21 203e 823e c03d
00000280: ee28 39be c69b 293d 1d3a 3e3d 13f2 353e
00000290: e3e8 1fbd 5c2e abbe a88f 813d 83ef 14be
000002a0: 5878 5f3e 799a 98bc 7aea 933e e0a6 62bf
000002b0: d9c8 01bf 7989 1fbf 103f 88be c244 3b3d
000002c0: f6b0 2cbe 892c 4a3e 77ba 82bb d181 c4bd
000002d0: f401 dcbe 7d59 2b3e 6482 c03c d322 523e
000002e0: 1b40 413e ee7c 2e3e ebfb 623e a63c 3abe
000002f0: 29aa 73be 3104 543e 1154 353e 7c83 17be
0.009215216 0.092877716 0.050151255 -0.1556559 0.05346204 -0.08240786 -0.044343956 0.036407705
-0.05509189 -0.028749187 -0.13913697 -0.091016054 -0.18387999 0.041075334 -0.0707571 0.006046386
-0.06865551 -0.05219474 0.19892676 0.3330627 0.3511585 -0.24122351 -0.11618614 -0.0032938744
0.2771642 0.3179311 -0.29478592 -0.24641131 -0.23367117 0.46271035 -0.009573294 -0.2772011
-0.051834643 0.24140833 0.0059255552 -0.2980013 -0.17046957 0.17298055 -0.250205 -0.08884431
0.12012564 0.06261129 -0.031058658 -0.0098903235 -0.09281803 -0.7236261 -0.3663816 0.9583197
-0.010861062 0.5988268 0.48915538 0.055268787 0.22833997 -0.30376506 -0.036231205 -0.10861823
-0.17122129 -0.062459476 0.026939008 0.6920278 -0.21377349 -0.4019582 -0.45814216 -0.12489228
0.046382774 0.07811613 0.073381804 0.13203259 -0.112615444 -0.18718052 -0.0015263623 -0.41394728
-0.1675474 -0.15185374 -0.47413746 -0.02106624 -0.29047677 -0.43311593 0.18264353 -0.33572963
0.5974031 0.11232946 -0.08957672 -0.065662414 -0.09259909 -0.008903236 0.025778726 0.15238236
0.071129516 0.0963439 -0.005402029 -0.2011767 -0.22828366 -0.1991757 -0.119216725 -0.25279766
-0.059849508 0.37698716 -0.0074586817 -0.47268867 -0.24339111 -0.07311542 0.1962766 0.11334295
-0.21917987 0.15382734 -0.050950438 0.20804013 0.3101217 0.29447404 -0.03568427 -0.08705346
0.09682448 0.094679065 -0.24238846 0.05984528 -0.057559766 0.15381756 -0.024582542 -0.2942167
0.014939704 -0.1305789 -0.6475147 -0.05782271 -0.09564148 0.21987788 -0.25368392 -0.1795332
-0.2842747 0.24112587 -0.38068813 -0.23562774 -0.35377198 -0.055922452 0.106342316 -0.10288137
-0.13625768 0.001923794 -0.002991491 0.18648304 0.06818257 0.25960338 0.5258214 0.5481852
0.020639833 0.3177238 -0.5385416 -0.18450078 0.12787311 0.007225831 -0.17505875 -0.121859014
-0.058084253 0.10923908 -0.34673366 -0.12056641 0.093032405 -0.0003919798 0.15637961 0.093869224
-0.1808202 0.041408323 0.04644214 0.17768125 -0.039040457 -0.33433807 0.063262284 -0.14544491
0.21823251 -0.018628346 0.2888983 -0.8853588 -0.50697094 -0.6231914 -0.26610613 0.04571987
-0.1686438 0.19743551 -0.0039895135 -0.09595073 -0.4297024 0.16733356 0.023499675 0.20521097
0.1887211 0.17039844 0.22166412 -0.18187198 -0.2379538 0.20704724 0.1770785 -0.14796251

bias f4 [8]
00000000: 6a53 d8b7 9be9 32bd 4177 abbc 45c3 fe3e
00000010: 476a e1bc 3e73 0ebe d050 1cbb 8c9f 623e
-2.578805e-05 -0.043679815 -0.020930888 0.49758354 -0.027516497 -0.13911149 -0.002385188 0.22131175

weight f4 [8, 8, 3]
00000000: 9c98 50be d543 3bbe 4c8c 823d 85c5 8fbd
00000010: fcb6 ce3d 0c61 87bd 358d 42bf 9b71 26bf
00000020: 20a5 92bf e176 2a3e 30f0 193f 17cf 733f
00000030: 2c9a 9d3e 694d ca3e c1d7 9b3d 860f c6be
00000040: 9edf 36bf 1462 edbe b38e 9d3e 61b0 e0bd
00000050: fccc fdbd 997f a83d 52a4 463f d04a f73d
00000060: d02d aebe d471 81bd 9f98 acbe fcb5 183e
00000070: ec75 b93e dac3 843f 900d edbe 9f9e afbc
00000080: 116b d0be c9b2 01be 52a5 95be 3856 52be
00000090: 386c 3f3e 8105 cbbd 85bf c7bb 9532 eb3e
000000a0: f1e7 5a3e 7ae6 1e3c 461a 95be 5086 ba3c
000000b0: 76a3 17be f661 e3bd 2a6c 57be e355 96be
000000c0: d70b 12be a8af 1a3d 998a 1dbe 34f6 2fbd
000000d0: 6f29 b1bd b08a 81be f3b5 56bf 126d 53bf
000000e0: 8fbf a5bf 2297 5fbe f0fa 5dbe 12f5 65be
000000f0: 7554 2cbd c153 5bbd 753b 1f3e 9776 65bd
00000100: 4074 0b3d 1d66 70be fbf2 91bd 63b8 edbd
00000110: 9846 343d c8f5 3abe 649b cfbe 6921 58be
00000120: 163e b9bd e876 ae3d fca4 743d c94c d83d
00000130: d105 383c 32ef a93d fcd5 9a3d 3e4a 813c
00000140: bb23 333e a684 1c3b 44c0 31be a01b b8bd
00000150: 10b1 a73e 7d46 8bbe e134 fcbc c3a7 04be
00000160: b536 0e3c 6549 13bd 5f3f ccbe 011f 21be
00000170: 1c90 cabe d448 843f 097c 203e 9d75 d4bd
00000180: e895 a0be 0d66 d5be 6597 b1be 2ff1 b33d
00000190: 0bf1 5abd 4889 2cbe 026a be3d 8e58 dfbc
000001a0: 7df9 17bc c674 25be cf63 8b3d 23a9 393d
000001b0: b096 50be 5cb1 9a3d 5795 443d 6aa2 57be
000001c0: e3c5 eebe 5de2 dbbe c75e 013d 5bf1 fcbd
000001d0: 7eb0 df3c 0d9a 10be 66bb 9ebd 93c0 84bd
000001e0: f7a4 79bb e0cb 143e fefa 8abc 3773 83be
000001f0: bbee 33be f706 37be 17c8 8cbf c4ac bfbe
00000200: e4a0 5b3f 50e5 403d 14ca 78bd 8a57 42be
00000210: e1cd 1d3d b94e 3fbe 35ec d63e 8376 a43c
00000220: f0b8 05be 4d1d cdbe 2dfb a0be cabb 96be
00000230: 8bea ae3c 234d b7bd 01f1 ec3e 1151 fa3d
00000240: 5903 4dbe 6f8a 363e 3ead 85bd e6a1 393e
00000250: 3987 213e db00 2e3e ef49 123c 9c23 53bd
00000260: 6a06 48be 555f 0d3e 7030 373e 8397 27be
00000270: 74c5 293c 7c6e 43be 5eab 1bbe a445 0b3e
00000280: 3dea bbbc 8320 27bc 829e b4bd 4ef3 aa3c
00000290: 9891 1abe b38d 08be 84e7 a23d d8b3 cfbd
000002a0: be34 733e 5213 9b3e 1fd2 b03d 291d d23c
000002b0: 56e1 3b3d 9e6f dd3d 6e30 21be ed8b 873c
000002c0: 699d cfbc 6790 40be 23f3 1cbc 7c93 b43d
000002d0: 4c8d 3bbe 2bc3 353e 8e81 66be 1001 13be
000002e0: ff7d a2bd 90dc 423d fcc5 573e b33d 253e
000002f0: 0290 da3d c7da 5dbc a2bc dd3d 2843 64bd
-0.20370716 -0.18287595 0.06374416 -0.07020096 0.10093495 -0.06610307 -0.75996715 -0.650171
-1.1456642 0.16646911 0.6013212 0.9523787 0.30781686 0.39512184 0.07609511 -0.38683718
-0.7143496 -0.4636389 0.30772933 -0.109711416 -0.12392613 0.08227462 0.7759448 0.12074816
-0.34019327 -0.06320539 -0.3371019 0.14913172 0.3622278 1.0372269 -0.4629941 -0.021437941
-0.40706685 -0.12665857 -0.29227692 -0.20540702 0.18693626 -0.09913159 -0.006095829 0.4593703
0.21377541 0.009698505 -0.29121608 0.022769123 -0.14808449 -0.11102669 -0.21037355 -0.293624
-0.14262329 0.037765175 -0.15384902 -0.042959407 -0.08650481 -0.25301123 -0.8387138 -0.82588303
-1.2949084 -0.21834996 -0.21677756 -0.22456768 -0.042072732 -0.05354667 0.15550025 -0.0560213
0.03404641 -0.23476453 -0.07126423 -0.116074346 0.044012636 -0.1825782 -0.4054824 -0.21106495
-0.09045045 0.08518773 0.059727654 0.105615206 0.0112318555 0.08297576 0.075603455 0.015782472
0.17494099 0.0023882776 -0.173585 -0.08989644 0.32752275 -0.27202216 -0.030786933 -0.12954621
0.008680035 -0.035958666 -0.39892098 -0.15734483 -0.39563072 1.0334725 0.15672316 -0.103739955
-0.3136437 -0.4167942 -0.34685817 0.087862365 -0.053452533 -0.16849244 0.09297563 -0.027263906
-0.009275791 -0.16157827 0.06806146 0.045327317 -0.20369983 0.0755336 0.047993984 -0.2105805
-0.4663535 -0.4294614 0.031584527 -0.123507224 0.027305838 -0.14121266 -0.07750587 -0.06482043
-0.0038092711 0.14530897 -0.016965386 -0.2567384 -0.17571537 -0.1787375 -1.0998563 -0.37436497
0.85792375 0.04709369 -0.06073959 -0.18978706 0.03852642 -0.18682374 0.41977087 0.020076042
-0.1305883 -0.40061417 -0.31441632 -0.29440147 0.021352073 -0.089502595 0.4627762 0.122224934
-0.20020808 0.17826246 -0.06527184 0.18128166 0.1577424 0.16992514 0.00892876 -0.05154763
-0.19533697 0.13805898 0.17889571 -0.16366391 0.010362018 -0.19085115 -0.1520209 0.13600785
-0.022938842 -0.0102006225 -0.088192955 0.02086797 -0.15094602 -0.13335304 0.07954314 -0.10141724
0.23750588 0.30288178 0.086338274 0.02564867 0.045869194 0.10812305 -0.1574113 0.016546214
-0.025343614 -0.18805085 -0.009579453 0.08817193 -0.18315619 0.17750232 -0.22510359 -0.14355874
-0.07934188 0.047573626 0.21071619 0.16136818 0.106719986 -0.01354093 0.108269945 -0.055728108

bias f4 [8]
00000000: 11d1 e33d 1c8a f03e 5330 aa3f 7337 84be
00000010: 4330 173f affb 46bd 863f 5ebe ec0c a33c
0.111238606 0.4698037 1.3295997 -0.25823554 0.59058017 -0.048579868 -0.2170392 0.019903623

weight f4 [8, 8, 3]
00000000: b9ea c1bc 1002 0e3e f13d 0cbc 636e 2fbd
00000010: f428 243e 94c0 f8bd 9bc6 22be 31a7 e7bc
00000020: 1e2a a7be 0ea8 9abe ef08 d3be 420c e9be
00000030: b575 91be 2b62 a2bd da63 d13e 1182 503d
00000040: 8ae5 d33d 96ce 603e 1ac4 853d f358 dfbd
00000050: 8efd 18be 4d75 38bd 84f4 4cbe 6a38 af3d
00000060: 3e5c 2c3e 51ee 763e 9238 6f3e 682a 913d
00000070: 3cff 883e 5095 513d 91e3 48be 4711 7bbe
00000080: 4142 8ebe 11f0 5c3e e316 6e3e b0ef 803e
00000090: d51c 9ebd 7cfa fe3d 11ab 8dbe a45f 50be
000000a0: 3aca e2bb 8b91 f1be bd13 023d 7796 c9bd
000000b0: 5546 11bd a37c 89bd ca91 3abc 2849 68bd
000000c0: 9769 87be a102 e2be ba84 a0be d8d8 85bd
000000d0: 666d 563e 056e 173f 4e0a 6bbd 7292 063e
000000e0: 11c0 5f3c dca5 d13d 4fce c43d cdbb 8e3e
000000f0: e83f 1d3e 5190 86be 6689 d7be ac9e 18bc
00000100: 80da 953d 2200 d6bd f0d2 003e 3b02 2dbd
00000110: 520e e0bd 68a4 73be 1e6f 0b3d 4615 90be
00000120: 63b8 cabd 7d25 4bbe 2d19 aebd 6b45 3e3f
00000130: 29c5 01be bc4d 2cbf 5b18 a7bc ac88 b93e
00000140: 6cca 943c 72d0 ed3a 6255 d73d 7cf5 5f3c
00000150: 4f42 b9be 3be7 debe bc63 56be 33ac aabc
00000160: 3513 0ebe 2869 69be 93cd 563e cacc f93d
00000170: a335 703d b6cc f6bc a100 84bd 42c6 c33d
00000180: 51e1 1e3e 5401 41be a7e9 d6bd 3c94 22be
00000190: d198 febe 2502 3dbf de01 973e ee5f 00be
000001a0: 3213 13bf 9543 4e3f 4022 5ebe 824e 8abe
000001b0: 98f4 bfbe d1c0 f6be 1303 c43e 5428 153f
000001c0: c2ea 9c3d ae41 573f 35f5 21be b1bc 353e
000001d0: 17b3 3e3d 990a 473c f5ab ffbd d532 58bd
000001e0: 2ec9 093e 18d7 353e e9d5 a7be 01b8 10be
000001f0: bfcb c23d f9fa 9ebe badc 68be 0104 72be
00000200: 4372 6abe d21c 47bf 0946 1f3e 3f89 a03e
00000210: 18fc d13e 1e9d 863e 93f8 5a3e e0c6 f0be
00000220: 26f1 9fbe ab06 663e bfb3 a8bd 83c4 04be
00000230: f036 d43d 93aa a5bd 155e 05be ae00 973d
00000240: 4c72 c7bc 942c 643d aefb 3bbe 82ea 8d3d
00000250: c94b 6fbe d5c5 10be 87b5 1e3e 190b 48be
00000260: 359e 81be 9d94 483c f3ea d2bc 189b cebd
00000270: 4281 1cbe b03b ac3b 49a8 eebb 4ed0 f3bc
00000280: 02fe a2bd 3dc5 a3bc b17b dbbc d31f 493e
00000290: 9fb6 463c edb7 19bd 3610 c63b bb7a 0f3d
000002a0: 210c 64bd 22d2 813e 9c2e 573e f706 a7be
000002b0: aad8 b8be e908 86be b12f b9bd 61a9 b33d
000002c0: 2398 e2ba 1850 dbbd 6aac 72be a02e 28be
000002d0: 50c3 92be 828c 0abf 4b18 25bf 0d9a e4bd
000002e0: 761c 02be 5977 16be 65a1 2c3e 930b 2dbe
000002f0: 35ec f9bd 0d2c b93d 10be 313e 0eb9 2a3e
-0.023671495 0.13867974 -0.00855969 -0.042829882 0.16031247 -0.12146106 -0.15896074 -0.028277965
-0.3264932 -0.3020634 -0.41217753 -0.45517164 -0.28410116 -0.0792888 0.40896493 0.05090529
0.103465155 0.21953806 0.06531544 -0.109056376 -0.14940473 -0.04503374 -0.2001515 0.08555682
0.16832063 0.24114348 0.23361424 0.070881665 0.26757228 0.051167786 -0.1961806 -0.2451831
-0.27784923 0.21575953 0.23250918 0.25182867 -0.07720343 0.1245012 -0.27669576 -0.20348984
-0.00692108 -0.47181353 0.031757105 -0.09843152 -0.035467464 -0.06713226 -0.011387298 -0.056710392
-0.26447746 -0.4414263 -0.31351262 -0.065355 0.2094017 0.5915225 -0.057382874 0.13141802
0.013656632 0.10236713 0.09609663 0.27877656 0.1535641 -0.2628198 -0.42097014 -0.009315174
0.07317066 -0.10449244 0.12580466 -0.042238455 -0.109402314 -0.23793185 0.034041516 -0.2814123
-0.0989845 -0.1983852 -0.08500896 0.74324673 -0.12672867 -0.67306113 -0.020397356 0.36237085
0.018162929 0.0018143787 0.10514332 0.013669368 -0.36183402 -0.4353579 -0.20936483 -0.020834064
-0.13874514 -0.2279402 0.20976858 0.121972635 0.058644902 -0.03012691 -0.064454325 0.09559299
0.15515639 -0.18848163 -0.104937844 -0.1587686 -0.49725965 -0.738314 0.29493612 -0.12536594
-0.57451165 0.8057187 -0.21692753 -0.27013022 -0.37491298 -0.48193982 0.38283595 0.5826466
0.07661964 0.84084594 -0.15816195 0.17747761 0.046557512 0.012148523 -0.1248397 -0.052782852
0.1345565 0.17757833 -0.32780388 -0.14132692 0.09511518 -0.31050852 -0.2274045 -0.2363434
-0.2289515 -0.7777835 0.1555406 0.3135471 0.41012645 0.26291746 0.21383886 -0.4702673
-0.3123867 0.22463481 -0.08237409 -0.12965588 0.10362041 -0.08089175 -0.1302417 0.073731765
-0.024346493 0.055706576 -0.18357727 0.069294944 -0.23368753 -0.14137967 0.15498935 -0.19535483
-0.25316015 0.012242463 -0.025746798 -0.100881755 -0.15283683 0.0052561387 -0.0072832447 -0.029762413
-0.079586044 -0.019991511 -0.02679238 0.19641046 0.012128501 -0.03752892 0.006044413 0.035029154
-0.05567563 0.2535563 0.21013874 -0.326225 -0.36102802 -0.26178673 -0.090422995 0.08772541
-0.0017287772 -0.10708636 -0.23698583 -0.16424036 -0.28664637 -0.5412065 -0.64490193 -0.11162195
-0.1270617 -0.14693965 0.16858442 -0.16898946 -0.12203256 0.09041605 0.1735766 0.16672155

bias f4 [8]
00000000: 6d06 6d3e 0337 1cbe 6900 073e 3718 19be
00000010: 6fed da3e cbd9 1b3e d9aa f7bc 4a2a 433f
0.23146982 -0.1525536 0.1318375 -0.14950643 0.42759272 0.152198 -0.030232834 0.76236403

weight f4 [8, 8, 3]
00000000: e76d 543e 2ae7 343e 21b5 ca3e ca59 e8be
00000010: 4b4e 5abc 9044 de3e affc 3bbe 94d2 bcbe
00000020: ac1e 9f3e 1d34 d63d f8ff 963c 97d7 f8bd
00000030: 2e1e 63be e4d7 2c3d fbfa bcbe bb0c 843f
00000040: 0197 04be a833 31be 455c 3a3d 574a 303d
00000050: f7b4 30be 8ed7 803d 9076 eabe 3de9 083d
00000060: c634 353b ce56 993e cf6c 4fbe d3da c4bd
00000070: 0c37 3dbe 6841 1fbe e290 f1bc 118b a0be
00000080: 4814 473f d4aa 523e 81a2 b1bd 783b 153e
00000090: 25b5 71be e09b b8bd c48b f4be 2f99 30bd
000000a0: 4284 66be c730 2bbe 86d7 f93d a6b4 da3b
000000b0: d67e debd b9c3 99be 83bb f3be b42d 7dbe
000000c0: f68d e03c 7e23 143c 91dc ec3d ef9e 18be
000000d0: dd85 0f3e 7f66 aa3d 2bac b5bd 82ca 6b3e
000000e0: 1659 b5bd cb12 8dbb 515e 6abd b936 093b
000000f0: f2f2 383d 002c 213e cc52 16be b7c7 a8bd
00000100: bcd9 01be cba1 323e 85af c23a 0a71 20be
00000110: fd92 29be da60 ac3d cf22 a7bd a782 563d
00000120: 30ed 27be 0b40 713e 62d6 5c3e 845d 7bbe
00000130: 1e36 a83c 1419 2cbe b6a1 32be fc35 babd
00000140: be83 25be 1fc9 76bd 8cfa 0abd b38a 873d
00000150: 8aff e3be a862 ab3d a8bd c7be f730 f23e
00000160: 0741 2a3b 5b20 0cbe 7112 4d3e 2f88 163d
00000170: e58f 4ebe 722e 14bd dac8 61be d537 bebd
00000180: 7c65 e8bd f4dc f93c 7642 a5bd 9bc2 41be
00000190: b701 c23d 94b1 0abe 422b 8e3c d33a f43d
000001a0: ef80 c53d 50d8 fdbd c285 b83d f13f 7abc
000001b0: 346e e83c a62d cfbd 16b9 2cbe 6750 01be
000001c0: 6101 643c 988b 1ebe 42ae 25b9 ceaf f93c
000001d0: 7236 683d 8f4b a43d 94fc 1abd ed34 183e
000001e0: 9a72 363d 9479 05be 0cc1 b53d 5e5f 973d
000001f0: 72fa 5b3e f4f2 943c f0b3 0abe fa77 ea3d
00000200: 129d 493f 71d1 8e3e 877b 1ebe 5aa3 a93e
00000210: 526d d8bd 74a8 47be 3a4a d9be 7464 8f3d
00000220: 4895 23bd de62 5ebe 6f16 3dbd c641 17be
00000230: b245 12bd fefe 99bd dc78 03bd 6997 18be
00000240: 4c02 47bc 59e3 ff3d dac0 bc3c 8ef8 97bd
00000250: 79df 3fbe aa72 3dbe 52af 183e 401e 0bbe
00000260: 94b1 e3bb 897f 9d3c c563 393e 9015 81bd
00000270: 9125 253e c599 f63d 97d9 0d3e f02f 30be
00000280: 53c9 83bc a0c4 2bbe da9f e03d 8da6 363e
00000290: 3911 9b3d e0c7 bd3c e1b5 34be acf7 74bd
000002a0: 684b 1fbe bf1c d83d d58e 9c3d 0fb9 31be
000002b0: e391 e73d 5d42 5dbe 39f3 4c3d 68da dbbd
000002c0: fcf4 4dbe bcea 0f3e ba72 18bc 5f35 7d3d
000002d0: 4de5 8e3e 6abd 3dbe 9b0d a13e b147 7ebe
000002e0: b49f 48bd 0fa1 763e 8663 b3bd 626b f93d
000002f0: c9eb 10be c22a 0a3c ac13 873e 1c37 1d3d
0.2074505 0.17666307 0.39591315 -0.45381004 -0.013324331 0.43411684 -0.1835811 -0.36879408
0.31078088 0.104591586 0.018432602 -0.121504955 -0.22179481 0.042198077 -0.36910233 1.0316385
-0.12948228 -0.17304862 0.04549815 0.043039646 -0.17256533 0.06291114 -0.4579358 0.03342556
0.0027649864 0.2994904 -0.20256351 -0.0961205 -0.1847803 -0.15552294 -0.02948803 -0.313561
0.7776532 0.20572978 -0.08673573 0.14573467 -0.23604257 -0.09014106 -0.47762883 -0.043114837
-0.2251139 -0.16717826 0.12199311 0.006674367 -0.10864036 -0.30032137 -0.47603998 -0.24724466
0.027411442 0.009041665 0.11565507 -0.14904378 0.14015909 0.08320331 -0.08870729 0.2302647
-0.088548824 -0.004305219 -0.057218853 0.0020937158 0.045153566 0.15739441 -0.14680022 -0.082412176
-0.12680715 0.17444532 0.0014853334 -0.15668121 -0.16559978 0.084169105 -0.08160936 0.052370694
-0.16399074 0.23559587 0.21566156 -0.24547392 0.020533618 -0.16806442 -0.174445 -0.09092328
-0.16163537 -0.060250398 -0.033930346 0.06618252 -0.44530898 0.083684266 -0.39011884 0.47302982
0.00259787 -0.13684218 0.20026566 0.03675097 -0.20172079 -0.036177106 -0.22049275 -0.09287993
-0.113474816 0.030500866 -0.08069317 -0.18921892 0.09472983 -0.13544303 0.017354611 0.11925282
0.09643733 -0.12394774 0.09009887 -0.015274034 0.028372861 -0.101161286 -0.1686748 -0.12628327
0.013916344 -0.15482938 -0.00015800542 0.030479338 0.056692548 0.08022224 -0.037838534 0.1486394
0.044542886 -0.1303466 0.088747114 0.07391237 0.21482256 0.018182255 -0.13545203 0.11448665
0.78755295 0.27894166 -0.1547681 0.3313244 -0.10567726 -0.19497854 -0.42439443 0.07001582
-0.039937288 -0.21717402 -0.046163972 -0.14771184 -0.035710998 -0.07519339 -0.032097682 -0.14901508
-0.012146544 0.12494535 0.023041178 -0.07420455 -0.18737592 -0.18500772 0.1491063 -0.13585758
-0.006948659 0.019225853 0.18104465 -0.06302941 0.16127612 0.12041048 0.13852535 -0.17205787
-0.01608721 -0.16774225 0.10967989 0.17836972 0.07571644 0.023166597 -0.17647506 -0.05980651
-0.15556109 0.10552358 0.076444305 -0.1735575 0.113071226 -0.21607347 0.050036643 -0.10735017
-0.20112985 0.14054388 -0.009304697 0.061818477 0.27909318 -0.18529287 0.31455693 -0.24832036
-0.04898043 0.24084876 -0.08759217 0.12178685 -0.14152445 0.008433046 0.26382196 0.038382635

bias f4 [8]
00000000: d946 f93e 9aca e33e e6c7 1ebe 3fee 0c3f
00000010: 0352 1fbd 0fab 47be e140 60be 9ef4 0ebe
0.48686865 0.4449051 -0.15505943 0.55051035 -0.03889657 -0.19498847 -0.2189975 -0.13960502

weight f4 [8, 24, 1]
00000000: d703 c43f 7608 c1bc 34ee 78bd 7197 ae3d
00000010: 0155 f13d 25f7 f6bb 9cf5 a63c 8168 21be
00000020: e04f 243e 1566 34be a736 0b3e 8c1b dc3c
00000030: 8586 0dbd 9f23 dcbd c975 053e af0b a33e
00000040: 69c2 96bd 935b 0abe 78f5 2ebe 31ed 7d3d
00000050: 85ee 14be 0003 af3d 7257 e03d 1162 49be
00000060: bc5b 0d3f 69d3 1c3e b0a9 b13f e87b 363d
00000070: 2d87 51bd 0260 1b3d cf13 a63d 265d 90bd
00000080: 884d e8be 8e5c b03d 5f31 8abd 2d83 433e
00000090: 634a e33c 2ae1 51bd 2143 723e 8887 93bc
000000a0: 2e34 eabc 10a5 083f 366e f6bd cc63 4d3d
000000b0: 73fe 2f3e 38c2 063f c1b1 843e 12c4 33be
000000c0: a714 94ba 77db 903c aae2 60b9 b0c7 ebb9
000000d0: 76ab debb 127e 8e3b fd46 b7bd 0ae9 15bc
000000e0: f39b 2cbc fcc1 343c 2d6b b4bc 4794 3c3b
000000f0: 9072 1fbb 3ef6 a13b 7476 fa3c ced9 0c3c
00000100: e953 ac3a b438 c7bb 76c3 ce3d b01c f9bb
00000110: d7ff 97bd da5b a83c 467f ffbb e8ff fdbb
00000120: a1d6 e6ba 3c0f 843c 1546 ee3b 6203 8e3b
00000130: c7c4 64bc f390 fd3b 3b85 3ebd 9962 d2bc
00000140: 20f6 21bb 5aa6 13bc 7643 80bc bade 3c3c
00000150: bc1a 263c a02a f73b a842 d6bd faae 873c
00000160: 9ec0 b83b 40c7 2fbc 0be2 db3d 4651 d9bb
00000170: a6c5 19be 0f68 023d d950 26be 8f09 733c
00000180: f497 01be 30d1 303c b06e 8d3d 8a0d 6cbc
00000190: f35e 2ebd 04d7 5c3c 0c0d 893b d50b 68bb
000001a0: 66b3 85bd b6fd 523d c978 69bd b7a4 a8bd
000001b0: 4b46 a33c 1b63 91bc f7bc 253e 9a42 7ebc
000001c0: e5e2 9cbb f604 fcbc d709 8abd 16ec 7e3c
000001d0: ad09 0fbd cfbe 703d 7c6e e1bd 4c27 1a3d
000001e0: 4288 4e3e 33ba a63e fe83 b13d 5803 41bc
000001f0: 8893 42bf 9d29 44bd 06a6 15be 4795 0f3d
00000200: f75a 473e 08c5 7abc aa9f 183e 6663 693d
00000210: acc3 98be 3257 19be 77d7 253e ac77 1c3f
00000220: 27ea 843f f802 fe3e 760c a0be 18cc 4e3f
00000230: 1ff0 93bd 8c64 e2be 4958 043e c7b0 dfbe
00000240: fdf6 a63e bee2 1e3e 5df3 73bd 6777 023e
00000250: ca7c 4e3f 5fce e4ba 53d1 63be b921 bebe
00000260: 3d31 c13e 6f0c d5bd ce72 953e 948f 303d
00000270: 76b7 babc c20d 7b3d fbde 8dbd 0474 3ebf
00000280: cae0 813d 6c22 4f3e 3e36 46be 0064 8ebe
00000290: b2b3 0a3e 0d83 c1be 512e a83c bd0f 5ebe
000002a0: a6d7 5e3d 9ffb ff3d 5a95 04be 4574 8d3d
000002b0: 122b c53d a4c5 693b ac0e 1c3d 935d 45bd
000002c0: 5894 bf3c f73a 0b3d 8a63 3ebd 8dce 233f
000002d0: c0c6 203d c951 033d 5021 19be c298 9e3c
000002e0: 43bc d13d 46df 583e eebf c23d ddd8 25be
000002f0: 5ae4 4ebe b7d5 0d3f 9236 de3c 7e57 37bb
1.5313672 -0.023563605 -0.060774043 0.08524979 0.11783791 -0.007536786 0.020380788 -0.15762521
0.16046095 -0.17617066 0.13595067 0.026868604 -0.034552116 -0.10748982 0.13033213 0.3184485
-0.073612995 -0.13511495 -0.17085826 0.06199378 -0.14544113 0.08545494 0.10954179 -0.19666316
0.552181 0.15315022 1.387991 0.04455176 -0.051154304 0.037933357 0.08109247 -0.07049017
-0.45371652 0.086114034 -0.06747698 0.19093008 0.027745431 -0.051240124 0.2365842 -0.018008962
-0.028589334 0.53376865 -0.1203274 0.050144 0.17186908 0.52640104 0.25916865 -0.17555264
-0.0011297659 0.017682774 -0.00021446744 -0.00044971472 -0.006795342 0.004348525 -0.08949087 -0.009149799
-0.010535228 0.011032578 -0.022023762 0.0028774904 -0.002432976 0.0049426844 0.030574061 0.008596851
0.0013147566 -0.0060797576 0.10095875 -0.007602297 -0.074218445 0.02055161 -0.0077971546 -0.0077514537
-0.0017611572 0.016120546 0.007271538 0.0043338994 -0.013962931 0.0077382266 -0.046513777 -0.02568178
-0.0024713352 -0.009011829 -0.015657168 0.0115277115 0.01013821 0.007542923 -0.104619324 0.016562928
0.005638196 -0.010728657 0.10736474 -0.006632003 -0.15016803 0.03183752 -0.16241778 0.014833822
-0.12655622 0.010792062 0.069058776 -0.014407525 -0.04257102 0.013478998 0.0041824635 -0.0035407443
-0.06528358 0.05151149 -0.056999955 -0.08234542 0.01993098 -0.017747452 0.16185366 -0.015518809
-0.00478779 -0.030764084 -0.06740158 0.015559217 -0.034921337 0.05877572 -0.11007401 0.037635133
0.20169166 0.32563934 0.08667754 -0.011780582 -0.76006365 -0.047891248 -0.14614114 0.03505447
0.19468294 -0.015305765 0.14904657 0.05697956 -0.29836786 -0.14974669 0.16195475 0.61120105
1.0383958 0.4961164 -0.31259507 0.8078017 -0.07223534 -0.44217336 0.12924303 -0.43689558
0.32610312 0.15516183 -0.05955826 0.12740861 0.80659163 -0.0017456523 -0.2224782 -0.37135103
0.37732878 -0.10402762 0.29189152 0.043105677 -0.02279256 0.061292417 -0.06927296 -0.74395776
0.06341703 0.20227975 -0.19356629 -0.2781067 0.13545111 -0.37795296 0.020529898 -0.21685691
0.054404877 0.12499165 -0.12947598 0.06906942 0.09627356 0.0035670782 0.03809993 -0.048184942
0.023386165 0.03399178 -0.046481647 0.63987046 0.039252043 0.03206042 -0.14954114 0.01935995
0.10240986 0.21178922 0.09509264 -0.16196008 -0.20204297 0.5540423 0.02712563 -0.0027975733

bias f4 [8]
00000000: 5100 b5bd 1eba 443e 1720 cb3b 0940 89b9
00000010: c6fe 70ba dfb1 9b3f 037d d13f b416 7c3d
-0.08837951 0.19211623 0.0061988938 -0.00026178386 -0.00091932376 1.2163657 1.6366276 0.06154509
