Masterarbeit_YorickLALY/Code_and_Neural_Network/CNN_window_size_10_StandardScaler.pt (torch, 10191 bytes, 12 tensors)

weight f4 [8, 8, 3]
0	0xbe21a1de	-0.15784404
1	0xbc61783f	-0.013761579
2	0x3d7a489f	0.061104413
3	0x3cc11bea	0.02357288
4	0x3f148a4a	0.5802351
5	0x3da96d34	0.08272782
6	0xbe28f32f	-0.16499017
7	0xbeaf3961	-0.34223464
8	0x3ec05f7b	0.37572846
9	0xbd2361fc	-0.039888367
10	0xbcd34e7c	-0.02579426
11	0x3e93fa21	0.2890177
12	0x3e0e1782	0.13876155
13	0xbe16d7ad	-0.14730711
14	0x3e43ded9	0.19127978
15	0x3e2a01ee	0.16602299
16	0x3f013eaa	0.5048624
17	0xbe5c6508	-0.21522915
18	0xbe83ea49	-0.25764683
19	0xbf0233f4	-0.50860524
20	0xbf69877f	-0.91222376
21	0x3e3aa711	0.18227793
22	0xbe0fe25d	-0.14051194
23	0x3d84d384	0.06485656
24	0x3e82ce2d	0.25547925
25	0x3e69e212	0.22840145
26	0xbdfb8bb3	-0.12282505
27	0x3dda0e6d	0.10647283
28	0x3e7468a5	0.23868044
29	0x3e595c64	0.2122665
30	0x3d6c3bfd	0.057674397
31	0xbe969a95	-0.29414812
32	0xbe1ea677	-0.15493189
33	0x3d87e7df	0.06636023
34	0xbe229833	-0.15878372
35	0xbe5a1950	-0.21298718
36	0x3e4018ed	0.18759508
37	0x3e2e4482	0.17018321
38	0x3f2c3210	0.6726389
39	0xbd9956ef	-0.074872844
40	0x3c331178	0.010929458
41	0xbec688ba	-0.3877619
42	0x3cbbec7e	0.022939917
43	0xbe127c0e	-0.14305136
44	0xbea9dd06	-0.3317644
45	0xbea10c2a	-0.31454593
46	0xbed6a4c5	-0.41922584
47	0xbe62368e	-0.22091123
48	0xbcef3a6c	-0.029202662
49	0xbd819440	-0.063271046
50	0xbd543fe5	-0.051818747
51	0xbe746216	-0.23865542
52	0xbe7dd887	-0.2478963
53	0x3d945c7b	0.07244202
54	0x3e2d2dc9	0.16911997
55	0x3e36786a	0.17819372
56	0xbe464ed8	-0.19366014
57	0xbdd6d46c	-0.10489735
58	0xbe505a8a	-0.20347038
59	0x3d204c24	0.039135113
60	0x3a903768	0.001100284
61	0x3e0dc5f2	0.13845041
62	0x3d47937a	0.04872463
63	0xbe9a8100	-0.30176544
64	0x3ec08be9	0.37606743
65	0x3d4778ef	0.048699316
66	0x3ebc4b28	0.3677609
67	0xbdf1a261	-0.117985494
68	0xbeba360c	-0.3636936
69	0x3d9e417d	0.07727335
70	0x3df9e5aa	0.12202008
71	0x3d804bf4	0.06264487
72	0x3dca4d25	0.098779954
73	0xbd41539d	-0.04719888
74	0x3e3fdb33	0.18735962
75	0x3de06cd2	0.10958256
76	0xbea88f79	-0.3292196
77	0xbf43fabd	-0.7655447
78	0x3d9dc029	0.07702667
79	0xbc80245b	-0.015642336
80	0x3e9660f2	0.29370838
81	0xbc7a7794	-0.015287299
82	0x3da088e2	0.07838608
83	0x3d3e3be9	0.046443854
84	0xbe203822	-0.15646413
85	0xbe54bf62	-0.20776132
86	0x3e06fcb1	0.13182332
87	0x3ed13e79	0.40867975
88	0x3f38331a	0.71952975
89	0xbed50136	-0.41602486
90	0xbeebeca5	-0.46078983
91	0xbed5c2af	-0.41750094
92	0x3f27ac08	0.65496874
93	0x3daaa7be	0.083327755
94	0xbe6a0341	-0.22852804
95	0xbef1e3b7	-0.47244045
96	0xbe1aed64	-0.1512962
97	0x3cf182e5	0.02948136
98	0x3e80fdcb	0.2519363
99	0xbb28fa98	-0.002578413
100	0xbd9f5610	-0.07780087
101	0xbd24142c	-0.0400583
102	0xbe3edd6f	-0.18639158
103	0xbe4a6225	-0.19764002
104	0x3e22f61d	0.15914197
105	0xbe13a0a7	-0.14416753
106	0xbe57ab17	-0.2106136
107	0x3ecbea4f	0.398272
108	0xbe25df6a	-0.16198507
109	0xbe371bd6	-0.17881712
110	0x3e413928	0.1886946
111	0x3ef465af	0.47733828
112	0xbf3ff65f	-0.7498531
113	0xbf46e7a0	-0.7769718
114	0xbe3e8b89	-0.18607916
115	0x3f026818	0.50940084
116	0xbe1e3bed	-0.15452547
117	0xbd5dee61	-0.054182414
118	0x3e962846	0.293276
119	0xbd6a0df9	-0.05714223
120	0x3ddf7041	0.109100826
121	0xbd2c2afb	-0.042033177
122	0xbe82fdef	-0.2558436
123	0xbea16c35	-0.31527868
124	0xbd972ec4	-0.07381967
125	0xbee48649	-0.446337
126	0x3d6b9844	0.05751826
127	0xbe1a3fee	-0.1506345
128	0x3d7b00cd	0.06128006
129	0x3d9afad3	0.07567372
130	0xbe49cb1d	-0.19706388
131	0x3b8e2258	0.00433759
132	0x3d980d49	0.07424409
133	0xbdff08dd	-0.124528624
134	0xbe8a092e	-0.2696013
135	0xbe911b17	-0.2834098
136	0x3e85f64b	0.2616447
137	0x3bbf33ff	0.005835056
138	0x3f1b0444	0.60553384
139	0xbc6253e9	-0.013813951
140	0xbe83f54b	-0.2577308
141	0x3d8d2952	0.06892647
142	0x3f400734	0.7501099
143	0x3f9ec035	1.2402407
144	0xbd16da61	-0.036829356
145	0x3a46ce17	0.00075838104
146	0x3e13f060	0.14447165
147	0x3ecef897	0.40424034
148	0xbdf57be9	-0.119865246
149	0xbead869d	-0.33891764
150	0x3e0b02e7	0.13575326
151	0xbbe481eb	-0.0069734952
152	0x3e23adc3	0.15984254
153	0xbb77ab5a	-0.0037791342
154	0x3e668506	0.22511682
155	0x3ea5cb8f	0.32381865
156	0x3e0e827f	0.13916968
157	0x3dfb2a19	0.12263889
158	0x3d244d0a	0.040112533
159	0xbf250ecb	-0.644757
160	0xbeb8bad3	-0.36080036
161	0x3eddc149	0.43311527
162	0xbe005f51	-0.1253636
163	0x3f2018cb	0.6253783
164	0xbe3cb0de	-0.18426844
165	0x3e09c504	0.13454062
166	0xbe8740c5	-0.26416603
167	0xbe933817	-0.2875373
168	0x3df956b9	0.12174744
169	0x3e071296	0.13190684
170	0xbe918397	-0.28420708
171	0x3c32ce51	0.0109134475
172	0x3e7d66f1	0.247463
173	0xbc94f39b	-0.018182566
174	0xbd09a157	-0.03360113
175	0xbe3376d2	-0.17525795
176	0xbd9a3f61	-0.0753162
177	0x3de75f08	0.11297423
178	0xbebde3b8	-0.37087798
179	0x3d97b5e6	0.07407741
180	0x3ea8dd7f	0.32981488
181	0x3d9aff52	0.0756823
182	0x3ee8c00d	0.45459023
183	0xbd03a5af	-0.03214043
184	0x3d9604f1	0.07325161
185	0x3dcfa825	0.10139493
186	0x3cac6b5a	0.021047283
187	0x3dd39a85	0.10332207
188	0xbf06e2cb	-0.5268981
189	0x3e1af78a	0.15133491
190	0xbebd941f	-0.3702707
191	0xbe3168c0	-0.17325115

bias f4 [8]
0	0xbd2387db	-0.039924484
1	0xbdd89d55	-0.10576884
2	0x3dc55dbc	0.09637019
3	0xbf06df5e	-0.5268458
4	0x3ea1a576	0.3157155
5	0xbe980cd2	-0.2969728
6	0x3eb02d43	0.34409532
7	0xbde6063b	-0.11231657

weight f4 [8, 8, 3]
0	0xbe567c1d	-0.20945783
1	0x3e382b86	0.17985353
2	0x3dfc702b	0.12326082
3	0xbe61a714	-0.22036391
4	0xbed27c60	-0.41110516
5	0xbed8f84b	-0.42376933
6	0x3e899501	0.26871493
7	0xbd0b5d7c	-0.0340247
8	0xbe8ed576	-0.27897233
9	0xbe3d9fe6	-0.18518028
10	0xbebf15eb	-0.3732141
11	0xbeeeaba8	-0.46615338
12	0xbe887f5e	-0.26659673
13	0xbd2751af	-0.040849384
14	0xbc18dc52	-0.009329872
15	0x3befb3c3	0.0073151304
16	0x3e542366	0.20716628
17	0x3f7c2616	0.98495615
18	0x3c85d1b2	0.016335342
19	0xbe86c6b4	-0.26323473
20	0xbe93896d	-0.28815785
21	0xbd657e95	-0.05602892
22	0x3e3bfca2	0.1835809
23	0x3bb6ae99	0.005575013
24	0x3e1813c8	0.14851296
25	0xbcc70d32	-0.024298284
26	0xbf097c65	-0.53705436
27	0x3cd9c242	0.026581887
28	0xbd7da86b	-0.061928194
29	0x3e292522	0.16518071
30	0xbe00b77c	-0.12569994
31	0x3a99dded	0.0011739113
32	0x3d0d7a2e	0.034540348
33	0xbf155680	-0.58335114
34	0xbecdf9c5	-0.40229622
35	0x3f239806	0.63903844
36	0xbeaa614b	-0.33277354
37	0xbe9e3f8a	-0.3090785
38	0x3ed910d3	0.42395648
39	0xbe9e8aaf	-0.30965182
40	0xbe54a93e	-0.20767686
41	0xbdabc91c	-0.08387968
42	0xbea6a8d7	-0.3255069
43	0xbdba3741	-0.0909257
44	0xbc44bfca	-0.012008617
45	0xbdcd9c11	-0.10039533
46	0x3e0595c2	0.1304541
47	0x3db159a8	0.08659679
48	0xbea2150c	-0.31656682
49	0xbe7d3d79	-0.24730481
50	0x3d5ec706	0.054389022
51	0xbd3e95ad	-0.04652946
52	0x3e3bd8ce	0.18344423
53	0x3f065262	0.52469456
54	0x3e889feb	0.26684508
55	0x3d1eef0f	0.038802203
56	0x3e65fd50	0.22459912
57	0xbe334037	-0.17504965
58	0x3d8acb0a	0.06777008
59	0x3dd40c18	0.10353869
60	0x3eca68e1	0.3953314
61	0xbe4a704d	-0.19769402
62	0xbee485ca	-0.44633323
63	0x3de19f4b	0.11016711
64	0xbeb500ab	-0.35352072
65	0xbead8d23	-0.3389674
66	0x3f24ef80	0.6442795
67	0xbda153c8	-0.07877308
68	0xbd8d8e36	-0.0691189
69	0x3da8af3c	0.08236548
70	0xbe194f47	-0.14971648
71	0x3e5a7ee1	0.21337463
72	0x3ecc16b1	0.39861062
73	0xbf0cfdfe	-0.5507506
74	0xbf5615e8	-0.83627176
75	0xbde239d5	-0.11046187
76	0x3df5737f	0.1198492
77	0xbde025ab	-0.109446846
78	0x3d1de3eb	0.038547438
79	0x3e16af72	0.14715365
80	0xbd13e276	-0.03610464
81	0x3e7c4f91	0.24639727
82	0xbd961104	-0.07327464
83	0x3e85defe	0.26146692
84	0x3dffbd3e	0.12487267
85	0x3e858122	0.26075083
86	0x3f03855c	0.51375365
87	0xbd66b845	-0.056328077
88	0x3d9fcea6	0.07803087
89	0xbee69647	-0.45036528
90	0xbe97e34b	-0.29665598
91	0x3eaf7284	0.34267056
92	0xbe2d7649	-0.16939653
93	0xbad686de	-0.0016367098
94	0x3d86c6a6	0.06580858
95	0xbeded18c	-0.43519247
96	0x3e84f305	0.2596666
97	0xbea0e3ec	-0.3142389
98	0xbe4b9a4d	-0.1988308
99	0xbde4bf17	-0.1116926
100	0x3e3f9c34	0.1871193
101	0xbe46013c	-0.19336408
102	0xbe8f97e2	-0.28045565
103	0xbe6626e6	-0.22475776
104	0xbe06a087	-0.13147174
105	0xbe6bc7f0	-0.23025489
106	0xbe7624ed	-0.24037524
107	0x3e449174	0.19196111
108	0xbd840e29	-0.06448013
109	0xbe80d528	-0.25162625
110	0xbe9ed91f	-0.31025025
111	0x3ea8c27c	0.3296088
112	0xbce37d10	-0.027769595
113	0x3e532957	0.20621239
114	0xbe6780a6	-0.22607669
115	0x3d391586	0.045186542
116	0x3f07e15e	0.5307826
117	0xbd21c891	-0.039497916
118	0x3dbf8398	0.093512714
119	0xbe89da49	-0.2692435
120	0xbea25bd0	-0.31710672
121	0x3ef6ab63	0.48177633
122	0x3e3e5120	0.18585634
123	0x3d593175	0.05302568
124	0x3e70f1bd	0.23529716
125	0xbe1241b4	-0.14282876
126	0xbe36f361	-0.17866279
127	0xbcb71ff2	-0.0223541
128	0xbe1d846d	-0.15382548
129	0xbeaf658a	-0.34257156
130	0xbe16021b	-0.1464924
131	0xbf021710	-0.5081644
132	0xbea536d7	-0.32268402
133	0xbe32b851	-0.17453124
134	0xbeaaab09	-0.33333614
135	0xbd870d9f	-0.06594395
136	0xbd56e507	-0.05246451
137	0x3e266816	0.16250643
138	0xbe4926d3	-0.19643717
139	0xbe5bd9e8	-0.21469843
140	0xbef395f3	-0.4757534
141	0x3cb3c330	0.021943659
142	0xbcbd0aca	-0.023076434
143	0x3e7e1fa5	0.24816759
144	0xbd2000c8	-0.039063245
145	0x3e06840f	0.13136314
146	0xbe022fd5	-0.12713559
147	0xbd83860f	-0.06422054
148	0xbe2b6266	-0.16736755
149	0x3e1939ad	0.14963408
150	0x3e2b7e47	0.1674739
151	0xbebcecd7	-0.36899444
152	0x3d8ebc13	0.06969466
153	0xbf0cb8aa	-0.54969275
154	0xbebb80a0	-0.3662157
155	0x3e22bd06	0.15892419
156	0xbe8e265b	-0.27763638
157	0x3e967908	0.29389215
158	0x3e9cf31e	0.30654234
159	0x3d5f254d	0.054478932
160	0xbb9db04d	-0.0048122765
161	0xbdd20175	-0.10254184
162	0x3ef4225b	0.4768246
163	0xbd2b273d	-0.041785467
164	0x3e827b17	0.25484535
165	0xbd832314	-0.06403175
166	0xbe8cc2ed	-0.27492467
167	0xbe9a4503	-0.30130777
168	0xbe1ba6cb	-0.15200345
169	0xbe2add64	-0.16686016
170	0xbe2b0fb5	-0.1670521
171	0xbdc9a421	-0.09845758
172	0x3c32ced5	0.01091357
173	0xbe21418f	-0.15747665
174	0x3eb6ae90	0.35680056
175	0xbd17fbf4	-0.037105516
176	0x3d33e9bf	0.04392409
177	0xbf27deb3	-0.6557419
178	0x3e400d9a	0.18755189
179	0x3ed640d8	0.41846347
180	0xbf13558c	-0.5755241
181	0x3e8e3cf7	0.27780887
182	0xbe15a1da	-0.14612523
183	0x3eadaf0f	0.33922622
184	0xbe23686f	-0.15957807
185	0xbe65743f	-0.22407626
186	0x3e2e7560	0.17036963
187	0x3e4d62fa	0.20057288
188	0x3cdc97e8	0.026927903
189	0xbdd1ba4f	-0.10240614
190	0xbdd4af35	-0.103849806
191	0xbdeb973e	-0.115034565

bias f4 [8]
0	0x3e9d12e0	0.30678463
1	0x3ecedd10	0.40403032
2	0xbe51625f	-0.20447682
3	0xbc21df04	-0.009879831
4	0x3d0124c1	0.031529192
5	0x3ee29f88	0.44262338
6	0xbb1b450f	-0.0023692285
7	0x3d0f0c22	0.03492368

weight f4 [8, 8, 3]
0	0xbeb17d69	-0.34665993
1	0xbf24ff7d	-0.64452344
2	0xbf53ce77	-0.82736915
3	0x3e97ef45	0.29674736
4	0x3e3c3323	0.18378882
5	0x3b7ed65a	0.0038885088
6	0x3db6db63	0.089285634
7	0xbd979680	-0.074017525
8	0x3d875139	0.06607289
9	0xbe2427dc	-0.1603083
10	0xbe5ec1d8	-0.21753633
11	0xbeff066b	-0.49809584
12	0xbd3ce07e	-0.04611253
13	0xbe27ac7e	-0.16374394
14	0x3c41850d	0.011811507
15	0xbe8c8e8e	-0.2745251
16	0x3e402697	0.18764721
17	0xbdbf52cf	-0.09341966
18	0xbe6c5877	-0.23080622
19	0xbe63c49d	-0.22242971
20	0xbe88a4cb	-0.26688227
21	0xbd985285	-0.07437614
22	0xbe88c273	-0.26710853
23	0xbe8fe6f8	-0.28105903
24	0xbe17100d	-0.14752217
25	0xbe93ee50	-0.28892756
26	0xbea59221	-0.3233805
27	0xbc9721f7	-0.018448813
28	0xbe2f2fae	-0.17108032
29	0xbe4dedb2	-0.20110205
30	0xbd57cc25	-0.05268492
31	0xbe31c408	-0.17359936
32	0x3e78665f	0.24257801
33	0xbf06c73b	-0.5264775
34	0xbedecc4c	-0.4351524
35	0xbf3663f8	-0.7124629
36	0x3d0dfc0c	0.0346642
37	0x3d9794bd	0.074014165
38	0xbe406a01	-0.18790437
39	0x3d701135	0.05861016
40	0x3de5fed0	0.11230242
41	0x3e0dabd8	0.13835084
42	0xbe3db90b	-0.1852762
43	0xbed799a5	-0.4210941
44	0xbe93a4c9	-0.2883666
45	0x3e1b8f70	0.15191436
46	0xbd3158fc	-0.043297753
47	0x3e325eb5	0.1741894
48	0x3e5c4a57	0.21512733
49	0xbe80cee0	-0.25157833
50	0x3f1655a7	0.58724445
51	0xbec28f78	-0.38000083
52	0x3be15eea	0.0068777697
53	0xbcc0681d	-0.023487145
54	0xbf0770c9	-0.5290647
55	0xbf1e9db9	-0.61959416
56	0xbef8369c	-0.48479164
57	0xbd3e2830	-0.046425045
58	0xbe6f0504	-0.23341757
59	0xbf004b78	-0.50115156
60	0xbe0df949	-0.13864626
61	0xbeb844df	-0.35990044
62	0xbedde449	-0.4333823
63	0xbe01eb61	-0.12687446
64	0x3e2dcb14	0.16972
65	0xbb4d4cab	-0.0031326215
66	0xbd89ecb4	-0.06734601
67	0x3e3e10b1	0.18561055
68	0xbdc76459	-0.09735937
69	0x3e7cd578	0.24690807
70	0x3e944e21	0.28965858
71	0x3e56f83a	0.20993128
72	0xbe12ba87	-0.14328967
73	0xbeffe2c4	-0.49977696
74	0xbeb73387	-0.357815
75	0xbd078f31	-0.033095542
76	0xbda5e6c4	-0.08100656
77	0xbe44ad04	-0.19206625
78	0x3dfb8d6c	0.122828335
79	0x3d2a04e5	0.041508574
80	0x3deae271	0.114689715
81	0xbced1287	-0.028939499
82	0xbe78e9fa	-0.24308005
83	0xbeac96a0	-0.33708668
84	0x3d8d989e	0.06913875
85	0xbd7557de	-0.05989825
86	0x3daf194e	0.08549748
87	0xbe408712	-0.18801525
88	0x3e0047de	0.12527415
89	0xbd7fca37	-0.062448706
90	0x3f002ac7	0.50065273
91	0x3f0c3d78	0.54781294
92	0x3e9da807	0.30792257
93	0x3d192d4a	0.037396707
94	0xbebc64da	-0.36795694
95	0x3c9aff75	0.01892064
96	0xbe6abcfc	-0.22923654
97	0x3c04696c	0.008081775
98	0xbef4b445	-0.47793785
99	0x3e36d5ba	0.17854968
100	0x3e1e5eb1	0.1546581
101	0x3d1bdca8	0.03805223
102	0xbdbb385b	-0.09141608
103	0xbc83e5ac	-0.016100727
104	0xbdef9ea8	-0.11700183
105	0x3e8a2fde	0.26989645
106	0xbe67a78c	-0.22622508
107	0xbe10d861	-0.14145042
108	0x3e582a1b	0.21109812
109	0xbd370829	-0.044685517
110	0x3e75949a	0.23982468
111	0xbdffbf34	-0.12487641
112	0xbf6b454e	-0.91902626
113	0xbf93699c	-1.1516604
114	0xbe39a5cb	-0.18129651
115	0xbdd0a727	-0.10188132
116	0x3d7da386	0.061923526
117	0xbea4a594	-0.32157576
118	0xbcbc0eb0	-0.022956222
119	0x3d1048d0	0.03522569
120	0xbd82c105	-0.06384472
121	0xbca089c1	-0.019596936
122	0x3e915f15	0.28392854
123	0xbeaf41e0	-0.34229946
124	0xbe7d476e	-0.2473428
125	0xbe55df92	-0.20886067
126	0x3e8c6df3	0.27427635
127	0xbd978c7a	-0.07399841
128	0x3e65676e	0.22402737
129	0xbe97fb6a	-0.29684
130	0x3e7a43e9	0.24439968
131	0xbe0ba116	-0.13635668
132	0xbd94a1f4	-0.072574526
133	0x3e5d98df	0.21640347
134	0x3d8adf8f	0.06780922
135	0xbe50f90a	-0.20407501
136	0xbedc820a	-0.43067962
137	0xbea50d78	-0.32236838
138	0x3f13bdde	0.5771159
139	0x3dc487ab	0.09596189
140	0xbd577be2	-0.05260838
141	0x3f2d3d94	0.67672086
142	0xbb755476	-0.0037434376
143	0x3ea10cdc	0.31455123
144	0xbd9ab6eb	-0.0755442
145	0xbd83884e	-0.064224824
146	0xbd489ae0	-0.048975825
147	0xbd928115	-0.07153527
148	0x3cc5aa2b	0.024128994
149	0x3f365296	0.71219766
150	0xbe271ba4	-0.16319138
151	0x3e316857	0.17324959
152	0xbeb22340	-0.3479252
153	0x3f4684e9	0.77546555
154	0x3ceaf814	0.028682746
155	0x3eaa2a6d	0.33235493
156	0xbe4fe7e2	-0.203033
157	0x3a041a30	0.00050393026
158	0x3e491141	0.19635488
159	0xbdf0b1cb	-0.11752661
160	0xbe86a9f3	-0.26301536
161	0xbe3d7b36	-0.18504032
162	0xbf956789	-1.1672221
163	0xbee14c37	-0.4400346
164	0x3e63cc5e	0.22245929
165	0x3dd3c1eb	0.10339721
166	0x3df627fc	0.12019345
167	0x3e45d415	0.19319184
168	0xbdf36f3f	-0.11886453
169	0xbe32bf57	-0.17455803
170	0xbe86b387	-0.26308843
171	0xbcb62b33	-0.022237396
172	0x3c6002e3	0.013672563
173	0x3ef1ff97	0.47265312
174	0x3d8eb13a	0.06967397
175	0xbd42746d	-0.047474314
176	0xbe86a4de	-0.2629766
177	0xbf028aff	-0.5099334
178	0xbe8cc1a9	-0.274915
179	0x3f3a2fc1	0.72729117
180	0xbe039f3c	-0.12853712
181	0xbda1ec1b	-0.07906362
182	0xbe964ae3	-0.2935401
183	0xbdf934f9	-0.12168307
184	0x3d8c7915	0.06859032
185	0xbd19e115	-0.03756817
186	0x3e5ca06e	0.21545574
187	0x3eb0ec18	0.34555125
188	0x3ebf8c48	0.37411714
189	0x3dae7a20	0.08519387
190	0xbe6791dc	-0.22614235
191	0xbe5c68b0	-0.2152431

bias f4 [8]
0	0x3eb380ce	0.35059208
1	0x3f237c7b	0.6386182
2	0x3ed631fb	0.41835007
3	0xbe3fd0e4	-0.18732029
4	0x3f5b8813	0.8575451
5	0x3e063434	0.13105851
6	0xbc1a178f	-0.009405031
7	0xbd0f11fb	-0.034929257

weight f4 [8, 8, 3]
0	0x3e0ede4c	0.13951987
1	0xbe3c0ba4	-0.18363816
2	0xbd04f42e	-0.03245943
3	0xbe936a23	-0.28791913
4	0xbee12727	-0.43975183
5	0xbf33e6c5	-0.70274
6	0x3ca98779	0.020694481
7	0x3ee53ded	0.44773808
8	0x3f54b8c8	0.83094454
9	0xbd219a30	-0.039453685
10	0x3d586e6b	0.052839678
11	0xbd0424bb	-0.03226159
12	0x3df9806a	0.12182696
13	0xbe10f434	-0.14155656
14	0xbefca45d	-0.4934415
15	0x3e8013f4	0.25015223
16	0xbc8e12ed	-0.017343009
17	0x3de712ca	0.112828806
18	0x3d14c7a3	0.0363232
19	0x3d8021c9	0.06256444
20	0x3e4525fe	0.19252774
21	0xbd88d9d6	-0.06682174
22	0x3d7dd5b2	0.061971374
23	0xbe270f76	-0.16314492
24	0xbda40f2b	-0.080107056
25	0xbdaef1b6	-0.085421965
26	0xbdf70d8b	-0.1206313
27	0xbd878808	-0.06617743
28	0xbc5f5334	-0.013630677
29	0xbe04bfc3	-0.12963776
30	0xbdd9dded	-0.10638032
31	0xbe20e7ae	-0.15713379
32	0xbe1e7ea7	-0.15478002
33	0x3d624764	0.055243865
34	0xbd75c372	-0.060000844
35	0xbe4ee90d	-0.2020609
36	0x3e50f7cc	0.20407027
37	0x3e0fc142	0.14038566
38	0xbeb2f2a8	-0.34950757
39	0x3c34804e	0.011016918
40	0x3e1338f8	0.143772
41	0xbe6c2616	-0.23061404
42	0x3c7ef71c	0.015561845
43	0x3d300c74	0.042980626
44	0xbe536912	-0.2064555
45	0xbe0138b5	-0.12619288
46	0xbdd381b7	-0.103274755
47	0xbdf76597	-0.120799236
48	0x3d5ee30d	0.05441575
49	0x3ec1fe7f	0.37889478
50	0x3e8dd931	0.27704766
51	0xbdea917a	-0.11453529
52	0x3f24d68a	0.6438986
53	0x3e69c6b7	0.2282971
54	0xba08d5ef	-0.0005219867
55	0xbe9108bf	-0.28326985
56	0xbc766642	-0.015039029
57	0x3c8798fe	0.016552445
58	0x3d38e234	0.0451376
59	0x3d2a91fd	0.04164313
60	0xbe75766b	-0.23970954
61	0xbe2085a8	-0.15675986
62	0xbd73a0a8	-0.059479386
63	0xbe44ac10	-0.19206262
64	0xbe2fc00a	-0.17163101
65	0xbd8314a7	-0.064004235
66	0xbe324ff3	-0.1741331
67	0x3e0423ec	0.12904328
68	0x3d55316c	0.052049085
69	0xbde2b2fc	-0.11069295
70	0xbc69f9e8	-0.014280774
71	0xbde7f8b2	-0.11326732
72	0x3d862325	0.06549672
73	0x3e0c19eb	0.13681762
74	0x3c8e43ab	0.017366251
75	0xbe606d9c	-0.21916813
76	0x3d0636c1	0.03276706
77	0x3e8dbce6	0.2768318
78	0x3d9b16c9	0.07572705
79	0xbe62d71a	-0.22152367
80	0xbe9a16f8	-0.3009565
81	0xbc8e5486	-0.017374288
82	0xbde092c7	-0.109654956
83	0xbd25022b	-0.04028527
84	0xbe8b46f2	-0.27202564
85	0xbeda6ac5	-0.42659584
86	0xbf035003	-0.51293963
87	0xbe605b65	-0.21909864
88	0xbe829fb1	-0.2551246
89	0xbe28cbfe	-0.16484067
90	0xbe054254	-0.13013583
91	0xbc6048fa	-0.013689274
92	0xbeeca078	-0.46216178
93	0x3d683124	0.05668749
94	0x3d80f31d	0.0629637
95	0xbea9ccce	-0.33164066
96	0xbdaf4481	-0.08557988
97	0x3c8c5775	0.017131547
98	0x3d81f514	0.06345573
99	0x3d3a89ac	0.04554145
100	0xbe21d45b	-0.15803663
101	0xbdf37872	-0.118882075
102	0xbe491008	-0.19635022
103	0xbd150018	-0.036377043
104	0x3db11915	0.08647362
105	0xbe2997d4	-0.16561824
106	0x3df3e1a7	0.11908274
107	0x3e145c2e	0.14488289
108	0xbe13e254	-0.14441806
109	0xbe3c3aa2	-0.18381742
110	0xbd1103a0	-0.035403848
111	0xbe4cf2b6	-0.20014462
112	0xbdbadfd6	-0.091247246
113	0xbd8c72f9	-0.06857867
114	0xbe4fb66d	-0.20284434
115	0xbd6ff0cb	-0.058579247
116	0xbc313fca	-0.010818431
117	0xbd0b41f7	-0.033998456
118	0x3dcbb555	0.09946696
119	0xbca15e0a	-0.019698162
120	0x3eaf34f7	0.34220096
121	0xbdf43a9e	-0.11925243
122	0xbcc20be0	-0.023687303
123	0x3e880239	0.26564196
124	0x3e9a2f36	0.30114144
125	0xbe74342d	-0.23848028
126	0x3ea6bb43	0.32564744
127	0x3eb9ff4f	0.36327597
128	0x3e132e83	0.14373212
129	0x3d5b0cf3	0.053479146
130	0xbde986d4	-0.114026695
131	0x3e2ce520	0.16884279
132	0xbec0f2e1	-0.37685302
133	0xbe30ca23	-0.17264609
134	0x3ea5d69b	0.32390293
135	0xbe9aef92	-0.30260903
136	0x3d9505d9	0.07276506
137	0x3d3414a6	0.043965004
138	0xbe6467cd	-0.22305222
139	0xbd53114f	-0.05153018
140	0x3f45af83	0.77220935
141	0xbe2889f6	-0.16458878
142	0xbe418c16	-0.18901095
143	0x3f2abdd4	0.66695905
144	0xbd1ed11e	-0.03877365
145	0x3dfad174	0.12246981
146	0xbe85bb90	-0.2611966
147	0xbe967785	-0.2938806
148	0xbdad9a85	-0.08476738
149	0x3e8d6c2b	0.27621588
150	0xbe1edf41	-0.15514852
151	0xbe6a4827	-0.22879086
152	0xbec964e8	-0.39334798
153	0x3db7fa48	0.08983284
154	0x3e53e36d	0.20692225
155	0x3edc42c6	0.43019694
156	0xbf5388a2	-0.8263036
157	0x3f383bc1	0.7196618
158	0x3f455014	0.77075315
159	0x3f2eaf4e	0.68236244
160	0xbd20da29	-0.039270554
161	0x3f180cc9	0.5939451
162	0xbf53f588	-0.82796526
163	0xbda18d08	-0.07888228
164	0xbf048aae	-0.5177411
165	0x3ee2b6c7	0.44280073
166	0x3e02d268	0.12775576
167	0xbf7233fb	-0.94610566
168	0xbdf4198a	-0.11918934
169	0x3e161931	0.14658047
170	0xbdee43cc	-0.11634025
171	0x3ed34581	0.41263965
172	0x3eae240e	0.34011883
173	0x3e71582c	0.23568791
174	0x3e69590e	0.22787878
175	0xbdac50aa	-0.08413823
176	0x3e054c7f	0.13017462
177	0xbcb9ce57	-0.022681398
178	0x3d548cfc	0.051892266
179	0x3d0c7465	0.03429069
180	0x3e6e4f05	0.23272331
181	0x3d354599	0.044255827
182	0x3df93bea	0.12169631
183	0xbdb571aa	-0.0885957
184	0xbdfe7114	-0.12423912
185	0xbcaf0b71	-0.02136776
186	0x3d107325	0.03526606
187	0xbe232514	-0.15932113
188	0xbe3d2624	-0.1847158
189	0xbe014bda	-0.12626591
190	0x39bcfc27	0.00036046022
191	0xbe5d0102	-0.21582416

bias f4 [8]
0	0xbded46a6	-0.11585741
1	0x3d5d2069	0.053985987
2	0xbe91f12f	-0.2850432
3	0x3f3bfe8d	0.7343529
4	0xbdb7a969	-0.08967859
5	0xbedae932	-0.4275604
6	0x3e11e6f3	0.14248256
7	0xbf1a2d67	-0.6022553

weight f4 [8, 8, 3]
0	0xbe47994d	-0.19492073
1	0xbd940764	-0.07227972
2	0xbdb1261c	-0.08649847
3	0xbd9acb5a	-0.075583175
4	0x3e5a2a88	0.21305287
5	0xbdddc71c	-0.10828993
6	0xbe0eb4b0	-0.13936114
7	0x3d6b445c	0.05743824
8	0x3dea1e6b	0.11431583
9	0xbb674480	-0.0035288632
10	0x3db4427a	0.08801742
11	0xbe1b0898	-0.15139997
12	0x3dc33ea0	0.09533429
13	0xbc94d8ea	-0.018169839
14	0xbe25eb9a	-0.16203156
15	0x3b675222	0.0035296758
16	0xbea44b9f	-0.32088944
17	0xbf1f6087	-0.62256664
18	0x3f3076bf	0.6893119
19	0xbe9c4494	-0.3052107
20	0x3eddfbb7	0.43356106
21	0x3dabee52	0.08395065
22	0xbd370b0a	-0.044688262
23	0xbdf6d884	-0.12053016
24	0x3ec29d03	0.38010415
25	0x3dd74cfa	0.10512729
26	0x3e811346	0.25210017
27	0xbb3a7c36	-0.0028455383
28	0x3dad0415	0.08448044
29	0x3e1850b2	0.14874533
30	0x3e099d78	0.13438976
31	0xbe123b61	-0.14280464
32	0xbd0a43dd	-0.033756126
33	0xbdb571d9	-0.08859605
34	0xbd11e4b8	-0.035618514
35	0x3dccca30	0.09999502
36	0xbdfc1c86	-0.12310128
37	0xbd71679c	-0.0589367
38	0x3c00a550	0.007851914
39	0x3d3a92c2	0.045550115
40	0x3cdc30d2	0.026878748
41	0x3d5e9c99	0.054348562
42	0xbe02699d	-0.12735601
43	0xbd38d05a	-0.045120575
44	0xbe5b186d	-0.21396036
45	0xbda3a6a4	-0.079907686
46	0x3e35a1c2	0.17737487
47	0xbd513a1a	-0.0510808
48	0xbe4d4dcf	-0.20049213
49	0xbc60b725	-0.01371554
50	0xbe123212	-0.14276913
51	0x3dc8f421	0.09812189
52	0x3deca6de	0.11555265
53	0xbe1c9d50	-0.15294385
54	0xbe3b4ab7	-0.1829022
55	0x3d67187b	0.05641983
56	0xbdde805f	-0.108643286
57	0x3d6538b1	0.05596227
58	0x3d35872d	0.044318367
59	0x3dc8a308	0.09796721
60	0xbe0b98a8	-0.13632452
61	0xbdf3ba8e	-0.11900817
62	0x3e4996dc	0.19686455
63	0xbe36d6e9	-0.17855419
64	0x3d26574e	0.040610604
65	0x3e164110	0.14673257
66	0xbe1e8850	-0.15481687
67	0xbce95d4d	-0.028486872
68	0x3d9c20b9	0.07623429
69	0xbe21d2c0	-0.15803051
70	0x3a6814b7	0.00088531844
71	0x3e2e9703	0.17049794
72	0x3d8bb967	0.06822472
73	0xbd283f31	-0.04107589
74	0x3db920d4	0.090394646
75	0xbd15530b	-0.03645615
76	0x3e490b9c	0.19633335
77	0xbd9fa1ea	-0.077945545
78	0xbe17daa2	-0.14829496
79	0x3dc25bf8	0.09490198
80	0x3da599fb	0.0808601
81	0x3d266fbc	0.040633902
82	0x3da68ead	0.08132682
83	0x3e1e16bd	0.15438361
84	0xbe049092	-0.12945774
85	0xbcfc9e2b	-0.03083714
86	0x3e373356	0.17890677
87	0x3df24e54	0.11831346
88	0x3e582332	0.21107176
89	0xbe6e52da	-0.23273793
90	0xbd95aae1	-0.07307983
91	0xbe4007e3	-0.18753009
92	0xbeaacc49	-0.33358982
93	0x3c0776f7	0.0082681095
94	0xbdc72f6d	-0.097258426
95	0xbb78d7d9	-0.0037970452
96	0xbe371686	-0.17879686
97	0x3d669748	0.056296617
98	0xbdac5a20	-0.084156275
99	0xbcf1bddc	-0.029509477
100	0x3e41742e	0.18891975
101	0x3dfc389a	0.123154834
102	0x3d71c739	0.059027884
103	0x3dfc08a0	0.123063326
104	0xbe3e751d	-0.18599363
105	0xbe26cb04	-0.16288382
106	0xbe42fdd8	-0.19042146
107	0xbd68078f	-0.056647833
108	0xbbe104f6	-0.0068670465
109	0x3a0ede00	0.00054499507
110	0x3ceeaef8	0.029136166
111	0x3d53acb3	0.05167837
112	0x3df5af1c	0.1199629
113	0xbe42cbca	-0.19023052
114	0xbd47d98e	-0.04879146
115	0xbe0bb8f6	-0.13644776
116	0x3d255134	0.040360644
117	0x3e3db4d4	0.18526012
118	0x3c9ddc46	0.019270074
119	0xbe13f596	-0.14449152
120	0xbdf2f9e7	-0.11864071
121	0x3e0dce83	0.13848309
122	0xbcbf3e09	-0.02334501
123	0x3d228a9b	0.039682966
124	0xbd136326	-0.035983227
125	0xbe4810bc	-0.19537634
126	0xbdd65449	-0.10465295
127	0xbd610199	-0.054933164
128	0xbe971a84	-0.29512417
129	0x3de78e4a	0.11306436
130	0x3e1e5570	0.1546228
131	0x3e751886	0.23935136
132	0x3de4f486	0.11179452
133	0x3cd56b55	0.026052156
134	0x3e1490c3	0.14508347
135	0x3d08cc05	0.033397693
136	0xbd3f5774	-0.04671426
137	0xbe8eeb87	-0.27914068
138	0x3d02a7ce	0.031898312
139	0xbd96e657	-0.073681526
140	0xbcb67ebd	-0.02227723
141	0xbe348313	-0.17628126
142	0xbe930110	-0.28711748
143	0xbe944bb6	-0.28964013
144	0x3e2df71f	0.169888
145	0x3d9e603b	0.07733198
146	0x3f56f583	0.8396837
147	0x3e15b8b0	0.14621234
148	0xbbe981e3	-0.0071260794
149	0xbd46b57d	-0.048512924
150	0xbe267edb	-0.16259329
151	0xbe9a49f7	-0.30134556
152	0xbe794e7e	-0.24346349
153	0x3d1c3b68	0.03814259
154	0x3eb13312	0.34609276
155	0xbdbff423	-0.09372737
156	0xbe2469f8	-0.16056049
157	0x3e09c1c4	0.13452822
158	0x3dcdefac	0.100554794
159	0xbba3f550	-0.0050036088
160	0xbe321d60	-0.17394018
161	0xbeba0442	-0.36331373
162	0xbcef27db	-0.02919381
163	0x3bc0447b	0.0058675385
164	0xbd94c077	-0.07263272
165	0x3ce6ae22	0.028159205
166	0xbd34e4ba	-0.044163443
167	0x3ca067ff	0.01958084
168	0xbea8ae93	-0.3294569
169	0xbe23ec7d	-0.16008182
170	0xbef48a8c	-0.47761953
171	0xbe0d2739	-0.13784494
172	0x3e08d3bb	0.13362019
173	0x3ebc5e4e	0.367907
174	0x3caba09b	0.020950606
175	0xbd46371d	-0.048392404
176	0xbda95741	-0.082685955
177	0xbcec2adb	-0.028829029
178	0xbc30af4a	-0.01078398
179	0xbe5d9052	-0.21637085
180	0x3dae826d	0.085209705
181	0x3de7edd7	0.11324661
182	0x3e4c88f7	0.19974123
183	0xbdc12305	-0.094305076
184	0xbe4e7ab8	-0.20164001
185	0x3f220cab	0.6330058
186	0xbea7e3df	-0.3279104
187	0xbbd28d0e	-0.0064255064
188	0xbde1be08	-0.11022574
189	0xbec6276c	-0.38701952
190	0xbe4e8899	-0.20169295
191	0xbeaae2a4	-0.33376038

bias f4 [8]
0	0xbd82ad5e	-0.063807234
1	0xbea2d60e	-0.31803936
2	0xbe224a8f	-0.15848754
3	0x3e20f969	0.15720142
4	0xbdc0f6e6	-0.09422092
5	0x3e61bfa1	0.22045757
6	0x3d8d7dd5	0.06908766
7	0x3f18e753	0.5972797

weight f4 [8, 24, 1]
0	0x3f997c08	1.1990976
1	0x3cbe300a	0.023216266
2	0xbf14094a	-0.57826674
3	0x3dd377e7	0.10325604
4	0x3ce26949	0.027638094
5	0x3d1cb9a5	0.038262982
6	0x3c1f7a23	0.0097337095
7	0xbbffa4a8	-0.007801611
8	0x3e84520a	0.2584384
9	0xbc9399ca	-0.018017668
10	0x3f0da086	0.55323064
11	0x3ec6a97a	0.38801175
12	0xbe229e83	-0.1588078
13	0xbc995acf	-0.018720059
14	0xbd8db084	-0.06918433
15	0xbe547720	-0.20748568
16	0xbda43c7e	-0.080193505
17	0x3e96cf57	0.29455063
18	0xbd45e5e7	-0.048314955
19	0x3ca31a26	0.01990993
20	0xbd024976	-0.03180834
21	0xbe88c7ce	-0.2671494
22	0xbeb7f420	-0.3592844
23	0xbce20e15	-0.027594605
24	0xbe611b7c	-0.2198314
25	0x3e636fb1	0.22210576
26	0x3e9a6ca8	0.30161023
27	0x3eb4ca3e	0.3531055
28	0xbf4fa879	-0.81116444
29	0xbe9db100	-0.30799103
30	0x3d9ee956	0.07759349
31	0xbe40ac48	-0.1881572
32	0x3d3901cb	0.045167726
33	0x3ca8c755	0.020602861
34	0xbec5d917	-0.3864219
35	0x3f1e654a	0.61873305
36	0x3e44e290	0.19227052
37	0xbd9a9834	-0.07548562
38	0x3a2c799f	0.0006579402
39	0xbdc83fd6	-0.09777801
40	0xbd822663	-0.06354978
41	0xbe5f1019	-0.21783485
42	0xbda75346	-0.0817018
43	0x3eb97802	0.3622437
44	0xbd7d12a9	-0.061785374
45	0x3eb03fc4	0.3442365
46	0x3f1a9e38	0.6039767
47	0xbc07180c	-0.008245479
48	0xbe2318d1	-0.15927435
49	0x3acd4caf	0.0015663112
50	0x3d5e5a97	0.054285612
51	0x3d0b6910	0.034035742
52	0x3e1b76cb	0.15182035
53	0x3d8338cf	0.0640732
54	0x3b246a40	0.0025087744
55	0x3d248f18	0.040175527
56	0xbd910f44	-0.0708299
57	0x3cb22f9b	0.021751216
58	0xbd9888d5	-0.07447974
59	0xbdf85a24	-0.12126568
60	0x3e14243e	0.1446695
61	0x3b92657b	0.004467664
62	0xbd66ab2c	-0.056315586
63	0x3de6579a	0.112471774
64	0xbd454245	-0.048158903
65	0xbe16d1a6	-0.14728412
66	0xbdf5117f	-0.11966228
67	0x3d65d5ab	0.056111973
68	0x3e362c38	0.17790306
69	0xbe481e4e	-0.1954281
70	0xbe09ee6f	-0.13469861
71	0x3d625388	0.055255443
72	0xbdeeee7c	-0.11666581
73	0xbc5a6ea8	-0.013332047
74	0x3c565785	0.01308239
75	0x3d03edaa	0.032209076
76	0x3e16588a	0.14682212
77	0x3d89c0e6	0.067262456
78	0x3aded3f3	0.0017000422
79	0x3d249748	0.040183336
80	0xbe0cc960	-0.13748693
81	0x3c1c4f2d	0.009540361
82	0xbdf9cacd	-0.12196884
83	0xbe03895f	-0.12845372
84	0xbde9f42d	-0.11423526
85	0x3c2e2fa7	0.010631478
86	0xbd543215	-0.051805574
87	0x3e24c374	0.16090184
88	0xbd49ff8d	-0.049315978
89	0x3d33b808	0.043876678
90	0x3e4dc3d8	0.2009424
91	0x3d9ba3d4	0.07599607
92	0xbdce7b81	-0.1008215
93	0xbe0fb4c8	-0.14033806
94	0xbdf7668b	-0.120801054
95	0x3d7a74e4	0.06114663
96	0xbe7430b4	-0.23846704
97	0x3d8250e8	0.06363088
98	0x3d9224a3	0.07135894
99	0x3d8220b7	0.06353896
100	0x3d753711	0.05986697
101	0x3d001e63	0.03127898
102	0x3c994e17	0.018713994
103	0x3cd68821	0.026187958
104	0xbe30de05	-0.17272194
105	0x3db8558a	0.0900069
106	0xbe3648b4	-0.17801172
107	0xbe1183f5	-0.14210494
108	0xbdd47b6f	-0.103751056
109	0x3c214201	0.009842397
110	0xbd672bbf	-0.056438204
111	0x3daead9e	0.085292086
112	0xbd44c583	-0.048039924
113	0xbcc723a5	-0.024308989
114	0x3ca43a65	0.020047376
115	0xbd5fb0ee	-0.054612093
116	0x3e332ff1	0.17498757
117	0xbe36f8db	-0.17868368
118	0xbde765d6	-0.112987205
119	0x3d254105	0.04034521
120	0xbdf65f2d	-0.12029872
121	0x3f47ca6b	0.7804324
122	0x3eaf63c4	0.34255803
123	0xbf74794e	-0.95497596
124	0xbee82651	-0.45341733
125	0xbee3c7d4	-0.44488394
126	0xbe4daf06	-0.20086297
127	0xbdaf556e	-0.08561216
128	0xbe464bcc	-0.19364852
129	0xbe13f05f	-0.14447163
130	0xbe615145	-0.22003658
131	0xbea1fe88	-0.31639504
132	0x3e0ea99a	0.13931885
133	0xbe83ce13	-0.2574316
134	0x3ecbe888	0.39825845
135	0xbdfebd50	-0.12438452
136	0x3f168bba	0.58806956
137	0xbd7ba6f5	-0.06143852
138	0x3e308ef8	0.17242038
139	0xbeadf315	-0.3397452
140	0x3d974444	0.073860675
141	0x3e6c787f	0.2309284
142	0x3dd6204a	0.104553774
143	0xbf450ed1	-0.76975733
144	0xbe5f3db1	-0.21800877
145	0xbf703e19	-0.93844754
146	0xbeb2250e	-0.34793895
147	0x3e8bc9eb	0.2730249
148	0x3f19c9d1	0.6007357
149	0x3ecf34af	0.40469882
150	0x3d1022ab	0.035189312
151	0x3e0b07c9	0.13577189
152	0xbe59a65a	-0.21254864
153	0x3d33257a	0.043736912
154	0x3e0eaa9c	0.1393227
155	0xbd97f884	-0.074204475
156	0xbe3580b7	-0.17724882
157	0x3e943380	0.2894554
158	0xbe05663d	-0.13027282
159	0xbddffab5	-0.109364904
160	0xbe710080	-0.23535347
161	0x3ebabf53	0.36474094
162	0xbe2fc0ea	-0.17163435
163	0xbd0633ec	-0.03276436
164	0xb9c491de	-0.00037492713
165	0x3efb3775	0.49065748
166	0xbe37ee44	-0.17961985
167	0x3f218a61	0.63101774
168	0xbdcce3d6	-0.10004394
169	0xbe366633	-0.17812423
170	0x3e1cdd06	0.15318689
171	0x3d7d9af8	0.061915368
172	0x3ea953a4	0.33071625
173	0x3e30e0ec	0.17273301
174	0x3d3cc239	0.046083663
175	0x3d6e064f	0.058111485
176	0x3e98ea99	0.29866484
177	0xbc8d448b	-0.017244598
178	0x3ea4c236	0.3217942
179	0xbe4a285f	-0.19741963
180	0xbddffb11	-0.10936559
181	0x3d1d7290	0.038439333
182	0xbcf0209e	-0.029312428
183	0x3e50802e	0.20361397
184	0xbd59e470	-0.05319637
185	0xbe32d87f	-0.17465399
186	0xbc923a59	-0.017850088
187	0xbd440d17	-0.047864046
188	0xbdd0130c	-0.10159883
189	0xbe9ec59b	-0.31010136
190	0x3ec1c22d	0.37843457
191	0x3d09a706	0.03360655

bias f4 [8]
0	0xbeeef972	-0.46674687
1	0x3ea1afe5	0.3157951
2	0xbf1c047e	-0.60944355
3	0xbf1e70dd	-0.61890966
4	0xbf0c569c	-0.54819655
5	0x3fa0879e	1.2541387
6	0x3f9cbeed	1.2245766
7	0xbf1cb2dc	-0.6121042
