Masterarbeit_YorickLALY/Code_and_Neural_Network/CNN_30_boolean.pt (torch, 10191 bytes, 12 tensors)

weight f4 [8, 8, 3]
00000000: c689 613e 7fe6 493e 9288 5fbd 6412 f13d
00000010: 5140 a1bd 4e34 ebbc b882 f1bd 0cec 53bd
00000020: a822 8cbc 37e8 e0bd 2806 223d 20b8 253c
00000030: fe84 943e af4a 8b3e bf7c a13e cf26 69be
00000040: 6172 61be e5da ae3e 3d92 b5bd c6ab 82bc
00000050: dd59 f33e dd9f 8e3d bbcf d03d 1a23 c4bd
00000060: 5b67 0cbe 3d6f 78be 7b71 e9bd 8786 2dbd
00000070: e863 d7be f629 08bf 5aa3 423e d055 7e3d
00000080: 88fc 6e3d a7d9 40be 88d4 0b3d 448b 333e
00000090: 7f15 3abd 5dd7 f2bd 897a adbe 1693 db3d
000000a0: ace7 003f 1ac5 ebbc f481 5d3d 8481 953e
000000b0: 2b09 2c3f 84fa 8b3e 6698 c23d 894c 6b3e
000000c0: cc14 823c a510 223e 842b 613e b4f9 fabd
000000d0: dc91 3d3e 16ca 173d c03e 8ebb 5cbc 11be
000000e0: 185d 83bd 9cb4 193e 80a1 0fbc 70a2 923d
000000f0: 8432 773d 14ca 6ebd eb64 633d 9760 b1bd
00000100: 7c53 64be 3d55 43be 5388 fdbd 34d7 60bd
00000110: 5827 673e 7519 4ebe ffec cbbd f9c7 9cbd
00000120: fe1a 803a c73a 9dbe 9beb acbe 5f7b ce3d
00000130: e684 9d3e 1d70 423e 6407 183e e022 ebbd
00000140: 90c1 683d 90f7 e33d d8f7 e0bc 569b 453e
00000150: 044a 993e 72e5 7a3c 5b95 8cbd d728 00be
00000160: f66d ad3e ede2 8d3e 4813 3dbe 7682 c53c
00000170: 4cda e9be e881 aa3e 25a9 bb3e 4c38 07be
00000180: 57ee 853e 3c96 5bbd 5305 643e 0142 27be
00000190: c1e3 87bc e5e3 2cbe b06b 293e 3e65 37be
000001a0: d80f 0f3e 0c4d 7abd 0026 b6ba d674 93bd
000001b0: bee5 2cbe fc47 d43d 6efe 853d a91e 083c
000001c0: 93f7 c8bd 714a 86bd 0dd1 b23d 9127 21be
000001d0: d1a0 5b3d 20ef ad3d 2d57 34be 707d 673d
000001e0: bcce d43c ed1a ba3d 3451 803d dd78 0abd
000001f0: 5f15 6b3d 28e2 aa3e f48f 08be 806d b1bc
00000200: a62b 2d3e 6cc6 9d3d 2040 c0bc 9024 0a3d
00000210: f50e 4a3d 0d87 693e e440 8c3e 2fa4 883e
00000220: 2e13 edbe d2cd 45bf 8913 a7bc db0f 933e
00000230: bc42 f23e 5d5a e5bd b61f b5bd 6488 523e
00000240: e8d2 8abe a6d2 66be 4561 2ebe db54 f73c
00000250: 7cec 033f 9892 113f 88c4 93bd 07e6 abbd
00000260: 60bf 86bd de77 433e 305d 50be 80e0 c8bc
00000270: e20f da3e d2e4 003f e454 f93e f71c 073d
00000280: e63a 863c b5ef 873d d97c 1b3e 21ad c43d
00000290: 0cf2 13be 969b 2e3e e974 de3e 4e6a 473f
000002a0: 3b77 83bc f898 87bc 772a b9bd 13f5 64be
000002b0: 8099 e03d bac6 573e 50c4 08be 6ad4 293e
000002c0: 411a e9bd b039 263d 4810 89bd e0fd d93d
000002d0: 950e 9c3d 1852 183e 699b 11bd 42c1 7cbe
000002e0: 70dd 703d 58a9 6e3e 3054 893d 06f4 973b
000002f0: 0774 163e d14f 9f3d 658f 9d3d 4791 ba3e
0.22025213 0.19716834 -0.054573603 0.11771086 -0.078735955 -0.028711464 -0.11792511 -0.051738784
-0.01710637 -0.109817915 0.039556652 0.0101147 0.29007715 0.27205417 0.31540486 -0.2276871
-0.22016288 0.34151378 -0.08865783 -0.015951049 0.47529498 0.06964085 0.101958714 -0.095770076
-0.13711302 -0.24261184 -0.11398598 -0.042364623 -0.4206841 -0.5318903 0.19007626 0.062093556
0.0583463 -0.18833028 0.034138232 0.17533594 -0.045430657 -0.118574835 -0.3388255 0.10721414
0.50353503 -0.028780509 0.05407901 0.29200375 0.6720149 0.27339566 0.09501724 0.22978415
0.015879057 0.15826662 0.21989256 -0.12254658 0.18512672 0.03705796 -0.0043409765 -0.1423201
-0.064142406 0.15010303 -0.008766532 0.07159889 0.06035091 -0.058298185 0.055516165 -0.08661001
-0.22297472 -0.19075485 -0.123795174 -0.054892734 0.22573602 -0.20126899 -0.09957313 -0.07655329
0.0009773669 -0.30708906 -0.33773503 0.10082125 0.30765456 0.1898808 0.1484657 -0.11481261
0.05682522 0.11131203 -0.027461931 0.19297537 0.29939282 0.015313493 -0.06864425 -0.12515579
0.33872956 0.27712193 -0.18464386 0.02411006 -0.4567436 0.33302236 0.36652485 -0.1320507
0.261584 -0.05361007 0.22267656 -0.16333772 -0.016588094 -0.1688381 0.16544986 -0.17909715
0.13970888 -0.061108634 -0.0013896823 -0.07200019 -0.16884515 0.103652924 0.06542669 0.008308091
-0.09812846 -0.06557167 0.087312795 -0.1573775 0.053620163 0.08492875 -0.1761138 0.05651611
0.025977485 0.09087167 0.06265488 -0.03380667 0.057393428 0.3337567 -0.13336164 -0.021658659
0.16911182 0.077038616 -0.023468077 0.033726275 0.04933067 0.22805424 0.27393258 0.26687762
-0.46303695 -0.7726718 -0.020395057 0.28723034 0.4731654 -0.11198876 -0.08843939 0.20559841
-0.27114034 -0.22541294 -0.17029293 0.03019183 0.5153272 0.5686431 -0.0721522 -0.083934836
-0.06579471 0.19088694 -0.20348048 -0.024521112 0.42590243 0.5034915 0.4869758 0.032986607
0.016385507 0.06637517 0.15184344 0.09603334 -0.14447802 0.17051539 0.4344857 0.77896583
-0.016048064 -0.016552433 -0.09041303 -0.22359113 0.10966778 0.21071902 -0.13356137 0.16584936
-0.11381961 0.04058236 -0.066925585 0.10644126 0.07619969 0.14875066 -0.0355486 -0.24683097
0.05880493 0.23306787 0.067055106 0.004637244 0.14692698 0.07778896 0.07693366 0.36438963

bias f4 [8]
00000000: 89f0 a93d 5ad3 17bd 10cb c2bc 2c35 363e
00000010: 6cfa ac3d e0f1 513e b5f6 8bbe fbd1 35bd
0.082978316 -0.037066795 -0.023778468 0.17793721 0.08446202 0.20502424 -0.2733666 -0.044389706

weight f4 [8, 8, 3]
00000000: c37e ad3b ab7c 5ebd 4d9a 863e da60 1fbe
00000010: 548b 23be 937d 03be 736d 363e fb76 753d
00000020: 4db1 33be 33b3 a63e b474 613e b335 c03e
00000030: 0ee4 7b3e 8cbe c7bd 4e39 e03d a799 753d
00000040: 7089 d5bd fc02 08bf a522 71be 99c0 88be
00000050: 6baf b5be b19a 8ebd 4da2 5fbe 8bc5 a43d
00000060: e9b7 06bd dce3 653d 9468 10be 5f56 66bd
00000070: 12f9 1fbf 2e4d 24bf a697 d13c 1cab 93bb
00000080: 9d14 3fbe 0a3a dbbd 2ee9 923e 207e 93be
00000090: f024 db3d 422d a3bd 35cd 753b bd28 3a3d
000000a0: 1f6c 27be 9115 c8bc 694c 213e 6b14 4e3c
000000b0: 29e3 093e 8885 353d cd89 983d 540b cabd
000000c0: 27b2 a5bd c9a1 b7bd afac acbe cf01 b43d
000000d0: de21 ffbd ed91 c6be fee0 0b3e ceee b4bd
000000e0: 82eb 4cbe a9ee 0ebe 2e6c 203e c5c5 74bd
000000f0: 2973 51bb aaba 8abd 1291 863d 30e0 29bb
00000100: f99d 013e 824f fcbb ba0a 363d e7fd 12be
00000110: e869 89bd ac78 103a 472b 03bd 0633 84bd
00000120: 8d02 783e 59b5 00be b820 a3be 928c 85bd
00000130: c067 8bbd 9095 89be cd36 113e ac46 77bd
00000140: 949e 04be 528d bc3c af64 303e 20c0 febd
00000150: 62cf 47be 3e8d dbbd e2fa bf3d 2203 683e
00000160: f565 d93d b464 91be 25c8 e83e 8e6f c5bb
00000170: 88e6 94be e45f 8abd 1240 1bbd 9977 a8bc
00000180: 7f74 933c 8714 053e 6221 4c3c e781 4e3d
00000190: df41 be3d e569 e7bd 1e54 d7bd 718d aabd
000001a0: 67ca 1cbe f74b 1c3e 8f2d a93e f09c 293e
000001b0: 8bd2 1bbe d8b4 43be bb3d 19be 7eda 423e
000001c0: 2888 0cbe 241b d4bd 98b9 44bd 25e1 f33d
000001d0: 6315 e73e a00c a1bb d833 00bc 2970 8c3e
000001e0: 3dd0 00bd 2cc6 8d3d 7bb4 343e ff4f 2b3e
000001f0: 9ea0 4fbe d955 4cbd 5c85 f1bd 6817 26bc
00000200: af69 a13d 963e 693d 38b4 da3c 8a1c dabd
00000210: 607b 98bc 4cfb 81bb d256 24be 66c1 0fbe
00000220: f09c 21bd 54e2 77bd 6de3 37be 25cb 9bbd
00000230: 2486 ee3d 41c0 c93d cde3 0c3d 3153 9fbd
00000240: 9bc2 dcbd aa41 98be 2e26 b2be 7d00 6fbe
00000250: 4557 5cbe f6b3 4abe 54d9 133e 0252 d6bc
00000260: 123b 26be b7e2 9c3e 7006 64bd c5e2 823d
00000270: d264 203e b527 cebd 1955 41be e02c ef3d
00000280: db66 d4bd 4929 8bbe bb2a bb3e 85ac 0d3e
00000290: 2375 3e3e 4ddf 823e 12ac e0bd 1493 dc3d
000002a0: eefd b23d de74 30be 24e1 75be 889a 443e
000002b0: 90c0 58be bbf1 123a 3bcc 7d3d 7e2e 80bd
000002c0: f9e0 343d ac72 abbd f0bb 7dbe f3d4 95be
000002d0: 9449 94bd 76ff 27be f222 c6bd 9de6 053e
000002e0: 45cc 5cb9 09d0 383f c95d ad3d 594e 37bd
000002f0: ac8f ce3e e338 343d 218b 13be 5dd4 cfbc
0.005294652 -0.05431811 0.26289597 -0.1556429 -0.15971118 -0.12840872 0.17815189 0.05992792
-0.17548104 0.32558593 0.22017175 0.3754097 0.24598715 -0.09753141 0.1094843 0.059960987
-0.10426605 -0.53129554 -0.23548372 -0.2670944 -0.35485396 -0.06963099 -0.21839257 0.08045491
-0.032890234 0.056125507 -0.14102393 -0.056234714 -0.62489426 -0.64180267 0.025585007 -0.004506482
-0.18660207 -0.107044294 0.28693527 -0.28807163 0.10700405 -0.079676166 0.0037506346 0.045449007
-0.16349839 -0.024424346 0.15751804 0.01257811 0.13465561 0.0443168 0.074481584 -0.09865442
-0.080906205 -0.08966405 -0.33725497 0.087894075 -0.124576315 -0.38783208 0.13660046 -0.08834611
-0.20011714 -0.13958229 0.15666267 -0.05975892 -0.003195951 -0.067738846 0.06570639 -0.002592098
0.12657918 -0.0076999078 0.044443823 -0.14354669 -0.06709653 0.00055111456 -0.032023694 -0.064550444
0.24219723 -0.12569179 -0.318609 -0.06520952 -0.06806898 -0.2687192 0.14181061 -0.060370132
-0.12951118 0.023016606 0.17225908 -0.12438989 -0.19512704 -0.10720299 0.09374024 0.22657445
0.1061515 -0.28397143 0.45465198 -0.0060252612 -0.2908213 -0.06756571 -0.0379029 -0.020564841
0.017999886 0.12996112 0.012459131 0.050416853 0.09289908 -0.11299495 -0.10514091 -0.08327759
-0.15311585 0.15263353 0.3304257 0.16563773 -0.15217035 -0.19111955 -0.14964955 0.1902866
-0.13723814 -0.10356739 -0.04802856 0.11908177 0.45133504 -0.004914835 -0.0078248605 0.2742932
-0.03144859 0.06922564 0.17646973 0.16729735 -0.20276114 -0.04988656 -0.117930144 -0.010137416
0.07881486 0.056944452 0.026697263 -0.10649975 -0.018613517 -0.0039667245 -0.16048744 -0.1403862
-0.039456308 -0.060518578 -0.1795785 -0.07607106 0.11646679 0.09851123 0.034396935 -0.077795394
-0.107793055 -0.29737598 -0.34794754 -0.2334003 -0.21517666 -0.19795212 0.14438373 -0.026162151
-0.16233471 0.3064172 -0.0556702 0.06390909 0.1566346 -0.10066167 -0.18880118 0.11678481
-0.103711806 -0.27179936 0.36556038 0.13835342 0.18599372 0.2556099 -0.1097032 0.107702404
0.087398395 -0.17232081 -0.24011666 0.19199574 -0.21167207 0.00056054787 0.061962347 -0.06258868
0.044159863 -0.08371481 -0.24778724 -0.2926403 -0.072405964 -0.16406044 -0.09674634 0.13076253
-0.00021056931 0.72192436 0.08465154 -0.044752453 0.40343988 0.043999564 -0.14408542 -0.025369817

bias f4 [8]
00000000: 5033 053f ffe8 f03e ca04 dc3e fffc e5bc
00000010: 8a40 a9bc d522 09be 2e76 c5be 3a9f 293e
0.5203142 0.47052762 0.42972404 -0.02807474 -0.020660657 -0.13392194 -0.38566726 0.16564646

weight f4 [8, 8, 3]
00000000: f875 b3bd 689d 68be b422 bebd 4418 043e
00000010: 2546 2d3e 8db3 2d3d 159a b6bd 6fdc adbd
00000020: 8931 c53d 5e17 5e3d 1bee 863e dca1 7cbd
00000030: 6c80 163e 5632 223e 5396 e93e 5a6a 44be
00000040: 9218 283e c92f 26be 25f1 ae3d 5419 37bd
00000050: d315 143e ff66 75bd d7c8 62be 651b 9bbe
00000060: 1270 cf3d 5baa 8cbd 8f83 09bb ee6f 123e
00000070: eb69 143d e508 a9bd ce98 1e3e 2b19 34be
00000080: c565 d0bd e461 0ebe b098 073e 6f1c 1f3e
00000090: 3b00 16bb 5961 253e 02ad a2bd e487 2ebe
000000a0: 2269 543c 9b6b 30be 002e 86bd 682a 6abd
000000b0: d48b 78bd cb66 163e f954 00be a0ee 273e
000000c0: b59f af3d 81b9 58be 5f58 a3bd 0c91 1f3e
000000d0: 5d37 253d 22ec 04bc 12d5 c6bd 038a 28be
000000e0: 97a4 123e 20c4 023e f56f 2bbd 79ec b3bd
000000f0: 1fa0 823d b93e 2d3d 7dcf 3bbe c70e 313e
00000100: 4140 ddbd da29 c7bd 728f 1cbd 948e f43c
00000110: 9bc4 1c3e 8994 89bd fc89 a5bd 0a9d 93bd
00000120: 8650 863d 4cd2 053e 6418 d7be f1c4 1f3e
00000130: 233e f23e e7b5 f33e 2992 423e b680 653e
00000140: 5394 fb3d 0b1c 3cbe 084c a43e 4ff5 303d
00000150: 92c5 f5bd 0fa0 82be 4c39 f33d 2882 d73d
00000160: 51c3 b9bd 68b6 02bd e1e7 a5be b607 a1be
00000170: 940f a4be b5e2 8f3d c9a8 80bd fdbe d53e
00000180: 4e07 9dbe 2a0c fa3b f924 12bf 8e24 81be
00000190: 3d80 a83e 5a25 d23c 5670 013e d538 893e
000001a0: 625b 9f3d b41e 3c3e 1d8c 813e 67b2 bb3e
000001b0: 2294 bf3b 0e98 9dbc 9882 4a3e 36fc 293d
000001c0: fb64 dabd 3710 d93d 0cca 693d 9588 eebd
000001d0: 1458 11be caa7 563c 59d7 59bc 3e81 f03e
000001e0: aa9c 79bd 8cc6 bebd 07d9 53be 1787 c4bd
000001f0: 41a2 96bd abd0 24be 358b d33d 5841 033e
00000200: de7d 94bb 0705 183e e5b0 7c3d 2578 253e
00000210: 4d7a e4bd 8273 69be 31be 733e 729a 323e
00000220: b939 393e ec01 a73d ee37 5b3d 28ae e8bd
00000230: aea1 51be 8637 2cbd aa7e 50bc da7d 6d3e
00000240: 7d75 8f3e f411 b03e ead8 783e a98f 5b3e
00000250: 57a9 ef3e 5050 653e 292d de3d c42f 443e
00000260: bea6 3d3e 62fd 86bd 2f55 13be 0669 6abe
00000270: 6441 ad3c 3e52 093e f3bc 473d 7fee 74ba
00000280: e15b 0ebe 7d05 063d 906e 0abd 548d 7dbe
00000290: ceeb 0abd e934 5cbe 3b4d adbe 7775 f1bd
000002a0: 1c50 fabc a961 043e 42d2 d9bd 9c74 4bbd
000002b0: 9037 debc 5530 dabd bd40 01be 5b02 2a3e
000002c0: fa74 1abe 86fb af3d 6893 c2bd a8ea 98bd
000002d0: 4748 ccbd 03b7 aebd d07a f2bc c46b f63d
000002e0: f005 1ebd 0003 a1bd e240 37bd 8400 463e
000002f0: fb2c 37bc 161d 1d3e 0c6b 1bbe 29db d73d
-0.08762735 -0.22716296 -0.09283963 0.12899882 0.1692129 0.04240756 -0.089161076 -0.0848931
0.09628589 0.054221503 0.26353535 -0.0616778 0.14697427 0.15839514 0.456225 -0.19181195
0.16415623 -0.16229166 0.085420884 -0.04470189 0.1446145 -0.059912678 -0.22146927 -0.30294338
0.101287976 -0.0686843 -0.0020982956 0.1430051 0.036233824 -0.082536496 0.15487978 -0.17587726
-0.10175661 -0.1390453 0.1324184 0.1553819 -0.002288832 0.16150416 -0.07943155 -0.17044026
0.012964519 -0.17228548 -0.065517426 -0.057169348 -0.060680225 0.1468765 -0.12532414 0.16399622
0.085753836 -0.21164514 -0.0797584 0.15582675 0.040336 -0.008112939 -0.09708609 -0.16458897
0.14320599 0.12770128 -0.041854817 -0.08785338 0.06378197 0.042296145 -0.18340869 0.17290793
-0.10803271 -0.097247794 -0.038222738 0.029853143 0.15309374 -0.06717784 -0.08082959 -0.07207687
0.065583274 0.13068503 -0.42010796 0.15602471 0.47313032 0.47599718 0.19001068 0.2241238
0.1228415 -0.18370073 0.32089257 0.043202695 -0.12000574 -0.2551274 0.11876163 0.10522872
-0.09070457 -0.031912237 -0.32403472 -0.31451195 -0.32043135 0.07025663 -0.06282193 0.41747275
-0.30669636 0.0076308446 -0.57087666 -0.25223202 0.32910338 0.025652576 0.12640509 0.26801172
0.07781102 0.18371087 0.2530221 0.36659548 0.005846516 -0.019237544 0.1977638 0.041500293
-0.10663792 0.10598796 0.057077453 -0.11647145 -0.14193755 0.0131015275 -0.013295972 0.46973604
-0.060940422 -0.093152136 -0.20688258 -0.09596079 -0.07355166 -0.16095226 0.10329286 0.12817895
-0.004531606 0.14845668 0.061692137 0.16159113 -0.111561395 -0.22797969 0.23803021 0.17441729
0.18088426 0.081546634 0.053520136 -0.11361343 -0.20471832 -0.04204514 -0.012725512 0.2319254
0.28019324 0.34388697 0.24301496 0.21441521 0.46808884 0.22393918 0.10848457 0.19158846
0.18520638 -0.06591298 -0.14387964 -0.22891626 0.021149345 0.13410279 0.04876418 -0.00093434
-0.13902237 0.032720078 -0.033796847 -0.24760944 -0.033916287 -0.21504559 -0.33847985 -0.11789983
-0.030555777 0.1292788 -0.106358066 -0.049671754 -0.027126104 -0.1065375 -0.12622352 0.16602461
-0.15083686 0.08592896 -0.09500772 -0.07466632 -0.09974723 -0.085310005 -0.029599577 0.120322734
-0.03857988 -0.078619 -0.04473961 0.19336134 -0.011180158 0.15343127 -0.15177554 0.10539848

bias f4 [8]
00000000: e246 6f3e b877 68be 797c b2bd 47ff 54bd
00000010: 08cb 2a3d 81f9 08bc 636a bcbe 98f0 a0bd
0.23366883 -0.22701919 -0.087151475 -0.052001264 0.041697532 -0.008360268 -0.36799917 -0.078583896

weight f4 [8, 8, 3]
00000000: 296b c13d 97b0 fc3d 3faa 463d a659 c0bc
00000010: 1094 0bbe 03e0 61bb 7a51 7a3b b321 4a3e
00000020: b41b 073e 48e4 eebe 8289 1ebf 2e79 b2be
00000030: b650 1ebc 416d c1be 0b56 92be 3043 573d
00000040: 5033 1c3d befa 22be 4c83 f9bd 7fd0 e1bd
00000050: b2c9 e53d 4925 02be 3bf1 823b cd08 c3bd
00000060: cbbf 91bd c0bd 6dbd 3fd5 3cbe c534 4bbe
00000070: 9acc 6dbd 3fee 0bbe 84ba f53d 4718 f03d
00000080: b0f1 1cbe 6ba5 fa3d 36cf db3d de8e 663e
00000090: 7e45 0cbe 6047 283e 1645 343e 4fd0 4abe
000000a0: 7489 003e fb7d 3d3e eb52 6dbe b2da 81bb
000000b0: 3239 43bd 4915 0bbc 7681 babd 8107 3cbe
000000c0: a155 f1bb 3fa1 35be f9b9 06bc 7fd6 363e
000000d0: 6105 32bd 4e5d c1bd 7fd6 09be ff12 30bd
000000e0: 35c6 f6bc 95a3 a5bc f0f1 69be 762b 0bbf
000000f0: b19c 41be f81b 1dbf e20a d2be ec66 4eba
00000100: 7543 01be 265d a63b 4aa4 10bd 7c2a 75be
00000110: 184e 57be 90e2 e63c 6961 ef3a d2a3 22be
00000120: d171 5d3e db89 173e f429 97be d364 2dbe
00000130: d840 e8bd 0a47 753d a0f8 06bd 7190 b83d
00000140: 9261 50be 11bc 93bc 3edc 99bd 13d1 333e
00000150: 4138 8bbd 11b4 263d 9aa8 a2bd 8338 3c3e
00000160: a16d 60b9 7e06 773d 227e 9ebd 2c9d b5bd
00000170: 745f 103d b29f 293e 9d56 ebbd 4e80 2c3e
00000180: f469 2abe ee5c f8bd 03d1 f13d 15c7 2ebe
00000190: 60bb 143e 13e8 1c3e 5961 3abe d509 7bbb
000001a0: 30f9 babc 17d7 183e c007 b23d ec02 b4bd
000001b0: d294 39be 0899 c13d 365e 27bc 44bb 18be
000001c0: d5a0 64bd 1bbd efbc 9a36 c6bd 9e07 073e
000001d0: a505 3bbe fecc 24be de15 34bc f1e9 20be
000001e0: efb3 973c 128d 883d cf05 46bd 6a53 143c
000001f0: b0af abbd b493 04be 6e5c 323e 9921 c4bd
00000200: 241a ee3b 9e25 9b3e b226 d73e a36a c73d
00000210: 0029 08bd ced1 ad3e 5faa e93d 5c63 04bd
00000220: 0c4b cdbd 0bfd 173e d309 05be 6378 fc3d
00000230: 856c fabd 9016 1a3e fe03 f83c f0c0 983c
00000240: 9e2f e13d 1697 983e f6b7 8f3e 6649 0bbc
00000250: c371 3b3e 57cd e33d 0fc9 273d 227b f23c
00000260: 91e1 0a3e 3868 69be 61f5 37be c937 29be
00000270: fd74 603d 04d0 bfbc a3e5 07be dcee eebd
00000280: ae58 a33d 11e6 cdbd 6f06 3cbe add5 03be
00000290: 3a53 9e3d 5263 e4bd df70 873d 729a c13d
000002a0: b0f9 0abe 881d 20bf 5627 41bf 1555 d33c
000002b0: d2cd 163e a466 fc3d e914 84bc 3371 09be
000002c0: 5048 113c 0789 c3bd 629c a53e 717c 133e
000002d0: 086c cdbd c9a5 523e 5c55 773d 2c8e febd
000002e0: ee5b 1a3e 8af9 bc3c 5701 48bd 99f9 903d
000002f0: 7b8b bbbc 2ed0 883c 232a 9e3d 1a63 70be
0.09444267 0.12338369 0.048502203 -0.023480248 -0.136307 -0.0034465797 0.0038195536 0.19739418
0.13194162 -0.4665854 -0.6192857 -0.34858078 -0.009662798 -0.37778667 -0.2858127 0.05255431
0.038134873 -0.15915963 -0.12183246 -0.110260956 0.11220111 -0.12709536 0.003996042 -0.09523163
-0.0711666 -0.058042288 -0.18440722 -0.19844349 -0.05805645 -0.13665102 0.11998466 0.117233805
-0.15326571 0.12238582 0.10732882 0.22515437 -0.13698384 0.16433477 0.17604479 -0.19806026
0.12552434 0.18505089 -0.23176162 -0.003962838 -0.047661968 -0.0084889615 -0.09106724 -0.18362238
-0.007364944 -0.17737292 -0.00822305 0.17855261 -0.04346216 -0.094416246 -0.1346073 -0.042986866
-0.03012381 -0.020219604 -0.22846198 -0.5436319 -0.1890743 -0.613708 -0.41023928 -0.0007873613
-0.12623389 0.005077022 -0.03531293 -0.23941988 -0.21025884 0.028184205 0.0018263283 -0.15882805
0.21625449 0.14798681 -0.29524195 -0.16932993 -0.11340493 0.0598822 -0.03295195 0.09011925
-0.2034972 -0.018034013 -0.07512711 0.17560224 -0.06797839 0.04069907 -0.079423144 0.18380933
-0.00021403145 0.060308926 -0.07738902 -0.08867869 0.03524728 0.16564825 -0.114911295 0.1684582
-0.1664198 -0.121271 0.11807444 -0.17068131 0.14524603 0.15322904 -0.18201198 -0.003830542
-0.0228239 0.149258 0.086928844 -0.0878962 -0.18123177 0.094530165 -0.010215333 -0.14915186
-0.055817444 -0.029264977 -0.09678383 0.131865 -0.18263872 -0.16093823 -0.010991542 -0.15714242
0.018518416 0.06667532 -0.048345383 0.009053091 -0.08383119 -0.1294697 0.17418072 -0.09576721
0.0072663 0.30302137 0.4202171 0.09737136 -0.033242226 0.3394913 0.11409449 -0.03232132
-0.1002408 0.14842622 -0.12992029 0.123276494 -0.1222773 0.1504767 0.030275341 0.018646687
0.109954104 0.2980277 0.2807004 -0.008501386 0.18305115 0.1112315 0.04096323 0.02959973
0.1356261 -0.22793663 -0.17964698 -0.16525187 0.05479907 -0.02341462 -0.13271193 -0.116666526
0.07975899 -0.10053647 -0.18361829 -0.1287448 0.07730718 -0.11151756 0.06613325 0.09453286
-0.1357181 -0.6254506 -0.75450647 0.025797406 0.14726952 0.12324265 -0.016123252 -0.13422088
0.008867338 -0.0954762 0.32345873 0.1440294 -0.10030371 0.20571055 0.06038414 -0.12429461
0.15074131 0.023068208 -0.048829403 0.07078857 -0.022893658 0.01670083 0.07722881 -0.23475304

bias f4 [8]
00000000: e59c 8d3e b5ea 133d b9c0 fa3e a4fa a7bd
00000010: bf98 e2bd e0ab d7be 0a43 cebd 9fa3 0a3e
0.27658764 0.036112506 0.4897516 -0.08202103 -0.1106429 -0.42123318 -0.100713804 0.13538979

weight f4 [8, 8, 3]
00000000: cf5d a6bd 0398 1fbe 91a7 b3be 9846 5dbd
00000010: 97a0 583d 21fb bb3d 0c77 65be 4635 8e3d
00000020: 76b3 953d f01d 013e 41f5 a4bd 7c0a a3bd
00000030: 135f 9dbb 6a78 c63d bc29 3ebc 0afc b03c
00000040: 475d 13be 1a06 42be 33d9 693e 92f8 78bd
00000050: 44e6 d83d ef5e 713e ce68 c63e 5d73 c43e
00000060: dffe 48be c2c9 1239 7e4b 6d3d b803 87bd
00000070: 6194 563d 8bd7 f23d 5615 21be b415 9abd
00000080: 568c a33b 80c5 0c3d 153a 37be f4b1 dabd
00000090: 8073 603d 39d1 e3bc 83b4 28be 0ddb f2bd
000000a0: 38ef 493e 511a 39be 0ed3 4cbe 808b 193d
000000b0: 9340 41be c164 3ebe 05fe 223d 4012 8d3d
000000c0: af50 b4bd 9f4d 00bd 2010 32be 0bd3 893d
000000d0: d05a f03d 2418 31be e43e 4d3e 9f31 bcbd
000000e0: b93c 08be 503c f5bc 86f1 25be 02e8 d3bd
000000f0: 890f 08be 6cdf 203e 6a86 d3bd 5076 40be
00000100: 6b66 3ebe b35f 383d 9809 e0bd 2d38 0c3b
00000110: bbb7 263d 06e2 14be fa6b 99bc 254e 2ebe
00000120: d184 0d3e 574e 113e 167e 58bd eb88 3a3c
00000130: 897f f13d e084 a2bd 76b1 2ebd a8c1 073e
00000140: 79ae 2d3e 9a6d 0a3e e08c 00be 749c b1bd
00000150: 15ad 893c 86e2 c8bd d370 d83d bac0 903d
00000160: 7586 93be 801d 99be 5445 80be d36e 4bbe
00000170: 4cb4 38be 7f85 493e df16 7c3e 8db4 7e3e
00000180: 08e4 d13c 8b93 8abe b187 9dbe bbfc 19be
00000190: 5f54 133d e456 d0bd 0568 70bd 50af 57be
000001a0: dc66 7cbe fb12 3ebd 1b62 b2bd 923f 84bd
000001b0: 1847 833c 6779 08bd fe9a a7bd b86b aabd
000001c0: bb4a d6bd f792 22be 3212 c3bd 5f74 7ebe
000001d0: c882 d3bc 7361 0d3e 3e86 203e 36d0 2cbd
000001e0: 741b 3dbe 15fd 3a3d 12b7 b83c 0746 833e
000001f0: 733e ff3d 074b 423e c54a 89bd abe6 f63d
00000200: d1d5 413e 2f31 05be 1cb1 7ebd 80cf 99bd
00000210: 2278 33be c6e8 37be e7c3 26bc b8b4 173e
00000220: d56a 773e ade4 b03e 20b2 f93d 55f5 b13d
00000230: 568f df3c c043 aa3c 1c98 403c 0aad 063e
00000240: 3a4d d73c 4218 2fbc 2db3 96bd a407 043c
00000250: a78e 2d3e a286 32bd 48dd 38bd 8623 48be
00000260: 4573 15bd 8ed6 36be ed4e 15be 8842 4a3e
00000270: 6d41 bebd 40b4 22be 56a0 3c3d df50 2c3e
00000280: 711a f1bc b50e 1d3e 0173 06be bad3 1bbe
00000290: ed81 12bc eea6 49be 7d98 e53c 8fd3 253e
000002a0: d3d6 a73d de16 11bd 84d5 8bbd 95c0 07be
000002b0: f67f 783d f4fe cbbd ba98 dfbd cabc dfbd
000002c0: 109b 0a3e 9fd8 d93d 835f 8cbd 66ec 393e
000002d0: 0d74 bdbd 5685 183e a66e 4e3e ab24 3b3e
000002e0: 8cb6 14bd 0a5c 0e3d 3ad6 813c 4430 1f3e
000002f0: 8ba7 fdbb e8f1 0abe 99ad f0bc c4e9 cc3c
-0.08123361 -0.15585332 -0.3508878 -0.0540224 0.052887525 0.091787584 -0.22408694 0.06943755
0.0730962 0.12609076 -0.08054591 -0.07960984 -0.0048025935 0.09690936 -0.01160663 0.021604557
-0.14391051 -0.1894764 0.22836761 -0.06078393 0.10590795 0.2357137 0.38751835 0.38369265
-0.19628476 0.00013998806 0.057933323 -0.06592506 0.0523876 0.11857518 -0.15730795 -0.07523671
0.0049910946 0.03436804 -0.1789325 -0.10678473 0.05479765 -0.027809726 -0.1647511 -0.11858187
0.19720161 -0.18076445 -0.20002386 0.037486553 -0.1887229 -0.18593122 0.039793033 0.068882465
-0.08804452 -0.031324025 -0.17388964 0.067297064 0.11736071 -0.17294365 0.20043522 -0.09189152
-0.13304414 -0.029935986 -0.16205415 -0.10346986 -0.13287176 0.15710229 -0.10328372 -0.18795133
-0.18593757 0.04501314 -0.1093933 0.0021395788 0.040702563 -0.14539346 -0.018728245 -0.17021997
0.13820197 0.1419004 -0.05285462 0.011385183 0.117919035 -0.079355 -0.04264971 0.13257468
0.16961087 0.13518372 -0.1255374 -0.08672419 0.016806165 -0.09808831 0.105683945 0.0706801
-0.2881352 -0.2990532 -0.25052893 -0.19866495 -0.18037528 0.19679831 0.246181 0.24873562
0.02562143 -0.2706569 -0.30767587 -0.15037815 0.035969134 -0.10172823 -0.05869295 -0.2106297
-0.24648613 -0.04640482 -0.087101184 -0.064574376 0.016025111 -0.033318903 -0.08183859 -0.08321327
-0.104634725 -0.15876375 -0.09524955 -0.2484908 -0.025819197 0.13806705 0.1567621 -0.042190753
-0.18467504 0.045651514 0.022548232 0.25639364 0.12463083 0.18973933 -0.06703714 0.12055715
0.1892922 -0.13007043 -0.062180623 -0.075102806 -0.17526296 -0.1795989 -0.010178543 0.14815032
0.24161847 0.34549466 0.12192178 0.086893715 0.027290028 0.020784259 0.011755016 0.13151947
0.026281942 -0.010686936 -0.07358394 0.008058462 0.16948949 -0.043585427 -0.045132905 -0.19544801
-0.036486883 -0.17855284 -0.14580889 0.19751942 -0.09289823 -0.15889072 0.046051346 0.16827725
-0.029431554 0.15337642 -0.13129808 -0.15217486 -0.0089421095 -0.19692585 0.028026814 0.16193984
0.08195271 -0.0354222 -0.06827834 -0.13257058 0.060668908 -0.09960738 -0.10917802 -0.109246805
0.13535714 0.1063702 -0.06854155 0.18156585 -0.092506506 0.14894614 0.20159397 0.18275706
-0.036306903 0.034755744 0.015849221 0.15545756 -0.00774092 -0.13568842 -0.029379653 0.025013812

bias f4 [8]
00000000: 67a0 583d e813 ccbd 2ddf 7ebd 27c1 133e
00000010: 2070 863e cb06 eebe d631 353d baf6 24be
0.052887347 -0.09964734 -0.062224556 0.1442915 0.2625742 -0.46489558 0.04423698 -0.16109744

weight f4 [8, 24, 1]
00000000: 801f d8bc eb74 003e 00ad 2ebd 6307 e93e
00000010: 4db6 133d e663 c5bd be10 bcbd da54 e7bc
00000020: a2c5 a03e 658a 9c3e 2eaf 8ebe 4437 91be
00000030: ca15 513d 64b7 0f3e 439a 8abe 869a bfbe
00000040: 7468 a2be 7d22 d43d 3a3a c33d 2ec9 9ebe
00000050: d704 92bd da6a ebbe bbf6 543e da88 083e
00000060: 626c f23e ec2b ce3c 4826 03bd bcc6 bd3d
00000070: b87d c23d 0c8f 5d3e adc5 c8be 3894 133d
00000080: 3845 76be 3a08 a5bd f563 bcbe 9427 fe3d
00000090: b785 553d a789 20bd e388 75be 4ef9 b7be
000000a0: d756 eebe 753d eabd a7c9 c23c 2e41 efbe
000000b0: 435b 563e 73ed 68be 4a58 05be fff0 433d
000000c0: b702 133c a748 02bd 8cad 95bd 71be 69bd
000000d0: 32d8 74bc 3898 d9bd fa67 cabb feee 6c3d
000000e0: bd2b 7dbd 4e3f a9bd 0595 183d 1c37 293e
000000f0: fa4c 4dbd 60e5 af3d 29ce 9c3c a48c a03d
00000100: ef23 3ebc c20b 013e 4da8 713c 544a 673a
00000110: a522 463d 12be 91bd 7930 2f3e 8f0c e43d
00000120: 2560 803c 115f b83d 5364 2a3d da23 29bd
00000130: 6f66 123b 046c 2abe 7729 85bc b94e 8c3b
00000140: b960 123d 8d8a 40bc 4989 15ba bee1 2cbe
00000150: 408a ed3d b504 41bc ed22 39bd cc03 c23d
00000160: 51b9 29bd 7e38 53bd a698 4fbe 8e80 3ebd
00000170: a6c0 803d 43de 40bd 6e65 133e 2170 943d
00000180: 536f 31bd a71d cd3d 7b90 173e e484 f1bc
00000190: 8d91 8abd 5f35 b93d de81 9cbd 6ee5 fd3d
000001a0: 7cb5 d13d a578 2abe 0879 1cbe 8c3d a2bd
000001b0: 6bad b7bd b15a 123c 8e4c 40bd 4128 563d
000001c0: 588a 53bd 8362 62bd 3785 e83d 6ba3 0dbe
000001d0: 2185 7e3d ff9e 963d 4002 7abc e923 8ebc
000001e0: 8ed9 003e a730 1b3e d630 2e3e 77a3 693e
000001f0: ccb6 333e 91f0 893d 0678 1fbd 1c88 793d
00000200: 0011 01be f7a3 7e3c ebd8 4bbf 3ba9 3a3e
00000210: 1d02 dbbd 022c debd 5089 1b3e 2f7a eb3e
00000220: 1b8e 103e d94f 7b3c c7f2 b03d 2ebb 3bbe
00000230: f9ce 103f 58e5 2bbe e469 ffbc 4e06 183e
00000240: e986 b53b 8610 bd3d 7cc3 20bd dbe6 f0bd
00000250: 58e1 553e 0195 bebd 38be 2bbf 96df c03b
00000260: 6155 febc 4659 0c3e b689 e13d 47e3 2b3c
00000270: 378f 5c3e d18f 1a3e 1200 8c3c fa6e 38bb
00000280: 775f 65bd 44c0 2ebd 8ec9 763d eb17 103e
00000290: cddb f63c f7f6 34be 8043 3fbd 299f ebbd
000002a0: 74f4 e3bc 494b babd 1127 4cbb 5fcc 61bd
000002b0: fb3f 00bc 107b 8a3e 6ade 12bd c682 5bbd
000002c0: ee4c 2dbd 3a08 603e b5d2 803d 9a6f 12be
000002d0: c5f3 37be f28d 703d 4000 763d d6f3 453d
000002e0: 1c6f 06be ff32 cb3d ff38 c2bd a4ba 353e
000002f0: 385e cb3c f50e f1bd ac3d 36be 9b1b febd
-0.026382208 0.125446 -0.042645454 0.45513448 0.036062527 -0.09638195 -0.09182881 -0.028238703
0.31400782 0.30574337 -0.27868026 -0.28362477 0.05104617 0.14034802 -0.27070817 -0.3742258
-0.31720316 0.103581406 0.0953259 -0.31012863 -0.071298294 -0.4597996 0.20797245 0.13333455
0.47348315 0.025167428 -0.03201893 0.09266421 0.09496635 0.216366 -0.39213315 0.036030024
-0.24049842 -0.0805821 -0.3679501 0.12409893 0.052129474 -0.039193776 -0.23978 -0.35932392
-0.4655063 -0.11437503 0.023777796 -0.46729416 0.20933251 -0.2274683 -0.13021961 0.047837254
0.008972815 -0.031807568 -0.07308492 -0.057066385 -0.014944123 -0.106247365 -0.0061769458 0.05784511
-0.06180929 -0.082640275 0.03725149 0.16524929 -0.05012224 0.08588672 0.019141274 0.07839325
-0.011605247 0.12602141 0.014749599 0.00088230264 0.048372883 -0.07116331 0.17108335 0.11135208
0.015670845 0.090025075 0.041599583 -0.041293956 0.0022338887 -0.16642767 -0.016255124 0.0042818454
0.035736773 -0.011751783 -0.0005704356 -0.16882989 0.11598635 -0.011780907 -0.045199323 0.094733804
-0.041436497 -0.051567547 -0.20273075 -0.046509318 0.06286745 -0.047086965 0.14394161 0.072479494
-0.043319058 0.10015421 0.14801209 -0.029482313 -0.06766043 0.09043383 -0.07641958 0.12397276
0.102396935 -0.16647585 -0.15280545 -0.079218954 -0.08968624 0.008932755 -0.04694801 0.052284483
-0.051645607 -0.05526973 0.11353534 -0.1383187 0.06213868 0.07354545 -0.0152593255 -0.017351108
0.1258299 0.15155278 0.17010817 0.22816263 0.175502 0.067353375 -0.038932823 0.06092082
-0.12604141 0.015542022 -0.79627866 0.18228619 -0.106937625 -0.108482376 0.151891 0.45991656
0.14116709 0.015338861 0.08640056 -0.18333122 0.56565815 -0.16786706 -0.031178422 0.14846155
0.005539764 0.09231667 -0.03924893 -0.11762782 0.20886743 -0.09305764 -0.67087126 0.0058860285
-0.031046571 0.1370593 0.110125944 0.010491199 0.21539007 0.15093924 0.017089877 -0.002814232
-0.055999245 -0.042663828 0.06025081 0.14071624 0.030134106 -0.17672335 -0.046695232 -0.11504967
-0.027826525 -0.09096391 -0.0031151215 -0.055126544 -0.007827754 0.27047014 -0.03585664 -0.053591512
-0.042309694 0.21878138 0.06290189 -0.14300385 -0.17964084 0.05872912 0.060058832 0.048328243
-0.13128322 0.09921836 -0.094835274 0.17746979 0.0248252 -0.11770431 -0.17796963 -0.12407609

bias f4 [8]
00000000: d5fd 073e 20c6 093f 9fe0 5aba 112c b53b
00000010: 81e9 c03d 4081 223f c74e 663f 45b8 8d3d
0.13280423 0.5381794 -0.0008349511 0.0055289348 0.09419537 0.6347847 0.89963955 0.06919912
