Masterarbeit_YorickLALY/Code_and_Neural_Network/CNN_window_size_20_booleanScaler.pt (torch, 10191 bytes, 12 tensors)

weight f4 [8, 8, 3]
0.132757 0.06416413 0.09023781 -0.13328244 -0.12804961 -0.7725756 -0.04973665 0.19434234
-0.08931082 -0.11343319 0.089138806 0.109980434 -0.0316012 -0.28351688 -0.036906157 -0.11313108
0.084609546 0.6979112 0.031559844 0.10421716 -0.31328025 0.07063168 -0.2516811 -0.66406864
0.19041908 -0.036289915 -0.183532 0.12164519 -0.13041627 -0.19414066 0.11389303 -0.06880537
0.053388834 -0.1386269 0.09236202 -0.14230311 0.17574982 -0.03156704 -0.086392276 0.045263894
0.1322065 -0.13819163 -0.21304622 -0.027780227 0.061308876 -0.061369345 0.096622266 -0.11872178
-0.0485238 -0.059389096 -0.08747833 -0.069542736 -0.12195518 0.05717016 -0.17829286 0.11283794
-0.008738846 0.019923463 0.19649673 -0.15548831 0.23217043 0.27652544 0.23800248 0.034113243
0.24195428 0.57136434 0.14406146 0.0071444605 -0.11370594 -0.07952594 0.17923711 -0.11770381
-0.23698011 -0.28588158 -0.08448535 -0.21132952 0.15748459 0.42783424 -0.16020218 -0.20319012
0.12921476 -0.09486063 -0.05376725 0.12030685 0.44927895 0.5578218 0.44131544 -0.14370464
-0.039790154 0.16950126 0.11261242 -0.023455 0.14539988 -0.057903092 0.11402888 0.6344934
-0.09959356 -0.16624147 -0.18782477 -0.1700107 -0.24462965 -0.16523916 0.20094383 0.023841053
-0.07892595 -0.09974553 -0.05528702 -0.038025543 0.058244977 0.1364929 0.14807269 0.1335424
0.42040104 0.065714225 -0.028757494 0.13830946 -0.402622 -0.20136929 -0.015676476 -0.20584092
-0.101803 0.115863435 0.036742687 0.032025106 0.11705919 0.28079134 -0.041640908 0.06766716
0.1963712 -0.113169126 -0.052253574 -0.045059398 0.25130862 0.1110208 0.20386171 -0.025747601
0.58093005 -0.08157042 -0.20950301 -0.17930342 -0.9064219 -0.11388878 -0.08654401 0.062191453
0.09231456 -0.050322328 -0.084121466 0.13328232 -0.27706435 -0.7981431 0.19272166 0.19700879
-0.13915977 -0.18029359 0.118720144 0.13477838 -0.064986885 -0.04827665 -0.22940703 -0.101528615
-0.19879608 0.2494348 0.24436796 0.27936447 0.56288916 0.20538688 -0.11705263 0.122816
-0.08072183 -0.41156837 -0.36237305 0.026834724 0.116749175 0.25121284 -0.094563834 0.19464502
0.011732176 -0.1523528 0.18266326 0.1570555 -0.1230072 0.013360272 -0.3483516 -0.1222978
0.0049344944 0.18648584 -0.11070593 -0.085741326 -0.06389255 0.38174853 0.20299922 0.45550534
00000000: 73f1 073e 7c68 833d 9ace b83d 317b 08be
00000010: 701f 03be 84c7 45bf a8b8 4bbd ae01 473e
00000020: 97e8 b6bd a94f e8bd 688e b63d 6c3d e13d
00000030: 4370 01bd 2029 91be e92a 17bd 45b1 e7bd
00000040: c547 ad3d 4faa 323f e544 013d ce6f d53d
00000050: 4566 a0be 58a7 903d 58dc 80be 6700 2abf
00000060: 38fd 423e bca4 14bd d0ef 3bbe 1d21 f93d
00000070: d88b 05be cfcc 46be c040 e93d d4e9 8cbd
00000080: 40ae 5a3d 36f4 0dbe 4c28 bd3d e8b7 11be
00000090: c3f7 333e 714c 01bd 6fee b0bd a266 393d
000000a0: 2461 073e 1b82 0dbe ca28 5abe 5c93 e3bc
000000b0: 041f 7b3d 6c5e 7bbd e5e1 c53d 6824 f3bd
000000c0: e4c0 46bd fb41 73bd d727 b3bd 6c6c 8ebd
000000d0: a3c3 f9bd 422b 6a3d 6792 36be 9417 e73d
000000e0: 602d 0fbc 8836 a33c 7036 493e 5438 1fbe
000000f0: 16be 6d3e be94 8d3e ecb6 733e 54ba 0b3d
00000100: ddc2 773e ef44 123f d984 133e 141c ea3b
00000110: a9de e8bd 7fde a2bd ef89 373e b20e f1bd
00000120: eaaa 72be 125f 92be a806 adbd c466 58be
00000130: a443 213e 170d db3e 0a0c 24be 1211 50be
00000140: e050 043e 4a46 c2bd 0c3b 5cbd 7063 f63d
00000150: e407 e63e 69cd 0e3f 19f4 e13e 4f27 13be
00000160: 00fb 22bd bd91 2d3e 57a1 e63d b324 c0bc
00000170: b5e3 143e cb2b 6dbd f987 e93d 296e 223f
00000180: b5f7 cbbd 343b 2abe 2355 40be 4917 2ebe
00000190: 3280 7abe 7434 29be 38c4 4d3e 504e c33c
000001a0: eea3 a1bd 6247 ccbd a474 62bd acc0 1bbd
000001b0: 4992 6e3d cbc4 0b3e 5ea0 173e 57bf 083e
000001c0: ce3e d73e 2e95 863d d694 ebbc ffa0 0d3e
000001d0: 7924 cebe c033 4ebe f46b 80bc f6c7 52be
000001e0: 177e d0bd cf49 ed3d 807f 163d c22c 033d
000001f0: bbbc ef3d e2c3 8f3e a88f 2abd 1495 8a3d
00000200: 8815 493e 37c5 e7bd d807 56bd 3490 38bd
00000210: 86ab 803e e05e e33d 20c1 503e a2ec d2bc
00000220: d5b7 143f 640e a7bd f587 56be 519b 37be
00000230: 440b 68bf 853e e9bd fc3d b1bd 77bc 7e3d
00000240: 6b0f bd3d c91e 4ebd e047 acbd 297b 083e
00000250: 61db 8dbe 1b53 4cbf d458 453e acbc 493e
00000260: e67f 0ebe e29e 38be 8c23 f33d 5803 0a3e
00000270: d817 85bd bdbd 45bd ade9 6abe 3cee cfbd
00000280: 3391 4bbe d66b 7f3e 983b 7a3e dc08 8f3e
00000290: 8119 103f f050 523e 4ab9 efbd f486 fb3d
000002a0: 7d51 a5bd 17b9 d2be f688 b9be 7fd4 db3c
000002b0: 311a ef3d f89e 803e afaa c1bd 0651 473e
000002c0: 5038 403c 5f02 1cbe 140c 3b3e 28d3 203e
000002d0: 33eb fbbd 0be5 5a3c 245b b2be 4577 fabd
000002e0: 8ab1 a13b 25f6 3e3e cab9 e2bd 2699 afbd
000002f0: 19da 82bd 8b74 c33e 07df 4f3e ff37 e93e

bias f4 [8]
0.15751927 -0.049592517 -0.15347773 -0.06621678 -0.13349624 0.34189937 -0.15108198 0.34860414
00000000: bb4c 213e 8621 4bbd 4429 1dbe aa9c 87bd
00000010: 3db3 08be 6f0d af3e 3cb5 1abe 3e7c b23e

weight f4 [8, 8, 3]
-0.05096047 0.076329835 -0.3272656 0.00722798 0.0070065055 0.1058632 0.1956956 -0.0701565
-0.4972998 -0.08944811 -0.11648978 -0.022908494 0.044419337 -0.123987235 -0.0034432192 0.07734496
-0.5092034 -0.53592545 0.0951209 0.19051443 -0.028882531 -0.103357404 -0.06766357 -0.11042724
-0.24419393 0.13213204 -0.12742598 0.09107713 0.21437912 0.05544718 -0.13440835 -0.19879352
-0.16845635 0.120373234 0.044324983 -0.4348471 -0.1773421 -0.22025593 0.0863141 0.109262034
0.36576235 0.20020752 -0.20908184 -0.23178488 -0.469691 0.24567482 0.073360674 0.064786
-0.40434504 0.019454157 -0.2259498 0.17604096 -0.11054209 0.05511862 0.19587418 -0.024024086
-0.06598774 0.40075675 -0.14653976 0.038463447 -0.18535268 -0.14066778 0.06455408 -0.27170643
0.047968134 0.12536524 -0.27763847 -0.3405778 -0.48711696 -0.3748658 -0.27250463 -0.46926868
-0.10893828 0.07522139 0.10181158 -0.026469318 0.10397848 -0.1766173 -0.16438776 -0.16893244
0.03316344 0.16936098 -0.04481157 0.045966107 0.0013523484 0.12141189 -0.07449831 0.060737725
-0.19320382 0.05005124 0.014792146 -0.1936033 0.1656427 0.17781326 -0.19255406 0.069635704
-0.18344294 0.23114377 -0.2220847 -0.04821177 0.06634735 -0.10674534 0.08913305 -0.11421432
-0.4770387 0.047052957 -0.39988256 -0.20402011 -0.045718495 -0.44353515 -0.0812271 0.098501734
-0.27923536 -0.4631615 -0.04103234 -0.08097774 -0.40299433 0.24839032 -0.064398214 0.054748237
-0.12054448 0.0682873 -0.39215818 0.021522898 -0.05578258 -0.1380837 0.042497184 0.090082586
0.22891669 -0.09944507 -0.08864371 0.507622 0.12100294 -0.1932099 -0.28140518 -0.057942927
0.10760738 0.005701189 -0.17258644 -0.010709108 -0.15966721 0.014070082 -0.24301182 0.10719861
-0.102127805 -0.5312122 -0.5603557 0.091347575 0.09620749 -0.08297775 0.1716766 0.3899236
-0.29639068 -0.025400734 0.20982291 0.13529786 0.15099439 -0.029589336 -0.25786206 -0.15567648
-0.22406206 0.04099089 0.12689489 0.31542164 -0.014384885 0.1805074 0.21237779 0.10246793
0.097003244 0.032613102 -0.07195868 -0.09049256 0.08767299 -0.044221144 0.18177074 -0.19279994
-0.13315523 -0.0060348185 -0.17949854 -0.05286594 0.03257244 -0.09274388 -0.19242726 -0.19010195
0.1066794 0.0403622 -0.021557448 -0.090269834 0.10820741 -0.036189336 -0.15923469 0.10120289
00000000: edbb 50bd d152 9c3d 5b8f a7be b1d8 ec3b
00000010: d496 e53b cece d83d 6d64 483e 36ae 8fbd
00000020: 149e febe 9230 b7bd 3292 eebd 98aa bbbc
00000030: 0df1 353d 05ed fdbd a2a7 61bb 0967 9e3d
00000040: 275b 02bf 6932 09bf bfce c23d 3716 433e
00000050: 0f9b ecbc 0cad d3bd 3393 8abd ad27 e2bd
00000060: f90d 7abe 9f4d 073e f57b 02be a586 ba3d
00000070: 3386 5b3e 951c 633d 58a2 09be 8790 4bbe
00000080: d27f 2cbe 3e86 f63d 1d8e 353d 47a4 debe
00000090: 2b99 35be c58a 61be 72c5 b03d c6c4 df3d
000000a0: 3445 bb3e 3303 4d3e 8d19 56be 0459 6dbe
000000b0: 577b f0be 2e92 7b3e 1f3e 963d 86ae 843d
000000c0: 5006 cfbe 535e 9f3c 625f 67be 1544 343e
000000d0: e463 e2bd 10c4 613d 3e93 483e 29ce c4bc
000000e0: 9524 87bd fd2f cd3e 850e 16be d98b 1d3d
000000f0: 18cd 3dbe 370b 10be ee34 843d 1b1d 8bbe
00000100: 3c7a 443d bf5f 003e a126 8ebe 3760 aebe
00000110: 6567 f9be 69ee bfbe ba85 8bbe fc43 f0be
00000120: 081b dfbd ac0d 9a3d 9782 d03d 2fd6 d8bc
00000130: abf2 d43d 2adb 34be 4455 28be a0fc 2cbe
00000140: 63d6 073d f76c 2d3e 568c 37bd f546 3c3d
00000150: 4841 b13a cca6 f83d 9292 98bd 1fc8 783d
00000160: 39d7 45be 8702 4d3d c25a 723c f23f 46be
00000170: 3d9e 293e ae14 363e e42c 45be 2a9d 8e3d
00000180: 77d8 3bbe f4b0 6c3e 2c6a 63be b479 45bd
00000190: 1fe1 873d 4d9d dabd 638b b63d 33e9 e9bd
000001a0: 6b3e f4be 9aba 403d 68bd ccbe a6ea 50be
000001b0: 5143 3bbd 0a17 e3be 655a a6bd 47bb c93d
000001c0: f0f7 8ebe 8123 edbe 8711 28bd a8d7 a5bd
000001d0: 4655 cebe 085a 7e3e 36e3 83bd b03f 603d
000001e0: 06e0 f6bd 36da 8b3d f5c8 c8be ca50 b03c
000001f0: 467c 64bd d065 0dbe 8711 2e3d 387d b83d
00000200: 2369 6a3e dba9 cbbd d58a b5bd 84f3 013f
00000210: 64d0 f73d d1d8 45be 5714 90be 9055 6dbd
00000220: 4261 dc3d 0ad1 ba3b 80ba 30be 4175 2fbc
00000230: cd7f 23be 3486 663c 17d8 78be f28a db3d
00000240: 6228 d1bd 86fd 07bf 7973 0fbf 7014 bb3d
00000250: 6f08 c53d 3df0 a9bd fecb 2f3e 11a4 c73e
00000260: 85c0 97be 3315 d0bc d1db 563e 868b 0a3e
00000270: 469e 1a3e 5665 f2bc 7f06 84be a869 1fbe
00000280: 8670 65be 10e6 273d bcf0 013e f27e a13e
00000290: 95ae 6bbc efd6 383e 9079 593e b5da d13d
000002a0: a3a9 c63d 5195 053d 135f 93bd 2a54 b9bd
000002b0: e68d b33d 3b21 35bd 1c22 3a3e 596d 45be
000002c0: d859 08be babf c5bb 77ce 37be f589 58bd
000002d0: ae6a 053d 81f0 bdbd a70b 45be 16aa 42be
000002e0: bb7a da3d d652 253d 3f99 b0bc 64df b8bd
000002f0: d99b dd3d 453b 14bd 6b0e 23be 7643 cf3d

bias f4 [8]
0.26702353 0.24905235 0.41212982 -0.19836184 0.3732741 0.12573472 0.09575403 -0.069619946
00000000: 4fb7 883e 9407 7f3e ae02 d33e 5e1f 4bbe
00000010: c81d bf3e 9ac0 003e b01a c43d e794 8ebd

weight f4 [8, 8, 3]
-0.07047115 0.25301754 0.5559079 -0.018709637 0.27799475 0.1693452 0.015651153 0.37609178
0.17045392 0.16824153 -0.034016773 0.1125171 -0.09988824 0.8845824 0.32405883 -0.12826727
0.16977102 0.28067186 0.05043294 -0.23926374 0.5132925 0.20110324 0.12123395 -0.24415995
0.06342329 0.17873317 -0.08304796 -0.080665104 -0.17140864 -0.029015517 -0.20361057 0.0052860407
-0.0017364449 0.09139091 -0.054463346 0.072719954 0.008578982 -0.14137547 -0.03441371 0.1685087
-0.08397568 0.021750066 0.18367867 0.028811784 -0.1775683 -0.14897907 -0.1303926 -0.19639538
-0.054214545 -0.20706296 0.1842251 0.49860105 0.49528635 0.5406954 -0.26486018 -0.17805806
-0.25227395 -0.17372486 -0.09152798 0.17753519 -0.12783526 0.025877114 -0.22288525 -0.036627155
0.23840614 0.16033162 -0.35766092 -0.054286774 -0.14217247 0.09811759 0.050264757 -0.042368438
-0.057302132 -0.27939242 -0.5340298 0.09482403 0.27174497 0.011278968 0.24699241 0.1682515
0.28773892 -0.10730135 0.121309385 -0.15159598 -0.18181272 0.04668854 -0.03529477 -0.31648898
0.19213621 0.24825029 0.029756732 0.18238993 0.14576735 -0.1671836 -0.12572958 -0.08839993
0.15794726 -0.11608966 -0.1672753 0.09439812 -0.019571716 -0.09963707 0.16739844 0.11279219
0.16336249 -0.12800878 -0.05707825 -0.08634185 -0.21944495 -0.13005738 -0.107222065 0.0035547414
-0.13589731 0.19875243 -0.27064303 -0.017172245 -0.01721083 0.019331317 -0.016701162 -0.14045933
0.10877867 -0.24430475 -0.1392799 0.07653727 0.2713905 0.14653388 0.16879968 0.11555163
0.31593028 -0.073486134 -0.074971676 0.11169326 0.13439526 0.18706296 -0.0682794 0.09223988
0.4012941 0.2620256 -0.22626525 -0.27295637 -0.15082538 -0.14365704 -0.016088376 0.057696883
-0.122305065 -0.12386565 0.12903321 -0.22279501 0.062470593 -0.06815542 0.08341314 0.0807735
-0.13138933 -0.040226653 -0.0200226 0.07712401 0.0062191836 -0.06641216 0.069554016 0.09866719
0.13152955 -0.013250974 -0.14475638 0.13569556 -0.1716295 -0.06857174 0.09520414 -0.010406469
0.047173526 0.090995826 -0.1890794 -0.0055738734 -0.2694034 -0.1367693 -0.00031640645 -0.31479838
-0.21447712 -0.13576598 0.15326506 -0.034554865 -0.09061359 -0.2052478 0.00025543195 -0.02036392
-0.26355422 -0.4423584 -0.088678405 -0.051044635 -0.21483356 0.11117915 -0.07057028 -0.1018207
00000000: 2e53 90bd 848b 813e fb4f 0e3f f444 99bc
00000010: 5455 8e3e d468 2d3e d936 803c 1a8f c03e
00000020: 798b 2e3e 8247 2c3e 2c55 0bbd 5e6f e63d
00000030: 3592 ccbd fe73 623f 0aeb a53e 7f58 03be
00000040: 74d8 2d3e 39b4 8f3e c592 4e3d 8e01 75be
00000050: 2367 033f 02ee 4d3e 8149 f83d 1105 7abe
00000060: 12e4 813d d405 373e 0d15 aabd bf33 a5bd
00000070: bf85 2fbe f3b1 edbc 4a7f 50be 8636 ad3b
00000080: 6c99 e3ba 282b bb3d f514 5fbd 33ee 943d
00000090: dc8e 0c3c bbc4 10be 64f5 0cbd 8b8d 2c3e
000000a0: 71fb abbd 322d b23c 4316 3c3e b106 ec3c
000000b0: 77d4 35be f88d 18be a385 05be df1b 49be
000000c0: 1210 5ebd 5008 54be 81a5 3c3e a348 ff3e
000000d0: 2c96 fd3e 046b 0a3f c19b 87be da54 36be
000000e0: 0d2a 81be eee4 31be 0673 bbbd c9cb 353e
000000f0: 3fe7 02be 3efc d33c 083c 64be 5b06 16bd
00000100: bd20 743e f92d 243e 551f b7be cf5b 5ebd
00000110: a995 11be e0f1 c83d 6be2 4d3d 878a 2dbd
00000120: a4b5 6abd 860c 8fbe 2db6 08bf 1a33 c23d
00000130: 2822 8b3e 6ccb 383c 94eb 7c3e 1f4a 2c3e
00000140: 8452 933e cfc0 dbbd 0e71 f83d fa3b 1bbe
00000150: 1d2d 3abe 7c3c 3f3d 4091 10bd d80a a2be
00000160: 5bbf 443e 5335 7e3e 64c4 f33c 6dc4 3a3e
00000170: 0944 153e 2d32 2bbe 41bf 00be 060b b5bd
00000180: edbc 213e 6ac0 edbd 374a 2bbe cd53 c13d
00000190: dd54 a0bc 850e ccbd 7f6a 2b3e 97ff e63d
000001a0: 7f48 273e bc14 03be e2ca 69bd ffd3 b0bd
000001b0: 2db6 60be c32d 05be 3e97 dbbd aaf6 683b
000001c0: aa28 0bbe c285 4b3e b991 8abe cfac 8cbc
000001d0: bafd 8cbc b65c 9e3c e0d0 88bc 92d4 0fbe
000001e0: 5ac7 de3d 062b 7abe 649f 0ebe 92bf 9c3d
000001f0: b2f3 8a3e fa0c 163e d3d9 2c3e 55a6 ec3d
00000200: 9dc1 a13e e67f 96bd c08a 99bd 70bf e43d
00000210: e99e 093e 6f8d 3f3e 12d6 8bbd 43e8 bc3d
00000220: 6c76 cd3e 3828 863e 14b2 67be f0c0 8bbe
00000230: f871 1abe d51a 13be c5cb 83bc 9153 6c3d
00000240: 147b fabd 46ad fdbd 4821 043e 6024 64be
00000250: 2ae1 7f3d 1295 8bbd 82d4 aa3d 946c a53d
00000260: ed8a 06be b4c4 24bd 7006 a4bc 31f3 9d3d
00000270: 4bca cb3b 1903 88bd 5672 8e3d 0612 ca3d
00000280: afaf 063e 9d1a 59bc 043b 14be c7f3 0a3e
00000290: a5bf 2fbe 576f 8cbd 63fa c23d e57f 2abc
000002a0: 0739 413d 055c ba3d 089e 41be 0aa5 b6bb
000002b0: 3eef 89be 400d 0cbe 5be3 a5b9 412d a1be
000002c0: e49f 5bbe 3d06 0bbe 84f1 1c3e 6789 0dbd
000002d0: 9e93 b9bd 7b2c 52be 7feb 8539 3cd2 a6bc
000002e0: 94f0 86be cd7c e2be 069d b5bd 2e14 51bd
000002f0: 54fd 5bbe e5b1 e33d 2787 90bd 5f87 d0bd

bias f4 [8]
0.047657147 -0.20055568 -0.23004746 0.17685877 -0.16296995 -0.039900582 -0.074481145 0.58705175
00000000: 2434 433d 785e 4dbe 9091 6bbe 771a 353e
00000010: 98e1 26be cb6e 23bd 9289 98bd 0649 163f

weight f4 [8, 8, 3]
0.045108274 -0.13877621 0.19304232 -0.07278052 0.18135844 -0.118283086 -0.041365243 0.028029835
-0.026551647 -0.09105848 0.17988494 -0.06368681 0.054397278 -0.071335696 0.148176 0.133094
0.057343986 -0.052383382 -0.15575272 -0.14747089 -0.17532502 0.08928141 0.04745085 -0.04360925
-0.023945957 0.11209821 0.48754478 -0.13057181 -0.13051388 0.09699252 0.1150304 -0.21303669
-0.22655836 -0.197557 -0.04486573 -0.15776174 -0.04178378 -0.0968585 -0.023401745 0.12377253
-0.007327568 -0.012267032 0.093551084 -0.101520374 -0.065764956 -0.07054999 0.06765293 -0.42491022
-0.16122752 0.11867452 -0.034310862 0.16589957 0.036515653 -0.1405464 -0.0070706964 -0.13316758
-0.100502245 -0.059582688 -0.0100523215 -0.17871368 0.0590213 -0.16787274 -0.108071156 0.17722613
0.1105198 0.11765415 0.11241738 0.17440334 -0.008940821 0.06105612 0.1561946 -0.094378434
-0.126192 -0.19575703 -0.08674336 -0.06769602 0.1638763 -0.06645352 -0.19847012 -0.093412004
-0.16561666 -0.02704069 0.08981633 -0.13368016 -0.03350085 -0.01462777 0.18357614 0.071906894
-0.070176974 -0.16711839 -0.14420545 -0.12949508 -0.18579644 -0.15741357 -0.08022459 0.049406916
0.15729651 -0.110889934 -0.20065689 -0.18831432 -0.051280543 0.1430709 0.027301237 -0.16133122
0.17539743 -0.028358465 0.013479565 -0.12361387 -0.005938083 -0.036161453 0.11818802 -0.17138122
-0.033122793 0.16355805 -0.030857712 -0.09593181 0.12868136 0.11848431 0.18286513 -0.090452276
0.04732955 0.16936511 -0.1146995 -0.16862993 0.015813753 0.15052202 0.10062417 -0.20919298
0.062302575 -0.009885761 -0.036622964 -0.11413926 -0.12940107 0.097186334 -0.09156758 0.14447056
0.10530945 -0.16910377 0.15557875 -0.123623565 0.14471728 -0.19034745 0.046355814 -0.06269598
-0.037803058 -0.04558998 -0.32925242 0.15960495 -0.19423398 0.121478096 -0.14626355 -0.026903218
-0.18841793 0.06863137 0.29077148 0.23777312 -0.010226032 -0.20423916 -0.15341853 -0.17584449
-0.004742879 0.01898754 0.1397046 -0.085962206 -0.11758071 0.12956233 -0.05744508 0.17490335
-0.20211068 -0.16631463 -0.07102173 -0.06394555 -0.1138108 -0.0852989 0.16515335 -0.035216
0.0061849775 0.15429294 0.03272421 0.039513305 0.046674572 0.19901296 -0.054107033 0.1262815
0.063717365 0.10033312 0.176473 0.16882305 0.16794093 -0.08816045 -0.14951591 0.18857674
00000000: 74c3 383d 5a1b 0ebe e3ac 453e f40d 95bd
00000010: 07b6 393e 673e f2bd 9a6e 29bd d39e e53c
00000020: d782 d9bc de7c babd c233 383e 3b6e 82bd
00000030: aecf 5e3d 7318 92bd 73bb 173e cb49 083e
00000040: 87e1 6a3d f58f 56bd a47d 1fbe 9c02 17be
00000050: 6788 33be 2cd9 b63d d35b 423d 9d9f 32bd
00000060: 502a c4bc bf93 e53d 789f f93e 9eb4 05be
00000070: 6ea5 05be 04a4 c63d 0f95 eb3d 4a26 5abe
00000080: eafe 67be 624c 4abe 21c5 37bd 4b8c 21be
00000090: 7825 2bbd c05d c6bd 04b5 bfbc 747c fd3d
000000a0: 181c f0bb a9fb 48bc b697 bf3d eae9 cfbd
000000b0: c7af 86bd 837c 90bd 9f8d 8a3d d58d d9be
000000c0: d418 25be a00b f33d 8c89 0cbd 94e1 293e
000000d0: 7091 153d 65eb 0fbe 4db1 e7bb 155d 08be
000000e0: 1fd4 cdbd fa0c 74bd 7eb2 24bc b800 37be
000000f0: 52c0 713d d5e6 2bbe 6954 ddbd c47a 353e
00000100: 3458 e23d a9f4 f03d 153b e63d ca96 323e
00000110: 857c 12bc fb15 7a3d 7af1 1f3e 7b49 c1bd
00000120: 7a38 01be 8874 48be 81a6 b1bd 36a4 8abd
00000130: 30cf 273e c818 88bd c03b 4bbe cb4e bfbd
00000140: 6a97 29be 7084 ddbc a0f1 b73d 74e3 08be
00000150: 3038 09bd 50a9 6fbc 62fb 3b3e ec43 933d
00000160: f2b8 8fbd 1521 2bbe 98aa 13be 5c9a 04be
00000170: 6c41 3ebe 0631 21be ca4c a4bd e85e 4a3d
00000180: 5612 213e 431a e3bd 0079 4dbe 78d5 40be
00000190: 8c0b 52bd 2e81 123e d8a6 df3c 0334 25be
000001a0: 629b 333e 0350 e8bc 65d9 5c3c 4529 fdbd
000001b0: 4094 c2bb 081e 14bd 900c f23d 8f7e 2fbe
000001c0: c4ab 07bd c37b 273e 50c9 fcbc e677 c4bd
000001d0: 0cc5 033e e7a7 f23d ff40 3b3e 0b3f b9bd
000001e0: a1dc 413d 0c6e 2d3e 92e7 eabd 53ad 2cbe
000001f0: d88b 813c 7222 1a3e 0b14 ce3d af36 56be
00000200: fc30 7f3d e3f7 21bc f601 16bd d8c1 e9bd
00000210: b781 04be a109 c73d c987 bbbd 17f0 133e
00000220: 7bac d73d 8a29 2dbe 0950 1f3e 5a2e fdbd
00000230: c430 143e 71ea 42be 98df 3d3d c066 80bd
00000240: 61d7 1abd 8fbc 3abd c693 a8be 7b6f 233e
00000250: 46e5 46be 82c9 f83d 1dc6 15be 2364 dcbc
00000260: a1f0 40be 9b8e 8c3d 00e0 943e cc7a 733e
00000270: 168b 27bc 1224 51be bf19 1dbe 9410 34be
00000280: 276a 9bbb c28b 9b3c b90e 0f3e f40c b0bd
00000290: 28ce f0bd fdab 043e 884b 6bbd dd19 333e
000002a0: 1af6 4ebe 624e 2abe d773 91bd e2f5 82bd
000002b0: a315 e9bd 31b1 aebd f61d 293e a73e 10bd
000002c0: 5aab ca3b f8fe 1d3e d209 063d b4d8 213d
000002d0: d62d 3f3d 0eca 4b3e 569f 5dbd f04f 013e
000002e0: 407e 823d 737b cd3d 57b5 343e f3df 2c3e
000002f0: b5f8 2b3e 778d b4bd b31a 19be 431a 413e

bias f4 [8]
-0.011323671 0.24073696 -0.14021206 -0.057612225 -0.17179929 -0.15622434 0.069999255 -0.18652669
00000000: eb86 39bc c083 763e c093 0fbe ccfa 6bbd
00000010: 27ec 2fbe 46f9 1fbe c55b 8f3d da00 3fbe

weight f4 [8, 8, 3]
-0.047578037 -0.08460927 0.18369886 -0.21686086 0.14817616 -0.056286767 0.0425013 -0.17386171
0.13849089 -0.054323524 -0.18156323 0.086690426 -0.029699758 0.11872488 -0.2033698 -0.07330096
0.17458084 0.15572518 0.15564618 0.07551883 0.024342354 -0.11255028 0.1387866 0.010881943
-0.11320847 0.16993889 -0.023294771 0.18991676 0.14035124 -0.043318305 0.05773926 0.1609497
0.099279284 0.08755335 0.059167027 0.18854406 -0.00046426058 -0.19264346 0.18563 0.1002813
0.10467896 0.16035366 -0.1944715 -0.057681713 0.16319892 0.065291785 0.05192113 -0.11909444
0.10124835 -0.17779261 0.15166256 -0.195153 -0.18268177 0.10837516 0.036677778 -0.12957084
-0.18084782 0.14623418 -0.18942003 -0.14178802 0.009792894 -0.17290933 0.0066111684 0.0934923
0.02629888 0.10895559 0.01564461 -0.15893744 0.19779006 0.052915305 0.08301237 -0.030558854
0.024657065 -0.23305777 0.089731395 -0.35289195 -0.45659187 -0.25435165 0.15789595 0.048608538
0.046142764 0.1079469 0.15815985 0.16621453 0.042439744 -0.18014525 -0.031884603 0.13279213
-0.033965994 0.012761206 -0.011597023 -0.04938834 0.2266137 -0.11987759 -0.109675385 0.115232274
-0.0063748416 -0.010168592 -0.08344609 0.16616653 0.012073255 -0.1296541 0.19291557 -0.20108762
0.11311557 0.09284297 0.011176765 0.1677 -0.01498187 -0.11047254 -0.16872902 0.14086846
-0.14476989 -0.084059216 -0.19947256 0.08582928 0.13220279 0.10405957 -0.17335637 0.036455832
-0.116298825 0.07074213 -0.0054238886 0.16570708 0.1376346 -0.118483536 -0.18166399 5.9202313e-05
-0.18931912 -0.0669553 -0.1649107 0.18778673 0.08781323 0.018088013 0.116205424 0.09723556
-0.11551947 0.13848832 0.01833807 0.014494613 -0.014417797 0.116101086 0.14681575 -0.019009545
0.025000112 -0.1350747 -0.1345104 -0.1347672 -0.075740635 -0.1701347 -0.11804566 -0.067387894
-0.05667931 0.049906403 -0.1937424 0.1729989 -0.15928164 0.1706979 0.0719682 -0.08530408
-0.15185538 0.16731375 0.14798793 0.11379266 -0.13037094 -0.020960532 -0.16742599 0.02339165
-0.01070866 -0.010861918 0.14338225 -0.11238712 -0.08487511 -0.035037458 0.0030747056 -0.07389769
-0.06640343 0.110583454 0.15625262 0.18749952 0.07019645 0.029787123 0.09252703 0.051545143
0.053926915 -0.07112214 0.2024838 -0.028085768 -0.12266919 0.039797917 -0.08851406 -0.05833374
00000000: 30e1 42bd a047 adbd 8e1b 3c3e c610 5ebe
00000010: 7ebb 173e f48c 66bd d815 2e3d ce08 32be
00000020: 8ed0 0d3e 5882 5ebd b6eb 39be c08a b13d
00000030: e84c f3bc 0826 f33d 2c40 50be d01e 96bd
00000040: 52c5 323e 6c76 1f3e b661 1f3e 9ea9 9a3d
00000050: 9e69 c73c c380 e6bd 131e 0e3e 2d4a 323c
00000060: d8d9 e7bd 7604 2e3e add4 bebc 8a79 423e
00000070: 3cb8 0f3e 896e 31bd 0180 6c3d 00d0 243e
00000080: f052 cb3d 2c4f b33d 2059 723d b211 413e
00000090: 0068 f3b9 5444 45be ca15 3e3e 4860 cd3d
000000a0: ec61 d63d c033 243e 8923 47be a943 6cbd
000000b0: 9e1d 273e b3b7 853d 40ab 543d c9e7 f3bd
000000c0: 4c5b cf3d 440f 36be 6e4d 1b3e 30d6 47be
000000d0: ee10 3bbe ccf3 dd3d 703b 163d 38ae 04be
000000e0: 2c30 39be 6abe 153e 53f7 41be e130 11be
000000f0: 6072 203c 250f 31be 80a2 d83b e478 bf3d
00000100: c070 d73c 1c24 df3d 2029 803c 7fc0 22be
00000110: 7a89 4a3e b8bd 583d 6402 aa3d 9056 fabc
00000120: 9dfd c93c b2a6 6ebe 18c5 b73d 41ae b4be
00000130: 69c6 e9be 613a 82be 7aaf 213e bf19 473d
00000140: 3200 3d3d 4413 dd3d a8f4 213e 2434 2a3e
00000150: 4cd5 2d3d ff77 38be 6e99 02bd a9fa 073e
00000160: ed1f 0bbd 6114 513c 7101 3ebc 6e4b 4abd
00000170: 6c0d 683e 6282 f5bd 7d9d e0bd e6fe eb3d
00000180: 0ce4 d0bb 2b9a 26bc c9e5 aabd 8f27 2a3e
00000190: e7ce 453c 0bc4 04be a98b 453e eae9 4dbe
000001a0: 23a9 e73d 7424 be3d c01e 373c 8cb9 2b3e
000001b0: 8476 75bc 6d3f e2bd 4dc7 2cbe d23f 103e
000001c0: 8f3e 14be 3d27 acbd 8942 4cbe 43c7 af3d
000001d0: 2b60 073e 2f1d d53d 5584 31be b652 153d
000001e0: 142e eebd 40e1 903d e0ba b1bb 1eaf 293e
000001f0: 16f0 0c3e 7fa7 f2bd 2006 3abe 0050 7838
00000200: dfdc 41be dc1f 89bd 5ade 28be 2a4b 403e
00000210: 6cd7 b33d 502d 943c 1cfd ed3d 7023 c73d
00000220: 7995 ecbd e2cf 0d3e b839 963c d07a 6d3c
00000230: a038 6cbc 68c6 ed3d de56 163e e8b9 9bbc
00000240: 09cd cc3c 0651 0abe 18bd 09be 6a00 0abe
00000250: e81d 9bbd ca37 2ebe ecc1 f1bd aa02 8abd
00000260: 9028 68bd a86a 4c3d 6864 46be a026 313e
00000270: ba1a 23be 6ecb 2e3e 1064 933d e8b3 aebd
00000280: fa7f 1bbe 4c54 2b3e 268a 173e 200c e93d
00000290: f67f 05be 6cb5 abbc b871 2bbe d89f bf3c
000002a0: 6073 2fbc 30f6 31bc ccd2 123e 382b e6bd
000002b0: 00d3 adbd 7083 0fbd 0081 493b ac57 97bd
000002c0: 86fe 87bd 9479 e23d b000 203e e0ff 3f3e
000002d0: 28c3 8f3d 2004 f43c d07e bd3d 0021 533d
000002e0: 78e2 5c3d 7ca8 91bd ea57 4f3e 2014 e6bc
000002f0: fc39 fbbd 2403 233d dc46 b5bd 5cef 6ebd

bias f4 [8]
-0.16053958 -0.20075782 -0.15755127 0.23217997 0.018467892 -0.20345077 -0.06637603 -0.10535508
00000000: 7d64 24be 7593 4dbe 1f55 21be 96c0 6d3e
00000010: fa49 973c 6655 50be 28f0 87bd 67c4 d7bd

weight f4 [8, 24, 1]
-0.24318454 -0.039076757 -0.3335136 -0.12289566 -0.26642105 0.94035155 -0.0964151 -0.38844445
-0.06502645 -0.020964473 -0.0015558478 -0.036223978 0.05080366 0.25802952 -0.03756082 -0.0398175
0.11870761 -0.05262468 0.1076321 -0.06257335 0.07074761 0.049619585 0.14438172 -0.18311928
-0.057431858 0.0069014505 -0.40880448 0.7827802 -0.037373226 -0.21600224 -0.004895048 -0.58934206
-0.015894607 0.040316347 -0.05051614 0.04091446 0.18377598 0.024305893 0.165981 0.046014823
0.19024518 0.13399966 0.05407843 -0.2637811 0.034141466 0.14792845 -0.1959919 -0.05935049
-0.03900246 0.018360019 0.03320355 -0.00040072898 0.18200529 0.013271799 0.017260294 0.011423204
-0.14974728 0.06970757 -0.055859044 0.13963613 -0.17295887 -0.15113111 0.051123057 -0.20016843
-0.12523313 0.08245518 -0.12632675 -0.055289954 0.14270833 -0.02858089 0.14078993 0.030672953
0.033867706 -0.137712 0.00063812424 0.0041281665 0.1720484 -0.019037418 -0.017832948 0.014084163
0.022484617 0.049238317 -0.009109267 -0.18310836 -0.007943551 -0.08305912 -0.0064068385 0.08771801
-0.05581834 0.13983452 -0.16492213 0.10411459 -0.055935927 -0.08110587 -0.10047069 -0.152191
-0.10840488 0.13946074 0.017095566 -0.057465546 0.11304572 -0.04623268 -0.07380036 -0.17058346
-0.042518795 -0.027850065 0.11784763 0.13657635 -0.12547049 -0.09108729 0.0036646891 0.14644222
0.122708686 0.19010754 -0.13702692 -0.069558434 0.08757145 0.09421685 -0.0730413 -0.059238315
0.7875767 -0.0751346 0.022941848 -0.42156586 -0.17274572 -0.11263921 -0.11288787 -0.39005136
0.0349705 0.20929891 0.16547891 0.004378855 0.023424065 -0.10280396 -0.44058368 -0.0125985285
-0.008645942 -0.097002715 0.13962752 -0.5514336 -0.17477298 -0.13712251 -0.14861888 -0.051253006
0.03247484 -0.03684935 -0.7042436 -0.027398637 0.10157483 0.0017940298 -0.06445255 0.07561311
0.15033458 0.062119495 0.049814444 -0.17119753 -0.19244249 0.124794476 0.13677055 -0.089532755
-0.067401245 0.09895761 -0.07572107 -0.06767002 0.07124335 0.081415296 0.064194426 -0.14720689
0.06926122 -0.10927972 -0.005277968 -0.056204427 -0.14654467 -0.015993068 0.1813356 0.22861622
0.10072505 0.12385618 0.19665581 -0.052775145 -0.05357183 0.15729536 0.082165346 0.052213643
0.06429905 -0.04110737 0.09683865 0.06061086 -0.039876062 0.15476015 0.10581503 0.1394009
00000000: 5e05 79be f30e 20bd 4bc2 aabe b8b0 fbbd
00000010: 5768 88be e1ba 703f 4875 c5bd 31e2 c6be
00000020: 962c 85bd b0bd abbc 97ed cbba 985f 14bd
00000030: 8017 503d 721c 843e 60d9 19bd ad17 23bd
00000040: fa1c f33d fa8c 57bd 386e dc3d 7526 80bd
00000050: 1fe4 903d e83d 4b3d cdd8 133e 9f83 3bbe
00000060: ab3d 6bbd 9025 e23b d24e d1be 4864 483f
00000070: ab14 19bd b12f 5dbe a466 a0bb 1fdf 16bf
00000080: 6835 82bc c122 253d 03ea 4ebd ec95 273d
00000090: c52f 3c3e 271d c73c ecf6 293e 0a7a 3c3d
000000a0: a2cf 423e 3537 093e 5881 5d3d 510e 87be
000000b0: ecd7 0b3d 8e7a 173e 1ab2 48be 8019 73bd
000000c0: 0bc1 1fbd c067 963c 7200 083d ef18 d2b9
000000d0: 985f 3a3e f671 593c 7665 8d3c 6428 3b3c
000000e0: 5a57 19be d8c2 8e3d 74cc 64bd c6fc 0e3e
000000f0: 211c 31be 1dc2 1abe 6966 513d f4f8 4cbe
00000100: 1d3d 00be 43de a83d cd5b 01be b877 62bd
00000110: 2222 123e 7822 eabc 3c2b 103e d845 fb3c
00000120: ddb8 0a3d 6004 0dbe cb47 273a 9245 873b
00000130: 752d 303e 5cf4 9bbc 6716 92bc 43c1 663c
00000140: a931 b83c 1eae 493d 093f 15bc c280 3bbe
00000150: ab25 02bc e61a aabd 75f0 d1bb 80a5 b33d
00000160: c6a1 64bd c830 0f3e 59e1 28be 083a d53d
00000170: 121d 65bd d61a a6bd 94c3 cdbd f5d7 1bbe
00000180: 6103 debd ccce 0e3e 000c 8c3c fe60 6bbd
00000190: 8484 e73d 7b5e 3dbd a524 97bd 6ead 2ebe
000001a0: 3028 2ebd d225 e4bc 195a f13d acda 0b3e
000001b0: 567b 00be f98b babd 482b 703b f3f4 153e
000001c0: b14e fb3d 8dab 423e c950 0cbe a774 8ebd
000001d0: a958 b33d c4f4 c03d ad96 95bd e0a3 72bd
000001e0: a09e 493f 2be0 99bd 8bf0 bb3c 7bd7 d7be
000001f0: 41e4 30be 63af e6bd c131 e7bd d0b4 c7be
00000200: 3a3d 0f3d 7452 563e 4e73 293e 807c 8f3b
00000210: d3e3 bf3c e28a d2bd 2f94 e1be 0f6a 4ebc
00000220: b6a7 0dbc 5ca9 c6bd 84fa 0e3e c12a 0dbf
00000230: b0f7 32be d869 0cbe 8c2f 18be acee 51bd
00000240: 5604 053d 58ef 16bd 4f49 34bf 1b73 e0bc
00000250: 7706 d03d a725 eb3a b3ff 83bd 0cdb 9a3d
00000260: 4ff1 193e 0371 7e3d 3b0a 4c3d 684e 2fbe
00000270: a50f 45be 3f94 ff3d 940d 0c3e f35c b7bd
00000280: aa09 8abd 4aaa ca3d a613 9bbd 9496 8abd
00000290: 09e8 913d 10bd a63d 5e78 833d 67bd 16be
000002a0: d4d8 8d3d 0cce dfbd cef2 acbb 9d36 66bd
000002b0: ce0f 16be e503 83bc 0ab0 393e 5f1a 6a3e
000002c0: ef48 ce3d 4fa8 fd3d 2460 493e c02a 58bd
000002d0: 236e 5bbd 0912 213e 4e46 a83d f9dd 553d
000002e0: 38af 833d 3460 28bd 5853 c63d 1843 783d
000002f0: 1555 23bd 7279 1e3e 8db5 d83d 1cbf 0e3e

bias f4 [8]
0.2622912 0.40695262 -0.006900857 -0.03992356 0.12533836 0.7430248 0.93063176 -0.021664146
00000000: 084b 863e 185c d03e 9620 e2bb e386 23bd
00000010: b358 003e e036 3e3f e23d 6e3f 0279 b1bc
