Masterarbeit_YorickLALY/Code_and_Neural_Network/CNN_window_size_33_MinMaxScaler.pt (torch, 10191 bytes, 12 tensors)

weight f4 [8, 8, 3]
000000 3c 6b 30 be ac 3e d3 3c 0b 7c b0 bd c6 bf 36 3e
       -0.17228407 0.02578672 -0.08617409 0.17846593
000010 3c 6f 87 3e 91 ac eb 3e 4c 93 2a be da cb d3 bd
       0.26452053 0.46030095 -0.16657752 -0.10341616
000020 6d d7 31 be 9e 69 37 be 06 7e 97 bc 21 4e 02 3d
       -0.17367335 -0.17911384 -0.01849271 0.03181279
000030 09 fd ed 3d 27 71 70 3d 78 fd 47 3e 99 2a 86 bd
       0.11620528 0.05870166 0.19530284 -0.065510936
000040 c3 f1 38 3c 1f b4 a9 3d cf 23 65 3e 82 ad 02 be
       0.011288109 0.082863085 0.22376941 -0.127615
000050 1f cc 91 be 9f 82 b3 3e 26 ed dd 3e e4 37 58 3f
       -0.28476045 0.35060593 0.43344992 0.8446028
000060 b1 c2 00 be ac 0a 07 be 38 f0 0d 3d 96 d9 30 3e
       -0.12574269 -0.13187665 0.03465292 0.17270502
000070 ab bd 93 bd 31 f7 4a 3c b7 6e 2a 3e 1c e7 ba 3d
       -0.07213911 0.012388037 0.16643797 0.09126112
000080 a9 38 7c 3d 77 bf c0 3d 9d 6e 32 3e e3 33 20 3e
       0.061577473 0.09411519 0.17425008 0.15644793
000090 89 cd ff bd e0 92 aa bc 88 a5 7c be e9 9c 15 bc
       -0.124903746 -0.020821989 -0.2467252 -0.009131649
0000a0 cc af 9d 3e 9e 53 4a be b5 d2 dc bc 39 21 2b bd
       0.30798185 -0.1975846 -0.026955942 -0.04177973
0000b0 d3 66 26 3e 26 7c 73 3e 11 cc a5 3e cd 7c 64 3e
       0.16250162 0.23777828 0.32382253 0.22313233
0000c0 2b dc 95 3d 3d 54 62 3e f2 f7 d8 3d 65 28 bf 3d
       0.07317384 0.22102447 0.10594167 0.093338765
0000d0 e5 3c e1 3e 7c 4b 70 3e 6a 1b 30 be 83 92 d6 bd
       0.4399177 0.23466295 -0.17197958 -0.10477164
0000e0 3e 36 d4 bd d7 b9 aa 3c d2 c4 04 be e8 ef 28 be
       -0.103619084 0.020840568 -0.12965706 -0.16497767
0000f0 3c 32 99 3d 48 d9 d6 3d a9 f3 26 bd 24 23 a6 3d
       0.074802846 0.10490662 -0.040759716 0.08112171
000100 12 69 c2 bc e0 f9 85 be b1 52 8d bd 30 dd 93 bd
       -0.023731742 -0.26167202 -0.06900538 -0.072199225
000110 16 3c 8b be 67 35 79 3d 21 d3 b1 bd 13 58 32 3e
       -0.2719428 0.060841944 -0.08682848 0.1741641
000120 97 f7 04 3d c8 2e db 3a 9a 35 8b 3c 85 24 78 bc
       0.032462683 0.0016722316 0.016993333 -0.015145426
000130 a7 c8 39 3e 1f b1 ec 3d 95 69 21 bd e5 7b cf 3b
       0.18142949 0.11557221 -0.03940733 0.006331908
000140 f7 44 1d be 9a a5 a1 3d f4 42 a0 bd 5d 8d 7a 3c
       -0.15358339 0.07892914 -0.0782527 0.015292493
000150 06 38 53 be 22 42 37 be 47 76 45 bd e6 b8 2b 3d
       -0.2062684 -0.17896321 -0.0482085 0.04192438
000160 ee 69 a2 be 07 9a 66 be 48 ea 10 bc 5d c1 0d 3e
       -0.31721443 -0.22519694 -0.0088449195 0.13843293
000170 4d 67 0e 3e 3d db 84 be 86 12 4f 3d c9 0f 53 be
       0.13906594 -0.25948516 0.050554775 -0.2061149
000180 1c bc 89 be db a3 76 3d a7 1f ed 3c 76 cb 0b be
       -0.2690133 0.06021486 0.028945757 -0.13651833
000190 5e 05 ae bd 85 3a b5 bc f7 6f cf 3d ac 00 02 3e
       -0.084971175 -0.02212263 0.101287775 0.12695569
0001a0 c8 f4 ea bd cf 4b 20 3e 02 b3 3b 3e c2 7c 2a be
       -0.114724696 0.15653919 0.18330005 -0.16649154
0001b0 4d f0 e3 bd 65 e4 14 be 84 98 5e bd a2 01 7d 3e
       -0.11129818 -0.1454025 -0.05434467 0.24707654
0001c0 ab 21 5e 3e ea 62 da 3d 28 02 92 be 95 54 b3 be
       0.21692531 0.106633976 -0.2851727 -0.35025468
0001d0 fb 0f 1a be d1 c8 21 3e c1 26 02 3e 0f 2d a5 3d
       -0.15045159 0.15799262 0.12710096 0.08065235
0001e0 bf 00 3f 3d bf ec dd bd 78 d5 91 bd eb f3 1e 3e
       0.04663157 -0.10836171 -0.07120794 0.15522735
0001f0 90 4a 1b 3d d2 21 2c be 82 ba e9 3c e6 ca b5 3d
       0.037912905 -0.16809776 0.028531317 0.088765904
000200 60 3a ac bb a9 6e d2 3b df 8b fe 3d 4c 7a 34 3d
       -0.0052559823 0.006421883 0.12429022 0.044061944
000210 02 7e c6 3d 7f 10 13 3e a5 e2 45 3d 47 5a 87 bd
       0.09692003 0.14361762 0.04831185 -0.06609016
000220 da 5b cc 3c f4 d0 09 be d7 2e 19 be 45 51 3d be
       0.024946142 -0.13458616 -0.14959274 -0.18488033
000230 c9 b4 64 3d 6d 1e 3a be 60 e0 10 3d b3 91 f7 3d
       0.055836473 -0.18175669 0.03537023 0.12088337
000240 b8 7d a9 3e 6d 7a 91 3e 1e db a9 3e cf 2a e4 3d
       0.33103728 0.28413716 0.33174986 0.111409776
000250 8a 7c df 3d 6d bc 46 be e1 7e ed 3d a7 fe e9 3d
       0.10912426 -0.19407816 0.11596466 0.11425524
000260 40 c3 01 3e 32 97 13 bc 58 97 9b 3d 69 ef 2e be
       0.12672138 -0.009008216 0.07597226 -0.17083515
000270 20 c6 35 be 36 73 aa 3c 53 6f 56 3d 9c af 2e 3e
       -0.1775136 0.02080689 0.05235226 0.17059177
000280 04 ef 0f 3e 33 c6 53 be 49 89 95 3d f4 ae 9a bd
       0.14056021 -0.20681076 0.07301576 -0.07552901
000290 ef 47 18 3e 2a 1b 8e 3d 18 98 4f be 3e ee a9 be
       0.1487119 0.06938775 -0.20272863 -0.33189577
0002a0 43 d7 81 3d 56 58 bc 3b 8f a1 5f 3e 64 df 4f 3e
       0.06339886 0.005747835 0.21838973 0.2030006
0002b0 eb 8f 5c 3e d2 71 5f bb 71 a7 e8 3d 5d 6a 63 bb
       0.21539275 -0.0034094942 0.11360062 -0.0034700849
0002c0 02 f3 ea 3d ff e6 67 3c 8b da b8 3d 1c 26 49 3d
       0.11472131 0.014154195 0.09026059 0.04910861
0002d0 94 ed 58 be 69 71 d5 bc 77 ed 90 be 22 f4 d6 be
       -0.21184379 -0.026055055 -0.2830617 -0.41983134
0002e0 ab a0 14 bf 0a e3 e7 bd fe 3a 67 3d a9 cd 7d 3d
       -0.5805766 -0.11322601 0.056452744 0.06196371
0002f0 28 80 84 3e 90 a8 45 be 2a 45 86 be 1b fc 75 be
       0.25879025 -0.19302583 -0.26224643 -0.24021952

bias f4 [8]
000000 48 03 11 bb 96 06 9c 3d 41 42 7b 3d 91 89 0f 3e
       -0.00221272 0.07618444 0.06134248 0.14017321
000010 7f 0e 5a 3e 57 8d 1a be b1 81 10 be b0 fb b4 3e
       0.21294592 -0.1509298 -0.14111973 0.35348272

weight f4 [8, 8, 3]
000000 f5 91 91 3d 27 5d b3 3e 7c 49 d7 3e 48 f8 2f 3d
       0.07107917 0.35032007 0.42048252 0.04296139
000010 2e 72 ee bb 08 b0 8b 3d cd 6e 21 3d de 0a c0 3e
       -0.007276795 0.06820685 0.03941231 0.3750829
000020 c6 d4 84 3e 4e 68 83 be e1 7b 31 3e 9b d5 a8 3c
       0.25943583 -0.25665516 0.17332412 0.020609668
000030 2c 34 1a 3e 75 30 2d be 6e 03 fc 3d 63 1c 15 3e
       0.15058964 -0.16913016 0.12305342 0.1456161
000040 7e d8 b0 bc e2 92 c4 bc 7e d4 9c bd 74 f9 94 bd
       -0.021587607 -0.02399582 -0.07657717 -0.07274142
000050 4c 91 ca bd 18 ec d8 3d ef 1c d5 3d 85 7c c5 be
       -0.098909944 0.10591906 0.10405909 -0.38571563
000060 2f eb 96 3d 29 81 e0 bd ea 64 64 3e e1 ed 0f be
       0.073690765 -0.10962135 0.2230412 -0.14055587
000070 d7 ec 08 be 11 85 7a 3e 50 4e a3 bd d1 54 c1 3c
       -0.13371597 0.24464823 -0.07973921 0.023600014
000080 a5 17 5f be c7 d2 0a 3d e1 9e 29 be 62 27 84 bd
       -0.21786363 0.03389242 -0.16564514 -0.06452824
000090 d8 f3 26 3e d5 96 37 be 63 ca d3 bd bf 17 09 be
       0.16303957 -0.17928632 -0.103413366 -0.13387965
0000a0 54 fa 48 3e 05 36 24 3e 5d ce 19 3e 8c 2f 6d bb
       0.19626743 0.16036232 0.15020128 -0.003619167
0000b0 0f f2 d5 bd 26 3d d5 3d a9 9d 6e 3d b1 2d 0b bd
       -0.1044656 0.10412054 0.058255825 -0.03397912
0000c0 fd 93 71 bd a9 d8 94 3d 5d c6 62 be aa 2c 63 bc
       -0.058979023 0.07267887 -0.22145982 -0.013865629
0000d0 48 ba 3b 3e cb e7 08 3e 40 e7 49 3e 6a 73 2c 3e
       0.1833278 0.13369672 0.19717121 0.16840902
0000e0 ec a8 25 3d 6c e5 17 be a8 e3 10 be df 59 d4 3d
       0.0404443 -0.14833611 -0.14149344 0.10368704
0000f0 20 64 0e bd 72 f1 b3 3d 82 f9 36 bd d1 e1 92 3d
       -0.034763455 0.087862864 -0.044671543 0.07171977
000100 74 16 e8 3d fc 1d c2 3d ad 85 7a bd c4 2a 2d 3e
       0.113324076 0.09478375 -0.06116264 0.16910845
000110 2d 96 4c 3e e9 cf 29 3e 2b 9f 5c 3c 5a 3e 7c 3d
       0.19979163 0.16583218 0.013465683 0.0615829
000120 1a ec 31 bc 0d b1 30 3d 43 23 cb 3e f9 05 08 3e
       -0.010859514 0.0431376 0.3967534 0.13283528
000130 25 36 2d bd f2 36 ad 3c 27 24 95 bd b5 63 40 3d
       -0.042287964 0.021144364 -0.07282286 0.046970088
000140 dc 86 8a bd 95 66 87 be e9 ba d2 ba f6 22 92 3d
       -0.06764004 -0.2644545 -0.0016077432 0.071355745
000150 18 eb f3 bd 7e ba 8d be 11 b9 17 bd 84 ce e3 3d
       -0.11910075 -0.27681345 -0.037041727 0.11123374
000160 a5 5f f8 bd 15 54 49 3e 62 17 5a 3e 91 c0 6e 3e
       -0.12127618 0.19660981 0.21297982 0.23315646
000170 6f d2 d2 bd 89 10 a0 be 5a 7d 1d be 68 29 96 be
       -0.10294043 -0.31262615 -0.15379849 -0.29328465
000180 89 38 cd 3d 0c a0 8d be cc e4 7e be b3 df 8a 3e
       0.10020549 -0.2766117 -0.24891967 0.27123794
000190 45 49 6e 3d 31 9c ad bd dc dd 31 bd cc 76 68 3d
       0.058175344 -0.08477057 -0.043424472 0.05675392
0001a0 3c 54 37 be 00 35 85 be 07 21 7e bd 3d 3b 15 3d
       -0.17903227 -0.26016998 -0.062043216 0.036433447
0001b0 47 f0 7e bc b8 83 4b be aa 78 34 be 1d af a7 3d
       -0.015560216 -0.19874465 -0.17624155 0.08187697
0001c0 12 11 5d 3d fb 13 85 bd 17 a3 a1 bc 0b bd 10 3d
       0.053971358 -0.064979516 -0.019731088 0.035336535
0001d0 e1 a0 84 3e 36 53 76 be 54 fe 34 be f5 3c 90 bc
       0.2590399 -0.2405518 -0.17675143 -0.017607192
0001e0 85 b2 58 be 56 c7 b9 3c 93 8d 5e be dc 99 87 3d
       -0.2116185 0.022678059 -0.21733694 0.06621143
0001f0 8b c3 5d be ee c7 90 3c d0 75 12 3e 0b 52 ef bd
       -0.21656625 0.017673459 0.14302754 -0.1168557
000200 e4 b7 84 3e 7e b0 eb 3d c6 ac 87 3e 8c 4f c9 bd
       0.25921547 0.115082726 0.26499003 -0.098296255
000210 db 0c 24 be 73 97 02 be 82 49 bd bd c8 b1 9d 3d
       -0.16020529 -0.12753086 -0.09242536 0.07699925
000220 2a 45 2e 3e 1d 7c 56 bd 2f 9f e7 3d a7 57 44 be
       0.17018571 -0.052364457 0.11309659 -0.19174062
000230 ca e5 47 3e fa 9a c8 3d 35 cc ad 3e 4d 30 e8 bd
       0.19521251 0.097951844 0.3394486 -0.11337338
000240 d5 aa 52 3e 0c 9a 96 3d a6 2c cd 3e 52 a7 83 3b
       0.2057298 0.07353601 0.40073127 0.004017749
000250 2a 6c 61 3e 70 58 8a 3e b0 71 1c 3e a7 6a d0 3c
       0.22013918 0.27020597 0.15277743 0.02544148
000260 a6 0f 2a be 4e e9 96 be be 26 38 3c 6a 15 c5 3d
       -0.16607532 -0.29474872 0.011239706 0.09623225
000270 92 23 40 3e 9c 79 9b 3e ed 45 f7 bc 12 d2 6b 3d
       0.18763569 0.30366218 -0.03018471 0.057573386
000280 41 0a 27 be 11 55 bd 3d 1e 24 53 be ea 43 33 be
       -0.16312505 0.09244741 -0.20619246 -0.17506376
000290 b0 d8 d7 be 1c f4 16 be 05 cf 03 be 9d f6 0e 3e
       -0.42157507 -0.14741558 -0.1287194 0.13961263
0002a0 a0 f0 06 be 16 d1 2d be 94 eb 8c be fc 0c 70 3c
       -0.13177729 -0.16974291 -0.27523482 0.014651533
0002b0 cf df b7 bd 84 15 29 be 62 78 05 3e 81 39 2f be
       -0.08978235 -0.16512114 0.13034204 -0.1711178
0002c0 e9 b2 c4 3c 1f 2e b5 3e 72 a2 80 3d ca 6a 30 be
       0.024011092 0.3538675 0.06280984 -0.17228237
0002d0 52 55 39 3e 32 f2 95 3e 7d 7c a3 3e 35 a3 37 3d
       0.18098953 0.29286343 0.31930915 0.04483338
0002e0 dd 6e e9 3c 14 bd 74 3d 9f 08 79 3e 85 40 90 bd
       0.028495247 0.05975063 0.24319695 -0.07043556
0002f0 74 23 bc 3d 6b ec 5b 3e 16 79 d5 3a 3a 23 59 3d
       0.0918645 0.21476905 0.0016286697 0.05301211

bias f4 [8]
000000 99 16 44 3c ae e4 88 3e 23 6c 13 bd 58 48 a5 3e
       0.011968278 0.2673697 -0.0359918 0.32281756
000010 25 bc 2b 3e 0b fc 26 3b cc 5f 9b bd 56 91 a2 3e
       0.1677099 0.002547982 -0.07586631 0.31751508

weight f4 [8, 8, 3]
000000 ab 46 a3 be aa 4d 9a be 26 36 0e bf ba 95 cf 3d
       -0.31889853 -0.30137378 -0.55551374 0.1013598
000010 ca 26 d3 3d 55 2a 12 be fe 24 a8 bd d5 ea 7b 3d
       0.10310133 -0.14273961 -0.08210181 0.06150325
000020 fb b5 5d 3e 99 47 9d 3c f3 7d 96 3d 38 88 4d be
       0.21651451 0.01919918 0.07348242 -0.20071495
000030 10 f6 eb bd ed 05 59 3e 7b 32 90 3e 65 3f 58 be
       -0.11521542 0.21193667 0.28163514 -0.21117933
000040 a2 b7 a3 3d 18 3d 0c be 7e 3e c4 bd a7 82 b6 3d
       0.079940096 -0.1369518 -0.09582232 0.08911639
000050 89 e2 03 bd 65 25 3e bc 66 87 df 3d a9 7b 1f 3e
       -0.032198463 -0.011605595 0.10914497 0.15574516
000060 fb df e2 bd 70 60 ed bc f4 c5 0d be e0 8a 11 3c
       -0.11077877 -0.028976649 -0.13845044 0.008883208
000070 14 36 1a bd 54 eb 9f 3d d0 87 e2 3c 78 f2 eb 3c
       -0.03764923 0.07808557 0.027652651 0.028802142
000080 4c 0b 01 be d0 3c 24 3e db fd b2 bd c8 2e 80 bd
       -0.12601966 0.16038823 -0.08739825 -0.06258923
000090 dc fe 91 3d b0 53 43 3d dd 6f 11 be 10 3c d1 bc
       0.07128689 0.047687232 -0.14202829 -0.025541335
0000a0 7e a3 1e 3e d0 cf 89 bc 54 98 66 bd 2b 33 1f be
       0.15492055 -0.016822726 -0.056297615 -0.15546863
0000b0 f8 38 14 3d 78 0c 9e 3d 4c 95 7e bd 0a 87 9b bd
       0.036187142 0.07717222 -0.0621541 -0.07594116
0000c0 ad 1a 4c 3e a0 f3 02 bd 06 e9 d1 3d 50 9d 58 be
       0.19932051 -0.03197062 0.10249524 -0.2115376
0000d0 70 bf af bd 62 b2 e9 bd 84 74 07 bc 00 18 7b 3c
       -0.08581436 -0.11410977 -0.008267526 0.015325546
0000e0 d3 58 1b be a9 15 b1 bd f9 c9 5f 3d 0e 9b d6 3c
       -0.15170603 -0.086467095 0.054635976 0.026196983
0000f0 70 97 42 be 1f 0d ec 3d 9f 28 09 be 55 c9 c8 3c
       -0.19003081 0.1152594 -0.13394402 0.024510065
000100 9b 65 36 be 66 c7 94 be 0b c2 87 be 2a cc be be
       -0.17812197 -0.2905838 -0.2651523 -0.3726514
000110 d7 36 19 be 0a 99 73 be 40 12 e3 bd 43 7f b6 be
       -0.14962326 -0.23788849 -0.11087465 -0.35643968
000120 48 9e a4 bc d0 ff 82 3a 71 d9 69 be 98 80 1d be
       -0.020095006 0.0009994451 -0.22836854 -0.15381086
000130 73 6c 39 3e 6a 21 61 be ad 9f 5a be d6 a2 47 be
       0.18107776 -0.21985403 -0.21349974 -0.1949571
000140 9a 79 75 3e 9c 0f 86 bd 04 d1 d5 be 51 b4 0c bf
       0.23972169 -0.06545946 -0.4176103 -0.5496264
000150 d6 f9 40 bd ac 6c 87 be ba e9 8b be 77 b7 f5 3c
       -0.047113262 -0.26450098 -0.27326757 0.02999471
000160 26 14 c7 3e cf a4 13 3e 1f 22 02 3e bd a7 f3 3d
       0.3888256 0.14418338 0.12708329 0.11897228
000170 47 3d 00 be 90 90 96 bd 1f 1c 76 3e 9b 03 fd 3d
       -0.12523375 -0.07351792 0.24034165 0.12354203
000180 22 3b 14 be 56 aa 47 3e c2 d6 fc bd 68 42 2c be
       -0.14475682 0.19498572 -0.12345649 -0.16822207
000190 1c ba 26 be 7d 98 0c be 18 5f 12 3e 2d 93 95 bd
       -0.16281933 -0.13730045 0.14294088 -0.07303462
0001a0 66 99 9a bd 25 a6 0f bd d1 85 30 3d d5 2f 1f 3e
       -0.0754879 -0.035070557 0.043096367 0.1554559
0001b0 20 c7 f5 3d 76 8c 32 be 27 29 4e 3e 8b 65 30 3e
       0.12000871 -0.17436394 0.20132886 0.17226236
0001c0 dc 93 0c 3e 63 e4 13 be d0 82 4e 3d 30 0f c6 bd
       0.13728279 -0.14442591 0.05041772 -0.096708655
0001d0 dc b2 5d bd 04 1d 11 3e ff 3a 04 be 0e 86 3a be
       -0.05412565 0.14171225 -0.1291313 -0.182152
0001e0 fb 3c bd bd 8e fb 75 3e e0 7f ff 3d e6 cb a3 be
       -0.09240147 0.24021742 0.12475562 -0.319915
0001f0 13 d2 18 3d f9 2e 60 3d 54 01 a7 3d 90 20 15 3e
       0.037309717 0.054732297 0.0815455 0.14563203
000200 eb bd e7 3d 30 1f 07 3e f5 a2 8a 3d 96 fd 7b bd
       0.11315521 0.13195491 0.06769363 -0.061521135
000210 27 1b d4 bc 77 5e f4 bd dd 36 c9 bc 0a e0 6f 3e
       -0.025891853 -0.1193208 -0.024562294 0.23425308
000220 34 ff fc 3c 59 f1 6a 3c e8 3b 5e be 3a 90 92 be
       0.03088341 0.014339768 -0.2170254 -0.2862566
000230 02 71 b6 be dc 83 13 be c1 1e 5f bd e0 0f a1 be
       -0.35633093 -0.14405769 -0.05447269 -0.31457424
000240 df 58 e1 3d c5 f1 17 3e cb 3c 34 be 36 61 3e 3d
       0.11003279 0.14838322 -0.17601316 0.046479426
000250 f1 26 22 be 26 84 1a 3d 0f fe 22 be 08 d6 7a bd
       -0.15835167 0.037723683 -0.15917228 -0.061239272
000260 33 30 94 bd 5b 92 23 3c 7c 42 90 bd 16 16 72 3d
       -0.07235756 0.009983624 -0.07043931 0.059103094
000270 e3 c2 e8 bc 89 14 26 be 66 e3 fd 3d 0c 72 1f 3e
       -0.028413242 -0.16218771 0.123968884 0.15570849
000280 8f cf 04 3e ea 76 2f be 99 6d 36 3e 19 93 6f 3d
       0.12969802 -0.17135206 0.17815246 0.058489893
000290 12 c6 cf bd 08 ad e4 3c b0 09 2d 3d 91 24 11 3d
       -0.10145201 0.027914539 0.042245567 0.035435263
0002a0 63 58 1e be 67 ea ee 3c 2e ef 97 3e af d5 89 3d
       -0.15463404 0.029164506 0.29674667 0.0673021
0002b0 c3 a0 f2 bd b3 85 86 bd a2 bb 94 3d 88 6f 21 be
       -0.11847069 -0.0656847 0.072623506 -0.15765202
0002c0 5c 72 c0 bd 69 ae 1a bd 85 bf f0 3d a5 f5 50 3e
       -0.09396812 -0.037763987 0.117552795 0.20406206
0002d0 55 4e aa bc 78 78 1d 3d 41 8f 9b bd f7 02 08 be
       -0.020789305 0.038444966 -0.07595683 -0.13282381
0002e0 cf 83 bc bc a3 98 ac 3c 3d 07 00 3e f4 48 6f 3e
       -0.02301207 0.021068877 0.12502761 0.23367673
0002f0 9b e9 d3 3d fb 87 a8 3e 5f 49 a3 bc fb 6e 2c 3e
       0.10347291 0.32916245 -0.019932447 0.1683921

bias f4 [8]
000000 e9 fb af 3e 96 f8 19 be 35 95 51 3e 3e c6 5b 3e
       0.3437188 -0.15036234 0.20467074 0.21462342
000010 f3 cf 47 be 74 7d 44 3c e3 1d 02 be 76 63 92 be
       -0.1951292 0.011992801 -0.12706713 -0.28591508

weight f4 [8, 8, 3]
000000 02 c5 a7 bd ac 9c 1e be 04 ea 64 be 80 7b 36 bb
       -0.08191873 -0.15489453 -0.22354895 -0.0027844608
000010 f4 cc 04 3e 78 aa 7f bd fe 63 8f 3e bd ca 3f 3e
       0.12968808 -0.06241843 0.28005975 0.18729682
000020 e7 c4 ba 3d b5 d4 b0 bd 4b 5f 8f b9 74 8e a8 3d
       0.091195874 -0.08634321 -0.00027346084 0.08230296
000030 3b 2c 1f be 7f b0 3a bb 48 f9 8c 3c 32 36 66 bd
       -0.15544216 -0.0028486548 0.01720871 -0.05620403
000040 28 8b a0 be b7 26 aa be 13 c6 b1 3d 69 8a 0f 3d
       -0.31356168 -0.33232662 0.08680358 0.035044108
000050 f6 d9 3c 3e f8 51 77 be 8b 62 24 3e 95 ff 6a 3e
       0.1844252 -0.24152362 0.16053216 0.2294906
000060 2f 20 39 be 38 4d 44 be c6 a6 bd 3d 10 85 ad bd
       -0.18078683 -0.19170082 0.09260325 -0.08472645
000070 e8 12 df 3c f0 2e f6 bd 21 1c 40 3e b7 61 06 3e
       0.027230695 -0.12020671 0.1876073 0.13123213
000080 7e b3 13 3d 15 bf bc 3d ee 81 7c 3c 1d da 15 3d
       0.03605985 0.092161335 0.015411837 0.036584962
000090 6e e0 9f bd 96 c7 7e 3c 82 bc db bd 48 69 41 3e
       -0.078064784 0.015550515 -0.107293144 0.18887818
0000a0 4f 9d 78 3e 46 f5 3a 3b cb d2 da bd 9a d5 01 be
       0.24278758 0.0028527542 -0.10684737 -0.12679139
0000b0 e6 bb 50 bc 7f d8 bc bc 70 ff 41 3d 35 7a 0d 3e
       -0.012740111 -0.023052452 0.047362745 0.1381615
0000c0 b1 82 14 3e ac c6 5d 3d 91 73 1c be 54 7b 1e be
       0.1450298 0.054144546 -0.1527846 -0.15476733
0000d0 5a 57 38 3e 7e c0 43 3e dd 01 3d 3d d1 b6 50 bc
       0.18002072 0.19116399 0.046144355 -0.012738899
0000e0 9e 26 30 be f8 e0 3e be ff d7 2d be fb ba 6d 3d
       -0.17202231 -0.18640506 -0.16976927 0.058039647
0000f0 0a ac ed bd 80 b8 8a bc 80 3b cf bc 04 5c 47 3e
       -0.116050795 -0.01693368 -0.025296926 0.19468695
000100 e9 36 f1 bd 1b 46 ed bd a3 91 80 3d ae 0a 59 3d
       -0.117780514 -0.11585637 0.06277778 0.0529887
000110 27 8a a2 bd c6 e8 64 3e 56 1d ea 3d 5d 60 36 3e
       -0.07936507 0.22354421 0.11431377 0.17810197
000120 76 37 42 3e 3a 53 e9 bd d1 2b c0 bc 4e 98 8d bd
       0.18966469 -0.11392827 -0.023458393 -0.069138154
000130 eb 98 de bd 50 04 e4 3c 43 56 13 3e 2b a9 4b 3e
       -0.108690105 0.027834088 0.14388375 0.19888751
000140 53 df 60 bd dd c0 6f be 28 99 d6 be f1 35 ff bd
       -0.05490048 -0.23413415 -0.41913724 -0.124614604
000150 e0 9f b9 bd cd 8e b5 bd 84 67 ff bc cd d4 27 be
       -0.09063697 -0.08865128 -0.03117729 -0.16389771
000160 47 98 51 3d 74 c1 14 3d eb f6 1c 3e 0a 91 31 3e
       0.051170614 0.036317304 0.15328567 0.17340484
000170 b6 b8 23 be 40 e2 8c bd b6 7f fe bd cd cb 6e 3d
       -0.1598843 -0.06879091 -0.12426703 0.05829983
000180 b4 43 09 be 54 0c fd bd 43 28 bd bd 98 d0 e6 bc
       -0.13404733 -0.12355867 -0.09236195 -0.028175637
000190 bc 40 2b be fc e1 25 3d c8 1e 42 3e fd a0 7a 3e
       -0.16723913 0.04049872 0.18957055 0.24475475
0001a0 b7 ce 64 3c b3 21 4a 3e 4d ed 8b 3d cc ce 0c 3e
       0.0139653 0.19739418 0.06832371 0.13750762
0001b0 c8 10 86 3c 36 4c 3b 3e 8d 33 4d 3e a0 81 fa 3c
       0.016365424 0.18290791 0.20039196 0.030579388
0001c0 d9 5d 3b bd b2 09 3e 3e c1 5b b5 bd 6f ce 87 bd
       -0.045743797 0.18558386 -0.08855391 -0.06631171
0001d0 e7 94 ce 3d dc d0 28 bd 35 cd 05 3d 00 a2 68 bc
       0.100869946 -0.04121481 0.032666404 -0.01419878
0001e0 62 cd 66 be b2 0b 30 be 14 05 bd be 54 65 ae 3d
       -0.22539285 -0.17191961 -0.36917937 0.085154206
0001f0 60 f4 39 3c e8 02 fd 3d 0e e2 cf bd 9d 5c 36 3e
       0.011349767 0.1235407 -0.101505384 0.17808767
000200 b2 09 4e 3e ab 64 74 bd 8a b6 7d be 89 51 29 be
       0.20120886 -0.059666317 -0.24776664 -0.1653501
000210 68 6b d9 3c b1 79 47 3e c9 d1 93 bd 1f 55 71 bd
       0.026540473 0.19480015 -0.07217748 -0.05891907
000220 71 ec e5 bc 37 75 9d 3d a9 4f af bd d9 95 74 3c
       -0.028066846 0.076883726 -0.08560116 0.014928305
000230 f5 d4 29 3d 82 f8 d2 bd be a6 e7 3d b5 6c 12 3e
       0.041462857 -0.10301305 0.113111004 0.14299281
000240 1d 40 0b be ba a8 0a 3e f0 75 0d be b0 c7 53 3d
       -0.13598676 0.13540927 -0.13814521 0.05170411
000250 8e 59 12 be 2a a4 48 be 0e 68 a1 bb 11 d0 0f 3e
       -0.14291975 -0.19593874 -0.0049257344 0.14044215
000260 9d 94 48 3e bf eb b2 bd 7e d5 16 3e cb d2 a7 bd
       0.19587941 -0.08736371 0.14729878 -0.081945024
000270 ec 37 23 3e 93 35 2b 3e 1f b4 1c be 92 b5 58 3e
       0.15939301 0.16719656 -0.15303086 0.21163014
000280 20 02 d3 3e 09 1f 8c 3e f7 77 2a 3d 4d d5 cf 3a
       0.4121256 0.27367428 0.041618314 0.0015856415
000290 d5 29 33 bd e9 73 d2 3d 70 6b 46 3e c9 a9 65 bd
       -0.043741066 0.10276014 0.19376922 -0.056070123
0002a0 e9 f5 ad bd 35 95 76 3e 11 b1 00 3d bc 1f d7 3d
       -0.08494169 0.24080355 0.031418864 0.105041
0002b0 00 f0 d6 3c 40 bb 10 be 36 4d 16 be 4b 00 d6 3d
       0.026237488 -0.1413393 -0.14677891 0.10449275
0002c0 d3 b4 fe bd 97 9d 27 3d cf 80 b9 3e 11 05 5f bb
       -0.12436833 0.040921774 0.36231086 -0.003403012
0002d0 28 20 43 3e 62 7a 2e be f8 40 56 3d 5e 36 2f be
       0.19055235 -0.17038873 0.052308053 -0.17110583
0002e0 85 f9 26 be 3b cb 43 be 6a 03 2b 3e 2c e1 f7 3b
       -0.16306122 -0.19120495 0.16700521 0.0075646844
0002f0 b3 57 14 3e 53 95 ee 3d fc 93 8a be db 8b 45 be
       0.1448658 0.11649575 -0.27066028 -0.19291632

bias f4 [8]
000000 15 67 37 3e 15 c1 80 be 1f 84 4f be 61 56 c1 3e
       0.17910416 -0.2514731 -0.20265244 0.37761214
000010 a1 81 30 be 2c 8c b2 3e 4a bf 00 bf 7d d4 2a be
       -0.1723695 0.34872568 -0.50291884 -0.1668262

weight f4 [8, 8, 3]
000000 b9 36 3f be e7 c9 37 be 91 9f 32 3d 53 85 f5 bc
       -0.18673219 -0.17948113 0.043609206 -0.0299708
000010 3c 43 f5 3d ce 09 cc bd 99 d3 1e be 4c 5a f5 3d
       0.119757146 -0.099628076 -0.15510406 0.119801134
000020 48 30 4e 3e 30 8a b4 3d 97 71 dd 3c 35 cf 0a bc
       0.20135605 0.0881542 0.027031703 -0.008472254
000030 52 df 1e 3e 12 1f 48 bd fe 62 40 3e 93 fd bb bc
       0.15514877 -0.048857756 0.18787763 -0.022948062
000040 7c f9 33 bd 21 b8 41 3e bb 6b 47 be 0d 70 1f 3d
       -0.0439391 0.18917896 -0.1947469 0.03892522
000050 13 d5 79 3d e2 1d 3d 3b 26 8e 23 be a5 05 29 3e
       0.06099422 0.0028856923 -0.15972194 0.1650606
000060 0d 93 2b bd 01 e9 84 bd ce b8 9a 3d e6 31 91 3e
       -0.041888285 -0.064897545 0.0755478 0.28358382
000070 25 73 23 3e 3e 3e 4c 3e af 6d 30 be 48 8b ae 3c
       0.15961893 0.19945619 -0.17229341 0.021306649
000080 33 bf 50 be bf 3f bd 3d dd 87 3a be 55 23 5f bd
       -0.20385437 0.09240674 -0.1821589 -0.054477055
000090 bd 13 7e 3e 6a 33 bd 3d bb b9 44 3e b2 2b df 3d
       0.24812217 0.09238322 0.19211476 0.10897006
0000a0 87 3d 52 3e 06 8a 90 bc 40 4a 39 3e 88 7b 65 3d
       0.20531283 -0.01764394 0.1809473 0.05602601
0000b0 57 6c 83 3e 0b 08 0d be 8a 71 f1 3d 73 2d 09 3e
       0.25668594 -0.137726 0.11789234 0.13396244
0000c0 7a 2e f2 3d 8e 88 14 3e fd c6 1f 3e cc f8 c8 3d
       0.11825271 0.14505216 0.15603252 0.09813079
0000d0 27 03 c5 3d 41 93 9d bd 0d bb 10 be 0a ec 1f be
       0.09619742 -0.07694102 -0.14133854 -0.15617386
0000e0 7a de 78 bc 9d 79 ca bd 2c 45 99 3d 96 b6 9e bd
       -0.015189761 -0.09886477 0.074838966 -0.07749669
0000f0 0d 0d de 3c 20 39 35 be f8 1e 35 be 88 f7 16 3d
       0.027105832 -0.17697573 -0.17687595 0.036857158
000100 10 9a 1f 3c 96 c7 d7 3c cb cc 32 3e f2 8f b9 bc
       0.009741321 0.026340287 0.17460935 -0.022651646
000110 7c 8a b3 bc 13 4a 01 bd 36 aa 0c 3d 48 4b 41 3e
       -0.02191662 -0.031564783 0.034342013 0.18876374
000120 6b b3 61 3b d5 0a a3 3d 02 7a 37 3d 7a e1 88 3d
       0.0034439217 0.079610504 0.04479409 0.06683631
000130 16 d1 4a bd 70 98 2e 3d cb 79 3c 3d 2b 09 bb bd
       -0.049515806 0.042625844 0.04601459 -0.09132608
000140 24 ec 43 bd 35 0a 83 3e d5 74 c8 3d d1 05 39 3e
       -0.047832623 0.25593725 0.09787909 0.18068625
000150 3c 6c 97 3d 4d eb 40 be 56 93 d2 bd 3c ff 92 3e
       0.07393691 -0.1883976 -0.10282008 0.28710353
000160 2e 89 00 3d 44 9f 6d 3e 26 22 24 be 3c 97 30 3e
       0.031380825 0.23205286 -0.16028652 0.17245191
000170 d4 a2 3f 3e 6b 16 27 be 9b 0b 05 bd e5 99 83 3d
       0.18714458 -0.16317146 -0.03248177 0.064258374
000180 20 94 00 be 4f 0d 69 be 7c 3e 4d be 30 f6 b3 3d
       -0.12556505 -0.22758983 -0.20043367 0.08787191
000190 95 d1 02 ba 0c 8d d1 bb 9b 8a cd bb f5 f9 b3 bd
       -0.00049903366 -0.006394988 -0.0062726266 -0.0878791
0001a0 61 be b4 bd 96 71 da bc 60 62 e3 3d fe bc 9d bd
       -0.088253744 -0.02666549 0.11102748 -0.07702063
0001b0 08 be ae 3d 05 a7 44 be 26 cd ed 3d 86 df 5e 3c
       0.08532339 -0.19204338 0.116113946 0.013603097
0001c0 fc b5 19 3e 3c 13 21 3e 3c 56 8c bd 4d 64 db bd
       0.15010828 0.15729994 -0.068523854 -0.1071249
0001d0 28 23 92 bc b1 90 12 be 5d de 13 3e 40 dc 4c be
       -0.01783903 -0.14313008 0.14440294 -0.20005894
0001e0 7f 22 a4 3b ea 5b 0d bd 67 4e d4 bd 7c 1d 08 3e
       0.005008995 -0.034511484 -0.103665166 0.13292497
0001f0 8a a1 12 be c6 10 b6 bd 08 e6 bc 3d 20 15 85 bd
       -0.14319435 -0.08889918 0.092235625 -0.0649817
000200 d8 99 4a be 67 4c 10 be fe 1c 31 3e b6 1f 56 3d
       -0.19785249 -0.14091645 0.17296216 0.052276336
000210 9b 07 3b 3e 76 a0 23 3e 93 cb 4a be 1a a6 11 bd
       0.1826462 0.1597918 -0.1980422 -0.035558797
000220 11 64 ce bd 56 54 be 3d 02 02 2f 3e 20 83 43 be
       -0.1007768 0.092934296 0.1709061 -0.19092989
000230 d1 aa a0 3c 65 37 17 3d e5 56 59 bd 26 c6 38 bd
       0.019612702 0.036918063 -0.053061385 -0.045110844
000240 28 6b e6 bd 2a b8 8d bd 81 41 fc 3d 60 39 f1 bd
       -0.11250907 -0.06919892 0.123171814 -0.117785215
000250 88 b1 d2 3d 80 4e fc ba 82 45 26 3e 42 53 15 3e
       0.10287768 -0.0019249469 0.16237453 0.14582542
000260 1b 84 a4 bd 9e e7 03 be 0d 05 fa bd 77 1f 4f be
       -0.080330096 -0.12881324 -0.122079946 -0.20226847
000270 61 79 38 be 55 66 01 be ff 67 fd bd ee 22 c5 bd
       -0.18015052 -0.12636693 -0.12373351 -0.09625803
000280 16 17 a4 bc 15 4e e0 bc be 01 46 3e a4 07 dc bd
       -0.02003054 -0.027380982 0.19336602 -0.10743645
000290 69 eb c7 bd 8b 07 86 bd aa 33 17 3e 75 2e 40 bd
       -0.09761698 -0.065444075 0.14765802 -0.046919305
0002a0 63 c5 db bd f1 cc 8c 39 40 5c 81 3d b1 71 3b be
       -0.10731008 0.00026855574 0.063164234 -0.18305089
0002b0 0a ca b8 bd be 4c 1d 3e 15 d8 43 be 94 7a da 3d
       -0.09022911 0.15361306 -0.19125398 0.10667911
0002c0 5a 2e 03 3e 5e 30 d3 bd 1c 58 32 be c1 c2 d9 3d
       0.1281065 -0.1031196 -0.17416424 0.106328495
0002d0 8e 5c 08 be d0 d3 44 3e 03 5a ce 3d 9b 38 07 bd
       -0.13316557 0.19221425 0.10075762 -0.033012968
0002e0 16 80 94 bc a4 90 8e 3c 78 a0 14 3e e6 c7 d7 bd
       -0.018127482 0.017402954 0.14514339 -0.105361745
0002f0 90 2f 8a 3d 8b 89 27 3e a0 78 64 bd bc 10 ac 3d
       0.06747353 0.16361062 -0.0557791 0.08401629

bias f4 [8]
000000 8d 3c 36 be 52 be b4 be 9b d8 0d be 41 ee cb be
       -0.17796536 -0.35301453 -0.1385216 -0.3983021
000010 3a 48 5d bd fa 13 94 bd 24 32 08 bd f7 9b eb bd
       -0.05402396 -0.07230373 -0.033250943 -0.11504357

weight f4 [8, 24, 1]
000000 7b 99 bd be 52 d5 2f 3e e3 b1 e2 3d 15 26 bb bd
       -0.3703116 0.17171219 0.110690854 -0.09138123
000010 c6 b8 f1 bd 1e 1b 13 3f 6c 86 29 3e 5d 43 9c bd
       -0.11802821 0.5746325 0.16555184 -0.07630036
000020 8e 35 08 bf 84 3c 9a bd ed 22 d6 3d 51 37 6d bd
       -0.5320672 -0.07531074 0.1045588 -0.057914082
000030 4b 73 3d 3d d8 df b0 3a 61 2e 3d be 86 e1 ba 3d
       0.04625253 0.0013494445 -0.18474723 0.091250464
000040 82 76 90 3d c3 eb ee be 8a 2f 00 3e b5 89 52 bc
       0.070538536 -0.46664247 0.12518135 -0.012850215
000050 24 18 97 3e 9e 42 32 3b 00 05 25 be f2 06 8b 3b
       0.29510605 0.0027200351 -0.16115189 0.0042427713
000060 33 65 05 bf a8 a6 91 3c 31 7c da 3e 91 fd 00 bc
       -0.5210754 0.017779663 0.42672876 -0.007872955
000070 97 40 1f 3e 95 9a 15 be eb 8f 88 3d d4 05 10 3e
       0.15551983 -0.1460975 0.06668075 0.14064723
000080 77 38 02 be 12 ab 0a be 39 c3 d7 3d 20 b7 95 3e
       -0.12716852 -0.1354182 0.10535283 0.29241276
000090 d0 de 78 be 3e 56 12 3f d8 12 c3 be 57 9a b6 3e
       -0.24303746 0.57162845 -0.38100314 0.35664627
0000a0 28 53 f5 bc 4a d8 8c be d1 53 13 3e 2f ed a0 be
       -0.029946879 -0.27508765 0.14387442 -0.31430957
0000b0 c8 58 ce bd 02 2d aa bd 3d c0 5c 3d 6b 6b 12 be
       -0.100755274 -0.08309366 0.05389427 -0.14298789
0000c0 1a 2e 79 bc ad 5a 1b be 18 79 70 bd 86 f0 9b bc
       -0.015208745 -0.15171309 -0.058709234 -0.019035589
0000d0 fd d4 b5 bc 7f 5c 01 bc 94 30 b2 bd 99 5f cd 3c
       -0.022196287 -0.007895588 -0.08700672 0.025069999
0000e0 9b d6 5f bd 3b 8f c3 bc 13 8f 46 bd 10 13 69 3c
       -0.054648023 -0.023872009 -0.04847629 0.014225736
0000f0 31 f2 b4 3d 89 7d 04 3c 97 f4 2e bc 6d fd a8 3d
       0.08835257 0.008086571 -0.010678432 0.08251462
000100 8a 12 18 3d 8a 09 05 3e 16 d7 e8 3d a9 3b 12 3c
       0.037127055 0.1299192 0.113691494 0.008925357
000110 cf 91 2d bd 91 5d 15 be ad ce 40 be 3e 77 0f be
       -0.042375382 -0.14586474 -0.1882884 -0.14010331
000120 e5 67 d5 3a 08 5d 63 bd 1f 26 5d bc 5e ac 80 bc
       0.0016281573 -0.055508643 -0.013497858 -0.015707191
000130 2e e4 90 bd e4 5d ef 3c 2b 29 c5 3d 19 f4 cc bb
       -0.07074772 0.029219575 0.09626993 -0.0062546846
000140 0a 14 43 bc d1 84 fc 3d ab 5a 89 bc 90 46 7f bc
       -0.011906633 0.1233002 -0.016766867 -0.015580788
000150 71 ef 41 be 80 25 83 ba 51 58 26 be 6f 73 d1 3c
       -0.18938996 -0.0010005683 -0.16244628 0.025567738
000160 82 c6 18 be cf 9e 16 3e 66 ae df bd ef bf ca 3d
       -0.14919475 0.14709018 -0.10921936 0.0989989
000170 8e 55 bd bd 10 f9 f4 3b d2 ea 9b bd f2 aa 31 be
       -0.09244834 0.0074759796 -0.07613148 -0.17350367
000180 25 49 80 bd b4 67 23 be 48 92 85 3c 44 67 0d bd
       -0.06263951 -0.15957528 0.016305104 -0.03452231
000190 7c 06 f4 bd 97 5c fb bc a0 e9 4a 3e a4 f8 cc 3d
       -0.11915299 -0.030683799 0.19815683 0.10008362
0001a0 6e 44 cc 3c da 7b b6 3a 89 ab 30 be bb d7 bb bc
       0.024934974 0.0013922409 -0.17252935 -0.022930017
0001b0 a5 b1 1d 3e 7e a9 f3 bd e0 05 4d bc 53 3c 50 3d
       0.15399797 -0.118975624 -0.012513608 0.05083878
0001c0 82 5f 0a be 7a 1f 6b 3d 51 98 dc 3d 2d b1 3c be
       -0.13512996 0.057403065 0.107712395 -0.18426962
0001d0 3e a8 26 3e f6 ad cf 3d 8d 62 c9 bc c0 c8 f1 3d
       0.16275117 0.10140602 -0.024583125 0.11805868
0001e0 2e c1 ca 3e 30 08 b7 3c 14 5b db 3c c3 fa 41 bf
       0.3960051 0.022342771 0.026776828 -0.75773257
0001f0 62 ba fb 3c bf e3 09 be 55 e1 ae 3d 83 0c d5 3d
       0.030728523 -0.13465784 0.085390724 0.10402777
000200 7c 9e 02 be 6f c9 f1 bd f6 4a cc 3d a7 54 0a 3f
       -0.1275577 -0.118059985 0.09975235 0.5403542
000210 44 3f 1e 3e 0c 0e d8 3c e7 2b 93 3d 89 a8 c0 be
       0.15453821 0.026373886 0.07186108 -0.37628582
000220 be e5 07 be f3 e0 12 3e 02 f5 84 bd 91 1d a5 be
       -0.13271233 0.14343624 -0.06492044 -0.3224912
000230 cd 99 21 3e c1 c9 fe bd 5e 95 f4 3d 3e da 01 3e
       0.15781327 -0.12440825 0.11942552 0.12680909
000240 73 ec 5c 3e 39 db 1d be aa ac 59 be ce 95 56 bc
       0.21574573 -0.15415658 -0.21257272 -0.01309724
000250 07 1d d2 bc ef 86 6e 3d 24 0f 1b 3e 5e e7 44 be
       -0.025648607 0.05823415 0.15142494 -0.19228885
000260 c9 00 9f 3d 82 0a 28 be d9 f1 62 3e 18 ba 20 bb
       0.07763822 -0.16410258 0.2216257 -0.0024524983
000270 64 18 c7 bd 8b 8a b1 3c d9 24 fd bd b9 e8 95 3d
       -0.09721449 0.021672508 -0.12360544 0.07319779
000280 0e 91 12 3e d3 d7 b2 bd ef a4 32 bd 5d 71 4c be
       0.14313146 -0.087325715 -0.043614324 -0.1996512
000290 06 3d 0d 3e 16 2d 48 3e 3d 63 03 3e 90 f1 f2 bd
       0.1379281 0.19548449 0.12830825 -0.11862481
0002a0 0c 9e 2a 3e 95 c5 13 be c4 da 00 3b f5 1a 58 3d
       0.16661853 -0.1443084 0.0019661644 0.052760083
0002b0 fa 8d da bd 32 3f 69 bd 80 70 1f 3d 84 ee 12 bd
       -0.10671611 -0.056945033 0.038925648 -0.035871997
0002c0 77 7a 9d bd 8d 18 21 be 97 44 f2 3d fc 8c 47 3d
       -0.07689374 -0.15732022 0.11829489 0.048718438
0002d0 ff ee 07 be 8a 4b db 3d f1 82 08 3e 95 3d 3b 3d
       -0.13274764 0.10707767 0.133312 0.045713026
0002e0 ee f0 5f be 1e 76 0f 3e ad 1c 07 3e 74 e3 84 bd
       -0.21869251 0.14009902 0.13194533 -0.06488696
0002f0 fd e5 c7 3d 1a 61 df bd e0 b4 49 3e f3 96 3f be
       0.09760664 -0.109071925 0.19697905 -0.18709926

bias f4 [8]
000000 da 92 41 3e b7 1e f2 3e 2d 0f 3b 3b 71 7d bb 3b
       0.18903676 0.4728906 0.002854298 0.005721741
000010 3e de 16 3d ef 7e 0d 3f db 41 58 3f fc 48 02 3b
       0.03683304 0.5527181 0.8447549 0.0019879928
